InvDoublePendulum/InvertedDoublePendulum-v4_actor_finalized_02.pth (torch, 504698 bytes, 5 tensors)

l1.weight f4 [400, 11]
000000 09 f5 72 be fe a0 58 be f1 25 19 3f 67 38 d9 3c
       -0.23726286 -0.21155164 0.5982352 0.026516153
000010 6b 71 f1 bd ce 6e 2b bc df 91 26 be 7f 7f dc bd
       -0.11789211 -0.01046343 -0.16266583 -0.107665055
000020 b8 65 0b 3e 0e 7a b5 bd f9 a0 70 be 5f d0 d8 bd
       0.13613021 -0.08861171 -0.23498906 -0.10586619
000030 c2 2b c9 3a f7 3b f3 3d a3 a9 d3 bd 92 c2 ea be
       0.0015348124 0.11876672 -0.1033509 -0.4585157
000040 8f 35 e9 bc 71 19 11 be 02 d8 02 3e 55 cc 66 be
       -0.028467922 -0.14169861 0.12777713 -0.22538884
000050 ce b1 5b be 80 8b 28 be 59 1d 4c 3e a6 f7 7a be
       -0.21454546 -0.16459465 0.1993307 -0.24508533
000060 c8 91 ea be bb 68 4d be ec 93 3d 3e b2 5d 8c be
       -0.45814347 -0.20059483 0.18513459 -0.27415234
000070 e9 49 2d be 3d 9f cd 3c df 14 ca bd 50 64 a2 bd
       -0.16922726 0.025100345 -0.09867262 -0.07929289
000080 cc b9 dd 3d 7b 3e 22 bc 36 cd 53 be 43 b1 48 be
       0.108264536 -0.009902592 -0.2068375 -0.1959887
000090 13 d1 25 bd 10 ae b2 be fe d4 8f 3e ea 38 69 3e
       -0.04048259 -0.34898424 0.28092188 0.22775617
0000a0 19 ea ea bb 98 40 6f 3e 4a b0 63 be 98 25 57 be
       -0.00716902 0.23364484 -0.22235218 -0.21010435
0000b0 d0 8a b0 bc 01 ad c8 be 30 ac fe 3d 88 97 cd be
       -0.021550566 -0.39194492 0.12435186 -0.40154672
0000c0 72 d6 ad be 55 6f 10 3d 7c 51 10 be be 6e fd 3d
       -0.3395267 0.035262424 -0.14093584 0.12374638
0000d0 89 44 5d 3e 98 b5 d9 3d 44 da b1 bd c4 de b0 3d
       0.21608175 0.106303394 -0.08684209 0.08636239
0000e0 df 1c 55 3e 39 1e a2 3f 4f 1c 86 3e 9c c0 f2 bd
       0.20811795 1.2665473 0.26193473 -0.118531436
0000f0 8a 86 72 3e 64 cd 9b 3e cb 01 f9 3d 80 16 fb 3d
       0.23684135 0.30430138 0.12158545 0.12260151
000100 e7 c0 74 be 60 cf 61 bd c7 18 a7 bd 75 3e 32 bd
       -0.23901711 -0.05512941 -0.08159023 -0.043516595
000110 0f 53 31 3d 01 bd c9 bd 8f c1 73 be fa ab 16 3d
       0.0432921 -0.09850503 -0.23804305 0.036785103
000120 5d e6 e0 3d 0c 3f 03 3e 04 11 a3 3e e0 95 70 be
       0.10981438 0.12817019 0.3184892 -0.23494673
000130 bc aa 5f 3e ff 20 f2 be 9d 3f 42 bf 9b 6c c8 3e
       0.21842474 -0.472908 -0.75878316 0.3914536
000140 b3 22 a7 bd bc d5 03 be 44 d6 09 be 2a 9f c5 bd
       -0.08160915 -0.12874502 -0.13460642 -0.09649499
000150 15 ec 6b bc 4c 18 87 bd 60 db f8 3d 79 56 80 be
       -0.014399548 -0.06596431 0.121512175 -0.25065973
000160 6d e6 c5 bd 2d c1 34 bd c6 95 e6 bd 78 84 ae be
       -0.09663091 -0.04412954 -0.11259036 -0.3408544
000170 91 0f cb be 62 5e 84 3d 30 58 e5 3c 22 d3 55 be
       -0.39660314 0.064633146 0.027996153 -0.20881322
000180 a0 d6 13 3e dc a4 66 3e dc 2b 92 3e 47 13 a8 bd
       0.14437342 0.22523826 0.28549087 -0.08206802
000190 c9 a0 80 3e a2 25 7e 3d f9 53 bc bc c0 32 93 be
       0.2512267 0.06204761 -0.02298926 -0.28749657
0001a0 cd ef 14 3e f6 62 10 be 78 86 40 be 28 5e 94 be
       0.14544602 -0.1410025 -0.18801296 -0.28978086
0001b0 80 7b 0c 3c ff 86 98 be 34 6d b0 3c 8e 93 07 3f
       0.008574367 -0.29790494 0.021536447 0.52959526
0001c0 8a af 3c bf 45 71 b5 bd 4e cb 4d be 6b c0 87 3e
       -0.7370535 -0.08859495 -0.20097086 0.2651399
0001d0 c1 e0 27 3e 47 01 04 3c 13 1e 6f 3e f3 55 86 be
       0.1639433 0.008056945 0.23351316 -0.2623745
0001e0 07 b2 58 be bf a8 60 3e ff 01 d0 be fc 8a 75 3c
       -0.21161662 0.21939372 -0.40626523 0.01498675
0001f0 72 2a 16 bc 33 7e fa bd 88 d1 45 3e f1 e3 86 bd
       -0.009165393 -0.12231102 0.19318211 -0.06586445
000200 f8 68 ed bd a2 19 52 be 3a 2e 60 be 88 60 15 3d
       -0.11592287 -0.2051759 -0.21892634 0.036469012
000210 b6 f9 e5 be 5b ca 51 3e 31 79 13 3e c5 10 0d be
       -0.44917077 0.20487349 0.144017 -0.13775928
000220 e6 cb a4 be 95 b3 b0 3d d2 7f 67 3e 1c 2f 0f be
       -0.32186812 0.086280026 0.22607353 -0.13982815
000230 7b d2 2d 3d d3 95 65 be cd 90 78 be 60 b0 0a be
       0.042437058 -0.22420435 -0.24273987 -0.13543844
000240 16 51 48 3f 6f f5 a8 3f e4 58 9f 3d 05 a9 ca bc
       0.7824873 1.31999 0.077806264 -0.024738798
000250 a2 2d 38 be 13 b3 71 3e dc 72 8c 3e 0a c6 a4 3e
       -0.17986158 0.23603468 0.2743138 0.32182342
000260 d5 49 80 be 60 b9 63 bc 2e 4d bb 3e 63 74 21 be
       -0.2505633 -0.013899177 0.3658232 -0.15767054
000270 a8 02 91 3e 49 04 55 be 26 7e d6 be bd 8f b4 3e
       0.2832234 -0.20802416 -0.4189312 0.35265914
000280 55 40 f9 bb a3 e5 ec bd 3c 4f 93 bb 36 d6 b0 bd
       -0.007606546 -0.11567237 -0.0044955295 -0.086346075
000290 de 2a 2d 3e 7d 6d bf bd 1b 4c 06 bd 58 8c 3d 3f
       0.16910884 -0.09347055 -0.032787424 0.7404227
0002a0 96 8c c3 3d 9c 0d 4d 3e ca 34 cc 3d 4f 08 87 3e
       0.09548299 0.20024723 0.09971006 0.26373526
0002b0 d4 80 74 3e 73 e0 ea bd a5 03 00 be 6c 67 9e 3d
       0.23877269 -0.114685915 -0.1250139 0.0773457
0002c0 77 25 a3 3e 56 64 b1 3e 53 34 6b bf 10 a8 5b 3e
       0.3186452 0.34646863 -0.91876715 0.2145083
0002d0 23 b3 14 3b 05 0a 52 be dc 20 1e be 1b ff 45 bd
       0.0022689782 -0.20511635 -0.15442222 -0.04833899
0002e0 ce 09 89 3d 68 85 ee 3d 6c 26 89 3e 96 b7 b5 bc
       0.06691323 0.11646539 0.26787126 -0.022182267
0002f0 84 a7 73 3e aa 29 11 3f a4 3c 17 3e 2b a2 8e be
       0.23794371 0.567042 0.14769226 -0.278581
000300 15 61 d9 3d 3d 42 bb 3d f2 a4 95 bc 43 1a 56 3d
       0.1061422 0.09143493 -0.018267129 0.05227114
000310 80 a6 6e 3e 0e 7f 91 3e 72 77 37 3e 82 f7 aa be
       0.23305702 0.28417248 0.17916659 -0.33391958
000320 87 e4 94 3e cb 77 9e bd 43 f9 36 be 2a b5 6b 3d
       0.29080603 -0.077376924 -0.17868523 0.05754582
000330 51 14 fd bd b9 27 23 be 75 9f 71 3e fc b3 65 bd
       -0.12357391 -0.15933122 0.23595984 -0.05607985
000340 c4 f4 96 be e9 cd 04 3d f2 ee 6c be 46 56 0e be
       -0.29483616 0.032422934 -0.23138025 -0.13900098
000350 a7 2a ba be 2e f4 f3 be 96 3e 1b 3e 74 9c 57 be
       -0.36360666 -0.47647232 0.15160593 -0.21055776
000360 b9 d4 84 be cc ad 6d be 7c 66 c4 bd f0 6a d8 bc
       -0.25943545 -0.2321083 -0.0958986 -0.02641818
000370 ab a8 12 be 7c da 74 be f1 86 5a bd b9 7a 8e be
       -0.14322154 -0.2391147 -0.053351346 -0.27828005
000380 0e 32 80 be 82 3a 75 3e 48 0f 91 bc 66 b9 fe bd
       -0.2503819 0.239481 -0.017707482 -0.12437706
000390 9a f8 53 be b0 f0 1a 3e 90 44 10 bd 7f 29 8e 3e
       -0.20700303 0.15130877 -0.035221636 0.27766034
0003a0 01 9c 8d be d3 3a 62 3f e2 ed 18 bd c2 49 3d 3d
       -0.27658084 0.8837101 -0.037336238 0.04621292
0003b0 41 ed 0d 3e 5c 45 4c be 53 61 9c 3d 15 c6 bf bd
       0.13860036 -0.19948334 0.076357506 -0.09363953
0003c0 1c de 61 bd d8 05 6c 3e 21 7f 98 3d 13 02 ec be
       -0.05514346 0.23049104 0.07446123 -0.46095333
0003d0 e9 d0 bd bd 61 18 8e bd 75 85 88 be 30 d9 e5 3d
       -0.09268362 -0.06938244 -0.2666432 0.11223066
0003e0 eb b4 38 be cb 36 a8 bc c6 31 c2 bc ad 20 14 be
       -0.18037765 -0.02053394 -0.023705374 -0.1446559
0003f0 be be 10 3e d5 80 3a 3f 23 c3 53 be d5 a5 82 3e
       0.14135262 0.7285283 -0.20679908 0.25517145

l1.bias f4 [400]
000000 fb 17 03 3e de c3 cb be 1d ff 9f bd 62 42 99 be
       0.12802117 -0.39797872 -0.07812331 -0.2993346
000010 8f d1 31 be a9 6e ca bd 13 dd 77 bc 8c 94 ae bd
       -0.17365097 -0.09884388 -0.015128392 -0.08524427
000020 85 9b ba bd 99 42 95 bd ad 81 29 3d 0b f5 ae be
       -0.09111694 -0.07288093 0.041383434 -0.34171328
000030 d5 9c 07 be 60 12 62 3d 69 1a 42 be d4 a9 36 b9
       -0.1324342 0.055193305 -0.18955387 -0.00017420138
000040 07 0b 16 be a8 83 05 3e ed de b2 bc a0 22 83 be
       -0.14652644 0.13038504 -0.021834815 -0.25612354
000050 0d cd d3 3c a9 0d a3 bd 7a d8 14 3e ef f8 5d bd
       0.025854612 -0.0796159 0.14535704 -0.05419248
000060 70 6a 25 3d 83 1b cb bd 53 b6 94 bd 68 b2 33 be
       0.04038471 -0.09917357 -0.07261338 -0.17548525
000070 4a 18 37 bd 2e b7 2c 3e 3c 77 d2 be de 4b 59 bb
       -0.0447009 0.16866753 -0.41106594 -0.0033156793
000080 9a e1 d7 bd 30 6c 88 be 9f 15 95 be 41 6c fb bd
       -0.10541077 -0.2664504 -0.29118058 -0.12276507
000090 b0 b9 96 3d db 4a d0 be cc 4d 7d 3c cf 3f 6f be
       0.07359636 -0.4068211 0.015460443 -0.23364185
0000a0 c9 03 01 3e f5 21 4e be 33 19 64 be 6f 96 29 be
       0.125991 -0.20130141 -0.22275238 -0.16561292
0000b0 8a 98 cd 3c a8 be a7 be e2 4f 8e be d7 f3 33 be
       0.02509715 -0.32762647 -0.2779532 -0.17573486
0000c0 d0 d1 0f 3e 84 07 9e be 96 bf 00 be d2 c5 c3 be
       0.14044881 -0.3086511 -0.12573084 -0.38236862
0000d0 6c 6f 8a be 77 61 16 3e 30 4f a5 be 6d 65 da ba
       -0.27038133 0.14685617 -0.32286978 -0.0016662307
0000e0 8b 83 94 3e 79 78 fe 3d 78 9e 38 3d c4 26 95 bd
       0.2900661 0.12425322 0.045073003 -0.072827846
0000f0 f4 d0 ca be 01 83 a2 be fd a8 69 be 97 b8 69 3d
       -0.39612544 -0.31740573 -0.2281837 0.057060804
000100 e1 18 c7 be a1 96 61 bc df 48 84 be 9e b9 fc 3d
       -0.3888617 -0.013768823 -0.25836846 0.12340091
000110 70 e6 39 bd 8b 1f 0c 3e 1c 82 7d be b3 8a c0 bc
       -0.045385778 0.13683908 -0.24756664 -0.023503637
000120 e6 78 cd be 1e fa 5d 3e 80 4b b8 be 01 e7 80 3d
       -0.401313 0.21677443 -0.35995102 0.062940605
000130 56 88 8c 3d da b2 77 bd be 75 3c be 46 0e e0 bd
       0.068619415 -0.0604733 -0.1840429 -0.109402224
000140 76 d4 10 bc 5b e2 8e be 9b 6e 88 be b8 f3 16 be
       -0.008839717 -0.2790707 -0.26646885 -0.14741409
000150 e7 c4 06 be bd f8 28 3e e4 95 1a be 85 21 9c be
       -0.1316105 0.16501136 -0.15096241 -0.30494323
000160 3b e3 b4 3c 46 66 32 be bc 58 ac 3d d7 0d 8b be
       0.022081008 -0.17421827 0.08415362 -0.27158996
000170 09 65 fa be ee 63 cf be 88 a7 44 be a8 16 cf bd
       -0.4890521 -0.40505928 -0.19204533 -0.10111743
000180 04 2c 1b 3e 8f 9a 0b be 13 33 5c bd f1 ce 78 be
       0.1515351 -0.13633178 -0.053759646 -0.24297692
000190 77 cb fa bd 7c b5 32 bb 43 cf 01 bf bf b1 80 3d
       -0.12245839 -0.0027268818 -0.5070688 0.062839024
0001a0 34 8f 90 be 90 57 ec 3b 7e d4 89 bd 86 7a c3 bb
       -0.28234255 0.0072125867 -0.06729983 -0.0059655337
0001b0 f0 2b 58 3d 6b 5b 99 3d e0 a1 f1 be f8 16 41 3e
       0.052776277 0.0748814 -0.47193813 0.18856418
0001c0 73 cd 50 3e 7e 16 79 bd 0a f6 3e be 91 ae ad 3c
       0.20390873 -0.060812466 -0.18648544 0.021201404
0001d0 4c 22 ae be 37 b4 4c be fb 45 e3 3d e8 2a 39 be
       -0.3401054 -0.19990622 0.11097332 -0.18082774
0001e0 e3 30 c4 bd 35 05 4d 3e ed 9f 75 3e fb d5 dd 3c
       -0.09579637 0.20021518 0.23986788 0.027079573
0001f0 76 39 a8 be 8c a8 87 be 0f b0 ef bd 4d f5 b4 3d
       -0.3285634 -0.2649578 -0.117035024 0.0883585
000200 7b 39 de bb b5 47 cf bd c0 66 0c bd 80 71 ab 3e
       -0.0067817545 -0.10121099 -0.034277678 0.3348503
000210 3a 0d cd bd 73 f5 a4 bd 89 e1 91 bc 85 f9 cf be
       -0.100122884 -0.08054628 -0.017807739 -0.40620056
000220 0f ec 5f bd 22 4b 7a be 00 ec 15 be 9b 5a 8a 3d
       -0.054668482 -0.24442723 -0.14640808 0.06755563
000230 72 a3 84 3e ee 28 cd be 4e 7e 82 bd 1b 0a 1e 3e
       0.2590595 -0.4007029 -0.06371747 0.15433542
000240 43 31 7a bc 21 78 0d 3e 01 56 3a 3d 5c 4a 20 3e
       -0.015270534 0.13815357 0.045492176 0.15653366
000250 13 23 45 bc c0 bb 26 bd 67 59 8d be 9e e7 6c be
       -0.012032288 -0.040706396 -0.2760727 -0.2313523
000260 20 e4 27 be f8 e5 28 bc 43 c4 4d be 5d f1 8b bd
       -0.16395617 -0.010308735 -0.20094399 -0.06833146
000270 3d 51 23 3d 6e 7f 42 be 0d 3f 09 3e 5d 56 73 bd
       0.039872397 -0.18993923 0.13402958 -0.059408534
000280 86 5e 98 bd 07 33 2a 3e 40 54 0f 3e a5 e3 b7 be
       -0.07439904 0.16621028 0.13996983 -0.35915866
000290 6d c2 c2 be fe 8d 08 bc 7a bb 06 3e 00 55 d4 be
       -0.3803896 -0.008334635 0.13157454 -0.414711
0002a0 c7 df 8d be 25 ec f6 be 55 17 37 be ad 3c 66 be
       -0.2770979 -0.4822704 -0.17879994 -0.22484083
0002b0 9d c2 4e be b3 00 e9 bd af a3 8a 3d 4d 3c db be
       -0.20191427 -0.113770865 0.067695014 -0.42819443
0002c0 54 61 64 3d b2 08 fb 3d e4 06 97 be 50 51 66 be
       0.05575688 0.12257518 -0.29497445 -0.22491956
0002d0 81 5f a2 bd c5 a9 4d 3e 37 cb 0b bd 21 ce fb 3c
       -0.07928372 0.20084293 -0.034129348 0.030737938
0002e0 00 58 ae be 8c bf 51 3d 51 eb ad 3c 06 1f 9c 3d
       -0.34051514 0.051208064 0.021230372 0.07623105
0002f0 16 0f 93 bd 55 b3 82 be bb ee fe bd 48 5c 00 bf
       -0.07180612 -0.25527444 -0.12447878 -0.5014081
000300 16 1a da bd e0 f8 9d be cd 01 99 bd e4 94 b4 bd
       -0.10649507 -0.3085394 -0.074710466 -0.08817461
000310 7c c9 f7 bd 7c 91 ff 3d 10 fa 68 3b 00 64 73 be
       -0.12098977 0.12478921 0.003554944 -0.23768616
000320 d9 ce 5c be 22 45 b1 bd 52 9d 66 be b8 13 ac bc
       -0.21563281 -0.08655764 -0.2252095 -0.021005496
000330 bc 73 1c be 79 dd b4 be e9 11 81 be 8b b2 c9 bd
       -0.15278524 -0.3532522 -0.25208977 -0.098485075
000340 f9 89 85 3c 19 f2 92 be cf 2e cb be a8 01 96 3d
       0.016301142 -0.2870033 -0.3968415 0.07324535
000350 a4 18 ab 3d 55 34 47 be 4e d1 7f be 83 46 a1 3d
       0.08354309 -0.19453557 -0.24982187 0.07874777
000360 d0 71 07 3e f6 81 75 be 41 23 11 3d e5 0e 82 be
       0.1322701 -0.23975357 0.03543401 -0.2540199
000370 65 8a dc 3d 3e 53 b2 3d 26 db ab bd 3a 00 87 bb
       0.10768584 0.087072834 -0.083914086 -0.0041199
000380 eb 95 7f 3d 8c 7e 1b 3d a4 08 0e be 0f 9a b5 bd
       0.062398832 0.03796248 -0.13870484 -0.08867275
000390 62 2c 8e 3d 1c 19 32 be c1 9f 9a 3d d6 59 1d be
       0.06942059 -0.17392391 0.07550002 -0.15366301
0003a0 6d 9e a6 bd 11 09 4d be a8 89 b9 be ec 8b 38 be
       -0.08135686 -0.2002299 -0.36237836 -0.18022126
0003b0 80 3f 00 3e d6 e8 54 be 26 40 2f 3d 79 2c c8 be
       0.12524223 -0.20791945 0.042785786 -0.3909643
0003c0 0b 95 69 be 62 60 d3 3d 56 29 85 be 48 16 bc bd
       -0.22810762 0.10321118 -0.260081 -0.09183937
0003d0 d7 bf 02 be f4 de a1 be 1b a7 c4 bc 0c d5 1f be
       -0.12768494 -0.31615412 -0.024005463 -0.15608615
0003e0 50 42 c3 3c 93 4f 2c 3e dd 1f 16 be 0e b8 8e be
       0.023835331 0.1682723 -0.14660592 -0.27874798
0003f0 0c 8b 07 be 8d 66 a2 3c 2e b5 87 be 58 a0 9d 3d
       -0.13236636 0.01982429 -0.26505417 0.07696599

l2.weight f4 [300, 400]
000000 e8 51 b3 bc 06 92 f1 3c 34 58 48 bd 00 56 25 bb
       -0.021889642 0.029488575 -0.048912242 -0.0025228262
000010 b6 06 02 bd 72 d3 f4 3c 02 1b b0 3c 90 31 0f bc
       -0.03174468 0.029885981 0.021497253 -0.008739844
000020 32 18 96 3c 4e 5a 90 3c 30 f9 e2 bc 99 9f 35 3d
       0.018322084 0.017621186 -0.027706712 0.044341657
000030 3b 13 31 bd c7 10 21 3d e0 9c 2e bd 6e a3 98 bd
       -0.04323123 0.03932264 -0.042630076 -0.07453047
000040 e4 7f a7 bc d8 de 93 bd bd bd 95 bc 72 70 be 3c
       -0.020446725 -0.072202384 -0.01827895 0.023246977
000050 ac ee 04 bc 13 f1 0c bc 58 5e 42 bc 03 fd 1a bd
       -0.008113544 -0.008602398 -0.011863314 -0.037838947
000060 3a 2e 91 bd 63 ad 4f bd 50 bc 33 bb da 87 a9 bc
       -0.07088895 -0.050702464 -0.0027425475 -0.020694662
000070 68 d8 84 bb 5c 32 29 bd e8 e2 3d bd da 93 c9 bc
       -0.004054118 -0.041307792 -0.046358973 -0.024606634
000080 5b 9f 4a bc c0 a6 36 3c d3 2e 02 3d a0 ff 92 bd
       -0.012367095 0.011148155 0.031782936 -0.07177663
000090 1f e0 42 3d 60 df 32 bd c3 db 1a 3d 33 5f db bc
       0.04757702 -0.04367006 0.037807237 -0.026778793
0000a0 00 36 71 3b 94 d9 0a bc 41 09 0f 3d b0 ae 7d bb
       0.0036805868 -0.008474726 0.034920935 -0.0038708858
0000b0 11 2b 13 bd d1 31 4b 3d 6f cd 3a bd db 2c 05 bd
       -0.035929743 0.049608056 -0.045606073 -0.03251348
0000c0 f6 fa 82 3c 8b ad 31 bd d7 29 f4 3b f6 31 9e 3c
       0.015988808 -0.043378394 0.0074512768 0.019310933
0000d0 ac c1 85 bc 82 b8 92 3c ad 92 ee bc 20 ef 18 bc
       -0.016327702 0.017910246 -0.029122675 -0.009334356
0000e0 a7 55 45 bd 68 ec 79 bd 9c 33 49 3b 72 3a 79 bd
       -0.048177388 -0.06101647 0.0030700928 -0.060846753
0000f0 00 23 04 39 a8 7d 12 3c 5a a5 ce 3c cb 64 08 3c
       0.0001260154 0.008941092 0.02522533 0.008324812
000100 20 c9 e2 bc aa a7 81 3b dd 73 1a bd ed 1e b1 bc
       -0.027683794 0.0039567547 -0.037708152 -0.021621192
000110 21 2f d3 bb 42 82 0e bd 00 14 78 b8 e0 30 6b bc
       -0.006444827 -0.034792192 -5.9146434e-05 -0.014354914
000120 c0 0e bd ba 34 b8 7e bc bb fd 4e 3c c0 c5 43 3c
       -0.0014423952 -0.015546847 0.012633736 0.011949003
000130 85 e7 5e ba 00 0f a9 3a 53 57 16 3d 00 85 20 b9
       -0.0008503127 0.0012898147 0.036704373 -0.00015308335
000140 7e 9e 05 bd c6 6e 81 bc fa 0c 9a 3c 9b 62 39 bd
       -0.032621853 -0.015799891 0.018805016 -0.045260053
000150 ee 89 ff bb 87 c9 36 bd ac 9c 87 bc b0 92 dc bc
       -0.007798425 -0.044625785 -0.0165542 -0.026925415
000160 0e f8 95 bd c8 ab 3a bc 2a c3 6e bd f9 03 02 3d
       -0.07322703 -0.011393495 -0.05829159 0.03174207
000170 7a 7f e4 bc 0a 35 8c bc 0c c4 bf 3c 79 c3 41 3d
       -0.027892817 -0.017115135 0.023408912 0.047305558
000180 65 e0 34 3b 2e 68 9f 3c a3 a9 ed bc 8d 08 39 bc
       0.002759957 0.019458856 -0.029011553 -0.011293543
000190 ee f9 88 3c e0 27 03 3b 00 06 c0 bb 96 69 27 3a
       0.016720738 0.002001278 -0.0058600903 0.0006386278
0001a0 66 20 8a 3c a5 0a 0a bd 22 ea 12 bd 4a dd 9c bc
       0.016861152 -0.033701558 -0.035867818 -0.019148488
0001b0 4f 2c 8a bd aa 0e df 3c 68 87 d9 3b a2 43 01 bd
       -0.067467324 0.027228672 0.006638456 -0.03155864
0001c0 0d 5e c2 bc ce 74 2a bd 4f ad 93 bb 60 75 29 3c
       -0.023726488 -0.0416153 -0.004506744 0.010342926
0001d0 51 8e 41 3c a9 fb 34 bc 50 54 0a bd 04 f2 a5 3b
       0.011813716 -0.011046329 -0.033771813 0.005064251
0001e0 ae 55 c4 3c 00 06 d0 3a 4d 75 75 3c 89 65 5c bd
       0.023966637 0.0015870929 0.01498158 -0.05380777
0001f0 f3 2c f7 bc f4 43 23 bc 98 86 09 bd 60 e9 f9 3a
       -0.0301728 -0.009964932 -0.033575624 0.0019066744
000200 40 25 06 ba f3 fe 41 bd 95 45 3d 3d cd f0 1a bd
       -0.0005117245 -0.04736228 0.046208937 -0.0378273
000210 d6 6c 1d bd 44 d9 8d bc 57 db 16 3d 2e a7 91 bd
       -0.038433872 -0.017315514 0.036830273 -0.07111965
000220 14 0c 84 b9 d3 9b 47 3d 80 2e de bb e0 21 0c bc
       -0.00025186 0.04873259 -0.0067804456 -0.008552998
000230 85 90 07 bd 2e b8 88 3c 07 8b 08 3c 1d 24 7d bd
       -0.03309681 0.016689386 0.008333928 -0.06180202
000240 36 b3 e3 bc 0e 98 9d 3c 34 f9 d4 bc f0 6f 17 bd
       -0.027795415 0.019237544 -0.025997736 -0.036971986
000250 93 58 1c bd f4 bd ff bc 10 27 40 bd a8 0b 1c bc
       -0.03817041 -0.031218506 -0.046912253 -0.009524263
000260 a3 22 9b bc 97 93 99 bd f8 a2 a4 3c be c9 2f 3b
       -0.018937415 -0.07498854 0.02009724 0.0026823129
000270 84 69 27 bd dd 9b 3e 3d fa f8 42 bd a6 87 9d 3c
       -0.040872112 0.04653536 -0.047600724 0.019229721
000280 d6 dd 13 bd c4 cf 80 bd 42 2f 83 3c e1 fc 23 3d
       -0.03610023 -0.06289628 0.016013745 0.040036086
000290 7a e7 3e bd 1e 58 87 bc a2 e8 2d bd 5a c6 d2 bc
       -0.046607472 -0.01652151 -0.042458184 -0.025729347
0002a0 34 dd 50 bc 80 84 4a 3a 4e 10 fe 3b da e7 af bc
       -0.012748051 0.00077254325 0.0077534085 -0.02147286
0002b0 88 68 2a bd 66 6d d9 3c 06 ef 84 bc 93 e7 03 bd
       -0.041603595 0.026541423 -0.016227257 -0.03220327
0002c0 42 5b 05 bd 90 a7 23 bd a6 97 0e bd 45 09 9f 3b
       -0.032557733 -0.039954722 -0.034812592 0.0048534
0002d0 34 47 0f bd ca de 36 bc c5 80 98 bd 56 1d 8c bc
       -0.034980014 -0.0111615155 -0.07446436 -0.017103832
0002e0 8e 48 21 bd a8 84 10 bb a8 08 ae bb 93 45 43 bd
       -0.039375834 -0.0022051726 -0.0053110905 -0.047673773
0002f0 35 50 2c bd ae bf 26 bd e6 e3 0d bd d4 e7 32 3c
       -0.04206868 -0.040710144 -0.03464117 0.01091953
000300 29 cc 1e 3d 27 96 9d bc 70 85 dd 3b 3c 90 46 3c
       0.03876892 -0.019236637 0.0067602918 0.012119349
000310 bb aa 31 3d 55 b8 0e bd 53 f9 69 bc 68 55 32 bd
       0.043375712 -0.03484376 -0.014280635 -0.04353848
000320 f4 ac 66 bc 60 d9 e1 3a d4 c5 5e bc 1c 83 cc bc
       -0.014079321 0.001723092 -0.013596971 -0.024964862
000330 25 72 22 bd 1a 40 e6 3c cd d5 2d 3d e6 06 f7 3c
       -0.039659638 0.028106738 0.042440224 0.030154657
000340 a1 8a 28 3d 6b 57 1d 3d b0 d4 ae 3b ec ae 5c 3c
       0.04114783 0.038413446 0.005335413 0.013469439
000350 d2 28 9d 3c d4 8b 3c 3c b5 51 2b 3d a0 3e 07 3c
       0.019184504 0.011507947 0.04182597 0.008254677
000360 3f 9b 7b 3c 00 30 6a 37 a5 61 02 3d 7e c8 1d bd
       0.015356838 1.3958663e-05 0.031831402 -0.038521282
000370 d4 e8 51 bd ec a3 74 bc c0 b1 c5 bb 94 04 80 bd
       -0.051247433 -0.01493166 -0.0060331523 -0.06250873
000380 d8 81 94 bc 0d aa 81 bd a0 30 25 3c 97 7d 2f bd
       -0.01812832 -0.06331263 0.010082394 -0.04284438
000390 7f 31 54 3c 30 e4 12 3b bc 65 72 bd 65 37 19 bd
       0.012951254 0.0022413842 -0.059179053 -0.037406344
0003a0 c3 f2 43 bd 5a 4b b1 3c f0 c1 8e bd 68 2d 1c 3c
       -0.047838937 0.021642376 -0.069705844 0.00953231
0003b0 ee f3 7f 3c a4 c7 6a 3c 0d 7f b2 bc bd a9 91 bc
       0.015622122 0.014329825 -0.021789098 -0.017781133
0003c0 f0 af ed bb 10 e2 64 bd 00 ca 5f bc 19 b8 19 3d
       -0.0072536394 -0.055879653 -0.013659 0.037529085
0003d0 2b 98 94 bd 0f d0 17 3d a0 3b 25 bc f2 9f d0 3c
       -0.07255586 0.037063655 -0.0100850165 0.025466893
0003e0 c8 82 e4 3b 9b 27 b2 bb 83 b8 5e bd d3 10 a6 bc
       0.006973598 -0.0054368502 -0.054375183 -0.020271694
0003f0 7b 69 42 3d 40 14 85 bb e3 13 48 3d 86 5b 0d bd
       0.047463875 -0.004061252 0.04884709 -0.03451111

l2.bias f4 [300]
000000 77 31 5d bc 78 46 c4 3a 85 82 42 bc c0 1f cf bc
       -0.013500563 0.0014974615 -0.011871939 -0.025283694
000010 e8 33 9f bd a8 15 88 bd 56 30 c9 3a 4c a8 84 3b
       -0.07773572 -0.066447556 0.0015349488 0.004048383
000020 9b 73 2d be a2 98 07 bd d6 0c 2d bd cf c1 6a bd
       -0.16938631 -0.033104546 -0.04224857 -0.057313737
000030 4e 5d 53 bc 35 f0 86 bd 5c 3d b5 bc c1 16 ed bc
       -0.012900664 -0.065887846 -0.022123985 -0.028941514
000040 70 0d 49 bd 54 4d 8b ba 37 6d b0 bc 95 29 33 bd
       -0.04908508 -0.0010627904 -0.021536453 -0.043740828
000050 a0 1f 0a 3c 53 02 08 bd 79 32 7f bd f0 4e ad bc
       0.008430392 -0.03320534 -0.062303994 -0.021155804
000060 b6 95 7a bc 62 72 81 bc 5d 54 80 be 95 a0 0c bd
       -0.015294483 -0.015801612 -0.25064364 -0.03433283
000070 23 fd d1 bc 72 41 69 bd 0c c5 03 3c f6 e4 19 bc
       -0.0256334 -0.05694718 0.008042585 -0.009392967
000080 32 e1 de bc 86 28 bc 3c 58 e8 87 3a 60 6f 16 bd
       -0.02720699 0.022968542 0.0010368926 -0.03672731
000090 7a 20 8d 38 67 99 62 bd 01 aa bf bd f4 9b 41 bd
       6.729453e-05 -0.055322077 -0.093585975 -0.04726787
0000a0 80 0d dd bc 47 05 cb 3b 6c bb 44 bd 85 45 ff bc
       -0.026983976 0.0061956975 -0.048030302 -0.03116108
0000b0 04 53 0d bd 6e e0 80 3c 4d 16 38 3c 79 aa 0c bd
       -0.034502998 0.015732016 0.011235786 -0.034342263
0000c0 b8 88 ff 3b 3a 44 57 bd e3 e8 b6 bc 41 1f 50 bc
       0.0077982806 -0.0525553 -0.022327846 -0.012702764
0000d0 de 47 1f bd 06 4e 74 bd c5 1c 6b 3b 87 22 5b bd
       -0.038886897 -0.05964472 0.0035875302 -0.053499725
0000e0 f3 16 a4 bd 65 8b a4 bc c5 c2 70 bc 04 c5 72 bd
       -0.0801219 -0.020086 -0.014694874 -0.05926992
0000f0 10 69 80 bc fe d6 1e bc 37 9e 46 3c 43 ed 2c bd
       -0.015675098 -0.009694813 0.012122682 -0.042218458
000100 36 5e 6d 3b 98 7c 87 bd c6 5b b0 bd 20 08 1f bc
       0.0036219484 -0.06615561 -0.086112544 -0.009706527
000110 5c 63 9f bd f5 6e 85 3c c8 f6 13 3c cc 7e a3 bd
       -0.07782623 0.01628826 0.009031005 -0.07983169
000120 3c b0 4b bd d4 4b be bd 53 90 2d bd da 95 35 3c
       -0.049728617 -0.09291807 -0.042373966 0.011083091
000130 89 ad 3c 3c 1c 3e 20 3c ba 31 e0 3b be 6e 11 3c
       0.011515983 0.009780433 0.0068418654 0.008876501
000140 e8 09 e3 bc 1a 09 3e bd 8f fd a0 3a fb 81 23 bd
       -0.027714685 -0.0463954 0.0012282598 -0.03991888
000150 54 21 2b bd 14 e8 c0 bc 48 d9 a5 3d 32 51 78 bc
       -0.04177983 -0.023548163 0.08098084 -0.015156077
000160 d3 15 52 bd a6 6a 84 bd aa 08 8e bd 56 93 62 bd
       -0.051290344 -0.06465654 -0.06935246 -0.05531629
000170 b5 47 bd bb af 54 1e bd 57 a8 7e 3c 6b 58 b6 bc
       -0.0057763704 -0.03865498 0.015543065 -0.022258958
000180 dc df 0a bb 5b 5c 4f bd 24 1c ac 3d 69 57 c6 bd
       -0.002119056 -0.050625186 0.08403805 -0.09684641
000190 eb 11 09 bd 2f 72 f1 3c 07 e2 65 bd 7e 13 7e 3c
       -0.033464354 0.029473392 -0.05612376 0.015507577
0001a0 45 2c 4a bc ba e3 38 bd 4c ef 66 bc ac e8 cc bc
       -0.012339656 -0.045139052 -0.014095139 -0.02501329
0001b0 09 f6 1b bd e1 eb 8d bc 10 5e 71 3c 76 bf 13 bd
       -0.038076434 -0.01732439 0.014731899 -0.036071263
0001c0 57 c0 48 bd c0 a3 49 3c f0 90 9d bd 14 42 e2 bc
       -0.049011555 0.012307107 -0.0769366 -0.0276194
0001d0 32 a5 6f be 8d ea 9c bc 14 ca 80 bd 56 8c a0 bd
       -0.23402861 -0.019154811 -0.06288543 -0.07839267
0001e0 51 ba 85 3c 60 8e 3f 3e ce 7c 0a bd ff 16 a1 bd
       0.016324194 0.18706656 -0.03381043 -0.07865714
0001f0 2b 3e 68 bd 04 3d 04 3c 48 2b 3d bd 7a 1a 7d bd
       -0.056699913 0.008071188 -0.046183854 -0.06179283
000200 d8 7d 78 3b a3 e7 9e bd cd d2 93 bd b8 dc 9e 3b
       0.0037916806 -0.07759025 -0.072179414 0.004848089
000210 cc ec 75 3b 22 53 50 bd 44 ce 05 bd e8 94 09 bd
       0.0037525175 -0.05086053 -0.032667413 -0.033589274
000220 0f 3d 92 bc fc c8 5f bc da d3 80 bd 05 9f 2d bd
       -0.01785138 -0.013658758 -0.062904075 -0.04238798
000230 49 ed 2e bd 91 52 bd bb a0 e1 6c bb f5 af 8c bd
       -0.04270676 -0.005777665 -0.0036145225 -0.06869499
000240 86 ef bc bc 83 66 1c 3c 45 32 fc bb 9a 21 43 bd
       -0.023063432 0.009545925 -0.0076964223 -0.047639467
000250 86 71 71 bc 16 4c b6 3c d7 e1 ab bd 75 f8 9f bc
       -0.014736539 0.022253077 -0.08392685 -0.019527653
000260 8f ae c5 bd bf 26 0e 3c c3 4a 51 3d 5c aa 2c bd
       -0.09652435 0.00867623 0.05109669 -0.042154655
000270 f8 36 c4 bd 0e d3 88 bc 4f 0e f9 bc fd 99 ee bd
       -0.09580797 -0.016702201 -0.03040233 -0.11650465
000280 f0 e5 0d 3c 57 31 9d bc fa 87 3a bd a2 df dd bc
       0.008660778 -0.019188566 -0.045539834 -0.027084175
000290 80 01 2f 3c d5 e4 81 bd 3d 71 2e 3c b3 76 7a 3d
       0.01068151 -0.06342474 0.010647115 0.061148357
0002a0 91 7d 5b 3b 9a e5 30 be 68 a7 6c bb 9d 7e 30 bd
       0.0033491591 -0.17275086 -0.0036110524 -0.043089498
0002b0 81 1c 1a bd d6 29 46 bc 40 04 c6 bc 35 63 3a bd
       -0.03762484 -0.012094935 -0.024171948 -0.045504767
0002c0 47 01 e2 bc 31 cf fb 3a aa 22 bd bc 7f f9 26 bd
       -0.0275885 0.0019211528 -0.023087818 -0.04076528
0002d0 3c bc 0d bb 49 26 55 bd 0e 2f 49 bd e5 d2 8a bb
       -0.002162709 -0.052038465 -0.04911714 -0.0042365664
0002e0 55 c4 04 bc e0 da 9e bd 95 0c d8 bc fa 87 9d bb
       -0.00810345 -0.07756591 -0.026373187 -0.0048074694
0002f0 08 65 b2 ba bc 9d 9d 3c dd 95 4e bd e6 e3 09 bb
       -0.0013610432 0.019240253 -0.05043589 -0.002104038
000300 89 46 d3 3c 25 8f fb bc c2 ba 99 bd 3e d5 68 bd
       0.02579047 -0.030707905 -0.07506324 -0.05684399
000310 a6 6b a4 bd 2e 03 cb bc 0e 8b e2 bb ca ba 83 bd
       -0.08028345 -0.02478179 -0.0069135493 -0.064321116
000320 2f 9c 25 3c dd c6 82 3a b7 4a 96 bd 7d 1e 59 3a
       0.010108038 0.0009977479 -0.073384695 0.0008282436
000330 9c 80 0b 3d 5b c7 38 bd 2c 30 10 bd a8 c9 39 3c
       0.0340582 -0.045111995 -0.03520219 0.0113395825
000340 9d 04 1c bb 8c 82 6a 3c 15 9c a1 bc f9 fd 80 bd
       -0.002380646 0.014313351 -0.019727746 -0.062984414
000350 53 b2 67 bd ee 7a e3 bc 28 ec 93 bd 2e ad 09 be
       -0.056566548 -0.027768578 -0.072227776 -0.13444969
000360 64 c7 35 bc 52 6f 61 bd f6 f6 0c bd 3c 9f 33 bd
       -0.011094902 -0.055037804 -0.034415208 -0.04385303
000370 7e 2c db 3b 0c bd da bd 98 36 a1 bd 61 36 a6 bd
       0.0066886535 -0.10680589 -0.07871741 -0.08115841
000380 88 73 85 bd 73 84 77 3c e8 db 8b bd e7 e3 9d bc
       -0.065161765 0.015107262 -0.06829053 -0.019273711
000390 29 6c ac bd 54 5c 8f bc cd c2 03 3c a8 6e e8 3b
       -0.084190674 -0.01750008 0.00804205 0.0070932694
0003a0 2c 23 10 bd 05 2f 26 bc 50 f4 62 bb 0f 0e 21 bd
       -0.035189793 -0.010143046 -0.0034630485 -0.039320048
0003b0 e2 07 0e 3c 43 f4 f3 3a fa 33 d5 3c 24 72 9c bd
       0.008668872 0.0018612224 0.02602576 -0.07638958
0003c0 ee a5 c3 bc 9d cf 6c bd 48 11 c8 bb b7 3b 77 bd
       -0.023882832 -0.057815183 -0.0061055757 -0.060359683
0003d0 93 0c 9c bc ea cf e5 bd 43 e6 b4 bb 68 81 9c bd
       -0.019048965 -0.11221297 -0.0055206134 -0.0764187
0003e0 0f 8c 35 bb 32 5b 24 bb d7 3b ea 3c a0 75 cb bc
       -0.002770189 -0.002507877 0.028592987 -0.024836361
0003f0 b9 6e c9 bc 1e bb 1c bc 4e 42 86 3b b7 fd 3b 3a
       -0.02458893 -0.009566097 0.0040972596 0.00071712903

l3.weight f4 [1, 300]
000000 14 e1 87 3c c4 70 d5 bc a0 da 4f b9 fe 09 04 bd
       0.016586818 -0.026054747 -0.00019822503 -0.03223609
000010 3f 2f e2 bc aa 8d 59 bc 80 3f 58 bc 5a 1b d8 3c
       -0.02761042 -0.013278404 -0.013198733 0.02638023
000020 10 61 6b be 37 c0 09 bc 02 01 97 ba f1 be 60 bc
       -0.22986245 -0.008407644 -0.0011520686 -0.013717399
000030 10 fc 09 bc 0b d9 80 3c e7 12 84 bc 1e 7f 1d 3c
       -0.008421913 0.015728494 -0.016122295 0.009612827
000040 08 f2 8d 3c 9c da ec 3c e9 0c 4a bd a0 c1 32 bd
       0.017327324 0.028912835 -0.04932872 -0.043641686
000050 15 a9 b2 bc c2 47 fc bd 77 6b d1 bc 50 d4 70 bc
       -0.02180914 -0.12318374 -0.025563939 -0.014699057
000060 ca 45 8f 3c f7 f7 2f bc 56 44 eb be 90 90 60 3b
       0.017489333 -0.010740272 -0.45950574 0.0034265853
000070 52 75 96 3c f1 e8 85 bc f9 97 0d bd f1 a9 21 bd
       0.01836649 -0.016346427 -0.03456876 -0.03946871
000080 f1 92 3f bd c2 7f 95 3c b9 83 ae 3b 1b 16 18 bd
       -0.046770994 0.018249396 0.005325761 -0.037130456
000090 90 8d ef bb f5 14 d9 3b bd 49 dd bc 2a 7f 0c be
       -0.0073105767 0.0066248127 -0.0270127 -0.13720384
0000a0 ff 46 64 ba 73 ee cd 3c de 66 80 bc a8 17 cb bc
       -0.0008708089 0.025138116 -0.01567405 -0.024791554
0000b0 e8 91 fc bc 81 34 dd 3d 2c ff bd bb b3 44 d5 bc
       -0.030831292 0.1080103 -0.005798241 -0.026033735
0000c0 8d 59 83 bd 3d f0 d0 bc fc 3f 82 bc f8 76 da bc
       -0.06413565 -0.02550518 -0.01589965 -0.026668057
0000d0 52 2d 2d bc 3a 8d 25 3c 81 11 85 3c 65 74 66 3c
       -0.010569887 0.010104472 0.016243698 0.014065837
0000e0 10 48 d3 ba ef 05 78 bc a8 2f 86 bc 07 09 e9 bc
       -0.0016119499 -0.015138133 -0.016380146 -0.028446687
0000f0 09 61 d5 bc fb 64 f0 bc b1 21 c5 bc 68 59 2a 3c
       -0.026047247 -0.029345026 -0.024063917 0.010397293
000100 47 51 96 bc 6c 73 7f bc 0b 6c b2 bc 31 d0 17 bd
       -0.018349303 -0.015591484 -0.021780035 -0.03706378
000110 1e 17 f2 bc af 2f 61 3a 5a cd 5c bc 7d bf 81 bc
       -0.029552039 0.0008590174 -0.013476694 -0.015838379
000120 1e b9 bd bc ce 64 47 3b 11 53 1c bd c9 fb ac ba
       -0.02315956 0.0030425075 -0.038165156 -0.0013197596
000130 e1 9d 3b 37 f4 50 de bc ce d0 91 3c d5 b5 8b 3c
       1.1182828e-05 -0.02713821 0.017799761 0.017054478
000140 7d 05 0a bd 8f 9d c4 bc c0 16 29 bc 9b 2f f5 bc
       -0.03369664 -0.024000911 -0.010320365 -0.029929927
000150 74 b0 0e 3c 71 7a a9 bc 13 41 ed bd dd ac 11 bd
       0.008709062 -0.020688267 -0.115846775 -0.035565246
000160 01 f9 4a bc 56 6a a4 bd c5 e7 1a 3c d9 66 87 bc
       -0.012388469 -0.080280945 0.009454672 -0.016528534
000170 2c ae a2 3b 36 98 fa bb b7 a0 47 3b 39 b7 30 bd
       0.0049646106 -0.0076475395 0.0030460784 -0.043143485
000180 4e ae 3a bc 5c 99 c0 ba ec 22 d4 bd c7 62 1e be
       -0.011394097 -0.0014694142 -0.10358223 -0.15467368
000190 a0 19 a0 3a 7d b3 0f bc 2b 15 76 bc 60 28 a3 bb
       0.0012214668 -0.008770821 -0.015019695 -0.0049791783
0001a0 79 3e a0 3c d5 7a 3c bd 36 47 57 bc 9a f2 04 bd
       0.01956104 -0.04601558 -0.013139537 -0.032457925
0001b0 f0 e4 2f bd 89 52 c9 bc b2 ae 9d bb b7 9f 22 bc
       -0.04294294 -0.024575489 -0.004812085 -0.009925774
0001c0 38 28 c2 bc d0 80 eb bc 72 f7 50 3c bf ec 6b 3c
       -0.023700818 -0.028747946 0.012754308 0.014399706
0001d0 b0 25 6a bf b7 96 54 bc a7 3a 95 3b c5 cd 81 3c
       -0.91463757 -0.012975386 0.004554111 0.015845189
0001e0 64 e5 0a 3d 4e 2a 81 be 33 c4 33 ba 8e 87 a7 3c
       0.03391017 -0.25227588 -0.0006857544 0.02045038
0001f0 26 8c 5f bc bb ec 43 3c d3 32 44 bc d4 9f be bc
       -0.013644254 0.011958296 -0.011975008 -0.023269571
000200 46 30 28 bc 3e de b1 3e c9 02 f4 bb de 5e a1 3c
       -0.010265416 0.3473987 -0.007446621 0.019698557
000210 80 a4 f2 3b 49 7a 1e bb 17 a5 cf bc d1 da 8d 3a
       0.007404864 -0.0024181774 -0.025347276 0.0010822659
000220 f2 1a 27 bd c6 05 ad bc d0 e9 91 ba 4e 29 e6 bc
       -0.04079718 -0.021120917 -0.0011132304 -0.028095867
000230 16 17 33 bb b5 a1 cc bc 97 df 19 bd 3e c3 ed 3b
       -0.0027326993 -0.024979452 -0.037566748 0.0072559407
000240 60 a8 60 bb 9a da 7f b9 dd 0f 74 bc a1 8b 37 bd
       -0.0034280047 -0.0002440013 -0.01489636 -0.044810895
000250 61 56 0e bc f5 f3 34 bd 60 6e 2a bc 8d 17 40 bd
       -0.0086875865 -0.044177968 -0.010402292 -0.04689746
000260 9f 21 82 3e 11 ad 09 bb ce 46 c7 3d c8 14 8f bc
       0.25416276 -0.0021007697 0.09730302 -0.017465964
000270 46 7a fc 3b 18 1d 14 3c d6 97 be 3c bf 93 03 3d
       0.007705006 0.00904014 0.02326576 0.032123324
000280 7b c8 5e bc c3 3b bc b9 2c f3 77 3a ce e5 9e 3c
       -0.013597603 -0.0003590268 0.00094585377 0.019396689
000290 e6 66 74 3c 45 b5 19 3c f3 80 03 3c b4 ca 9b bd
       0.014917111 0.009381597 0.008026349 -0.07607022
0002a0 4f 3b 44 3c ec ff 00 3e cb 5b 66 3c f5 9c e7 3b
       0.011977031 0.12597626 0.014059971 0.0070682713
0002b0 ea 0f d7 bc 23 80 b3 bb 34 80 f2 bc 33 9e 20 bd
       -0.026252706 -0.0054779216 -0.029602148 -0.03921337
0002c0 ee 8a bc bc 4b fb ff bc 3b c4 a7 bb de 63 59 bc
       -0.023015466 -0.031247756 -0.005119828 -0.013268439
0002d0 70 91 d9 bc 4a 24 46 3c 94 2d a1 bc 8d d4 93 bc
       -0.026558608 0.012093613 -0.019675054 -0.018045688
0002e0 e5 4c b4 3c 4a 90 8a bc 1d 29 49 bb 62 bc a4 3a
       0.022009322 -0.016914506 -0.0030694671 0.001256835
0002f0 fe 6b 1f bd be 6f b8 bc 88 5f 69 bc cc b8 ac 3b
       -0.03892135 -0.02251422 -0.014243968 0.005271053
000300 5f ca 11 3b c6 4e 4a bb a7 78 08 bd 65 ef f8 bc
       0.0022245867 -0.0030869707 -0.033318188 -0.03038759
000310 7d b4 a7 bb 17 98 9e bc 6e 92 dd bc ee 62 62 bc
       -0.0051179514 -0.019359631 -0.027047362 -0.013817532
000320 a8 9b fc bc cc 26 75 bc e0 0e 12 ba 22 3e 80 3b
       -0.030835941 -0.014962863 -0.00055716746 0.003913657
000330 c5 02 fc 3b de 8e 57 bc 71 c3 90 3c 38 b3 ee ba
       0.00769076 -0.013156621 0.017671319 -0.001821137
000340 0f 53 e8 bc d9 57 37 bd a7 05 90 3b 64 c0 af 3c
       -0.028359918 -0.044761512 0.004395205 0.021454044
000350 2f 09 3c bd a6 ab cc 3b 5d 16 09 bb f8 87 d6 bd
       -0.045907196 0.006246048 -0.002091787 -0.10475153
000360 f0 73 17 bd aa d6 38 ba f0 c1 5d 3b 8e 92 f6 bb
       -0.0369758 -0.00070510304 0.003383752 -0.007524795
000370 33 87 82 3c 26 74 d0 3f d8 80 ac 3c 96 61 21 bc
       0.015933609 1.6285446 0.021057531 -0.009849926
000380 b3 33 92 3c cf 3b 3a bb 07 ee 74 3b d0 9b f5 bc
       0.017846918 -0.0028416996 0.003737332 -0.029981524
000390 1f 86 8e bc 16 0e ce bc e9 2c b8 3b c6 08 1f bd
       -0.017397938 -0.025153201 0.005620588 -0.038826726
0003a0 74 70 2b bd 4a 0a 9e bb 10 23 b3 bb 88 e1 16 bc
       -0.04185529 -0.004823004 -0.0054668263 -0.009209044
0003b0 27 f9 1c bc 7c 52 37 bc 7a 32 83 bc 08 91 8c bc
       -0.009580887 -0.011189099 -0.01601528 -0.017159
0003c0 1c 88 02 bb 49 ef 19 bd 52 36 b4 bc 5f c8 a4 bc
       -0.0019917553 -0.037581716 -0.021998558 -0.020115076
0003d0 e9 d8 b6 3c 68 55 b7 bd 3b 7d e4 bc a6 29 62 3c
       0.022320228 -0.08951837 -0.027891746 0.013803875
0003e0 01 9b 2f bd 2b 3d 37 bb f6 62 e9 bc 0c 6e 30 bc
       -0.042872433 -0.0027960043 -0.028489571 -0.010768425
0003f0 7e 2d 0c bb d1 04 96 3c 30 83 47 bc 90 86 90 3b
       -0.002138942 0.018312844 -0.012177274 0.0044105724
