InvDoublePendulum/InvertedDoublePendulum-v4_actor_finalized_07.pth (torch, 504698 bytes, 5 tensors)

l1.weight f4 [400, 11]
-0.7425238 -2.2996998 1.3352369 -0.59099853 -0.67751324 -0.19098741 -0.58683085 -0.37670052
0.03860666 -0.08861171 -0.23498906 -0.2584045 0.327541 0.37010673 -0.40599975 -0.7591583
-0.15314831 -0.051364332 0.052667633 -0.048803784 -0.21454546 -0.16459465 0.5543581 -1.9027238
-1.9247924 -0.6679161 -0.2913135 -0.28031024 -0.5276947 -0.2274878 0.13707139 -0.07929289
0.108264536 0.041116256 -0.33207026 -0.21162796 -0.2849406 -0.58397263 0.12790626 0.13588607
0.0992106 -0.07889788 -0.22235218 -0.21010435 -0.11749387 -3.4161258 3.35828 -1.0907029
-1.0406495 -0.45764032 -0.16160145 0.061875015 0.29472235 0.106303394 -0.08684209 -0.120434724
3.249152 2.3475714 0.2149408 -0.16679281 0.2661414 0.90637684 0.49428445 0.08246745
-0.23901711 -0.05512941 0.08040689 -0.5185708 0.28583264 -0.6888268 -0.81171966 -0.13872509
0.032631826 0.16970895 -0.08810216 -0.23494673 0.21842474 -1.8549014 -0.45419073 1.4705254
-0.57807976 -0.62267923 -0.61582315 -0.06900916 0.22641838 -0.27406713 0.121512175 -0.25065973
-0.16475579 0.03810287 -0.27678078 -0.6140064 -0.6705504 0.07668522 0.017809423 -0.024525829
0.033102676 0.22523826 0.28549087 0.22266755 2.769884 -0.9984867 -0.48876512 -0.75178874
0.93186295 0.4679464 -0.13895568 -0.13817482 0.008574367 -0.29790494 0.022548769 2.3734787
-2.3429303 -0.4211567 -0.49682024 0.62585545 0.2903207 -0.11676898 0.08261004 -0.2623745
-0.21161662 -0.10458014 -0.47956315 -0.12193408 -0.48556012 -0.58053696 0.07112065 -0.04709847
-0.14428975 -0.084139876 -0.21892634 0.036469012 -0.34025538 0.14006141 0.13137639 -0.2849842
-0.4663766 0.17784852 0.107962914 -0.021769723 0.010671651 -0.22420435 -0.24273987 -1.2436637
1.2434068 3.0368302 -0.32759458 -0.43490094 -0.13385634 0.53863895 0.4900621 -0.24658418
-0.2505633 -0.013899177 1.6919091 0.9734539 -2.0704536 -0.30587342 -0.500844 0.620559
0.23866108 -0.16711666 0.20156108 -0.086346075 0.16910884 0.17369474 1.3619634 2.706455
-0.5317086 -0.41359493 0.27521878 0.70466536 0.36326453 -0.09582274 -0.1250139 0.0773457
1.8266687 -0.6255176 -3.6964507 -0.36274123 -0.5749519 0.4817438 -0.30448353 -0.50923336
0.058827613 0.11646539 0.26787126 0.7684331 3.2706642 1.4087911 0.24581277 -0.16486625
0.50796324 0.60901254 0.25323746 0.1502985 0.23305702 0.28417248 -0.03530189 -1.6490008
1.5422034 -0.7987197 -0.8573705 -0.6643979 -0.5656791 0.12342054 0.04377228 -0.05607985
-0.29483616 -0.49645546 -0.009542439 -0.9003838 -0.83322406 -0.9668005 0.3500629 -0.16674693
-0.5043357 -0.05626625 -0.0958986 -0.02641818 -0.27509668 0.26464045 -0.55584943 -0.70099103
-0.70820963 0.311711 -0.091708586 -0.26088223 0.036111116 0.15130877 -0.035221636 0.29905957
-1.3177412 4.5414834 -0.10233218 -0.007232553 0.010895214 0.057542887 0.4610103 0.11772396
-0.05514346 0.23049104 -0.19857268 -0.21747804 -1.6577765 -0.71748334 -0.9283571 0.043448932
-0.16504167 -0.32675028 -0.098775126 -0.1446559 0.14135262 0.6227438 0.16554543 0.3939366
00000000: 0a16 3ebf 482e 13c0 0be9 aa3f ae4b 17bf
00000010: 8271 2dbf 3492 43be 8c3a 16bf e4de c0be
00000020: 0422 1e3d 0e7a b5bd f9a0 70be 984d 84be
00000030: 74b3 a73e a17e bd3e 33df cfbe 3358 42bf
00000040: e9d2 1cbe 6863 52bd 04ba 573d 7ae6 47bd
00000050: ceb1 5bbe 808b 28be 6aea 0d3f 748c f3bf
00000060: 995f f6bf 8dfc 2abf 0b27 95be d384 8fbe
00000070: 0017 07bf 90f2 68be 715c 0c3e 5064 a2bd
00000080: ccb9 dd3d 8569 283d 1d05 aabe 00b5 58be
00000090: bce3 91be 3b7f 15bf dcf9 023e b825 0b3e
000000a0: ed2e cb3d 3695 a1bd 4ab0 63be 9825 57be
000000b0: a0a0 f0bd cea1 5ac0 0fee 5640 279c 8bbf
000000c0: 0134 85bf d54f eabe da7a 25be a870 7d3d
000000d0: d9e5 963e 98b5 d93d 44da b1bd 7ba6 f6bd
000000e0: 1bf2 4f40 9c3e 1640 7119 5c3e bccb 2abe
000000f0: b043 883e 5008 683f da12 fd3e b2e4 a83d
00000100: e7c0 74be 60cf 61bd 5eac a43d 0ec1 04bf
00000110: a858 923e f456 30bf dccc 4fbf f30d 0ebe
00000120: f3a8 053d 2fc8 2d3e e86e b4bd e095 70be
00000130: bcaa 5f3e 696d edbf b08b e8be 2d3a bc3f
00000140: 09fd 13bf e867 1fbf 96a6 1dbf ad54 8dbd
00000150: 38da 673e 8752 8cbe 60db f83d 7956 80be
00000160: beb5 28be c111 1c3d 36b6 8dbe 862f 1dbf
00000170: 31a9 2bbf 240d 9d3d 11e5 913c 64ea c8bc
00000180: ac96 073d dca4 663e dc2b 923e f602 643e
00000190: c845 3140 d39c 7fbf 6c3f fabe 3a75 40bf
000001a0: 928e 6e3f ac96 ef3e 664a 0ebe b37d 0dbe
000001b0: 807b 0c3c ff86 98be 32b8 b83c 13e7 1740
000001c0: 92f2 15c0 daa1 d7be 395f febe 1038 203f
000001d0: eaa4 943e 9324 efbd 742f a93d f355 86be
000001e0: 07b2 58be 1d2e d6bd 4d89 f5be 93b8 f9bd
000001f0: 569b f8be 129e 14bf b4a7 913d 53ea 40bd
00000200: b1c0 13be 8751 acbd 3a2e 60be 8860 153d
00000210: f435 aebe 426c 0f3e 8887 063e 73e9 91be
00000220: eac8 eebe ec1d 363e a91b dd3d 6b56 b2bc
00000230: 26d8 2e3c d395 65be cd90 78be 5f30 9fbf
00000240: f427 9f3f 6d5b 4240 7aba a7be 56ab debe
00000250: a311 09be 3ee4 093f 6be9 fa3e 9080 7cbe
00000260: d549 80be 60b9 63bc 7a90 d83f 4634 793f
00000270: 5082 04c0 719b 9cbe 5037 00bf f4dc 1e3f
00000280: 9263 743e a120 2bbe 0766 4e3e 36d6 b0bd
00000290: de2a 2d3e 09dd 313e d154 ae3f 8f36 2d40
000002a0: 0e1e 08bf b7c2 d3be 7ae9 8c3e f364 343f
000002b0: cffd b93e b63e c4bd a503 00be 6c67 9e3d
000002c0: 48d0 e93f ec21 20bf a692 6cc0 38b9 b9be
000002d0: 0c30 13bf 20a7 f63e 44e5 9bbe 1e5d 02bf
000002e0: 39f5 703d 6885 ee3d 6c26 893e 08b8 443f
000002f0: 9052 5140 4453 b43f 58b6 7b3e b3d2 28be
00000300: e109 023f 3fe8 1b3f 57a8 813e dae7 193e
00000310: 80a6 6e3e 0e7f 913e b798 10bd 7512 d3bf
00000320: ec66 c53f e578 4cbf a27c 5bbf fb15 2abf
00000330: 58d0 10bf e8c3 fc3d 904a 333d fcb3 65bd
00000340: c4f4 96be 692f febe e457 1cbc 8d7f 66bf
00000350: 2c4e 55bf 3d80 77bf 723b b33e b5bf 2abe
00000360: 251c 01bf 7077 66bd 7c66 c4bd f06a d8bc
00000370: 79d9 8cbe f47e 873e 264c 0ebf 2674 33bf
00000380: 3a4d 35bf 9698 9f3e b6d1 bbbd 5b92 85be
00000390: 40e9 133d b0f0 1a3e 9044 10bd 561e 993e
000003a0: beab a8bf d553 9140 8993 d1bd 0dff ecbb
000003b0: d781 323c 17b2 6b3d 8b09 ec3e 4219 f13d
000003c0: 1cde 61bd d805 6c3e a356 4bbe 90b2 5ebe
000003d0: 0532 d4bf fdac 37bf d0a8 6dbf 82f7 313d
000003e0: af00 29be d04b a7be 9d4a cabd ad20 14be
000003f0: bebe 103e 236c 1f3f be84 293e 0fb2 c93e

l1.bias f4 [400]
-0.4234868 -0.68499595 -0.55191445 -0.5432836 -0.8584081 -0.14612715 -0.5806447 -0.5782256
-0.3693938 -0.5224834 -0.22660421 -0.8120174 -0.2790646 -0.35766986 -0.275364 -0.613199
-0.7209605 0.26270166 -0.5818789 -0.7066996 -0.3819977 -0.1143864 -0.4916271 -0.33056188
-0.30691028 -0.75178087 -0.6141461 -0.371848 -0.8284751 -0.15091033 -1.0810966 -0.56745756
-0.36845413 -0.58081573 -1.0635339 -0.47404402 -0.6669586 -0.64514387 -0.30207646 -0.43421313
-0.70066327 -0.49377763 -0.59465194 -0.266963 -0.66826767 -0.81156117 -0.5974064 -0.38934293
-0.44136107 -0.7267214 -0.9006566 -1.1887858 -0.85322374 -0.43427902 -1.1954968 -0.31627852
-0.015486847 -0.3731123 -0.14447606 -0.32605433 -0.43289545 -0.8129828 -0.5133142 -0.6753026
-0.87902045 -0.7402479 -0.34776148 -0.1882779 -0.25680968 -0.32921055 -1.0009134 -0.3701448
-0.71949387 -0.29331237 -1.1783906 -0.58833057 -0.5631204 -0.47627747 -0.37343296 -0.34765375
-0.24064295 -0.67236286 -0.4520292 -0.32346335 -0.6817449 -0.30031395 -0.23048067 -0.84301484
-0.46089193 -0.4354826 -0.51983255 -0.16561058 -1.3044739 -0.60947883 -0.44270226 -0.96572286
-0.10656914 -0.58452255 -0.82956177 -0.73733777 -0.51594675 -0.38759503 -1.1924857 -0.41782445
-0.5013645 -0.71970147 -0.71539235 -0.30108646 -0.15047805 -0.54883176 -1.3342806 -0.015694926
-0.39806926 -0.71369255 -0.582208 -0.6153715 -0.7786545 -0.88520384 0.0357585 -0.9960744
-0.47828415 -0.30819812 -0.5258578 -0.6799135 -0.7455361 -0.7574159 -0.45137998 0.040001858
-0.5743478 -0.32564327 -0.43895426 0.20399578 -0.053187896 -0.7260117 0.46117166 -0.89971226
-0.32690442 -0.65361404 -0.5424659 -0.3395942 -0.054142833 -0.5393231 -0.33156648 0.48551267
-0.63312566 -0.33137122 -0.3812807 -0.6224467 0.10870443 -0.66035485 -0.8154778 -0.49453306
-0.6849401 -0.33855167 -0.4047899 -0.6445033 -0.63568455 -0.28611073 -0.5587457 -0.8605789
-0.72633904 -0.26946926 -0.19373325 -0.8259077 -1.1477166 -0.5577758 0.307854 -0.86448944
-0.6120831 -0.9123549 -0.9224541 -0.65063477 -0.50248164 -0.560243 -0.45273602 -1.2287627
-0.2977899 -0.32477966 -0.6080477 -1.1398139 -0.26571658 -0.5167201 -0.6550451 -0.331133
-0.61268955 -0.57375306 -0.25295213 -0.697269 -0.43694732 -1.2294377 -0.5580062 -0.86483556
-0.35594973 -0.7901028 -0.8149098 -0.35792896 -0.6695014 -0.38050112 -0.41168544 -0.54716533
-0.80182546 -0.29953673 -0.57462895 -0.5237049 -1.0966948 -0.8972576 -0.7060241 -0.4445759
-0.13961416 -0.74067616 -0.8113603 -0.3298028 0.38614953 -0.15628399 -0.71619916 -0.10427231
-0.22560567 -0.42595038 -0.2459186 -0.759646 -0.6083141 -0.24463955 -0.21965156 -0.92760974
-0.48229763 -0.9063535 -0.5044153 -0.6763298 -0.7463071 -0.3010626 -0.39246374 -0.26901597
-0.40180075 -0.3429702 -0.63371897 -0.5659028 -0.76505476 -0.74038017 -0.7222351 -0.94938284
-0.77445024 -0.81498975 -0.9036543 -0.45155218 -0.7878932 -0.88133484 -0.77770895 -0.64748585
-0.95259464 -0.39019227 -1.0040663 -0.95580053 -0.6612693 -0.6287561 -0.9729116 -0.63692576
00000000: 43d3 d8be e55b 2fbf 444a 0dbf a214 0bbf
00000010: a2c0 5bbf 5ba2 15be 22a5 14bf 9806 14bf
00000020: 2f21 bdbe 79c1 05bf ef0a 68be 5fe0 4fbf
00000030: 8ee1 8ebe 8120 b7be 83fc 8cbe 9cfa 1cbf
00000040: de90 38bf d580 863e 04f6 14bf 44ea 34bf
00000050: 3495 c3be 6b43 eabd 8cb6 fbbe 683f a9be
00000060: 5823 9dbe b674 40bf ae38 1dbf dc62 bebe
00000070: f216 54bf 3d88 1abe 6061 8abf e644 11bf
00000080: 05a6 bcbe 57b0 14bf e121 88bf e6b5 f2be
00000090: ccbd 2abf 2628 25bf c4a9 9abe 2f51 debe
000000a0: ab5e 33bf 6cd0 fcbe 1c3b 18bf 60af 88be
000000b0: 9713 2bbf 79c2 4fbf a0ef 18bf f557 c7be
000000c0: 14fa e1be 6a0a 3abf 6e91 66bf 222a 98bf
000000d0: df6c 5abf d259 debe 0a06 99bf 42ef a1be
000000e0: 8bbc 7dbc 9308 bfbe 88f1 13be 98f0 a6be
000000f0: 79a4 ddbe a41f 50bf 8f68 03bf a2e0 2cbf
00000100: 7c07 61bf e380 3dbf cb0d b2be eccb 40be
00000110: 8f7c 83be 498e a8be ee1d 80bf 9f83 bdbe
00000120: c030 38bf 0a2d 96be 81d5 96bf d59c 16bf
00000130: a928 10bf a4da f3be 9b32 bfbe acff b1be
00000140: 1b6b 76be f91f 2cbf 5f70 e7be fd9c a5be
00000150: d586 2ebf c0c2 99be 2003 6cbe d2cf 57bf
00000160: 07fa ebbe 93f7 debe bf13 05bf d295 29be
00000170: 00f9 a6bf ce06 1cbf dfa9 e2be 9d39 77bf
00000180: ec40 dabd 45a3 15bf 295e 54bf 2bc2 3cbf
00000190: 1615 04bf db72 c6be 5fa3 98bf 16ed d5be
000001a0: 6d59 00bf 5b3e 38bf f423 37bf 0128 9abe
000001b0: eb16 1abe 3d80 0cbf b5c9 aabf a592 80bc
000001c0: bccf cbbe 8eb4 36bf 950b 15bf fd88 1dbf
000001d0: e755 47bf b89c 62bf 8177 123d bbfe 7ebf
000001e0: a9e1 f4be 25cc 9dbe 9e9e 06bf d00e 2ebf
000001f0: 74db 3ebf 02e6 41bf 471b e7be fdd8 233d
00000200: 7508 13bf b7ba a6be 9dbe e0be 45e4 503e
00000210: 8ddb 59bd e7db 39bf b11e ec3e 8b53 66bf
00000220: 0460 a7be 4053 27bf 0cdf 0abf 4adf adbe
00000230: e0c4 5dbd 1411 0abf 15c3 a9be 1e95 f83e
00000240: 8614 22bf 7da9 a9be 3937 c3be ab58 1fbf
00000250: 6ea0 de3d 040d 29bf 27c3 50bf 7033 fdbe
00000260: 3c58 2fbf a556 adbe 9f40 cfbe 2bfe 24bf
00000270: 39bc 22bf 1b7d 92be f509 0fbf e64e 5cbf
00000280: 5bf1 39bf e0f7 89be 0262 46be b06e 53bf
00000290: 61e8 92bf 65ca 0ebf 0a9f 9d3e 2e4f 5dbf
000002a0: 7ab1 1cbf 1790 69bf f425 6cbf 0090 26bf
000002b0: a3a2 00bf 166c 0fbf 04cd e7be 1948 9dbf
000002c0: eb77 98be 8549 a6be 04a9 1bbf 6ce5 91bf
000002d0: 010c 88be c547 04bf 09b1 27bf 448a a9be
000002e0: 39d9 1cbf 7be1 12bf f182 81be 3980 32bf
000002f0: 8fb7 dfbe 375e 9dbf 7fd9 0ebf dd65 5dbf
00000300: 0b3f b6be 2d44 4abf ee9d 50bf 7742 b7be
00000310: 7264 2bbf 0bd1 c2be 6fc8 d2be 0713 0cbf
00000320: 6f44 4dbf e15c 99be e21a 13bf 8611 06bf
00000330: 7f60 8cbf adb2 65bf ffbd 34bf 749f e3be
00000340: 04f7 0ebe f49c 3dbf 4fb5 4fbf eadb a8be
00000350: 64b5 c53e e908 20be d458 37bf b98c d5bd
00000360: 2c05 67be 2b16 dabe 16d2 7bbe 2978 42bf
00000370: 79ba 1bbf ca82 7abe 57ec 60be d577 6dbf
00000380: b7ef f6be c806 68bf 5c21 01bf f323 2dbf
00000390: fb0d 3fbf e124 9abe 02f1 c8be 76bc 89be
000003a0: d4b8 cdbe ca99 afbe 683b 22bf 02df 10bf
000003b0: a1da 43bf 8e89 3dbf 66e4 38bf c10a 73bf
000003c0: 5f42 46bf 2ba3 50bf e355 67bf d931 e7be
000003d0: 5eb3 49bf 299f 61bf ef17 47bf a2c1 25bf
000003e0: 3edd 73bf 48c7 c7be 3f85 80bf 58af 74bf
000003f0: f248 29bf 29f6 20bf bc10 79bf 910d 23bf

l2.weight f4 [300, 400]
-0.027552994 0.029488575 -0.138069 -0.0025228262 -0.03174468 -0.015693134 0.021497253 -0.017812569
0.018322084 -0.1262689 -0.074412905 0.044341657 -0.04323123 -0.014926096 -0.10764986 -0.18072915
-0.0473804 -0.17185506 -0.01827895 0.023246977 -0.03951812 -0.06691651 -0.07508143 -0.06900482
-0.11360521 -0.050702464 -0.0027425475 -0.020694662 -0.09418519 -0.095299944 -0.046358973 -0.024606634
-0.095973864 0.011148155 0.031782936 -0.07177663 0.07548892 -0.04367006 0.037807237 -0.026778793
-0.0761509 -0.008474726 0.0031273311 -0.0038708858 -0.05188573 0.049608056 -0.14929913 -0.03251348
-0.054352 -0.1931078 0.07639011 -0.0022889278 -0.132324 -0.015244043 -0.09445796 -0.009334356
-0.009208912 -0.04756847 0.018511163 -0.060846753 0.0001260154 0.005516765 0.08122435 -0.018222315
-0.05939074 -0.030094562 -0.037708152 -0.052639194 0.02990096 -0.10882533 -0.053295307 -0.008001304
0.029156506 -0.08237485 0.015161034 0.01277466 -0.0008503127 0.0012898147 -0.03494025 -0.00015308335
-0.032621853 -0.015799891 0.018805016 -0.045260053 0.04695324 -0.004059478 -0.0165542 -0.026925415
0.011365044 -0.011393495 -0.09752027 0.018021535 -0.027892817 -0.017115135 0.023408912 0.047305558
-0.0912933 0.019880919 -0.062385246 -0.021989163 0.016720738 0.002001278 -0.05692083 0.050088562
0.016861152 -0.06535874 -0.07275926 -0.019148488 -0.05505423 -0.0043327706 0.006638456 -0.16831389
-0.086635366 -0.0416153 0.03891771 -0.111564696 -0.019626925 -0.011046329 -0.02979375 0.028636841
-0.07399461 -0.058757942 -0.053699873 -0.12692884 -0.0301728 -0.009964932 -0.033691153 -0.03797926
-0.0005117245 -0.04736228 -0.008292943 -0.065643646 -0.037745304 -0.012024235 -0.0351562 -0.07251296
0.022060068 0.017042754 -0.0067804456 -0.038407 -0.03309681 0.016689386 0.008333928 -0.07102487
-0.049654704 0.040830515 -0.025997736 -0.020108413 -0.048251413 -0.022860164 0.011463992 -0.009524263
-0.018937415 -0.04169993 0.02009724 0.0026823129 -0.040872112 -0.011267594 -0.16222689 -0.03601861
-0.06676188 -0.11467148 0.016013745 -0.04098218 -0.046607472 -0.09080277 -0.13032094 -0.025729347
-0.012748051 -0.025804995 -0.024566019 -0.10936524 -0.12686703 0.026541423 -0.016227257 -0.03220327
-0.054686554 -0.05730951 -0.034812592 0.05181119 -0.034980014 -0.048022747 -0.11224487 0.014398392
-0.016704151 -0.072848395 -0.0053110905 -0.0677103 -0.04206868 -0.049130283 -0.0029562858 -0.077275135
0.0071635856 -0.049746983 0.0067602918 -0.051535126 0.076519854 -0.083539836 -0.045880258 -0.04353848
-0.014079321 0.001723092 -0.091907166 -0.018787969 -0.06387696 -0.027353253 0.042440224 0.030154657
0.04114783 0.038413446 0.005335413 0.013469439 -0.0069227456 -0.108699076 -0.027835684 0.008254677
0.015356838 1.3958663e-05 0.00069918163 -0.05341283 -0.051247433 -0.084017195 -0.0060331523 -0.09615166
-0.040208373 -0.08041591 0.010082394 -0.04284438 -0.00082081626 0.00737363 -0.0636487 -0.037406344
-0.047838937 0.021642376 -0.1132966 -0.022140164 -0.006684379 -0.091086514 -0.025334239 -0.017781133
0.016398339 -0.055879653 0.09866885 0.037529085 -0.04689245 -0.047906075 -0.03360395 0.025466893
-0.022809496 -0.040617112 -0.08152206 -0.03420774 -0.029359082 -0.007048569 0.02389334 -0.07092593
00000000: d1b6 e1bc 0692 f13c f661 0dbe 0056 25bb
00000010: b606 02bd e38e 80bc 021b b03c aaeb 91bc
00000020: 3218 963c a24c 01be cb65 98bd 999f 353d
00000030: 3b13 31bd 968c 74bc 8877 dcbd 1011 39be
00000040: f311 42bd c6fa 2fbe bdbd 95bc 7270 be3c
00000050: c1dd 21bd 860b 89bd 4bc4 99bd 6652 8dbd
00000060: d9a9 e8bd 63ad 4fbd 50bc 33bb da87 a9bc
00000070: 2ae4 c0bd 9e2c c3bd e8e2 3dbd da93 c9bc
00000080: f28d c4bd c0a6 363c d32e 023d a0ff 92bd
00000090: ef99 9a3d 60df 32bd c3db 1a3d 335f dbbc
000000a0: 01f5 9bbd 94d9 0abc e9f3 4c3b b0ae 7dbb
000000b0: 2286 54bd d131 4b3d dfe1 18be db2c 05bd
000000c0: 34a0 5ebd 0dbe 45be 6b72 9c3d d601 16bb
000000d0: f17f 07be 27c2 79bc 2d73 c1bd 20ef 18bc
000000e0: fae0 16bc 28d7 42bd b9a4 973c 723a 79bd
000000f0: 0023 0439 fbc5 b43b f458 a63d f746 95bc
00000100: b443 73bd df88 f6bc dd73 1abd 329c 57bd
00000110: dcf2 f43c d1df debd 2e4c 5abd e717 03bc
00000120: a0d9 ee3c 25b4 a8bd fc65 783c cf4c 513c
00000130: 85e7 5eba 000f a93a 821d 0fbd 0085 20b9
00000140: 7e9e 05bd c66e 81bc fa0c 9a3c 9b62 39bd
00000150: 0a52 403d 5f05 85bb ac9c 87bc b092 dcbc
00000160: 7334 3a3c c8ab 3abc b5b8 c7bd e6a1 933c
00000170: 7a7f e4bc 0a35 8cbc 0cc4 bf3c 79c3 413d
00000180: fbf7 babd 4fdd a23c ac87 7fbd 9e22 b4bc
00000190: eef9 883c e027 033b d125 69bd aa29 4d3d
000001a0: 6620 8a3c ceda 85bd cf02 95bd 4add 9cbc
000001b0: 8b80 61bd eaf9 8dbb 6887 d93b 7a5a 2cbe
000001c0: e26d b1bd ce74 2abd 2d68 1f3d 087c e4bd
000001d0: a5c8 a0bc a9fb 34bc 0612 f4bc cf97 ea3c
000001e0: 7c8a 97bd 2bac 70bd 66f4 5bbd a2f9 01be
000001f0: f32c f7bc f443 23bc bcff 09bd 2490 1bbd
00000200: 4025 06ba f3fe 41bd 20df 07bc 2d70 86bd
00000210: d29a 1abd 4c01 45bc f3ff 0fbd ad81 94bd
00000220: 51b7 b43c 3f9d 8b3c 802e debb a950 1dbd
00000230: 8590 07bd 2eb8 883c 078b 083c 7d75 91bd
00000240: bb62 4bbd e63d 273d 34f9 d4bc 66ba a4bc
00000250: 46a3 45bd 3d45 bbbc 78d3 3b3c a80b 1cbc
00000260: a322 9bbc 8ccd 2abd f8a2 a43c bec9 2f3b
00000270: 8469 27bd b79b 38bc ce1e 26be 4088 13bd
00000280: 74ba 88bd e2d8 eabd 422f 833c eedc 27bd
00000290: 7ae7 3ebd cdf6 b9bd da72 05be 5ac6 d2bc
000002a0: 34dd 50bc ff64 d3bc ad3e c9bc e2fa dfbd
000002b0: 6ee9 01be 666d d93c 06ef 84bc 93e7 03bd
000002c0: 02ff 5fbd 60bd 6abd a697 0ebd f837 543d
000002d0: 3447 0fbd 80b3 44bd a3e0 e5bd 3ce7 6b3c
000002e0: 25d7 88bc 8a31 95bd a808 aebb b3ab 8abd
000002f0: 3550 2cbd d63c 49bd 3fbe 41bb 6d42 9ebd
00000300: 83bc ea3b 7ec3 4bbd 7085 dd3b 7f16 53bd
00000310: 71b6 9c3d ef16 abbd f0ec 3bbd 6855 32bd
00000320: f4ac 66bc 60d9 e13a d339 bcbd 3ae9 99bc
00000330: ecd1 82bd ee13 e0bc cdd5 2d3d e606 f73c
00000340: a18a 283d 6b57 1d3d b0d4 ae3b ecae 5c3c
00000350: 33d8 e2bb 9f9d debd a907 e4bc a03e 073c
00000360: 3f9b 7b3c 0030 6a37 4949 373a 69c7 5abd
00000370: d4e8 51bd 3511 acbd c0b1 c5bb 29eb c4bd
00000380: 89b1 24bd 19b1 a4bd a030 253c 977d 2fbd
00000390: 0c2c 57ba 7e9e f13b 405a 82bd 6537 19bd
000003a0: c3f2 43bd 5a4b b13c 0c08 e8bd 4a5f b5bc
000003b0: a308 dbbb 918b babd c089 cfbc bda9 91bc
000003c0: cf55 863c 10e2 64bd e512 ca3d 19b8 193d
000003d0: 4c12 40bd 2939 44bd 4ca4 09bd f29f d03c
000003e0: fbda babc 215e 26bd 0af5 a6bd 6a1d 0cbd
000003f0: 7582 f0bc aff7 e6bb f7bb c33c 9d41 91bd

l2.bias f4 [300]
-0.016432872 0.0014974615 -0.0413182 -0.056981836 -0.082451485 -0.066447556 0.0015349488 -0.02958825
-0.21925783 -0.061220393 -0.07399578 -0.08907902 -0.012900664 -0.065887846 -0.022123985 -0.060706384
-0.08085028 -0.0010627904 -0.053286828 -0.2773096 -0.03369342 -0.78011435 -0.062303994 -0.04947141
-0.05577881 -0.015801612 -0.9540449 -0.049206637 -0.0256334 -0.0887083 -0.055601362 -0.053620044
-0.0651111 -0.008796648 -0.059825357 -0.0684881 -0.059086494 -0.087086774 -0.093585975 -0.82659703
-0.05431359 0.013871787 -0.048030302 -0.09848154 -0.034502998 0.12114958 -0.020452455 -0.034342263
-0.4437215 -0.0525553 -0.054092877 -0.033753224 -0.05859722 -0.05964472 -0.052402478 -0.053499725
-0.0801219 -0.07481575 -0.046455424 -0.08215716 -0.85229903 -0.50182605 -0.019634636 -0.042218458
-0.02802554 -0.09000842 -0.086112544 -0.04856978 -0.07782623 -0.012406921 0.06568004 -0.07983169
-0.074132785 -0.09291807 -0.0808656 -0.0145159215 -0.044571027 -0.049817674 -0.06377811 -0.043527488
-0.08056103 -0.09712187 0.0012282598 -0.08132103 -0.073538646 -0.023548163 -0.6805953 -0.16099118
-0.051290344 -0.43078128 -0.10082002 -0.087070376 -0.06431511 -0.069915496 -0.04102551 -0.082239166
-0.18797445 -0.07662374 -0.8292243 -0.26070637 -0.033464354 0.00355712 -0.11456078 -0.021233957
-0.044102103 -0.07687474 -0.045819625 -0.06261032 -0.06984152 -0.049088094 -0.017030234 -0.036071263
-0.07655827 -0.019458076 -0.0769366 -0.0276194 -0.4743757 -0.044857513 -0.06288543 -0.11015786
-0.00092402764 0.2556588 -0.06546223 -0.07865714 -0.056699913 -0.023693018 -0.07794908 -0.06179283
-0.05973261 -0.60441417 -0.10373445 -0.026916536 0.0037525175 -0.05086053 -0.11759865 -0.06531507
-0.04960199 -0.013658758 -0.08862588 -0.074149124 -0.19296698 -0.06744931 -0.03537666 -0.06869499
-0.3379998 -0.020460898 -0.03943215 -0.07939391 -0.075988315 -0.017713206 -0.08392685 -0.05129236
-0.15170355 -0.024088373 0.18849425 -0.07391992 -0.09580797 -0.03702953 -0.043153737 -0.02279499
-0.014264349 -0.05093972 -0.008061517 -0.14692335 -0.072046675 -0.0951885 -0.02111741 0.26409847
-0.04104901 -0.3035195 -0.0036110524 -0.043089498 -0.03762484 -0.012094935 -0.024171948 -0.077031635
-0.053966835 -0.05506859 -0.0879365 -0.07252999 -0.049892668 -0.052038465 -0.07691631 -0.06651531
-0.00810345 -0.07756591 -0.0190687 -0.03654047 -0.040381573 -0.018566761 -0.08220062 -0.15038303
-0.005929623 -0.11258969 -0.07506324 -0.09672717 -0.08028345 -0.05654263 -0.03867847 -0.064321116
-0.021657703 0.0009977479 -0.08941379 -0.030933782 -0.026809292 -0.045111995 -0.06696642 -0.013798123
-0.03099549 -0.017441805 -0.13518222 -0.06871389 -0.122818284 -0.05925258 -0.084395416 -1.8349094
-0.032908425 -0.11470402 -0.034415208 -0.0756165 -0.037018824 -0.040872604 -0.07871741 -0.11291733
-0.065161765 -0.048419137 -0.06829053 -0.048736654 -0.084190674 -0.049244154 -0.033829387 -0.056425117
-0.092590794 -0.041898277 -0.0034630485 -0.07901985 -0.02269707 -0.029903324 -0.055589516 -0.07638958
-0.062066406 -0.089575745 -0.0359099 -0.060359683 -0.050783683 -0.7996518 -0.030348537 -0.0764187
-0.28432962 -0.023167333 0.00018334888 -0.024836361 -0.024431624 -0.034699738 -0.027663223 -0.017263774
00000000: 3b9e 86bc 7846 c43a 463d 29bd c965 69bd
00000010: 53dc a8bd a815 88bd 5630 c93a 0f63 f2bc
00000020: 2085 60be 3cc2 7abd 198b 97bd 106f b6bd
00000030: 4e5d 53bc 35f0 86bd 5c3d b5bc 42a7 78bd
00000040: d594 a5bd 544d 8bba 4a43 5abd 86fb 8dbe
00000050: 1d02 0abd 93b5 47bf 7932 7fbd 89a2 4abd
00000060: 5278 64bd 6272 81bc 493c 74bf e68c 49bd
00000070: 23fd d1bc b2ac b5bd 41be 63bd b1a0 5bbd
00000080: f858 85bd d11f 10bc 6f0b 75bd 7d43 8cbd
00000090: ae04 72bd 8d5a b2bd 01aa bfbd dd9b 53bf
000000a0: ed77 5ebd 7e46 633c 6cbb 44bd b1b0 c9bd
000000b0: 0453 0dbd 451d f83d e88b a7bc 79aa 0cbd
000000c0: 772f e3be 3a44 57bd 7e90 5dbd d240 0abd
000000d0: a303 70bd 064e 74bd fba3 56bd 8722 5bbd
000000e0: f316 a4bd 0039 99bd 0b48 3ebd 0342 a8bd
000000f0: 4530 5abf ac77 00bf d1d8 a0bc 43ed 2cbd
00000100: d195 e5bc 5656 b8bd c65b b0bd 1bf1 46bd
00000110: 5c63 9fbd 6646 4bbc 4283 863d cc7e a3bd
00000120: eed2 97bd d44b bebd dd9c a5bd 30d4 6dbc
00000130: 1c90 36bd 9e0d 4cbd 199e 82bd e149 32bd
00000140: 2efd a4bd d5e7 c6bd 8ffd a03a a48b a6bd
00000150: 6e9b 96bd 14e8 c0bc 7e3b 2ebf dfda 24be
00000160: d315 52bd 5d8f dcbe ba7a cebd f451 b2bd
00000170: a4b7 83bd db2f 8fbd 5d0a 28bd 026d a8bd
00000180: 607c 40be e8ec 9cbd 0b48 54bf 4e7b 85be
00000190: eb11 09bd 921e 693b d89e eabd d6f2 adbc
000001a0: 68a4 34bd 8170 9dbd 5cad 3bbd d739 80bd
000001b0: 1209 8fbd 9910 49bd fd82 8bbc 76bf 13bd
000001c0: 95ca 9cbd 8b66 9fbc f090 9dbd 1442 e2bc
000001d0: 5fe1 f2be 83bc 37bd 14ca 80bd 729a e1bd
000001e0: 723a 72ba b6e5 823e 1011 86bd ff16 a1bd
000001f0: 2b3e 68bd dc17 c2bc c4a3 9fbd 7a1a 7dbd
00000200: 2eaa 74bd e3ba 1abf ba72 d4bd 1180 dcbc
00000210: ccec 753b 2253 50bd 90d7 f0bd e8c3 85bd
00000220: 752b 4bbd fcc8 5fbc 7c81 b5bd 7fdb 97bd
00000230: 2399 45be dd22 8abd 1ee7 10bd f5af 8cbd
00000240: 4f0e adbe 9d9d a7bc 9b83 21bd 4699 a2bd
00000250: c39f 9bbd 491b 91bc d7e1 abbd f017 52bd
00000260: 2d58 1bbe fb54 c5bc a304 413e 5463 97bd
00000270: f836 c4bd 47ac 17bd f9c1 30bd 8fbc babc
00000280: 04b5 69bc 2ba6 50bd 7414 04bc 1373 16be
00000290: 358d 93bd 30f2 c2bd 6bfe acbc ea37 873e
000002a0: 0223 28bd e866 9bbe 68a7 6cbb 9d7e 30bd
000002b0: 811c 1abd d629 46bc 4004 c6bc c3c2 9dbd
000002c0: 540c 5dbd 9a8f 61bd 0d18 b4bd 9a8a 94bd
000002d0: 415c 4cbd 4926 55bd 4c86 9dbd 2e39 88bd
000002e0: 55c4 04bc e0da 9ebd f635 9cbc 76ab 15bd
000002f0: 2667 25bd 5219 98bc cc58 a8bd 02fe 19be
00000300: 484d c2bb 6c95 e6bd c2ba 99bd e518 c6bd
00000310: a66b a4bd 3f99 67bd 516d 1ebd caba 83bd
00000320: 7f6b b1bc ddc6 823a 941e b7bd d868 fdbc
00000330: 299f dbbc 5bc7 38bd b125 89bd 8611 62bc
00000340: 41ea fdbc 1ee2 8ebc 356d 0abe deb9 8cbd
00000350: 2788 fbbd d5b2 72bd 81d7 acbd 50de eabf
00000360: fcca 06bd f1e9 eabd f6f6 0cbd d3dc 9abd
00000370: 0da1 17bd 086a 27bd 9836 a1bd 3341 e7bd
00000380: 8873 85bd 2553 46bd e8db 8bbd 16a0 47bd
00000390: 296c acbd 3db4 49bd af90 0abd 061e 67bd
000003a0: 3ea0 bdbd 879d 2bbd 50f4 62bb 29d5 a1bd
000003b0: 35ef b9bc d1f7 f4bc d5b1 63bd 2472 9cbd
000003c0: 5839 7ebd 7d73 b7bd 4216 13bd b73b 77bd
000003d0: 8d02 50bd fbb5 4cbf 7f9d f8bc 6881 9cbd
000003e0: a793 91be 6bc9 bdbc 5741 4039 a075 cbbc
000003f0: d424 c8bc 5021 0ebd fc9d e2bc c26c 8dbc

l3.weight f4 [1, 300]
0.017034316 -0.026054747 0.04137711 -0.00074402604 0.019715657 -0.013278404 -0.013198733 -0.028413104
-0.23197304 0.0048476784 0.030592004 0.018047335 -0.008421913 0.015728494 -0.016122295 -0.022152085
-0.014319961 0.028912835 -0.017689746 0.003558469 -0.012587848 -7.176527 -0.025563939 -0.024640188
-0.03769117 -0.010740272 -12.091482 -0.014811651 0.01836649 0.013936538 -0.078174196 -0.00743936
0.023298994 -0.013510621 0.0036906907 -0.005420251 0.036092043 -0.025140414 -0.0270127 -22.587471
0.008664594 0.003637181 -0.01567405 0.020455694 -0.030831292 1.6551583 0.025855443 -0.026033735
-0.42716524 -0.02550518 0.015824163 0.010109273 0.0011374715 0.010104472 0.01593404 0.014065837
-0.0016119499 0.031391557 -0.014190564 -0.0023843176 0.20593475 -1.4025211 0.005144535 0.010397293
-0.018181397 0.0024921885 -0.021780035 -0.00530465 -0.029552039 -0.016594548 0.8952416 -0.015838379
0.023874339 0.0030425075 -0.016530411 0.008518639 -0.0042838706 -0.01689655 -0.028873403 0.0011480654
0.0344825 0.019036485 -0.010320365 -0.008760823 0.0015455888 -0.020688267 -1.1286596 0.010135816
-0.012388469 -0.21901017 -0.02249042 0.0149454735 -0.0069505456 0.02393952 0.007518449 0.01696849
0.25725266 0.019596364 -7.536765 -0.9173874 0.0012214668 0.01972229 0.0008652504 0.042413756
-0.0121964365 -0.0159239 0.017968409 -0.025778988 -0.011181105 0.007177857 0.024680812 -0.009925774
0.005924215 0.0030039363 0.012754308 0.014399706 -0.84758997 0.016517766 0.004554111 -0.0159163
0.015692018 -0.26290104 0.006796347 0.02045038 -0.013644254 -0.01830085 0.019789308 -0.023269571
-0.01023588 17.193201 0.024049342 -0.011592975 0.007404864 -0.0024181774 -0.010420703 -0.030677335
-0.009059525 -0.021120917 0.0030699142 -0.026345251 0.0041284747 -0.011600321 -0.006199723 0.0072559407
-3.3447735 0.0053944206 0.016768124 -0.015226731 -0.03388717 0.0026874866 -0.010402292 -0.015143024
0.1371811 0.039836183 0.18033692 0.014291113 0.007705006 0.0073162774 0.0014063737 -0.2495839
0.017542208 0.031385195 0.3447746 -0.005514072 -0.006816347 -0.022382464 -0.0237365 -0.27271318
-0.02084371 0.017404322 0.014059971 0.0070682713 -0.026252706 -0.0054779216 -0.029602148 -0.007771359
0.030649241 0.028386785 1.4129167 0.018496517 -0.050417744 0.012093613 0.005302157 -0.01778759
0.022009322 -0.016914506 0.012095649 -0.028425245 0.0035342632 -0.004156351 0.01751922 -0.74356717
-0.0289599 -0.009566854 -0.033318188 0.001011378 -0.0051179514 0.012297037 0.00470441 -0.013817532
0.00092325086 -0.014962863 0.016445238 -0.027851285 0.030886976 -0.013156621 -0.012864822 0.015408153
0.03419774 -0.014713124 0.015940158 -0.003256265 0.00024598558 -0.025426045 0.0054602893 0.9726638
-0.007337618 -0.029887836 0.003383752 0.024235511 -0.01803579 19.05125 0.021057531 0.021885293
0.017846918 -0.0029688557 0.003737332 0.0079724975 -0.017397938 0.006515562 -0.029849695 0.024649695
-0.0012664045 0.026863988 -0.0054668263 0.023280483 -0.000503089 0.020525964 0.016590744 -0.017159
-0.029637668 -0.0059764967 0.004406779 -0.020115076 0.019830946 -8.370672 -0.0034024387 0.013803875
3.6337135 0.025695171 -0.02846804 -0.010768425 0.0066101514 0.00792149 0.019481149 0.0037328545
00000000: 8d8b 8b3c c470 d5bc 0b7b 293d be0a 43ba
00000010: bb82 a13c aa8d 59bc 803f 58bc 99c2 e8bc
00000020: 578a 6dbe 46d9 9e3b 159c fa3c 01d8 933c
00000030: 10fc 09bc 0bd9 803c e712 84bc 4a78 b5bc
00000040: 459e 6abc 9cda ec3c 16ea 90bc 3435 693b
00000050: 433d 4ebc 1ca6 e5c0 776b d1bc 38da c9bc
00000060: 0e62 1abd f7f7 2fbc b676 41c1 91ac 72bc
00000070: 5275 963c 1456 643c cb19 a0bd e0c5 f3bb
00000080: 88dd be3c a75b 5dbc 84df 713b 5c9c b1bb
00000090: 40d5 133d 45f3 cdbc bd49 ddbc 24b3 b4c1
000000a0: f1f5 0d3c c55d 6e3b de66 80bc b392 a73c
000000b0: e891 fcbc 3adc d33f cbce d33c b344 d5bc
000000c0: 67b5 dabe 3df0 d0bc ada1 813c 5da1 253c
000000d0: 3617 953a 3a8d 253c 1b88 823c 6574 663c
000000e0: 1048 d3ba 6f94 003d 8a7f 68bc 3642 1cbb
000000f0: 8fe0 523e d085 b3bf 7d93 a83b 6859 2a3c
00000100: 27f1 94bc fc53 233b 0b6c b2bc a1d2 adbb
00000110: 1e17 f2bc 4af1 87bc 8e2e 653f 7dbf 81bc
00000120: 1e94 c33c ce64 473b c96a 87bc c391 0b3c
00000130: b65f 8cbb a26a 8abc ea87 ecbc af7a 963a
00000140: 863d 0d3d 67f2 9b3c c016 29bc 8e89 0fbc
00000150: 5b95 ca3a 717a a9bc eb77 90bf b210 263c
00000160: 01f9 4abc 3444 60be d43d b8bc dcdd 743c
00000170: 67c1 e3bb d01c c43c 525d f63b 8101 8b3c
00000180: 9fb6 833e 8e88 a03c 2e2d f1c0 e7d9 6abf
00000190: a019 a03a a490 a13c f9d1 623a 0cba 2d3d
000001a0: 90d3 47bc d772 82bc 7c32 933c 752e d3bc
000001b0: f430 37bc 3b34 eb3b 6a2f ca3c b79f 22bc
000001c0: eb1f c23b b0dd 443b 72f7 503c bfec 6b3c
000001d0: a8fb 58bf 4450 873c a73a 953b e662 82bc
000001e0: 8c8c 803c f79a 86be e4b3 de3b 8e87 a73c
000001f0: 268c 5fbc aaeb 95bc 301d a23c d49f bebc
00000200: 64b4 27bc ad8b 8941 2003 c53c 76f0 3dbc
00000210: 80a4 f23b 497a 1ebb 99bb 2abc 094f fbbc
00000220: 676e 14bc c605 adbc 9d30 493b ffd1 d7bc
00000230: 2848 873b 460f 3ebc 0c27 cbbb 3ec3 ed3b
00000240: c510 56c0 aec3 b03b 4e5d 893c 8a79 79bc
00000250: 46cd 0abd 8b20 303b 606e 2abc 721a 78bc
00000260: 3479 0c3e 442b 233d 3eaa 383e 4625 6a3c
00000270: 467a fc3b 62bd ef3b 1256 b83a ec92 7fbe
00000280: adb4 8f3c c38d 003d 4c86 b03e 63af b4bb
00000290: aa5b dfbb 6e5b b7bc 0c73 c2bc 10a1 8bbe
000002a0: 6ec0 aabc 8293 8e3c cb5b 663c f59c e73b
000002b0: ea0f d7bc 2380 b3bb 3480 f2bc e2a6 febb
000002c0: 1e14 fb3c 678b e83c 74da b43f 0286 973c
000002d0: d682 4ebd 4a24 463c b7bd ad3b 48b7 91bc
000002e0: e54c b43c 4a90 8abc d42c 463c 0fdc e8bc
000002f0: 199f 673b 0032 88bb 7884 8f3c 6b5a 3ebf
00000300: 503d edbc 4bbe 1cbc a778 08bd 3790 843a
00000310: 7db4 a7bb 8379 493c 7427 9a3b ee62 62bc
00000320: 5106 723a cc26 75bc 2ab8 863c 6128 e4bc
00000330: af06 fd3c de8e 57bc f9c6 52bc 7a72 7c3c
00000340: ee12 0c3d 510f 71bc ef94 823c 1067 55bb
00000350: a0f7 8039 484a d0bc 3aec b23b 7f00 793f
00000360: 6770 f0bb 56d7 f4bc f0c1 5d3b 8d89 c63c
00000370: cbbf 93bc f668 9841 d880 ac3c c948 b33c
00000380: b333 923c 2291 42bb 07ee 743b 149f 023c
00000390: 1f86 8ebc 7f80 d53b 5987 f4bc 28ee c93c
000003a0: 7cfd a5ba de11 dc3c 1023 b3bb b6b6 be3c
000003b0: bbe1 03ba 1126 a83c 50e9 873c 0891 8cbc
000003c0: b2ca f2bc 7dd6 c3bb be66 903b 5fc8 a4bc
000003d0: 8274 a23c 46ee 05c1 73fb 5ebb a629 623c
000003e0: c38e 6840 ae7e d23c cf35 e9bc 0c6e 30bc
000003f0: f899 d83b 23c9 013c ee96 9f3c e8a2 743b
