InvDoublePendulum/InvertedDoublePendulum-v4_actor_finalized_06.pth (torch, 504698 bytes, 5 tensors)

l1.weight f4 [400, 11]
-0.3648253 -0.4980696 0.82592905 0.018644305 -0.1279104 -0.052670036 -0.20868225 -0.09783396
0.13613021 -0.08861171 -0.23498906 -0.19285241 0.059879635 0.1500745 -0.1240254 -0.47727218
-0.07169964 -0.1120533 0.13041274 -0.22599043 -0.21454546 -0.16459465 0.28704652 -0.3166115
-0.76169187 -0.22439206 0.16175513 -0.18646559 -0.2004826 -0.014297327 -0.09855131 -0.07929289
0.108264536 -0.046206087 -0.22282512 -0.23870954 -0.08090302 -0.38459396 0.26149407 0.20810789
0.0019054675 0.23364484 -0.22235218 -0.21010435 -0.12087176 -0.32443765 0.18131551 -0.42401376
-0.36151695 0.029635413 -0.12640624 0.13643211 0.21608175 0.106303394 -0.08684209 0.14754298
0.31921223 1.4978932 0.28451124 -0.098148435 0.23201329 0.30768365 0.16623066 0.12260151
-0.23901711 -0.05512941 -0.13731536 0.015054599 -0.1433612 -0.13993962 -0.28607753 -0.027977442
0.15952751 0.088326246 0.3184892 -0.23494673 0.21842474 -0.6370886 -0.96849936 0.019780075
-0.05148626 -0.09832723 -0.18914987 -0.10867733 -0.021042064 -0.06596431 0.121512175 -0.25065973
-0.20751086 0.0047417777 -0.2198721 -0.35428828 -0.4112167 0.05991693 0.031152792 -0.21512339
0.14437342 0.22523826 0.28549087 -0.1431922 0.3301079 -0.07900551 -0.05120295 -0.320251
0.14503536 -0.15958214 -0.22905564 -0.28962895 0.008574367 -0.29790494 0.12031668 0.6583943
-0.6253487 -0.12217007 -0.22904861 0.28671223 0.18752332 -0.0041629635 0.23351316 -0.2623745
-0.21161662 0.14974982 -0.4350095 0.05674268 -0.08995572 -0.19674209 0.11241864 0.0007798523
-0.1262514 -0.20500918 -0.21892634 0.036469012 -0.4037152 0.17343292 0.09783906 -0.23673585
-0.4207492 0.15069501 0.14941463 -0.07286721 0.042437058 -0.22420435 -0.24273987 -0.13154666
0.99827415 1.5007282 0.06440063 -0.03945766 -0.16379155 0.2485037 0.28837386 0.32182342
-0.2505633 -0.013899177 0.33973497 -0.09946851 0.26004308 -0.24940951 -0.45425007 0.3408192
-0.0016153288 -0.08064777 -0.0044955295 -0.086346075 0.16910884 0.12277636 0.056950793 0.8710078
0.06360148 0.16676192 0.14353588 0.2647387 0.21953812 -0.11442545 -0.1250139 0.0773457
0.25243202 0.39429963 -1.2895553 0.17061749 -0.041648872 -0.27711922 -0.17992625 -0.061003834
0.06691323 0.11646539 0.26787126 0.007284843 0.3567383 0.4244592 0.071637 -0.35341313
0.13763121 0.057716895 -0.013875524 0.05227114 0.23305702 0.28417248 0.15186219 -0.28478175
0.313685 -0.16696993 -0.26909262 0.05875874 -0.102603495 -0.1272607 0.23595984 -0.05607985
-0.29483616 -0.014662407 -0.21435216 -0.2269063 -0.37915093 -0.518475 0.1530112 -0.24591786
-0.29065984 -0.23216929 -0.0958986 -0.02641818 -0.2576435 -0.2843512 -0.22506273 -0.2567789
-0.23232086 0.23095322 -0.07088843 -0.108887136 -0.20669217 0.15130877 -0.035221636 0.35298365
-0.42929763 1.3518091 -0.061855778 0.020476539 0.11867685 -0.17844586 0.1228526 -0.093674324
-0.05514346 0.23049104 0.03953801 -0.499076 -0.41220978 -0.12836614 -0.3260789 0.061151184
-0.16502893 -0.02769419 -0.02370159 -0.1446559 0.14135262 0.724653 0.04748076 0.2298052
00000000: 62ca babe fb02 ffbe 1670 533f f1bb 983c
00000010: f2fa 02be 89bc 57bd cdb0 55be 2c5d c8bd
00000020: b865 0b3e 0e7a b5bd f9a0 70be 1a7b 45be
00000030: 5944 753d 21ad 193e 0701 febd 055d f4be
00000040: 43d7 92bd 337c e5bd eb8a 053e 096a 67be
00000050: ceb1 5bbe 808b 28be c3f7 923e e71a a2be
00000060: 3dfe 42bf 08c7 65be 23a3 253e d6f0 3ebe
00000070: 504b 4dbe 563f 6abc 45d5 c9bd 5064 a2bd
00000080: ccb9 dd3d 9842 3dbd 452c 64be 4670 74be
00000090: 7cb0 a5bd 80e9 c4be 8de2 853e 3c1a 553e
000000a0: e1c0 f93a 9840 6f3e 4ab0 63be 9825 57be
000000b0: 9d8b f7bd b11c a6be c6aa 393e 5518 d9be
000000c0: c018 b9be f7c5 f23c a370 01be dcb4 0b3e
000000d0: 8944 5d3e 98b5 d93d 44da b1bd 8215 173e
000000e0: c96f a33e f7ba bf3f 75ab 913e 0c02 c9bd
000000f0: e494 6d3e b688 9d3e 5f38 2a3e 8016 fb3d
00000100: e7c0 74be 60cf 61bd 669c 0cbe 91a7 763c
00000110: 47cd 12be 554c 0fbe c178 92be f330 e5bc
00000120: 2e5b 233e 64e4 b43d 0411 a33e e095 70be
00000130: bcaa 5f3e 3d18 23bf 93ef 77bf d309 a23c
00000140: 42e3 52bd c95f c9bd 81b0 41be 3892 debd
00000150: 6860 acbc 4c18 87bd 60db f83d 7956 80be
00000160: ba7d 54be ea60 9b3b 2726 61be 4665 b5be
00000170: ff8a d2be 746b 753d 2434 ff3c 4e49 5cbe
00000180: a0d6 133e dca4 663e dc2b 923e faa0 12be
00000190: e703 a93e a4cd a1bd 2fba 51bd f0f7 a3be
000001a0: 2684 143e 8069 23be 908d 6abe 3f4a 94be
000001b0: 807b 0c3c ff86 98be 9768 f63d 878c 283f
000001c0: da16 20bf 4d34 fabd b88b 6abe f2cb 923e
000001d0: 1d06 403e 7869 88bb 131e 6f3e f355 86be
000001e0: 07b2 58be 0458 193e 91b9 debe 036b 683d
000001f0: b43a b8bd c276 49be be3b e63d 006f 4c3a
00000200: 0c48 01be eded 51be 3a2e 60be 8860 153d
00000210: c2b3 cebe 6698 313e d85f c83d e26a 72be
00000220: 706c d7be cb4f 1a3e 2600 193e 673b 95bd
00000230: 7bd2 2d3d d395 65be cd90 78be 2bb4 06be
00000240: e58e 7f3f dd17 c03f 7ae4 833d 5b9e 21bd
00000250: f9b8 27be c177 7e3e bda5 933e 0ac6 a43e
00000260: d549 80be 60b9 63bc bef1 ad3e 25b6 cbbd
00000270: 5e24 853e 3565 7fbe 7793 e8be db7f ae3e
00000280: 71b9 d3ba a82a a5bd 3c4f 93bb 36d6 b0bd
00000290: de2a 2d3e 2c72 fb3d 3c45 693d 5efa 5e3f
000002a0: 7e41 823d a3c3 2a3e 12fb 123e d58b 873e
000002b0: 9ace 603e e457 eabd a503 00be 6c67 9e3d
000002c0: c53e 813e a4e1 c93e 2610 a5bf 5ab6 2e3e
000002d0: 0298 2abd 92e2 8dbe 963e 38be 28df 79bd
000002e0: ce09 893d 6885 ee3d 6c26 893e b1b5 ee3b
000002f0: 67a6 b63e b752 d93e 6bb6 923d 91f2 b4be
00000300: 32ef 0c3e 8d68 6c3d 2a56 63bc 431a 563d
00000310: 80a6 6e3e 0e7f 913e c381 1b3e eace 91be
00000320: 529b a03e 2afa 2abe 82c6 89be 01ad 703d
00000330: c821 d2bd a150 02be 759f 713e fcb3 65bd
00000340: c4f4 96be 983a 70bc 227f 5bbe 205a 68be
00000350: 1220 c2be c7ba 04bf f8ae 1c3e e4d1 7bbe
00000360: 5ed1 94be c9bd 6dbe 7c66 c4bd f06a d8bc
00000370: d9e9 83be 7b96 91be d876 66be 8678 83be
00000380: 85e5 6dbe 007f 6c3e f42d 91bd 3800 dfbd
00000390: 1da7 53be b0f0 1a3e 9044 10bd 46ba b43e
000003a0: e6cc dbbe 1508 ad3f 7c5c 7dbd 6abe a73c
000003b0: d90c f33d 83ba 36be 259a fb3d 53d8 bfbd
000003c0: 1cde 61bd d805 6c3e 9cf2 213d e486 ffbe
000003d0: 290d d3be 6a72 03be d0f3 a6be aa79 7a3d
000003e0: 58fd 28be edde e2bc d629 c2bc ad20 14be
000003f0: bebe 103e dc82 393f 2f7b 423d 0e52 6b3e

l1.bias f4 [400]
0.11790888 -0.42122236 -0.100846246 -0.33536908 -0.19796833 -0.078418374 -0.04457957 -0.054472577
-0.10377154 -0.10291077 0.013303873 -0.42302385 -0.23051687 0.040526815 -0.22986203 -0.033646725
-0.19018792 0.05555809 -0.11307173 -0.2675652 0.045072347 -0.10515685 0.08530508 -0.11000088
-0.02182523 -0.11272669 -0.08123771 -0.17548558 -0.076678485 0.15416826 -0.43979698 -0.09115201
-0.0946322 -0.26298094 -0.3071015 -0.14970522 0.060896005 -0.40681958 0.016404616 -0.28900418
0.09923196 -0.23787497 -0.2587135 -0.16561292 -0.0015234033 -0.3665258 -0.28638327 -0.19834498
0.11309522 -0.3230099 -0.15755527 -0.4132664 -0.35137278 0.11263347 -0.37034684 -0.07608018
0.2735895 0.077444606 0.003241831 -0.081539474 -0.39612544 -0.40338987 -0.26438048 0.035406042
-0.41596335 -0.040094215 -0.29643002 0.04978957 -0.095160164 0.036654588 -0.24898943 -0.05607601
-0.41410455 0.21627985 -0.3682763 0.08317214 0.028487956 -0.13278921 -0.1626556 -0.11898866
-0.059414044 -0.28575113 -0.2664583 -0.19048621 -0.17313805 0.09503832 -0.18836805 -0.36209115
-0.012797515 -0.21288352 0.019560246 -0.2634575 -0.52542824 -0.40433207 -0.24182703 -0.14341806
0.12696108 -0.19052647 -0.06104308 -0.28713426 -0.11630807 -0.033067483 -0.5316645 0.025385983
-0.3005255 -0.0042524263 -0.08531953 -0.03705089 0.03252935 0.062160157 -0.48483562 0.14232767
0.18808231 -0.065213054 -0.22197025 0.01494926 -0.34020552 -0.25159284 0.10928816 -0.20333713
-0.10704294 0.1740405 0.17723031 0.004772774 -0.32727742 -0.27222428 -0.12605476 0.10229878
-0.056047175 -0.14630018 -0.04142407 0.3047328 -0.07052706 -0.086074 -0.01034201 -0.4114535
-0.08248309 -0.15425152 -0.18509747 0.0031926902 0.22191735 -0.45260286 -0.08422502 0.1342761
-0.07779735 0.058009334 -0.024729384 0.16537733 0.011467736 -0.07807828 -0.30313545 -0.2553338
-0.18382147 -0.09622955 -0.2166601 -0.09486459 -0.024554107 -0.22784838 0.058799125 -0.08264267
-0.05239651 0.09691907 0.1155606 -0.38190058 -0.38212425 0.01844447 0.11622352 -0.41968244
-0.32131204 -0.48410335 -0.20307921 -0.28193712 -0.24780191 -0.12198413 0.00841154 -0.45835567
0.04228242 0.0808181 -0.31924373 -0.26094902 -0.13416217 0.1885806 -0.06421169 -0.0026073442
-0.3671561 0.0079824515 -0.005367081 0.05856848 -0.07752183 -0.27229086 -0.13652793 -0.52025664
-0.13224722 -0.29772592 -0.12489561 -0.13794127 -0.16546805 0.05840877 -0.052386258 -0.27218586
-0.23496425 -0.09449078 -0.23341784 -0.08218299 -0.22309445 -0.3574545 -0.3168314 -0.11653228
-0.020199513 -0.23133123 -0.43342754 0.02443988 0.08454017 -0.19775549 -0.2794427 0.07435363
0.11838805 -0.24056722 -0.006087705 -0.2956548 0.027258396 0.05209521 -0.11706382 -0.062484603
-0.017294481 -0.023409279 -0.17495278 -0.037646707 0.04799852 -0.21779284 0.097903416 -0.18234284
-0.08118046 -0.22530772 -0.32909805 -0.21263494 0.096507095 -0.22885688 0.00021560433 -0.4368511
-0.28020325 0.025598451 -0.2238106 -0.16478138 -0.10137688 -0.318148 -0.040506978 -0.141625
0.036044955 0.14206 -0.20464483 -0.27232775 -0.16993742 -0.007150035 -0.2922488 0.032514628
00000000: 367a f13d 75aa d7be 7a88 cebd 7fb5 abbe
00000010: 36b8 4abe d099 a0bd 1199 36bd a31e 5fbd
00000020: 2c86 d4bd e2c2 d2bd 7df8 593c 9596 d8be
00000030: 9d0c 6cbe 72ff 253d f460 6bbe 26d1 09bd
00000040: 9fc0 42be e190 633d 2792 e7bd 4efe 88be
00000050: c89d 383d 795c d7bd 6eb4 ae3d 2448 e1bd
00000060: d3ca b2bc 40dd e6bd f55f a6bd 7eb2 33be
00000070: 9c09 9dbd 49de 1d3e 122d e1be e8ad babd
00000080: 87ce c1bd 70a5 86be 683c 9dbe 534c 19be
00000090: 176e 793d a84a d0be f962 863c 5bf8 93be
000000a0: 203a cb3d 7f95 73be 1976 84be 6f96 29be
000000b0: efac c7ba 45a9 bbbe d4a0 92be f21a 4bbe
000000c0: 779e e73d 8e61 a5be 2b56 21be a797 d3be
000000d0: 22e7 b3be 60ac e63d 1a9e bdbe edcf 9bbd
000000e0: ec13 8c3e 479b 9e3d e674 543b 2bfe a6bd
000000f0: f4d0 cabe 1e89 cebe e15c 87be ed05 113d
00000100: 26f9 d4be d539 24bd adc5 97be 26f0 4b3d
00000110: 55e3 c2bd 1f23 163d 16f7 7ebe f5af 65bd
00000120: 8305 d4be 7778 5d3e b68e bcbe 2856 aa3d
00000130: 935f e93c e5f9 07be 318f 26be 54b0 f3bd
00000140: 245c 73bd f94d 92be 396d 88be d10e 43be
00000150: 1a4b 31be 73a3 c23d 8ee3 40be 0364 b9be
00000160: abac 51bc 23fe 59be cf3c a03c e7e3 86be
00000170: 7782 06bf 9d04 cfbe 81a1 77be 2fdc 12be
00000180: 1602 023e 5f19 43be 4f08 7abd 4303 93be
00000190: ed32 eebd c571 07bd 2a1b 08bf 44f6 cf3c
000001a0: 7ade 99be f057 8bbb 01bc aebd adc2 17bd
000001b0: 7f3d 053d a69b 7e3d 603c f8be 58be 113e
000001c0: a698 403e 6c8e 85bd 2b4c 63be beed 743c
000001d0: 6b2f aebe c7d0 80be 79d2 df3d 9c37 50be
000001e0: 5439 dbbd ac37 323e dd7b 353e ee64 9c3b
000001f0: e890 a7be fb60 8bbe 8014 01be 0682 d13d
00000200: b991 65bd b7cf 15be 49ac 29bd f005 9c3e
00000210: 7e70 90bd 9147 b0bd 8971 29bc 08aa d2be
00000220: e5ec a8bd 1cf4 1dbe 318a 3dbe 743c 513b
00000230: 4d3e 633e 90bb e7be 2b7e acbd ad7f 093e
00000240: 3854 9fbd 329b 6d3d 4795 cabc ad58 293e
00000250: 2ce3 3b3c 81e7 9fbd 9234 9bbe 1dbb 82be
00000260: b23b 3cbe 0014 c5bd 25dc 5dbe 5e48 c2bd
00000270: b225 c9bc 1651 69be 5ad7 703d 8f40 a9bd
00000280: b99d 56bd 817d c63d 09ab ec3d 7988 c3be
00000290: caa5 c3be db18 973c 9906 ee3d 9ee0 d6be
000002a0: 0383 a4be 65dc f7be fff3 4fbe 105a 90be
000002b0: c9bf 7dbe d1d2 f9bd 8ed0 093c 98ad eabe
000002c0: 5530 2d3d f683 a53d ea73 a3be 1c9b 85be
000002d0: cf61 09be 461b 413e 6b81 83bd fadf 2abb
000002e0: e2fb bbbe d4c8 023c 57de afbb 81e5 6f3d
000002f0: c4c3 9ebd b569 8bbe facd 0bbe 8a2f 05bf
00000300: d16b 07be 886f 98be 45c9 ffbd 7a40 0dbe
00000310: 7570 29be 093e 6f3d f992 56bd f25b 8bbe
00000320: 789a 70be 6284 c1bd 1605 6fbe 8e4f a8bd
00000330: df72 64be 4704 b7be ba37 a2be 7aa8 eebd
00000340: 7379 a5bc 18e2 6cbe 37ea ddbe 2536 c83c
00000350: 6623 ad3d 6a80 4abe 1d13 8fbe b746 983d
00000360: 6f75 f23d 4157 76be 5f7b c7bb 1160 97be
00000370: 004d df3c c961 553d 28bf efbd dbef 7fbd
00000380: 28ad 8dbc d1c4 bfbc d226 33be 6f33 1abd
00000390: 199a 443d 1605 5fbe 9681 c83d 15b8 3abe
000003a0: f141 a6bd 11b7 66be 8a7f a8be f9bc 59be
000003b0: 83a5 c53d 7559 6abe d913 6239 f3aa dfbe
000003c0: cd76 8fbe d8b3 d13c 9b2e 65be 73bc 28be
000003d0: af9e cfbd 4be4 a2be a5ea 25bd 2506 11be
000003e0: e0a3 133d 2d78 113e 6a8e 51be 8b6e 8bbe
000003f0: 1304 2ebe d74a eabb a2a1 95be 0f2e 053d

l2.weight f4 [300, 400]
-0.021889642 0.029488575 -0.048912242 -0.0025228262 -0.03174468 0.029885981 0.021497253 -0.008739844
0.018322084 0.017621186 -0.027706712 0.044341657 -0.04323123 0.03932264 -0.042630076 -0.07453047
-0.020446725 -0.072202384 -0.01827895 0.023246977 -0.008113544 -0.008602398 -0.011863314 -0.037838947
-0.07088895 -0.050702464 -0.0027425475 -0.020694662 -0.004054118 -0.041307792 -0.046358973 -0.024606634
-0.012367095 0.011148155 0.031782936 -0.07177663 0.04757702 -0.04367006 0.037807237 -0.026778793
0.0036805868 -0.008474726 0.034920935 -0.0038708858 -0.035929743 0.049608056 -0.045606073 -0.03251348
0.015988808 -0.043378394 0.0074512768 0.019310933 -0.016327702 0.017910246 -0.029122675 -0.009334356
-0.048177388 -0.06101647 0.0030700928 -0.060846753 0.0001260154 0.008941092 0.02522533 0.008324812
-0.027683794 0.0039567547 -0.037708152 -0.021621192 -0.006444827 -0.034792192 -5.9146434e-05 -0.014354914
-0.0014423952 -0.015546847 0.012633736 0.011949003 -0.0008503127 0.0012898147 0.036704373 -0.00015308335
-0.032621853 -0.015799891 0.018805016 -0.045260053 -0.007798425 -0.044625785 -0.0165542 -0.026925415
-0.07322703 -0.011393495 -0.05829159 0.03174207 -0.027892817 -0.017115135 0.023408912 0.047305558
0.002759957 0.019458856 -0.029011553 -0.011293543 0.016720738 0.002001278 -0.0058600903 0.0006386278
0.016861152 -0.033701558 -0.035867818 -0.019148488 -0.067467324 0.027228672 0.006638456 -0.03155864
-0.023726488 -0.0416153 -0.004506744 0.010342926 0.011813716 -0.011046329 -0.033771813 0.005064251
0.023966637 0.0015870929 0.01498158 -0.05380777 -0.0301728 -0.009964932 -0.033575624 0.0019066744
-0.0005117245 -0.04736228 0.046208937 -0.0378273 -0.038433872 -0.017315514 0.036830273 -0.07111965
-0.00025186 0.04873259 -0.0067804456 -0.008552998 -0.03309681 0.016689386 0.008333928 -0.06180202
-0.027795415 0.019237544 -0.025997736 -0.036971986 -0.03817041 -0.031218506 -0.046912253 -0.009524263
-0.018937415 -0.07498854 0.02009724 0.0026823129 -0.040872112 0.04653536 -0.047600724 0.019229721
-0.03610023 -0.06289628 0.016013745 0.040036086 -0.046607472 -0.01652151 -0.042458184 -0.025729347
-0.012748051 0.00077254325 0.0077534085 -0.02147286 -0.041603595 0.026541423 -0.016227257 -0.03220327
-0.032557733 -0.039954722 -0.034812592 0.0048534 -0.034980014 -0.0111615155 -0.07446436 -0.017103832
-0.039375834 -0.0022051726 -0.0053110905 -0.047673773 -0.04206868 -0.040710144 -0.03464117 0.01091953
0.03876892 -0.019236637 0.0067602918 0.012119349 0.043375712 -0.03484376 -0.014280635 -0.04353848
-0.014079321 0.001723092 -0.013596971 -0.024964862 -0.039659638 0.028106738 0.042440224 0.030154657
0.04114783 0.038413446 0.005335413 0.013469439 0.019184504 0.011507947 0.04182597 0.008254677
0.015356838 1.3958663e-05 0.031831402 -0.038521282 -0.051247433 -0.01493166 -0.0060331523 -0.06250873
-0.01812832 -0.06331263 0.010082394 -0.04284438 0.012951254 0.0022413842 -0.059179053 -0.037406344
-0.047838937 0.021642376 -0.069705844 0.00953231 0.015622122 0.014329825 -0.021789098 -0.017781133
-0.0072536394 -0.055879653 -0.013659 0.037529085 -0.07255586 0.037063655 -0.0100850165 0.025466893
0.006973598 -0.0054368502 -0.054375183 -0.020271694 0.047463875 -0.004061252 0.04884709 -0.03451111
00000000: e851 b3bc 0692 f13c 3458 48bd 0056 25bb
00000010: b606 02bd 72d3 f43c 021b b03c 9031 0fbc
00000020: 3218 963c 4e5a 903c 30f9 e2bc 999f 353d
00000030: 3b13 31bd c710 213d e09c 2ebd 6ea3 98bd
00000040: e47f a7bc d8de 93bd bdbd 95bc 7270 be3c
00000050: acee 04bc 13f1 0cbc 585e 42bc 03fd 1abd
00000060: 3a2e 91bd 63ad 4fbd 50bc 33bb da87 a9bc
00000070: 68d8 84bb 5c32 29bd e8e2 3dbd da93 c9bc
00000080: 5b9f 4abc c0a6 363c d32e 023d a0ff 92bd
00000090: 1fe0 423d 60df 32bd c3db 1a3d 335f dbbc
000000a0: 0036 713b 94d9 0abc 4109 0f3d b0ae 7dbb
000000b0: 112b 13bd d131 4b3d 6fcd 3abd db2c 05bd
000000c0: f6fa 823c 8bad 31bd d729 f43b f631 9e3c
000000d0: acc1 85bc 82b8 923c ad92 eebc 20ef 18bc
000000e0: a755 45bd 68ec 79bd 9c33 493b 723a 79bd
000000f0: 0023 0439 a87d 123c 5aa5 ce3c cb64 083c
00000100: 20c9 e2bc aaa7 813b dd73 1abd ed1e b1bc
00000110: 212f d3bb 4282 0ebd 0014 78b8 e030 6bbc
00000120: c00e bdba 34b8 7ebc bbfd 4e3c c0c5 433c
00000130: 85e7 5eba 000f a93a 5357 163d 0085 20b9
00000140: 7e9e 05bd c66e 81bc fa0c 9a3c 9b62 39bd
00000150: ee89 ffbb 87c9 36bd ac9c 87bc b092 dcbc
00000160: 0ef8 95bd c8ab 3abc 2ac3 6ebd f903 023d
00000170: 7a7f e4bc 0a35 8cbc 0cc4 bf3c 79c3 413d
00000180: 65e0 343b 2e68 9f3c a3a9 edbc 8d08 39bc
00000190: eef9 883c e027 033b 0006 c0bb 9669 273a
000001a0: 6620 8a3c a50a 0abd 22ea 12bd 4add 9cbc
000001b0: 4f2c 8abd aa0e df3c 6887 d93b a243 01bd
000001c0: 0d5e c2bc ce74 2abd 4fad 93bb 6075 293c
000001d0: 518e 413c a9fb 34bc 5054 0abd 04f2 a53b
000001e0: ae55 c43c 0006 d03a 4d75 753c 8965 5cbd
000001f0: f32c f7bc f443 23bc 9886 09bd 60e9 f93a
00000200: 4025 06ba f3fe 41bd 9545 3d3d cdf0 1abd
00000210: d66c 1dbd 44d9 8dbc 57db 163d 2ea7 91bd
00000220: 140c 84b9 d39b 473d 802e debb e021 0cbc
00000230: 8590 07bd 2eb8 883c 078b 083c 1d24 7dbd
00000240: 36b3 e3bc 0e98 9d3c 34f9 d4bc f06f 17bd
00000250: 9358 1cbd f4bd ffbc 1027 40bd a80b 1cbc
00000260: a322 9bbc 9793 99bd f8a2 a43c bec9 2f3b
00000270: 8469 27bd dd9b 3e3d faf8 42bd a687 9d3c
00000280: d6dd 13bd c4cf 80bd 422f 833c e1fc 233d
00000290: 7ae7 3ebd 1e58 87bc a2e8 2dbd 5ac6 d2bc
000002a0: 34dd 50bc 8084 4a3a 4e10 fe3b dae7 afbc
000002b0: 8868 2abd 666d d93c 06ef 84bc 93e7 03bd
000002c0: 425b 05bd 90a7 23bd a697 0ebd 4509 9f3b
000002d0: 3447 0fbd cade 36bc c580 98bd 561d 8cbc
000002e0: 8e48 21bd a884 10bb a808 aebb 9345 43bd
000002f0: 3550 2cbd aebf 26bd e6e3 0dbd d4e7 323c
00000300: 29cc 1e3d 2796 9dbc 7085 dd3b 3c90 463c
00000310: bbaa 313d 55b8 0ebd 53f9 69bc 6855 32bd
00000320: f4ac 66bc 60d9 e13a d4c5 5ebc 1c83 ccbc
00000330: 2572 22bd 1a40 e63c cdd5 2d3d e606 f73c
00000340: a18a 283d 6b57 1d3d b0d4 ae3b ecae 5c3c
00000350: d228 9d3c d48b 3c3c b551 2b3d a03e 073c
00000360: 3f9b 7b3c 0030 6a37 a561 023d 7ec8 1dbd
00000370: d4e8 51bd eca3 74bc c0b1 c5bb 9404 80bd
00000380: d881 94bc 0daa 81bd a030 253c 977d 2fbd
00000390: 7f31 543c 30e4 123b bc65 72bd 6537 19bd
000003a0: c3f2 43bd 5a4b b13c f0c1 8ebd 682d 1c3c
000003b0: eef3 7f3c a4c7 6a3c 0d7f b2bc bda9 91bc
000003c0: f0af edbb 10e2 64bd 00ca 5fbc 19b8 193d
000003d0: 2b98 94bd 0fd0 173d a03b 25bc f29f d03c
000003e0: c882 e43b 9b27 b2bb 83b8 5ebd d310 a6bc
000003f0: 7b69 423d 4014 85bb e313 483d 865b 0dbd

l2.bias f4 [300]
-0.013500563 0.0014974615 -0.011871939 -0.025283694 -0.07773572 -0.066447556 0.0015349488 0.004048383
-0.18146361 -0.033104546 -0.04224857 -0.057313737 -0.012900664 -0.065887846 -0.022123985 -0.028941514
-0.04908508 -0.0010627904 -0.053286828 -0.07155388 0.008430392 -0.13297185 -0.062303994 -0.021155804
-0.015294483 -0.015801612 -0.29466432 -0.03433283 -0.0256334 -0.05694718 0.008042585 -0.053620044
-0.02720699 0.022968542 0.0010368926 -0.03672731 -0.025661666 -0.055322077 -0.093585975 -0.009562957
-0.032654382 0.0061956975 -0.048030302 -0.03116108 -0.034502998 0.031188024 0.011235786 -0.034342263
0.08443129 -0.0525553 -0.022327846 -0.012702764 -0.038886897 -0.05964472 0.0035875302 -0.053499725
-0.0801219 -0.03400264 -0.014694874 -0.05926992 -0.036284324 -0.009694813 0.012122682 -0.042218458
0.0036143593 -0.06615561 -0.086112544 -0.016805373 -0.07782623 0.01628826 0.008708145 -0.07983169
-0.074132785 -0.09291807 -0.042373966 0.011083091 -0.044571027 0.009780433 0.0068418654 0.008876501
-0.027714685 -0.0463954 0.0012282598 -0.03991888 -0.073538646 -0.023548163 0.07298027 -0.051239856
-0.051290344 -0.13689648 -0.06935246 -0.05531629 -0.037517354 -0.03865498 -0.009263037 -0.022258958
-0.002119056 -0.050625186 0.07415974 -0.12200355 -0.033464354 0.00355712 -0.05612376 0.015507577
-0.012339656 -0.045139052 -0.014095139 -0.02501329 -0.038076434 -0.01732439 0.014731899 -0.036071263
-0.049011555 0.012307107 -0.0769366 -0.0276194 -0.2810205 -0.019154811 -0.06288543 -0.07839267
0.016324094 0.18733709 -0.03381043 -0.07865714 -0.056699913 0.008071188 -0.046183854 -0.06179283
0.0037916806 -0.060641795 -0.072179414 0.004848089 0.0037525175 -0.05086053 -0.032667413 -0.033589274
-0.04960199 -0.013658758 -0.062904075 -0.04238798 -0.04270676 -0.005777665 -0.03537666 -0.06869499
-0.023063432 0.009545925 -0.0076964223 -0.07939391 -0.014736539 -0.017713206 -0.08392685 -0.019527653
-0.07453448 -0.024088373 0.07635088 -0.042154655 -0.09580797 -0.03702953 -0.03040233 -0.1677343
0.008660778 -0.019188566 -0.045539834 -0.06386738 0.01068151 -0.06342474 0.010647115 0.13518092
-0.0092844125 -0.22386207 -0.0036110524 -0.043089498 -0.03762484 -0.012094935 -0.024171948 -0.045504767
-0.053966835 -0.023308339 -0.023087818 -0.04076528 -0.002162709 -0.052038465 -0.04911714 -0.0042365664
-0.00810345 -0.07756591 -0.026373187 -0.0048074694 -0.0013610432 0.019240253 -0.05043589 -0.011133627
0.02579047 -0.030707905 -0.07506324 -0.05684399 -0.08028345 -0.02478179 -0.0069135493 -0.064321116
0.010108038 0.0009977479 -0.073384695 0.0008282436 0.002349319 -0.045111995 -0.03520219 0.0113395825
-0.030886287 -0.017441805 -0.065634176 -0.062984414 -0.056566548 -0.05925258 -0.072227776 -0.20314983
-0.032908425 -0.06344123 -0.034415208 -0.0756165 0.0066886535 -0.15799686 -0.07871741 -0.08115841
-0.065161765 0.015107262 -0.06829053 -0.048736654 -0.084190674 -0.01750008 0.00804205 0.0070932694
-0.035189793 -0.010143046 -0.0034630485 -0.04727226 0.008668617 0.0018612224 0.02602576 -0.07638958
-0.030532502 -0.057815183 -0.0061055757 -0.060359683 -0.019048965 -0.25504482 -0.0055206134 -0.0764187
-0.002770189 -0.002507877 0.00018334888 -0.024836361 -0.02458893 -0.009566097 0.0040972596 -0.017263774
00000000: 7731 5dbc 7846 c43a 8582 42bc c01f cfbc
00000010: e833 9fbd a815 88bd 5630 c93a 4ca8 843b
00000020: 99d1 39be a298 07bd d60c 2dbd cfc1 6abd
00000030: 4e5d 53bc 35f0 86bd 5c3d b5bc c116 edbc
00000040: 700d 49bd 544d 8bba 4a43 5abd d78a 92bd
00000050: a01f 0a3c c629 08be 7932 7fbd f04e adbc
00000060: b695 7abc 6272 81bc 3ede 96be 95a0 0cbd
00000070: 23fd d1bc 7241 69bd 0cc5 033c b1a0 5bbd
00000080: 32e1 debc 8628 bc3c 58e8 873a 606f 16bd
00000090: 6a38 d2bc 6799 62bd 01aa bfbd f3ad 1cbc
000000a0: 9ac0 05bd 4705 cb3b 6cbb 44bd 8545 ffbc
000000b0: 0453 0dbd 077e ff3c 4d16 383c 79aa 0cbd
000000c0: 50ea ac3d 3a44 57bd e3e8 b6bc 411f 50bc
000000d0: de47 1fbd 064e 74bd c51c 6b3b 8722 5bbd
000000e0: f316 a4bd 5a46 0bbd c5c2 70bc 04c5 72bd
000000f0: df9e 14bd fed6 1ebc 379e 463c 43ed 2cbd
00000100: e3de 6c3b 987c 87bd c65b b0bd 6cab 89bc
00000110: 5c63 9fbd f56e 853c 9bac 0e3c cc7e a3bd
00000120: eed2 97bd d44b bebd 5390 2dbd da95 353c
00000130: 1c90 36bd 1c3e 203c ba31 e03b be6e 113c
00000140: e809 e3bc 1a09 3ebd 8ffd a03a fb81 23bd
00000150: 6e9b 96bd 14e8 c0bc ae76 953d e2e0 51bd
00000160: d315 52bd 972e 0cbe aa08 8ebd 5693 62bd
00000170: ccab 19bd af54 1ebd fec3 17bc 6b58 b6bc
00000180: dcdf 0abb 5b5c 4fbd 10e1 973d ffdc f9bd
00000190: eb11 09bd 921e 693b 07e2 65bd 7e13 7e3c
000001a0: 452c 4abc bae3 38bd 4cef 66bc ace8 ccbc
000001b0: 09f6 1bbd e1eb 8dbc 105e 713c 76bf 13bd
000001c0: 57c0 48bd c0a3 493c f090 9dbd 1442 e2bc
000001d0: ebe1 8fbe 8dea 9cbc 14ca 80bd 568c a0bd
000001e0: 1bba 853c 4bd5 3f3e ce7c 0abd ff16 a1bd
000001f0: 2b3e 68bd 043d 043c 482b 3dbd 7a1a 7dbd
00000200: d87d 783b 8863 78bd cdd2 93bd b8dc 9e3b
00000210: ccec 753b 2253 50bd 44ce 05bd e894 09bd
00000220: 752b 4bbd fcc8 5fbc dad3 80bd 059f 2dbd
00000230: 49ed 2ebd 9152 bdbb 1ee7 10bd f5af 8cbd
00000240: 86ef bcbc 8366 1c3c 4532 fcbb 4699 a2bd
00000250: 8671 71bc 491b 91bc d7e1 abbd 75f8 9fbc
00000260: 89a5 98bd fb54 c5bc da5d 9c3d 5caa 2cbd
00000270: f836 c4bd 47ac 17bd 4f0e f9bc 8ac2 2bbe
00000280: f0e5 0d3c 5731 9dbc fa87 3abd e7cc 82bd
00000290: 8001 2f3c d5e4 81bd 3d71 2e3c de6c 0a3e
000002a0: a61d 18bc 193c 65be 68a7 6cbb 9d7e 30bd
000002b0: 811c 1abd d629 46bc 4004 c6bc 3563 3abd
000002c0: 540c 5dbd 21f1 bebc aa22 bdbc 7ff9 26bd
000002d0: 3cbc 0dbb 4926 55bd 0e2f 49bd e5d2 8abb
000002e0: 55c4 04bc e0da 9ebd 950c d8bc fa87 9dbb
000002f0: 0865 b2ba bc9d 9d3c dd95 4ebd d169 36bc
00000300: 8946 d33c 258f fbbc c2ba 99bd 3ed5 68bd
00000310: a66b a4bd 2e03 cbbc 0e8b e2bb caba 83bd
00000320: 2f9c 253c ddc6 823a b74a 96bd 7d1e 593a
00000330: 08f7 193b 5bc7 38bd 2c30 10bd a8c9 393c
00000340: 3d05 fdbc 1ee2 8ebc 366b 86bd f9fd 80bd
00000350: 53b2 67bd d5b2 72bd 28ec 93bd 8206 50be
00000360: fcca 06bd 7aed 81bd f6f6 0cbd d3dc 9abd
00000370: 7e2c db3b eec9 21be 9836 a1bd 6136 a6bd
00000380: 8873 85bd 7384 773c e8db 8bbd 16a0 47bd
00000390: 296c acbd 545c 8fbc cdc2 033c a86e e83b
000003a0: 2c23 10bd 052f 26bc 50f4 62bb 8fa0 41bd
000003b0: d106 0e3c 43f4 f33a fa33 d53c 2472 9cbd
000003c0: 4c1f fabc 9dcf 6cbd 4811 c8bb b73b 77bd
000003d0: 930c 9cbc 3c95 82be 43e6 b4bb 6881 9cbd
000003e0: 0f8c 35bb 325b 24bb 5741 4039 a075 cbbc
000003f0: b96e c9bc 1ebb 1cbc 4e42 863b c26c 8dbc

l3.weight f4 [1, 300]
0.016586818 -0.026054747 -0.00019822503 -0.03223609 -0.02761042 -0.013278404 -0.013198733 0.02638023
-0.164248 -0.008407644 -0.0011520686 -0.013717399 -0.008421913 0.015728494 -0.016122295 0.009612827
0.017327324 0.028912835 -0.017689746 -0.015715163 -0.02180914 -0.33817253 -0.025563939 -0.014699057
0.017489333 -0.010740272 -0.63753676 0.0034265853 0.01836649 -0.016346427 -0.03456876 -0.00743936
-0.046770994 0.018249396 0.005325761 -0.037130456 0.034013554 0.0066248127 -0.0270127 -0.1620857
-0.0005004181 0.025138116 -0.01567405 -0.024791554 -0.030831292 0.17120601 -0.005798241 -0.026033735
-0.14271015 -0.02550518 -0.01589965 -0.026668057 -0.010569887 0.010104472 0.016243698 0.014065837
-0.0016119499 -0.0010789643 -0.016380146 -0.028446687 0.0008712109 -0.029345026 -0.024063917 0.010397293
-0.018349275 -0.015591484 -0.021780035 -0.037051078 -0.029552039 0.0008590174 -0.0034685186 -0.015838379
0.023874339 0.0030425075 -0.038165156 -0.0013197596 -0.0042838706 -0.02713821 0.017799761 0.017054478
-0.03369664 -0.024000911 -0.010320365 -0.029929927 0.0015455888 -0.020688267 -0.08578414 -0.0024854424
-0.012388469 -0.109393574 0.009454672 -0.016528534 -0.026739394 -0.0076475395 -0.02423853 -0.043143485
-0.011394097 -0.0014694142 -0.07016392 -0.2128057 0.0012214668 0.01972229 -0.015019695 -0.0049791783
0.01956104 -0.04601558 -0.013139537 -0.032457925 -0.04294294 -0.024575489 -0.004812085 -0.009925774
-0.023700818 -0.028747946 0.012754308 0.014399706 -0.97601193 -0.012975386 0.004554111 0.015845189
0.033910308 -0.23405072 -0.0006857544 0.02045038 -0.013644254 0.011958296 -0.011975008 -0.023269571
-0.010265416 0.35023716 -0.007446621 0.019698557 0.007404864 -0.0024181774 -0.025347276 0.0010822659
-0.009059525 -0.021120917 -0.0011132304 -0.028095867 -0.0027326993 -0.024979452 -0.006199723 0.0072559407
-0.0034280047 -0.0002440013 -0.01489636 -0.015226731 -0.0086875865 0.0026874866 -0.010402292 -0.04689746
0.20340352 0.039836183 0.14157717 -0.017465964 0.007705006 0.0073162774 0.02326576 0.027838768
-0.013597603 -0.0003590268 0.00094585377 -0.023143299 0.014917111 0.009381597 0.008026349 -0.13756831
0.010913321 0.07519781 0.014059971 0.0070682713 -0.026252706 -0.0054779216 -0.029602148 -0.03921337
0.030649241 -0.0033776998 -0.005119828 -0.013268439 -0.026558608 0.012093613 -0.019675054 -0.018045688
0.022009322 -0.016914506 -0.0030694671 0.001256835 -0.03892135 -0.02251422 -0.014243968 -0.017692026
0.0022245867 -0.0030869707 -0.033318188 -0.03038759 -0.0051179514 -0.019359631 -0.027047362 -0.013817532
-0.030835941 -0.014962863 -0.00055716746 0.003913657 -0.00047715215 -0.013156621 0.017671319 -0.001821137
0.034041326 -0.014713124 0.03605249 0.021454044 -0.045907196 -0.025426045 -0.002091787 -0.123195134
-0.007337618 0.008818062 0.003383752 0.024235511 0.015933609 2.236274 0.021057531 -0.009849926
0.017846918 -0.0028416996 0.003737332 0.0079724975 -0.017397938 -0.025153201 0.005620588 -0.038826726
-0.04185529 -0.004823004 -0.0054668263 -0.008466804 -0.009580887 -0.011189099 -0.01601528 -0.017159
0.0021231927 -0.037581716 -0.021998558 -0.020115076 0.022320228 -0.37663502 -0.027891746 0.013803875
-0.042872433 -0.0027960043 -0.02846804 -0.010768425 -0.002138942 0.018312844 -0.012177274 0.0037328545
00000000: 14e1 873c c470 d5bc a0da 4fb9 fe09 04bd
00000010: 3f2f e2bc aa8d 59bc 803f 58bc 5a1b d83c
00000020: a130 28be 37c0 09bc 0201 97ba f1be 60bc
00000030: 10fc 09bc 0bd9 803c e712 84bc 1e7f 1d3c
00000040: 08f2 8d3c 9cda ec3c 16ea 90bc 16bd 80bc
00000050: 15a9 b2bc f324 adbe 776b d1bc 50d4 70bc
00000060: ca45 8f3c f7f7 2fbc 9c35 23bf 9090 603b
00000070: 5275 963c f1e8 85bc f997 0dbd e0c5 f3bb
00000080: f192 3fbd c27f 953c b983 ae3b 1b16 18bd
00000090: cc51 0b3d f514 d93b bd49 ddbc cbf9 25be
000000a0: 7d2e 03ba 73ee cd3c de66 80bc a817 cbbc
000000b0: e891 fcbc a150 2f3e 2cff bdbb b344 d5bc
000000c0: 9c22 12be 3df0 d0bc fc3f 82bc f876 dabc
000000d0: 522d 2dbc 3a8d 253c 8111 853c 6574 663c
000000e0: 1048 d3ba 096c 8dba a82f 86bc 0709 e9bc
000000f0: f961 643a fb64 f0bc b121 c5bc 6859 2a3c
00000100: 3851 96bc 6c73 7fbc 0b6c b2bc dfc2 17bd
00000110: 1e17 f2bc af2f 613a 1650 63bb 7dbf 81bc
00000120: 1e94 c33c ce64 473b 1153 1cbd c9fb acba
00000130: b65f 8cbb f450 debc ced0 913c d5b5 8b3c
00000140: 7d05 0abd 8f9d c4bc c016 29bc 9b2f f5bc
00000150: 5b95 ca3a 717a a9bc 98af afbd cee2 22bb
00000160: 01f9 4abc bd09 e0bd c5e7 1a3c d966 87bc
00000170: 930c dbbc 3698 fabb e28f c6bc 39b7 30bd
00000180: 4eae 3abc 5c99 c0ba 1ab2 8fbd bde9 59be
00000190: a019 a03a a490 a13c 2b15 76bc 6028 a3bb
000001a0: 793e a03c d57a 3cbd 3647 57bc 9af2 04bd
000001b0: f0e4 2fbd 8952 c9bc b2ae 9dbb b79f 22bc
000001c0: 3828 c2bc d080 ebbc 72f7 503c bfec 6b3c
000001d0: ebdb 79bf b796 54bc a73a 953b c5cd 813c
000001e0: 89e5 0a3d feaa 6fbe 33c4 33ba 8e87 a73c
000001f0: 268c 5fbc bbec 433c d332 44bc d49f bebc
00000200: 4630 28bc 4952 b33e c902 f4bb de5e a13c
00000210: 80a4 f23b 497a 1ebb 17a5 cfbc d1da 8d3a
00000220: 676e 14bc c605 adbc d0e9 91ba 4e29 e6bc
00000230: 1617 33bb b5a1 ccbc 0c27 cbbb 3ec3 ed3b
00000240: 60a8 60bb 9ada 7fb9 dd0f 74bc 8a79 79bc
00000250: 6156 0ebc 8b20 303b 606e 2abc 8d17 40bd
00000260: 0349 503e 442b 233d 9bf9 103e c814 8fbc
00000270: 467a fc3b 62bd ef3b d697 be3c 210e e43c
00000280: 7bc8 5ebc c33b bcb9 2cf3 773a 0497 bdbc
00000290: e666 743c 45b5 193c f380 033c b5de 0cbe
000002a0: c9cd 323c 4f01 9a3d cb5b 663c f59c e73b
000002b0: ea0f d7bc 2380 b3bb 3480 f2bc 339e 20bd
000002c0: 1e14 fb3c 665c 5dbb 3bc4 a7bb de63 59bc
000002d0: 7091 d9bc 4a24 463c 942d a1bc 8dd4 93bc
000002e0: e54c b43c 4a90 8abc 1d29 49bb 62bc a43a
000002f0: fe6b 1fbd be6f b8bc 885f 69bc deee 90bc
00000300: 5fca 113b c64e 4abb a778 08bd 65ef f8bc
00000310: 7db4 a7bb 1798 9ebc 6e92 ddbc ee62 62bc
00000320: a89b fcbc cc26 75bc e00e 12ba 223e 803b
00000330: 472a fab9 de8e 57bc 71c3 903c 38b3 eeba
00000340: eb6e 0b3d 510f 71bc c7ab 133d 64c0 af3c
00000350: 2f09 3cbd 484a d0bc 5d16 09bb bb4d fcbd
00000360: 6770 f0bb a279 103c f0c1 5d3b 8d89 c63c
00000370: 3387 823c 1d1f 0f40 d880 ac3c 9661 21bc
00000380: b333 923c cf3b 3abb 07ee 743b 149f 023c
00000390: 1f86 8ebc 160e cebc e92c b83b c608 1fbd
000003a0: 7470 2bbd 4a0a 9ebb 1023 b3bb 5ab8 0abc
000003b0: 27f9 1cbc 7c52 37bc 7a32 83bc 0891 8cbc
000003c0: 4325 0b3b 49ef 19bd 5236 b4bc 5fc8 a4bc
000003d0: e9d8 b63c 4ed6 c0be 3b7d e4bc a629 623c
000003e0: 019b 2fbd 2b3d 37bb cf35 e9bc 0c6e 30bc
000003f0: 7e2d 0cbb d104 963c 3083 47bc e8a2 743b
