InvDoublePendulum/InvertedDoublePendulum-v4_actor_finalized_05.pth (torch, 504698 bytes, 5 tensors)

l1.weight f4 [400, 11]
00000000: 3457 adbe 7d22 d1be 6269 523f f127 c23c
00000010: 113c fbbd c38c 69bd 7c64 4fbe 4865 a6bd
00000020: b865 0b3e 0e7a b5bd f9a0 70be efad 3cbe
00000030: fb14 573d 4e9a 233e cfe3 fbbd b4cc f3be
00000040: 13a0 86bd 23f3 eebd c4d6 063e 616d 67be
00000050: ceb1 5bbe 808b 28be 66df 9b3e ea11 a1be
00000060: 5ea2 3ebf 82db 56be da98 343e a89c 46be
00000070: 323b 47be c90d 22bc dcd3 c9bd 5064 a2bd
00000080: ccb9 dd3d 800e b6bc 5c51 4fbe 0767 8abe
00000090: b838 68bd 93e9 b8be 07a0 923e c355 593e
000000a0: 79bd 35bc 9840 6f3e 4ab0 63be 9825 57be
000000b0: 8b8b d5bd 2a84 abbe 199b 413e e9f7 d6be
000000c0: 25ca b6be 44ec 143d bbe2 07be bc14 0f3e
000000d0: 8944 5d3e 98b5 d93d 44da b1bd 9d21 fc3d
000000e0: ea18 9a3e 3c50 bc3f d1ae 913e fdc6 c8bd
000000f0: 683b 743e c2bd 9b3e 48da 243e 8016 fb3d
00000100: e7c0 74be 60cf 61bd 7267 24be 5755 073d
00000110: 298f 02be 5c94 e9bd 7fc4 84be 20cf 36bd
00000120: 92f6 363e 1e23 933d 0411 a33e e095 70be
00000130: bcaa 5f3e 4bc9 1cbf 22be 7fbf 0db9 a93d
00000140: e2fd 31bd 41bb b8bd 996c 30be c6e6 04be
00000150: 5df4 7b3a 4c18 87bd 60db f83d 7956 80be
00000160: 2486 54be 74f5 973b 77b0 60be 2d6a b5be
00000170: 368f d2be a300 753d 6990 ff3c 8f44 5cbe
00000180: a0d6 133e dca4 663e dc2b 923e 2ff7 0abe
00000190: f08f ae3e ced5 80bd cb3c 4bbd 760e a2be
000001a0: 9dd1 143e cd78 1bbe 2354 66be ae49 94be
000001b0: 807b 0c3c ff86 98be d5ed d53d e8c4 283f
000001c0: 36eb 20bf e762 e4bd 0e02 60be 7659 933e
000001d0: 7a92 483e a5ad 39bc 131e 6f3e f355 86be
000001e0: 07b2 58be 8a65 1a3e 68ba dfbe d950 6c3d
000001f0: 406d b6bd 4b9f 48be 2289 e83d 139c 36ba
00000200: 737b 00be 28ed 51be 3a2e 60be 8860 153d
00000210: 56ad cebe 8688 313e 2db9 c83d 926e 72be
00000220: 086e d7be 275d 1a3e 92f5 183e fe2f 95bd
00000230: 7bd2 2d3d d395 65be cd90 78be e8ec 10be
00000240: b25f 783f 948c ba3f 6541 753d 39de 33bd
00000250: 7b4a 2fbe e35e 7f3e bb20 8f3e 0ac6 a43e
00000260: d549 80be 60b9 63bc 4ca7 aa3e b1e8 1bbe
00000270: 9273 8c3e 8fc9 7dbe 32d3 e7be f526 ac3e
00000280: 7f5b 2fbc 88eb 8bbd 3c4f 93bb 36d6 b0bd
00000290: de2a 2d3e e7bb b93d 803f 5f3d b6de 593f
000002a0: b09d 8c3d 5e08 303e 4611 143e 0028 873e
000002b0: f80d 5d3e e454 eabd a503 00be 6c67 9e3d
000002c0: ac25 863e 13cf c33e e51d a2bf 4c0b 2a3e
000002d0: 4984 3dbd 615b 8cbe 51ce 33be 649f 80bd
000002e0: ce09 893d 6885 ee3d 6c26 893e 7aa3 a53c
000002f0: 812c b83e 6f5d de3e 1060 973d d1c1 b3be
00000300: 9bd9 0b3e 4d7d 743d e8b1 5dbc 431a 563d
00000310: 80a6 6e3e 0e7f 913e e22c 1b3e 6dfd 91be
00000320: eabc a13e 36fa 2abe 98c9 89be 307b 713d
00000330: 6d8a d2bd 9335 02be 759f 713e fcb3 65bd
00000340: c4f4 96be 09a0 203c 542f 67be 514d 5fbe
00000350: 0e2f c3be 15e1 04bf c37c 173e 5335 74be
00000360: 22b3 98be 1fbe 6dbe 7c66 c4bd f06a d8bc
00000370: 3a43 81be cb91 91be e968 4fbe 6320 85be
00000380: 5582 70be f09c 6f3e ad48 95bd 4475 c9bd
00000390: 52a5 53be b0f0 1a3e 9044 10bd 6810 b63e
000003a0: 1e50 d0be 3c85 a53f 86c4 69bd 6dd4 ce3c
000003b0: 3577 003e 2650 37be 3af0 ef3d 7ad8 bfbd
000003c0: 1cde 61bd d805 6c3e 67ea 883d 0703 f8be
000003d0: a4cd c0be 3173 f0bd 024a a1be a063 af3d
000003e0: e935 34be 6184 89bc fd28 c2bc ad20 14be
000003f0: bebe 103e 5d6f 3c3f 3d78 703c c41e 793e
-0.33855593 -0.40846625 0.8219205 0.023700686 -0.12267316 -0.057019006 -0.20253175 -0.081247866
0.13613021 -0.08861171 -0.23498906 -0.18425725 0.052510243 0.15976831 -0.122993104 -0.47617114
-0.065735005 -0.116674684 0.13167864 -0.22600318 -0.21454546 -0.16459465 0.30443877 -0.3145898
-0.744665 -0.20982173 0.17636433 -0.19395697 -0.19456175 -0.009890982 -0.09854862 -0.07929289
0.108264536 -0.022223711 -0.2024588 -0.2703173 -0.056694716 -0.36115703 0.28637716 0.21224122
-0.011092537 0.23364484 -0.22235218 -0.21010435 -0.10427006 -0.3349927 0.18906821 -0.41986015
-0.357011 0.036358133 -0.13270085 0.13972753 0.21608175 0.106303394 -0.08684209 0.12311099
0.30097133 1.4711986 0.28453687 -0.09803579 0.23850787 0.3041821 0.16098893 0.12260151
-0.23901711 -0.05512941 -0.16055086 0.03304037 -0.12749924 -0.114052504 -0.25931165 -0.044631124
0.17867497 0.071844324 0.3184892 -0.23494673 0.21842474 -0.6124465 -0.99899495 0.08287249
-0.043455012 -0.09020091 -0.17228927 -0.12978658 0.0009611303 -0.06596431 0.121512175 -0.25065973
-0.20754296 0.0046374146 -0.21942316 -0.35432568 -0.41124886 0.05981506 0.03119679 -0.21510528
0.14437342 0.22523826 0.28549087 -0.13570856 0.3409419 -0.0629078 -0.049618524 -0.31651658
0.14533086 -0.151828 -0.22493033 -0.28962463 0.008574367 -0.29790494 0.104457535 0.65925455
-0.62858903 -0.111516766 -0.21875784 0.2877919 0.19587126 -0.011332904 0.23351316 -0.2623745
-0.21161662 0.15077797 -0.43696904 0.05769429 -0.089075565 -0.19592015 0.11354281 -0.0006966006
-0.12547092 -0.20500624 -0.21892634 0.036469012 -0.4036662 0.17337236 0.098009445 -0.23674992
-0.42076135 0.15074597 0.14937428 -0.072845444 0.042437058 -0.22420435 -0.24273987 -0.14152873
0.9702102 1.4574151 0.05987682 -0.0439131 -0.17118256 0.2493854 0.2795466 0.32182342
-0.2505633 -0.013899177 0.33330762 -0.15225483 0.27431923 -0.2478392 -0.45278317 0.33623472
-0.010702967 -0.068320334 -0.0044955295 -0.086346075 0.16910884 0.09069043 0.054503918 0.85105455
0.06866014 0.17190692 0.14459714 0.26397705 0.2158736 -0.11441973 -0.1250139 0.0773457
0.26200616 0.38243923 -1.2665373 0.16605872 -0.046268735 -0.27413467 -0.17559172 -0.06280401
0.06691323 0.11646539 0.26787126 0.020219553 0.35971454 0.4343066 0.07391369 -0.35108808
0.13657229 0.05968981 -0.013531186 0.05227114 0.23305702 0.28417248 0.1515384 -0.2851366
0.31589442 -0.1669701 -0.26911616 0.05895537 -0.10280309 -0.1271575 0.23595984 -0.05607985
-0.29483616 0.00980378 -0.22576648 -0.21806838 -0.38121837 -0.5190595 0.14793687 -0.23848467
-0.29824167 -0.23217057 -0.0958986 -0.02641818 -0.25246602 -0.28431544 -0.20254864 -0.26001272
-0.23487218 0.2339971 -0.072892524 -0.0983682 -0.20668533 0.15130877 -0.035221636 0.35559392
-0.40686125 1.2931285 -0.057072185 0.025247777 0.12545474 -0.17901668 0.117157415 -0.093674615
-0.05514346 0.23049104 0.06685334 -0.4843981 -0.3765689 -0.11740721 -0.31501776 0.08563924
-0.1759869 -0.016786756 -0.023701185 -0.1446559 0.14135262 0.73607427 0.014677105 0.24328142

l1.bias f4 [400]
00000000: e881 fc3d 34cf d6be be22 b1bd 07ae 9fbe
00000010: 64f0 45be 0769 a0bd f85f 96bc 3ad5 3dbd
00000020: e69a d4bd ef93 ccbd d260 c13c 9311 d8be
00000030: 2311 6cbe 2ba4 133d 71a5 6abe aa6b e9bc
00000040: a17b 47be 7ef6 6c3d 4884 e7bd 86a5 8abe
00000050: 2bbe 2c3d 64a1 cdbd 5f58 c53d 565d c0bd
00000060: 1086 22bc a63d e6bd 282c a6bd 7eb2 33be
00000070: 736d a2bd 3af8 1e3e 2c1e eabe afea 9cbd
00000080: 7df7 bdbd c313 8ebe 718c 9cbe 8c7e 18be
00000090: 367e 853d a84a d0be 2e67 4a3c edfa 93be
000000a0: e21c dc3d da7a 6abe 4e01 84be 6f96 29be
000000b0: 539a c13b 973f bebe 842b 8ebe 465b 4abe
000000c0: 641e d73d b613 a2be c816 1ebe 3b39 ccbe
000000d0: ffbe b5be 7f93 fc3d 3f16 b8be 114a 97bd
000000e0: 85bd 913e a0b1 a03d cde2 cbba eb06 a7bd
000000f0: f4d0 cabe 52cd cbbe 9251 87be d068 563d
00000100: 16cd d5be 4db2 fdbc 3e18 96be f936 803d
00000110: e7c8 d2bd f9ea 5f3d d070 82be 6e21 4fbd
00000120: d93f d3be 9e04 5d3e 9e0a babe 990b cb3d
00000130: 676f 223d 4df1 06be 1b26 1ebe cb58 e3bd
00000140: 7c9a 75bd 8f5a 93be 386d 88be 2b0b 3cbe
00000150: 849f 32be a169 d53d 8ee3 40be 6ce3 b6be
00000160: 1e26 79bc b2c1 58be e1f2 fd3c 87ef 84be
00000170: ccce 06bf 7800 cbbe 2014 77be 4e0c 0bbe
00000180: 1c71 013e 8586 4bbe 78c4 55bd 2768 95be
00000190: a0c9 00be e814 08bd 77c7 07bf 160e d93c
000001a0: 6e27 98be 4800 12bb bd88 93bd c9ed 24bd
000001b0: a931 f43c 0e7b 7b3d 31a9 f2be e9ba 1f3e
000001c0: 086c 423e 050c 67bd d612 44be 9d76 963c
000001d0: 884a b4be 3368 77be 6375 023e 7a28 4fbe
000001e0: aab7 b8bd 7768 2e3e 17f3 353e 24a2 ee3b
000001f0: 8412 a7be c932 8dbe d7d7 0cbe 5e29 d53d
00000200: 2ef1 61bd ff60 13be 17f6 febc 3cd1 983e
00000210: 25d4 93bd 7448 c4bd 43ce d5bb 460d d0be
00000220: 4e6e 8fbd c6e4 32be 9707 40be 2359 943c
00000230: cab2 623e a257 e7be b432 a3bd a5a6 0c3e
00000240: d745 98bd 7a6f 9d3d 4f87 cbbc 47e7 253e
00000250: a164 283c ca95 92bd ef50 9bbe 9db0 82be
00000260: b157 41be e41d adbd 25dc 5dbe 7582 b9bd
00000270: 9141 b5bc 51e9 63be d87b 9e3d 1ba3 a6bd
00000280: c6dd 50bd 59eb d43d cab8 ec3d 8949 d1be
00000290: 5713 c4be 754c 293c 0b54 e73d 4bf0 d7be
000002a0: 207b a4be 63dd f7be a9f2 4ebe 8389 8dbe
000002b0: 446a 7dbe d96f f3bd e9cf 093c ab2c f5be
000002c0: 0d27 523d 7989 bd3d 4d13 a3be 27ab 7cbe
000002d0: cf61 09be 3844 483e 328b 3abd 90c4 413c
000002e0: fc95 b9be 5b40 4a3c 39d3 afbb 31df 823d
000002f0: 9cb4 9fbd 9b63 83be facd 0bbe 66cc 04bf
00000300: 06fb 10be a1ad 93be 63f7 e7bd b6e4 fcbd
00000310: 7ab0 19be a693 5f3d 8725 4cbd f25b 8bbe
00000320: ed8a 5ebe 2469 cfbd 051e 5ebe c674 afbd
00000330: 48bf 47be 50f4 a8be 0251 a1be 54a8 eebd
00000340: 5841 a6bc ba4a 63be 37ea ddbe f91e 9f3c
00000350: e3c2 a03d 6032 4bbe 1d13 8fbe 821e 943d
00000360: 5f75 f23d 4357 76be 5071 c7bb 0269 97be
00000370: 321b c73c 3e09 513d 6a8d efbd bfad 3abd
00000380: 9192 273c a463 a0bc 8002 2cbe 9c5a e6bc
00000390: 053b 523d ad8e 55be 8ebe d53d 28c1 3abe
000003a0: 1b40 a6bd d95d 59be a25c a2be f6b4 5fbe
000003b0: ac36 dc3d 1612 6dbe 7593 023c a7a2 d8be
000003c0: 1208 9bbe 10e0 163d 824e 76be 73bc 28be
000003d0: 157f c9bd 04b5 9fbe 3a27 eabc e4a5 21be
000003e0: a9e0 8f3d 6ffc 103e 0070 4bbe 9ac7 8bbe
000003f0: a3c8 2fbe de91 1d3c 256f 9abe a045 2a3d
0.12329465 -0.41954958 -0.08649205 -0.3118746 -0.19329983 -0.078325324 -0.018356308 -0.046345927
-0.10381107 -0.099891536 0.023605738 -0.42200908 -0.23053412 0.036045235 -0.22914673 -0.028493721
-0.19480754 0.05785226 -0.113045275 -0.2707941 0.042173546 -0.100405484 0.09635996 -0.093928024
-0.009919658 -0.11242227 -0.08113891 -0.17548558 -0.07931032 0.15524378 -0.45726144 -0.0766195
-0.0927572 -0.27749452 -0.30575898 -0.14892024 0.065182135 -0.40681958 0.0123537015 -0.2890238
0.107476965 -0.22898427 -0.25782245 -0.16561292 0.0059082895 -0.3715789 -0.27767575 -0.1976138
0.105038434 -0.31655663 -0.15438378 -0.39887413 -0.3549728 0.1233282 -0.35954472 -0.07387174
0.28464904 0.07846379 -0.0015555263 -0.081556164 -0.39612544 -0.39805084 -0.2642942 0.05234605
-0.4175803 -0.03096881 -0.2931537 0.06260485 -0.10292225 0.054667447 -0.25476694 -0.05056899
-0.4125965 0.21583793 -0.36336225 0.099143215 0.039657023 -0.13177986 -0.15444224 -0.1110092
-0.05996178 -0.28780028 -0.26645827 -0.18363635 -0.17443663 0.10420538 -0.18836805 -0.35720384
-0.015206842 -0.21167639 0.030999603 -0.25963995 -0.52659297 -0.39648795 -0.24128771 -0.13578913
0.12640804 -0.19875534 -0.05218932 -0.29181024 -0.12576914 -0.033223063 -0.53038734 0.026495975
-0.29717582 -0.0022278 -0.07203815 -0.040265832 0.029808836 0.06139665 -0.47394708 0.15598644
0.18986523 -0.056407947 -0.1914781 0.018367106 -0.35213113 -0.24160843 0.12740092 -0.20230284
-0.09019406 0.17032038 0.17768513 0.0072825123 -0.32631314 -0.27577808 -0.13754211 0.10408281
-0.055161647 -0.1439247 -0.031123204 0.29847133 -0.07218198 -0.09584132 -0.0065248325 -0.40635127
-0.07003461 -0.17470083 -0.18752895 0.01810891 0.22138515 -0.45184046 -0.07968655 0.13735445
-0.07435196 0.07687278 -0.024844794 0.16201507 0.010277898 -0.07157476 -0.30335185 -0.2552537
-0.18881108 -0.08452967 -0.2166601 -0.09058086 -0.022125991 -0.22256972 0.07738465 -0.08136579
-0.05099275 0.103964515 0.11558683 -0.40876415 -0.38296005 0.01033317 0.11295327 -0.42175516
-0.32125187 -0.48411092 -0.20209755 -0.27643976 -0.24747568 -0.118865676 0.008411386 -0.4788564
0.051306773 0.092547365 -0.31850663 -0.24674664 -0.13416217 0.19557273 -0.045542903 0.011826649
-0.36247241 0.012344445 -0.005365756 0.06390227 -0.077981204 -0.2566193 -0.13652793 -0.5187439
-0.14158258 -0.28843406 -0.11326482 -0.12348311 -0.15008727 0.054584168 -0.049840476 -0.27218586
-0.21732683 -0.10127476 -0.21691139 -0.08567195 -0.19506562 -0.32998896 -0.31507117 -0.116532
-0.02029483 -0.22196475 -0.43342754 0.019423949 0.07849672 -0.19843435 -0.2794427 0.072323814
0.11838793 -0.24056725 -0.006086506 -0.29572302 0.02430496 0.051034205 -0.116968945 -0.045575853
0.010227815 -0.019578762 -0.16797829 -0.028119378 0.051325817 -0.20855208 0.10436736 -0.18237746
-0.08117696 -0.21227206 -0.31711298 -0.21846375 0.10752615 -0.2315143 0.007969727 -0.42311594
-0.30279595 0.036834776 -0.24053386 -0.16478138 -0.09838692 -0.3119279 -0.028583158 -0.15785939
0.070252724 0.14158796 -0.19866943 -0.2730072 -0.1716638 0.009617297 -0.30162922 0.041570306

l2.weight f4 [300, 400]
00000000: e851 b3bc 0692 f13c 3458 48bd 0056 25bb
00000010: b606 02bd 72d3 f43c 021b b03c 9031 0fbc
00000020: 3218 963c 4e5a 903c 30f9 e2bc 999f 353d
00000030: 3b13 31bd c710 213d e09c 2ebd 6ea3 98bd
00000040: e47f a7bc d8de 93bd bdbd 95bc 7270 be3c
00000050: acee 04bc 13f1 0cbc 585e 42bc 03fd 1abd
00000060: 3a2e 91bd 63ad 4fbd 50bc 33bb da87 a9bc
00000070: 68d8 84bb 5c32 29bd e8e2 3dbd da93 c9bc
00000080: 5b9f 4abc c0a6 363c d32e 023d a0ff 92bd
00000090: 1fe0 423d 60df 32bd c3db 1a3d 335f dbbc
000000a0: 0036 713b 94d9 0abc 4109 0f3d b0ae 7dbb
000000b0: 112b 13bd d131 4b3d 6fcd 3abd db2c 05bd
000000c0: f6fa 823c 8bad 31bd d729 f43b f631 9e3c
000000d0: acc1 85bc 82b8 923c ad92 eebc 20ef 18bc
000000e0: a755 45bd 68ec 79bd 9c33 493b 723a 79bd
000000f0: 0023 0439 a87d 123c 5aa5 ce3c cb64 083c
00000100: 20c9 e2bc aaa7 813b dd73 1abd ed1e b1bc
00000110: 212f d3bb 4282 0ebd 0014 78b8 e030 6bbc
00000120: c00e bdba 34b8 7ebc bbfd 4e3c c0c5 433c
00000130: 85e7 5eba 000f a93a 5357 163d 0085 20b9
00000140: 7e9e 05bd c66e 81bc fa0c 9a3c 9b62 39bd
00000150: ee89 ffbb 87c9 36bd ac9c 87bc b092 dcbc
00000160: 0ef8 95bd c8ab 3abc 2ac3 6ebd f903 023d
00000170: 7a7f e4bc 0a35 8cbc 0cc4 bf3c 79c3 413d
00000180: 65e0 343b 2e68 9f3c a3a9 edbc 8d08 39bc
00000190: eef9 883c e027 033b 0006 c0bb 9669 273a
000001a0: 6620 8a3c a50a 0abd 22ea 12bd 4add 9cbc
000001b0: 4f2c 8abd aa0e df3c 6887 d93b a243 01bd
000001c0: 0d5e c2bc ce74 2abd 4fad 93bb 6075 293c
000001d0: 518e 413c a9fb 34bc 5054 0abd 04f2 a53b
000001e0: ae55 c43c 0006 d03a 4d75 753c 8965 5cbd
000001f0: f32c f7bc f443 23bc 9886 09bd 60e9 f93a
00000200: 4025 06ba f3fe 41bd 9545 3d3d cdf0 1abd
00000210: d66c 1dbd 44d9 8dbc 57db 163d 2ea7 91bd
00000220: 140c 84b9 d39b 473d 802e debb e021 0cbc
00000230: 8590 07bd 2eb8 883c 078b 083c 1d24 7dbd
00000240: 36b3 e3bc 0e98 9d3c 34f9 d4bc f06f 17bd
00000250: 9358 1cbd f4bd ffbc 1027 40bd a80b 1cbc
00000260: a322 9bbc 9793 99bd f8a2 a43c bec9 2f3b
00000270: 8469 27bd dd9b 3e3d faf8 42bd a687 9d3c
00000280: d6dd 13bd c4cf 80bd 422f 833c e1fc 233d
00000290: 7ae7 3ebd 1e58 87bc a2e8 2dbd 5ac6 d2bc
000002a0: 34dd 50bc 8084 4a3a 4e10 fe3b dae7 afbc
000002b0: 8868 2abd 666d d93c 06ef 84bc 93e7 03bd
000002c0: 425b 05bd 90a7 23bd a697 0ebd 4509 9f3b
000002d0: 3447 0fbd cade 36bc c580 98bd 561d 8cbc
000002e0: 8e48 21bd a884 10bb a808 aebb 9345 43bd
000002f0: 3550 2cbd aebf 26bd e6e3 0dbd d4e7 323c
00000300: 29cc 1e3d 2796 9dbc 7085 dd3b 3c90 463c
00000310: bbaa 313d 55b8 0ebd 53f9 69bc 6855 32bd
00000320: f4ac 66bc 60d9 e13a d4c5 5ebc 1c83 ccbc
00000330: 2572 22bd 1a40 e63c cdd5 2d3d e606 f73c
00000340: a18a 283d 6b57 1d3d b0d4 ae3b ecae 5c3c
00000350: d228 9d3c d48b 3c3c b551 2b3d a03e 073c
00000360: 3f9b 7b3c 0030 6a37 a561 023d 7ec8 1dbd
00000370: d4e8 51bd eca3 74bc c0b1 c5bb 9404 80bd
00000380: d881 94bc 0daa 81bd a030 253c 977d 2fbd
00000390: 7f31 543c 30e4 123b bc65 72bd 6537 19bd
000003a0: c3f2 43bd 5a4b b13c f0c1 8ebd 682d 1c3c
000003b0: eef3 7f3c a4c7 6a3c 0d7f b2bc bda9 91bc
000003c0: f0af edbb 10e2 64bd 00ca 5fbc 19b8 193d
000003d0: 2b98 94bd 0fd0 173d a03b 25bc f29f d03c
000003e0: c882 e43b 9b27 b2bb 83b8 5ebd d310 a6bc
000003f0: 7b69 423d 4014 85bb e313 483d 865b 0dbd
-0.021889642 0.029488575 -0.048912242 -0.0025228262 -0.03174468 0.029885981 0.021497253 -0.008739844
0.018322084 0.017621186 -0.027706712 0.044341657 -0.04323123 0.03932264 -0.042630076 -0.07453047
-0.020446725 -0.072202384 -0.01827895 0.023246977 -0.008113544 -0.008602398 -0.011863314 -0.037838947
-0.07088895 -0.050702464 -0.0027425475 -0.020694662 -0.004054118 -0.041307792 -0.046358973 -0.024606634
-0.012367095 0.011148155 0.031782936 -0.07177663 0.04757702 -0.04367006 0.037807237 -0.026778793
0.0036805868 -0.008474726 0.034920935 -0.0038708858 -0.035929743 0.049608056 -0.045606073 -0.03251348
0.015988808 -0.043378394 0.0074512768 0.019310933 -0.016327702 0.017910246 -0.029122675 -0.009334356
-0.048177388 -0.06101647 0.0030700928 -0.060846753 0.0001260154 0.008941092 0.02522533 0.008324812
-0.027683794 0.0039567547 -0.037708152 -0.021621192 -0.006444827 -0.034792192 -5.9146434e-05 -0.014354914
-0.0014423952 -0.015546847 0.012633736 0.011949003 -0.0008503127 0.0012898147 0.036704373 -0.00015308335
-0.032621853 -0.015799891 0.018805016 -0.045260053 -0.007798425 -0.044625785 -0.0165542 -0.026925415
-0.07322703 -0.011393495 -0.05829159 0.03174207 -0.027892817 -0.017115135 0.023408912 0.047305558
0.002759957 0.019458856 -0.029011553 -0.011293543 0.016720738 0.002001278 -0.0058600903 0.0006386278
0.016861152 -0.033701558 -0.035867818 -0.019148488 -0.067467324 0.027228672 0.006638456 -0.03155864
-0.023726488 -0.0416153 -0.004506744 0.010342926 0.011813716 -0.011046329 -0.033771813 0.005064251
0.023966637 0.0015870929 0.01498158 -0.05380777 -0.0301728 -0.009964932 -0.033575624 0.0019066744
-0.0005117245 -0.04736228 0.046208937 -0.0378273 -0.038433872 -0.017315514 0.036830273 -0.07111965
-0.00025186 0.04873259 -0.0067804456 -0.008552998 -0.03309681 0.016689386 0.008333928 -0.06180202
-0.027795415 0.019237544 -0.025997736 -0.036971986 -0.03817041 -0.031218506 -0.046912253 -0.009524263
-0.018937415 -0.07498854 0.02009724 0.0026823129 -0.040872112 0.04653536 -0.047600724 0.019229721
-0.03610023 -0.06289628 0.016013745 0.040036086 -0.046607472 -0.01652151 -0.042458184 -0.025729347
-0.012748051 0.00077254325 0.0077534085 -0.02147286 -0.041603595 0.026541423 -0.016227257 -0.03220327
-0.032557733 -0.039954722 -0.034812592 0.0048534 -0.034980014 -0.0111615155 -0.07446436 -0.017103832
-0.039375834 -0.0022051726 -0.0053110905 -0.047673773 -0.04206868 -0.040710144 -0.03464117 0.01091953
0.03876892 -0.019236637 0.0067602918 0.012119349 0.043375712 -0.03484376 -0.014280635 -0.04353848
-0.014079321 0.001723092 -0.013596971 -0.024964862 -0.039659638 0.028106738 0.042440224 0.030154657
0.04114783 0.038413446 0.005335413 0.013469439 0.019184504 0.011507947 0.04182597 0.008254677
0.015356838 1.3958663e-05 0.031831402 -0.038521282 -0.051247433 -0.01493166 -0.0060331523 -0.06250873
-0.01812832 -0.06331263 0.010082394 -0.04284438 0.012951254 0.0022413842 -0.059179053 -0.037406344
-0.047838937 0.021642376 -0.069705844 0.00953231 0.015622122 0.014329825 -0.021789098 -0.017781133
-0.0072536394 -0.055879653 -0.013659 0.037529085 -0.07255586 0.037063655 -0.0100850165 0.025466893
0.006973598 -0.0054368502 -0.054375183 -0.020271694 0.047463875 -0.004061252 0.04884709 -0.03451111

l2.bias f4 [300]
00000000: 7731 5dbc 7846 c43a 8582 42bc c01f cfbc
00000010: e833 9fbd a815 88bd 5630 c93a 4ca8 843b
00000020: 9ca6 47be a298 07bd d60c 2dbd cfc1 6abd
00000030: 4e5d 53bc 35f0 86bd 5c3d b5bc c116 edbc
00000040: 700d 49bd 544d 8bba 4a43 5abd d78a 92bd
00000050: a01f 0a3c a1b7 f1bd 7932 7fbd f04e adbc
00000060: b695 7abc 6272 81bc 13e6 96be 95a0 0cbd
00000070: 23fd d1bc 7241 69bd 0cc5 033c b1a0 5bbd
00000080: 32e1 debc 8628 bc3c 58e8 873a 606f 16bd
00000090: 6a38 d2bc 6799 62bd 01aa bfbd 2943 2abc
000000a0: 9ac0 05bd 4705 cb3b 6cbb 44bd 8545 ffbc
000000b0: 0453 0dbd f51d 053d 4d16 383c 79aa 0cbd
000000c0: 2565 9e3d 3a44 57bd e3e8 b6bc 411f 50bc
000000d0: de47 1fbd 064e 74bd c51c 6b3b 8722 5bbd
000000e0: f316 a4bd 90d3 f8bc c5c2 70bc 04c5 72bd
000000f0: a48b 14bd fed6 1ebc 379e 463c 43ed 2cbd
00000100: e3de 6c3b 987c 87bd c65b b0bd 6cab 89bc
00000110: 5c63 9fbd f56e 853c 4f83 c73b cc7e a3bd
00000120: eed2 97bd d44b bebd 5390 2dbd da95 353c
00000130: 1c90 36bd 1c3e 203c ba31 e03b be6e 113c
00000140: e809 e3bc 1a09 3ebd 8ffd a03a fb81 23bd
00000150: 6e9b 96bd 14e8 c0bc a5e1 993d e2e0 51bd
00000160: d315 52bd 7198 f3bd aa08 8ebd 5693 62bd
00000170: ccab 19bd af54 1ebd fec3 17bc 6b58 b6bc
00000180: dcdf 0abb 5b5c 4fbd fb22 a03d 73de f0bd
00000190: eb11 09bd 921e 693b 07e2 65bd 7e13 7e3c
000001a0: 452c 4abc bae3 38bd 4cef 66bc ace8 ccbc
000001b0: 09f6 1bbd e1eb 8dbc 105e 713c 76bf 13bd
000001c0: 57c0 48bd c0a3 493c f090 9dbd 1442 e2bc
000001d0: 00e6 8fbe 8dea 9cbc 14ca 80bd 568c a0bd
000001e0: 1bba 853c 1ed9 433e ce7c 0abd ff16 a1bd
000001f0: 2b3e 68bd 043d 043c 482b 3dbd 7a1a 7dbd
00000200: d87d 783b ebcb 80bd cdd2 93bd b8dc 9e3b
00000210: ccec 753b 2253 50bd 44ce 05bd e894 09bd
00000220: 752b 4bbd fcc8 5fbc dad3 80bd 059f 2dbd
00000230: 49ed 2ebd 9152 bdbb 1ee7 10bd f5af 8cbd
00000240: 86ef bcbc 8366 1c3c 4532 fcbb 4699 a2bd
00000250: 8671 71bc 491b 91bc d7e1 abbd 75f8 9fbc
00000260: e920 b3bd bf26 0e3c 86c3 a43d 5caa 2cbd
00000270: f836 c4bd 47ac 17bd 4f0e f9bc f8e6 2bbe
00000280: f0e5 0d3c 5731 9dbc fa87 3abd ffd0 82bd
00000290: 8001 2f3c d5e4 81bd 3d71 2e3c 4236 043e
000002a0: a61d 18bc e706 65be 68a7 6cbb 9d7e 30bd
000002b0: 811c 1abd d629 46bc 4004 c6bc 3563 3abd
000002c0: 540c 5dbd 21f1 bebc aa22 bdbc 7ff9 26bd
000002d0: 3cbc 0dbb 4926 55bd 0e2f 49bd e5d2 8abb
000002e0: 55c4 04bc e0da 9ebd 950c d8bc fa87 9dbb
000002f0: 0865 b2ba bc9d 9d3c dd95 4ebd d169 36bc
00000300: 8946 d33c 258f fbbc c2ba 99bd 3ed5 68bd
00000310: a66b a4bd 2e03 cbbc 0e8b e2bb caba 83bd
00000320: 2f9c 253c ddc6 823a b74a 96bd 7d1e 593a
00000330: 08f7 193b 5bc7 38bd 2c30 10bd a8c9 393c
00000340: 9d04 1cbb 1ee2 8ebc 531b a2bd f9fd 80bd
00000350: 53b2 67bd d5b2 72bd 28ec 93bd 1bf9 3cbe
00000360: 64c7 35bc 7aed 81bd f6f6 0cbd 3c9f 33bd
00000370: 7e2c db3b a940 22be 9836 a1bd 6136 a6bd
00000380: 8873 85bd 7384 773c e8db 8bbd 16a0 47bd
00000390: 296c acbd 545c 8fbc cdc2 033c a86e e83b
000003a0: 2c23 10bd 052f 26bc 50f4 62bb 8fa0 41bd
000003b0: d106 0e3c 43f4 f33a fa33 d53c 2472 9cbd
000003c0: 67b0 d6bc 9dcf 6cbd 4811 c8bb b73b 77bd
000003d0: 930c 9cbc ef6e 6bbe 43e6 b4bb 6881 9cbd
000003e0: 0f8c 35bb 325b 24bb 5741 4039 a075 cbbc
000003f0: b96e c9bc 1ebb 1cbc 4e42 863b c26c 8dbc
-0.013500563 0.0014974615 -0.011871939 -0.025283694 -0.07773572 -0.066447556 0.0015349488 0.004048383
-0.1949715 -0.033104546 -0.04224857 -0.057313737 -0.012900664 -0.065887846 -0.022123985 -0.028941514
-0.04908508 -0.0010627904 -0.053286828 -0.07155388 0.008430392 -0.118026026 -0.062303994 -0.021155804
-0.015294483 -0.015801612 -0.29472408 -0.03433283 -0.0256334 -0.05694718 0.008042585 -0.053620044
-0.02720699 0.022968542 0.0010368926 -0.03672731 -0.025661666 -0.055322077 -0.093585975 -0.010391989
-0.032654382 0.0061956975 -0.048030302 -0.03116108 -0.034502998 0.032499272 0.011235786 -0.034342263
0.077341355 -0.0525553 -0.022327846 -0.012702764 -0.038886897 -0.05964472 0.0035875302 -0.053499725
-0.0801219 -0.030374318 -0.014694874 -0.05926992 -0.036265984 -0.009694813 0.012122682 -0.042218458
0.0036143593 -0.06615561 -0.086112544 -0.016805373 -0.07782623 0.01628826 0.0060886513 -0.07983169
-0.074132785 -0.09291807 -0.042373966 0.011083091 -0.044571027 0.009780433 0.0068418654 0.008876501
-0.027714685 -0.0463954 0.0012282598 -0.03991888 -0.073538646 -0.023548163 0.075137414 -0.051239856
-0.051290344 -0.1189431 -0.06935246 -0.05531629 -0.037517354 -0.03865498 -0.009263037 -0.022258958
-0.002119056 -0.050625186 0.07819172 -0.11761179 -0.033464354 0.00355712 -0.05612376 0.015507577
-0.012339656 -0.045139052 -0.014095139 -0.02501329 -0.038076434 -0.01732439 0.014731899 -0.036071263
-0.049011555 0.012307107 -0.0769366 -0.0276194 -0.28105164 -0.019154811 -0.06288543 -0.07839267
0.016324094 0.19125792 -0.03381043 -0.07865714 -0.056699913 0.008071188 -0.046183854 -0.06179283
0.0037916806 -0.06288894 -0.072179414 0.004848089 0.0037525175 -0.05086053 -0.032667413 -0.033589274
-0.04960199 -0.013658758 -0.062904075 -0.04238798 -0.04270676 -0.005777665 -0.03537666 -0.06869499
-0.023063432 0.009545925 -0.0076964223 -0.07939391 -0.014736539 -0.017713206 -0.08392685 -0.019527653
-0.087465115 0.00867623 0.08045106 -0.042154655 -0.09580797 -0.03702953 -0.03040233 -0.16787326
0.008660778 -0.019188566 -0.045539834 -0.06387519 0.01068151 -0.06342474 0.010647115 0.12911323
-0.0092844125 -0.22365914 -0.0036110524 -0.043089498 -0.03762484 -0.012094935 -0.024171948 -0.045504767
-0.053966835 -0.023308339 -0.023087818 -0.04076528 -0.002162709 -0.052038465 -0.04911714 -0.0042365664
-0.00810345 -0.07756591 -0.026373187 -0.0048074694 -0.0013610432 0.019240253 -0.05043589 -0.011133627
0.02579047 -0.030707905 -0.07506324 -0.05684399 -0.08028345 -0.02478179 -0.0069135493 -0.064321116
0.010108038 0.0009977479 -0.073384695 0.0008282436 0.002349319 -0.045111995 -0.03520219 0.0113395825
-0.002380646 -0.017441805 -0.07915368 -0.062984414 -0.056566548 -0.05925258 -0.072227776 -0.18454401
-0.011094902 -0.06344123 -0.034415208 -0.04385303 0.0066886535 -0.15844978 -0.07871741 -0.08115841
-0.065161765 0.015107262 -0.06829053 -0.048736654 -0.084190674 -0.01750008 0.00804205 0.0070932694
-0.035189793 -0.010143046 -0.0034630485 -0.04727226 0.008668617 0.0018612224 0.02602576 -0.07638958
-0.026207162 -0.057815183 -0.0061055757 -0.060359683 -0.019048965 -0.22991537 -0.0055206134 -0.0764187
-0.002770189 -0.002507877 0.00018334888 -0.024836361 -0.02458893 -0.009566097 0.0040972596 -0.017263774

l3.weight f4 [1, 300]
00000000: 14e1 873c c470 d5bc a0da 4fb9 fe09 04bd
00000010: 3f2f e2bc aa8d 59bc 803f 58bc 5a1b d83c
00000020: f450 35be 37c0 09bc 0201 97ba f1be 60bc
00000030: 10fc 09bc 0bd9 803c e712 84bc 1e7f 1d3c
00000040: 08f2 8d3c 9cda ec3c 16ea 90bc 16bd 80bc
00000050: 15a9 b2bc 1e85 a1be 776b d1bc 50d4 70bc
00000060: ca45 8f3c f7f7 2fbc a5ea 1ebf 9090 603b
00000070: 5275 963c f1e8 85bc f997 0dbd e0c5 f3bb
00000080: f192 3fbd c27f 953c b983 ae3b 1b16 18bd
00000090: cc51 0b3d f514 d93b bd49 ddbc a37e 25be
000000a0: 7d2e 03ba 73ee cd3c de66 80bc a817 cbbc
000000b0: e891 fcbc 4469 1e3e 2cff bdbb b344 d5bc
000000c0: 6244 0bbe 3df0 d0bc fc3f 82bc f876 dabc
000000d0: 522d 2dbc 3a8d 253c 8111 853c 6574 663c
000000e0: 1048 d3ba 64f3 a7bb a82f 86bc 0709 e9bc
000000f0: 31af e639 fb64 f0bc b121 c5bc 6859 2a3c
00000100: 3851 96bc 6c73 7fbc 0b6c b2bc dfc2 17bd
00000110: 1e17 f2bc af2f 613a 9eec 033a 7dbf 81bc
00000120: 1e94 c33c ce64 473b 1153 1cbd c9fb acba
00000130: b65f 8cbb f450 debc ced0 913c d5b5 8b3c
00000140: 7d05 0abd 8f9d c4bc c016 29bc 9b2f f5bc
00000150: 5b95 ca3a 717a a9bc 674d b9bd cee2 22bb
00000160: 01f9 4abc 4780 e4bd c5e7 1a3c d966 87bc
00000170: 930c dbbc 3698 fabb e28f c6bc 39b7 30bd
00000180: 4eae 3abc 5c99 c0ba 6a40 9abd 963b 46be
00000190: a019 a03a a490 a13c 2b15 76bc 6028 a3bb
000001a0: 793e a03c d57a 3cbd 3647 57bc 9af2 04bd
000001b0: f0e4 2fbd 8952 c9bc b2ae 9dbb b79f 22bc
000001c0: 3828 c2bc d080 ebbc 72f7 503c bfec 6b3c
000001d0: cdbe 79bf b796 54bc a73a 953b c5cd 813c
000001e0: 89e5 0a3d f30e 74be 33c4 33ba 8e87 a73c
000001f0: 268c 5fbc bbec 433c d332 44bc d49f bebc
00000200: 4630 28bc 1c4d ba3e c902 f4bb de5e a13c
00000210: 80a4 f23b 497a 1ebb 17a5 cfbc d1da 8d3a
00000220: 676e 14bc c605 adbc d0e9 91ba 4e29 e6bc
00000230: 1617 33bb b5a1 ccbc 0c27 cbbb 3ec3 ed3b
00000240: 60a8 60bb 9ada 7fb9 dd0f 74bc 8a79 79bc
00000250: 6156 0ebc 8b20 303b 606e 2abc 8d17 40bd
00000260: 3974 653e 11ad 09bb c4fa 033e c814 8fbc
00000270: 467a fc3b 62bd ef3b d697 be3c 8c9a ad3c
00000280: 7bc8 5ebc c33b bcb9 2cf3 773a ce8d bdbc
00000290: e666 743c 45b5 193c f380 033c a2aa 06be
000002a0: c9cd 323c d066 b13d cb5b 663c f59c e73b
000002b0: ea0f d7bc 2380 b3bb 3480 f2bc 339e 20bd
000002c0: 1e14 fb3c 665c 5dbb 3bc4 a7bb de63 59bc
000002d0: 7091 d9bc 4a24 463c 942d a1bc 8dd4 93bc
000002e0: e54c b43c 4a90 8abc 1d29 49bb 62bc a43a
000002f0: fe6b 1fbd be6f b8bc 885f 69bc deee 90bc
00000300: 5fca 113b c64e 4abb a778 08bd 65ef f8bc
00000310: 7db4 a7bb 1798 9ebc 6e92 ddbc ee62 62bc
00000320: a89b fcbc cc26 75bc e00e 12ba 223e 803b
00000330: 472a fab9 de8e 57bc 71c3 903c 38b3 eeba
00000340: 0f53 e8bc 510f 71bc 5821 553c 64c0 af3c
00000350: 2f09 3cbd 484a d0bc 5d16 09bb 289b 01be
00000360: f073 17bd a279 103c f0c1 5d3b 8e92 f6bb
00000370: 3387 823c 001b 0c40 d880 ac3c 9661 21bc
00000380: b333 923c cf3b 3abb 07ee 743b 149f 023c
00000390: 1f86 8ebc 160e cebc e92c b83b c608 1fbd
000003a0: 7470 2bbd 4a0a 9ebb 1023 b3bb 5ab8 0abc
000003b0: 27f9 1cbc 7c52 37bc 7a32 83bc 0891 8cbc
000003c0: 9463 353b 49ef 19bd 5236 b4bc 5fc8 a4bc
000003d0: e9d8 b63c 8ffe b0be 3b7d e4bc a629 623c
000003e0: 019b 2fbd 2b3d 37bb cf35 e9bc 0c6e 30bc
000003f0: 7e2d 0cbb d104 963c 3083 47bc e8a2 743b
0.016586818 -0.026054747 -0.00019822503 -0.03223609 -0.02761042 -0.013278404 -0.013198733 0.02638023
-0.17706662 -0.008407644 -0.0011520686 -0.013717399 -0.008421913 0.015728494 -0.016122295 0.009612827
0.017327324 0.028912835 -0.017689746 -0.015715163 -0.02180914 -0.31546873 -0.025563939 -0.014699057
0.017489333 -0.010740272 -0.6207679 0.0034265853 0.01836649 -0.016346427 -0.03456876 -0.00743936
-0.046770994 0.018249396 0.005325761 -0.037130456 0.034013554 0.0066248127 -0.0270127 -0.1616159
-0.0005004181 0.025138116 -0.01567405 -0.024791554 -0.030831292 0.15469843 -0.005798241 -0.026033735
-0.13600305 -0.02550518 -0.01589965 -0.026668057 -0.010569887 0.010104472 0.016243698 0.014065837
-0.0016119499 -0.00512545 -0.016380146 -0.028446687 0.00043999546 -0.029345026 -0.024063917 0.010397293
-0.018349275 -0.015591484 -0.021780035 -0.037051078 -0.029552039 0.0008590174 0.0005032512 -0.015838379
0.023874339 0.0030425075 -0.038165156 -0.0013197596 -0.0042838706 -0.02713821 0.017799761 0.017054478
-0.03369664 -0.024000911 -0.010320365 -0.029929927 0.0015455888 -0.020688267 -0.090479665 -0.0024854424
-0.012388469 -0.111572795 0.009454672 -0.016528534 -0.026739394 -0.0076475395 -0.02423853 -0.043143485
-0.011394097 -0.0014694142 -0.07531817 -0.19358668 0.0012214668 0.01972229 -0.015019695 -0.0049791783
0.01956104 -0.04601558 -0.013139537 -0.032457925 -0.04294294 -0.024575489 -0.004812085 -0.009925774
-0.023700818 -0.028747946 0.012754308 0.014399706 -0.97556764 -0.012975386 0.004554111 0.015845189
0.033910308 -0.23833828 -0.0006857544 0.02045038 -0.013644254 0.011958296 -0.011975008 -0.023269571
-0.010265416 0.36386955 -0.007446621 0.019698557 0.007404864 -0.0024181774 -0.025347276 0.0010822659
-0.009059525 -0.021120917 -0.0011132304 -0.028095867 -0.0027326993 -0.024979452 -0.006199723 0.0072559407
-0.0034280047 -0.0002440013 -0.01489636 -0.015226731 -0.0086875865 0.0026874866 -0.010402292 -0.04689746
0.22407617 -0.0021007697 0.12888628 -0.017465964 0.007705006 0.0073162774 0.02326576 0.021191858
-0.013597603 -0.0003590268 0.00094585377 -0.023138907 0.014917111 0.009381597 0.008026349 -0.13151029
0.010913321 0.08662188 0.014059971 0.0070682713 -0.026252706 -0.0054779216 -0.029602148 -0.03921337
0.030649241 -0.0033776998 -0.005119828 -0.013268439 -0.026558608 0.012093613 -0.019675054 -0.018045688
0.022009322 -0.016914506 -0.0030694671 0.001256835 -0.03892135 -0.02251422 -0.014243968 -0.017692026
0.0022245867 -0.0030869707 -0.033318188 -0.03038759 -0.0051179514 -0.019359631 -0.027047362 -0.013817532
-0.030835941 -0.014962863 -0.00055716746 0.003913657 -0.00047715215 -0.013156621 0.017671319 -0.001821137
-0.028359918 -0.014713124 0.013008438 0.021454044 -0.045907196 -0.025426045 -0.002091787 -0.12656844
-0.0369758 0.008818062 0.003383752 -0.007524795 0.015933609 2.189148 0.021057531 -0.009849926
0.017846918 -0.0028416996 0.003737332 0.0079724975 -0.017397938 -0.025153201 0.005620588 -0.038826726
-0.04185529 -0.004823004 -0.0054668263 -0.008466804 -0.009580887 -0.011189099 -0.01601528 -0.017159
0.0027677761 -0.037581716 -0.021998558 -0.020115076 0.022320228 -0.34569213 -0.027891746 0.013803875
-0.042872433 -0.0027960043 -0.02846804 -0.010768425 -0.002138942 0.018312844 -0.012177274 0.0037328545
