Pendulum/Pendulum-v1_actor_finalized_09.pth (torch, 491758 bytes, 5 tensors)

l1.weight f4 [400, 3]
00000000: 68b4 a8bd f5ee 793e ccb4 fcbb 20f0 91bf
00000010: f31c 213f cbc0 0f3e aeba 943d 2409 a93f
00000020: 908e f93c 6fc0 3e3f 72a3 d6bd 77c8 333f
00000030: 417d d83e aa02 38be a35a 91be eecd babe
00000040: 19c4 2d3f 77a3 693e b979 7d3d dd4c 4fbf
00000050: ab54 bf3e f671 873e eeca 0f3f 95da 1f3e
00000060: 4783 2cbe 3ed1 e43f 276a 083f e086 7ebf
00000070: 5b51 9b3e ed70 083e 2396 9fbf 5e1e c0be
00000080: 4dc2 873d 5ecd 043e 02c6 6bbf 0921 f23e
00000090: 197c 9fbe 1b3b 11be 5c63 8abe 790b 8c3e
000000a0: 6061 26bf 19d8 da3e ed71 ae3e 4467 653e
000000b0: 8fd0 63bd 05ad c13e b3d7 a2bc eace 86bd
000000c0: 422d aabf 0364 b9be 27d4 953d e71a 063f
000000d0: 86a5 82bf abd9 d4bd be79 80be a902 033e
000000e0: 6d3a 7bbd 9d57 883f ca06 9cbf 6a86 543e
000000f0: d275 d0be f346 7f3e 73d0 d93d 83c9 0fbe
00000100: 8938 a9be 2f54 bf3e 4169 833f 4d79 ed3e
00000110: 79ef 263f 185f 203f 5ab1 7fbf 9d9c ed3e
00000120: 0427 9d3e bdac b5bf 3ecb 4f3d 6556 83bd
00000130: f35d e4be 953e 043f 3afb aa3e 25b5 a9bf
00000140: b95a f73d 1e54 7d3f 4e2c c53f 7084 943e
00000150: 7896 59bf ec72 79be 35fa 503d 2717 a6be
00000160: 246a e4bf 33cb efbe 3f3c 94bf e1cf 1c3f
00000170: 8572 7b3e 0acb 89be dc85 5f3f 76d5 713e
00000180: a07a 53bf 7600 abbf 26ae 0ebb a89d 21bf
00000190: 6836 e5be 1709 ee3a 9440 b0bd 70e5 9f3f
000001a0: 5524 90bd c435 823f 2f94 89bf 4a9c febe
000001b0: ebb6 a9be c3c1 363e 498a 80bc 34f8 0a3f
000001c0: 302d 413e f0ff 02be 0ec2 a1bf 59a9 cf3e
000001d0: c929 383f fc5f 133f 46e9 0fbf 2980 263f
000001e0: 0951 10be 27b4 0abf 4ba9 ff3e bda9 bf3e
000001f0: c073 56bf a76e e33e 3f94 273f 6a20 f8be
00000200: a032 94be 5ac5 8e3f 0e27 e6be 35fc e1be
00000210: 8e1d 12bd cd3f 7c3e 2709 0a3a 04a0 22bf
00000220: 70b3 4abf f59b 12bd d5ad 773f f78b 423f
00000230: 6b59 173f 3ce9 15bb dcb6 cc3f 1c32 db3d
00000240: 059f 8abd 717b 6d3f 11c4 913e fbad f53e
00000250: 7440 e33b adf4 423f 9af0 ccbe 4c64 1dbf
00000260: a52e 963e 39f7 9f3d 5069 86bf b95e b83e
00000270: 08d7 a9bc 8fd0 8abf 3b90 b23e 8997 8f3d
00000280: 99d8 cabe 0e6e 793e 0888 a53e b3a2 6cbf
00000290: 3323 db3d 8324 69bf f864 ecbe 0e09 123d
000002a0: 8b6f a73d b5c2 0d3d f5e2 23bc 451f d8be
000002b0: 23ac b03e f457 303e fa55 623f 9732 9b3f
000002c0: 40b8 863f f782 8abf 02b5 18bf fb0b b1bd
000002d0: 81a3 4e3f 90eb 47bf 2543 cbbe 3799 9b3d
000002e0: c25c e1be f2d4 733f da35 163d c3ab 763d
000002f0: 97da 70bc aeb9 70bf f50d 51bf 8fa6 09bd
00000300: 7367 053f e59e 58bf dc82 113f fb14 9e3f
00000310: edd3 76bf ab3f e8be 1027 9d3e 85ec 89bf
00000320: f8cb 8fbe 09af df3d e6b8 62bf 798f 9f3d
00000330: 353c 33bf 8127 7bbe 0e43 13be f4fd 54be
00000340: 6f97 bc3f 1bdb 893e f94c b93d 6ceb d6bf
00000350: 6693 fd3e 6b54 92be 8a28 573f 6f1a ee3e
00000360: 88b2 2f3d df9d 763f 2fc9 083f 2860 943e
00000370: 6f9a 863f 3f6d 153f d4ec 153c 5518 7b3d
00000380: c497 64bb b404 08bf 8b3a 5a3e 97e5 99be
00000390: 98be 093f 0ffb ebbe 372e 103f 1aaf c93d
000003a0: 9775 783f 1ed2 de3e 032f 293f 9189 86bf
000003b0: d14c 0f3e 39f4 5bbf fb82 13bf f43c d3bd
000003c0: e8aa b8be 0228 763f 2af9 663e 0317 dfbe
000003d0: 3f83 c23f 66c7 413e 3f83 01bc c25f 02bf
000003e0: a84e c23e 81d4 ebbd c941 933f aaed a23e
000003f0: e506 813e fb9f 263f cb37 393f 36e8 4a3d
-0.08237535 0.24407561 -0.0077119824 -1.1401405 0.629348 0.14038388 0.07262169 1.3205914
0.030463487 0.7451238 -0.104803935 0.7022776 0.4228306 -0.17969766 -0.28389463 -0.36485237
0.67877346 0.22816263 0.061883662 -0.8097666 0.37369284 0.26454133 0.5616902 0.15610726
-0.16846953 1.7876356 0.53286976 -0.9942455 0.30335507 0.13324328 -1.2467693 -0.37523168
0.06628857 0.12968966 -0.9209901 0.4729083 -0.31149366 -0.14182703 -0.2702893 0.27352503
-0.6499233 0.42742994 0.34071293 0.22402674 -0.05561882 0.37827316 -0.019878244 -0.065824345
-1.3295062 -0.36209115 0.073158555 0.523848 -1.0206764 -0.10393079 -0.25092882 0.12793984
-0.061335016 1.0651737 -1.2189572 0.207544 -0.4071489 0.24929409 0.10635462 -0.14041714
-0.33050945 0.37368914 1.0266496 0.46381608 0.65209156 0.626451 -0.9987999 0.4640855
0.3069383 -1.419334 0.050730936 -0.06412963 -0.44602928 0.5165799 0.33394796 -1.3258406
0.12077851 0.9895648 1.5404146 0.29007292 -0.8499522 -0.24360245 0.051019866 -0.3243954
-1.7844892 -0.46834716 -1.1580886 0.612547 0.24555404 -0.2691272 0.8731363 0.23616585
-0.82608986 -1.3359516 -0.002177128 -0.6313119 -0.4476807 0.0018160668 -0.08606067 1.2491894
-0.0703818 1.0172658 -1.0748347 -0.49728614 -0.33147368 0.17847352 -0.01569094 0.5428498
0.18864894 -0.12792945 -1.2637346 0.4055889 0.7193876 0.57568336 -0.5621532 0.65039307
-0.14093412 -0.5418114 0.49933848 0.37434188 -0.8377037 0.4442036 0.6546058 -0.4846223
-0.28944874 1.1153977 -0.4495167 -0.4413773 -0.035672717 0.24633713 0.0005265646 -0.63525414
-0.7918005 -0.035793263 0.9674962 0.7599482 0.59120816 -0.0022874614 1.5993304 0.10702917
-0.06768612 0.9276648 0.284699 0.479843 0.0069351736 0.76154596 -0.40027314 -0.61481166
0.29332462 0.07810826 -1.0500889 0.36009768 -0.020732418 -1.0844897 0.34875664 0.07011325
-0.39618376 0.24358389 0.32330346 -0.9243576 0.10700073 -0.9107134 -0.46170783 0.035653166
0.08175572 0.034609515 -0.010002841 -0.42211357 0.3450633 0.17221051 0.8841244 1.2124814
1.0524979 -1.0821217 -0.59651196 -0.08644863 0.8071824 -0.78093815 -0.39699665 0.07597583
-0.4401608 0.95246804 0.03667245 0.0602224 -0.014700553 -0.94033325 -0.8166192 -0.03360611
0.52110976 -0.84617454 0.568403 1.2350153 -0.96417123 -0.45361075 0.30693865 -1.0775305
-0.28085303 0.10922057 -0.8856338 0.07791037 -0.70013744 -0.24526788 -0.14381048 -0.208
1.4733714 0.26924977 0.090478845 -1.6790595 0.4952652 -0.2858003 0.8404623 0.46504542
0.04289487 0.9633464 0.5343198 0.2897961 1.0515879 0.5836982 0.0091507025 0.0613025
-0.0034880498 -0.53132176 0.21311395 -0.30057976 0.5380645 -0.4608998 0.5632052 0.09847851
0.9705443 0.43519682 0.6608736 -1.0510732 0.13994147 -0.8591953 -0.57621735 -0.1031436
-0.3606789 0.961548 0.22555986 -0.43572244 1.5196303 0.1892372 -0.007904827 -0.50927365
0.37950635 -0.11515141 1.1504451 0.31821948 0.25200573 0.6508786 0.7235076 0.04953786

l1.bias f4 [400]
00000000: aee7 adbe 9106 8bbe f97b 15bd 774b 91be
00000010: e27e 47bf 5112 7f3d fba5 d0be f385 a7bf
00000020: afd7 d2be 0371 03be edd3 4abf 064e ffbd
00000030: 05f8 40bf 07a0 18bf 475f 43bf ff67 50bf
00000040: d229 59bf 094f a8be 5fc6 4bbf a081 2abf
00000050: e5df 00bf 8cbd d0be df2a d5be aec1 0ebf
00000060: 7036 54be b57c f7be 373c 12bf 6f5c 9bbe
00000070: 5b32 0cbf aa3c 51be 47e0 413e afb3 f8bd
00000080: 3953 71be 830d 4bbf 1612 35be 4f11 22bf
00000090: cc4a 03bf 0f5d 97bf 45de e1be 2c24 14bf
000000a0: 574c f6be 7c37 27bf a7c5 14bf 3e55 57bf
000000b0: b352 83be 82ac 8ebe 1f36 06bf 9645 a63d
000000c0: a117 91be 0436 55bf fc04 4bbf 3016 eabe
000000d0: d33c b4be 890a d7be f557 d1be a73a 09bf
000000e0: 39c1 4cbe 87b7 0ebf cfce 4dbe f889 01bf
000000f0: 06fd 2cbf 2c22 09bf cdb7 3cbe 2dfe 11bf
00000100: 59da b4be 9fd9 27bf 8118 b9bd 5ea0 66be
00000110: c7fb b03e 1dc4 d6be f1a4 44be 704a e5be
00000120: 1539 37bf 6e49 c93d c429 c3bd 9325 30bf
00000130: 42a5 40bf 16d2 9cbe 5e33 c4be 6d94 17bf
00000140: 05b0 d2bc e3de 29bf 0805 07bf 05ff c8be
00000150: 09be b6be 0dda 34bd 7384 96be 3b97 b8be
00000160: 56c3 4ebd 148d 3abf 4137 cebe 7d4e 52bf
00000170: 47b6 8dbf b42a b0be 3571 29bf 361a 17bd
00000180: bd98 00bf b4c5 86be 40e6 3fbf fef1 05bf
00000190: 36bc 2fbf 40f3 9cbe a654 30bf 91a5 04bf
000001a0: 5edf b13e 726e 5f3c 812c 14bf 832b bcbf
000001b0: 4bf3 24bf 5213 9cbf 317f eabe 79e1 0cbf
000001c0: ba6a 3ebf 5285 29bf 95cf 97be b83c 37bf
000001d0: b262 10bf 6312 d0be c287 9dbe 7a29 2ebe
000001e0: 5848 cabe 8311 e0be 4283 96bd c376 b4be
000001f0: a806 22bf 99a0 efbe 23a7 05bf ba25 57bf
00000200: 9be0 84bf d31c 323e 2400 1ebf 3206 09bf
00000210: 5a28 0cbf b73d 053e 52c5 cbbe 1c9f babe
00000220: 8cc1 66bf f1bf 81be d6ae 75bf c7f5 c9be
00000230: 4136 27bf 073d 3cbf bc58 48be 8dea 26bf
00000240: 005d 49bf fcbb 5ebf 1313 bebe 33b6 e5be
00000250: 0265 fdbe e2a7 4abf 9e4f c6be 40ee 39bf
00000260: 4949 20be e010 0bbf a999 f7be 7206 5dbf
00000270: 5839 2dbf 124f 01bf 5579 27bf 0443 53bf
00000280: bb0d d1be dfe6 b3be 2511 75bf e844 e5be
00000290: dd25 06bf 27f7 4e3d cf35 febe 33c0 33bf
000002a0: ae27 8ebe 1cbe 0ebf 4b6e 283c c357 6dbe
000002b0: 9fc2 39be f0f7 22bf ceae a3bf 48b0 a5be
000002c0: 71a8 1b3e ae5a 95be 048f debe b363 16bf
000002d0: 0425 21bd 0b45 f5bd de16 e6be a737 f8be
000002e0: 5cba 643b 26a1 0cbf bf10 81be 6cf3 d5be
000002f0: 9700 8d3d 6535 1cbf 16bb 8cbf 35fb febe
00000300: cab6 08be e16a 4abf 0cab 87be 3422 cbbe
00000310: 356e 6ebe 708f b3be 1043 f7be ea71 47bd
00000320: 8530 c1be 95e7 5dbf 5515 f8be 48c2 be3e
00000330: 6c2c f2bd 755a 01bf 14b2 06bf 54ae f7be
00000340: 2745 9ebe 5dec 67bf 36be 49bf 92ba 8cbe
00000350: 51b6 c9be e040 7fbe 33b7 3bbf d35e 77bd
00000360: 004f 843d 4f7d 42bf b0de d4be ecac 62bf
00000370: 4146 19bf 8ff3 10bf 4284 84be 471a 5bbf
00000380: f97c 643c 2cc3 73be f7a5 05bf 536b 27bf
00000390: 7138 0a3e e3c3 a9bd 3ee7 d2be 297d 433c
000003a0: dba3 7dbe e46e 1dbf 6604 84be c54e f1be
000003b0: 70a7 42bb dae0 55be a836 3cbd f904 8fbe
000003c0: 3f25 6cbe 37e0 d6be 3160 6b3d 455e 843e
000003d0: e539 3ebf 813e 38bf dea2 ffbd 0ae6 8bbd
000003e0: dd3d afbe c8c3 90be 8f83 02bf 5171 30bf
000003f0: a6bd 87be 1ddc 5bbf 4e5c 57be 6265 02be
-0.3396582 -0.27153447 -0.036495183 -0.28377888 -0.7792798 0.062273327 -0.40751633 -1.3087753
-0.4118018 -0.1283608 -0.79229623 -0.12466054 -0.7537845 -0.5961918 -0.76317257 -0.81408685
-0.8482944 -0.328728 -0.79599565 -0.6660404 -0.50341636 -0.40769613 -0.4163427 -0.5576428
-0.20723891 -0.4833733 -0.5712313 -0.3034396 -0.54764336 -0.20433298 0.18933211 -0.12143647
-0.23566903 -0.7931749 -0.1768268 -0.6330766 -0.51286006 -1.1825274 -0.4411489 -0.57867694
-0.48105118 -0.6531904 -0.58114094 -0.84114444 -0.25649032 -0.27865988 -0.5242633 0.08118741
-0.2833834 -0.83285546 -0.7930448 -0.45720053 -0.35202655 -0.42000225 -0.40887418 -0.5360512
-0.19995584 -0.5574879 -0.20098422 -0.5060115 -0.67573583 -0.5356777 -0.1842949 -0.57028466
-0.35322836 -0.6556644 -0.09037877 -0.22522113 0.3456709 -0.41946498 -0.19203545 -0.44783354
-0.71571475 0.09828459 -0.095294505 -0.68807334 -0.75252163 -0.30629033 -0.3832044 -0.59210855
-0.025718698 -0.66355723 -0.5274205 -0.39257064 -0.3569186 -0.044153262 -0.29397926 -0.3605288
-0.050479256 -0.7287152 -0.4027653 -0.82151014 -1.1071252 -0.3440758 -0.66188365 -0.03689023
-0.5023306 -0.2632271 -0.7496071 -0.52322376 -0.6864656 -0.30654335 -0.68879163 -0.51815134
0.34740728 0.013637172 -0.5788041 -1.4700779 -0.64433736 -1.2193396 -0.45800164 -0.55031544
-0.743816 -0.66219056 -0.2965056 -0.71577024 -0.564006 -0.40639028 -0.30767637 -0.1700801
-0.3950832 -0.4376336 -0.07349254 -0.35246858 -0.63291407 -0.46802214 -0.52208155 -0.8404194
-1.0381044 0.17393808 -0.61718965 -0.5352508 -0.5474907 0.13011824 -0.3979898 -0.36449516
-0.9013908 -0.25341752 -0.95969903 -0.39445326 -0.6531716 -0.7353062 -0.195651 -0.65201646
-0.7865753 -0.8700559 -0.37123927 -0.4486557 -0.49491125 -0.7916242 -0.38732618 -0.72629166
-0.15652956 -0.54322624 -0.4835942 -0.8633796 -0.67665625 -0.50511277 -0.65419513 -0.8252413
-0.40830788 -0.35137078 -0.95729285 -0.44779134 -0.52401525 0.05052867 -0.49650428 -0.7021515
-0.27764648 -0.55758834 0.010280202 -0.2317801 -0.18140648 -0.6365957 -1.2787721 -0.32361054
0.15200974 -0.29170746 -0.43468487 -0.5874588 -0.03934194 -0.119760595 -0.4493932 -0.4847996
0.0034901118 -0.54933393 -0.2520809 -0.4178728 0.06884878 -0.61018974 -1.0994594 -0.4980103
-0.13350978 -0.79069334 -0.26497686 -0.39674532 -0.23284228 -0.35070372 -0.48293352 -0.04869262
-0.3773233 -0.8668149 -0.48453775 0.372576 -0.11824879 -0.5052865 -0.52615476 -0.4837519
-0.30912134 -0.90595037 -0.78805864 -0.27486092 -0.3939691 -0.24927092 -0.73326415 -0.060393166
0.064603806 -0.75972456 -0.41576147 -0.8854511 -0.59872824 -0.5662164 -0.25882155 -0.8558697
0.013945811 -0.23804921 -0.5220637 -0.6539814 0.13498093 -0.082893156 -0.4119205 0.011931696
-0.24769537 -0.6149733 -0.25784606 -0.4713041 -0.0029701851 -0.20886555 -0.04595056 -0.2793348
-0.23061083 -0.41967937 0.057464782 0.25853172 -0.7430709 -0.71970373 -0.12482236 -0.06830986
-0.34226885 -0.2827437 -0.5098199 -0.6892291 -0.26511878 -0.8588274 -0.21031305 -0.12733987

l2.weight f4 [300, 400]
00000000: 1021 4f3c 4f64 7ebd a75b febc 1b67 57bc
00000010: f9db 1cbd 65c0 cbbd ff59 7abc 82d8 40bd
00000020: d745 72bd 3618 fabb abdd 96bd ccdc 70bc
00000030: 9d21 04bd b0cf aebc 311e d8bc c40d 8fbc
00000040: 6d82 67bd cd4a a6bc cc74 8cbd 2c06 623c
00000050: a8cf c5bd 2274 76bd fb64 5abd c948 033d
00000060: 4341 5abd 9626 c1bc 2d36 70bd 7156 88bc
00000070: 4919 cabd 01dd 33bd 6586 9cbd 4cf1 85bd
00000080: 9038 a9bc 4375 03bd fbd4 40bc 38d1 db3c
00000090: 1bbd cd3c 13fc afba b982 73bc b5f7 39bd
000000a0: 252a 4ebd 9a7f 493b a81a 08b9 aa00 16bd
000000b0: 4892 21bd 47fe 6e3c 9985 b7bd 17e5 35bd
000000c0: 722a 50bd cbba 73bd 01f3 43bd 41a3 43bd
000000d0: 5303 2abd 6c03 22bd 2141 d13c 2818 3dbd
000000e0: 9781 a8bd f589 8dbd 4c10 82bd 2654 28bd
000000f0: 0c7e 06ba 4e1e d3bc 4830 bb3c 1367 5ebd
00000100: 53de 54bd 6686 f1bc bba8 b13c 0cf9 47bc
00000110: 1007 3fbd 6190 acbd f044 12bd 955f 8dbd
00000120: 8eaa 47bd b7af 3cbd 8b7c a53c fa98 123c
00000130: 5a28 3ebd f3e8 9fbd ded8 34bc f420 16bd
00000140: 8cc9 89bd 051b a8bd c179 fdbc dcad 97bd
00000150: 171b 80bd 898c 02bd 4dcd 7bbd aea5 e4bc
00000160: 658b 00bd 0a08 09bc 304d 37bd 504e 9dbd
00000170: 440f 99bc fc87 0b3d 0ea4 9cbd c46a 963c
00000180: 008a cc3c c72f 9d3c edcb 91bc a494 0dbd
00000190: 9c34 9dbd ab1d 68bc 271e 00bd 0b24 39bd
000001a0: fd87 a63c 4dff 6fbd 7061 c2bc 9718 b03d
000001b0: 65d5 0bbc 4df6 3bbd c00d 283c 939a dbbd
000001c0: 0347 04bd 01b4 8f3c 49df 4abd 347b 58bd
000001d0: 5ae4 c83c e6bc 03be 37bf 2bbd 508b 74bd
000001e0: 964e 223d 9fc0 0abd 5876 c93a 7f87 56bd
000001f0: c374 fd3c df7e a7bc 7737 953d 49db 5cbc
00000200: 2131 103d 9911 a8bc f5c9 b4bd e30c 02bc
00000210: d5bf cf3c f1d7 29bd 4f86 09bd c87c ffbc
00000220: 526e 81bd 28d8 24bd b901 94bb 9e11 d6bd
00000230: dcc2 9f3d 9268 5abd 0130 2c3a a0f3 0eb9
00000240: 8569 68bd 53fc a7bc 33b3 073c 1ca1 dcbd
00000250: 88d2 61bc 1518 a53a 2af6 323d c579 70bc
00000260: 1ba9 11bd f608 34bd 6402 aebd 9395 cd3c
00000270: 0c5c bfbc 0926 05bc b797 8d3c 32a6 3e3d
00000280: 8e50 6ebd ae77 843a 8284 eebc 0abc dabb
00000290: 9070 85bd 4ccd c4bd d758 87bd e8af 06bc
000002a0: dc45 cdbc fc0f ffbc 5a9a c93c 8cf7 053c
000002b0: b69e a2bd d463 6bbc 1121 2c3d 0521 0ebd
000002c0: 9493 fc3c ed7c 3abd 4faa bbbd a395 b33c
000002d0: 579b 433c 6608 97bc 16b0 89bd bfc8 9cbc
000002e0: 965f d9bd b120 c73c eac1 c1bc 32a4 c7b8
000002f0: 95ac 1fbd 0240 1dbd f79f 50bc c180 983c
00000300: d61d 17bd 4e74 94bd 9dc7 b0bd 0261 843c
00000310: a2ac 723d f2a2 45bd 6033 ad3c c56e c6bd
00000320: 44cc 71bd f76d bfbc fa83 f2bc 6d24 3ebd
00000330: 6293 023d 8aaa 8ebd 27b8 b0bc 42aa b3bc
00000340: 423d 86bd da71 353d f676 c43c 19e0 72bd
00000350: e280 babd 4b82 98bc 2f25 c23c df1a a63c
00000360: 0bd1 333d 10bb e43b e8f9 b03c 8670 323c
00000370: 2ef4 3f3d 03bd 63bd f932 44bd 1428 7cbc
00000380: 6a5d 22bd 96ad fb3b e983 893d 2a96 96bd
00000390: 8385 c9bc 9e9b f8ba 3e90 b1bd 14da 1b3d
000003a0: f702 5abd 44f2 02bd 6a6d 6dbd 4867 d6bd
000003b0: da27 44bc 649c a2bd 89b9 acbc 13ff b9bc
000003c0: 2346 b6bd aa86 7dbd bb15 aa3c fc8d e93c
000003d0: 9cf6 a6bc ab4e d5bd 237b 4bbd 38e1 9abd
000003e0: 93b2 d63c 93b3 cbbb 319b 4dbc cfc5 f6bc
000003f0: 0850 05bd ccac 1cbd 6adc 06bc 9cec 4fbd
0.01264216 -0.06210738 -0.031049563 -0.013147141 -0.03829572 -0.09948806 -0.015280246 -0.047081478
-0.059148636 -0.0076322807 -0.073664986 -0.01470108 -0.03225862 -0.021339267 -0.026381584 -0.017462619
-0.056520868 -0.02029934 -0.06858215 0.013795417 -0.09658748 -0.060169347 -0.05331896 0.032051835
-0.053284895 -0.02357797 -0.058645416 -0.016642781 -0.09868104 -0.043911938 -0.07642821 -0.06540164
-0.020656854 -0.03209425 -0.0117695285 0.026833162 0.025114587 -0.0013426564 -0.01486271 -0.045402247
-0.05033316 0.0030746222 -0.00012979901 -0.036621727 -0.039446145 0.014586992 -0.089610286 -0.04440793
-0.05082173 -0.05950431 -0.04783917 -0.047763113 -0.041507076 -0.039554045 0.025543751 -0.046165615
-0.08227842 -0.06911079 -0.06350765 -0.041095875 -0.0005130477 -0.025771286 0.02285017 -0.054297518
-0.051969837 -0.029483031 0.021686902 -0.0122053735 -0.046637595 -0.084259756 -0.035710275 -0.069029965
-0.048746638 -0.046066012 0.020200988 0.008947605 -0.0464252 -0.078081034 -0.011038033 -0.03665252
-0.06727895 -0.082082786 -0.030941846 -0.07406208 -0.06255167 -0.031872306 -0.061475087 -0.027911033
-0.031382937 -0.008363733 -0.044751346 -0.076809525 -0.018684037 0.03406523 -0.076484784 0.018361457
0.024968147 0.019187821 -0.017797435 -0.034565583 -0.0767605 -0.01416723 -0.031278756 -0.04520039
0.020328516 -0.058593083 -0.023728102 0.0859844 -0.008534764 -0.045889188 0.0102571845 -0.10722842
-0.032294285 0.017541887 -0.049529348 -0.05285187 0.024522949 -0.12865028 -0.041930404 -0.05970317
0.039625727 -0.033875104 0.0015370352 -0.052375313 0.030939465 -0.020446239 0.0728597 -0.013480016
0.035203103 -0.020516204 -0.08827583 -0.007937643 0.025360027 -0.041465703 -0.033575352 -0.03118743
-0.0631987 -0.040245205 -0.004516807 -0.10452579 0.07800838 -0.053322382 0.00065684324 -0.00013632933
-0.056741256 -0.02050606 0.0082824705 -0.10772917 -0.013783105 0.0012595678 0.04369179 -0.01467747
-0.035561662 -0.04395386 -0.0849655 0.025095737 -0.023359321 -0.008126744 0.017284257 0.046545215
-0.05818229 0.0010106468 -0.029115919 -0.006675248 -0.0651561 -0.0960947 -0.06608742 -0.00822065
-0.025057726 -0.031135552 0.024609733 0.008176696 -0.07940428 -0.014367063 0.042023722 -0.03469946
0.03083209 -0.045529295 -0.09163343 0.021921938 0.011938891 -0.018436622 -0.06723039 -0.019138692
-0.10613935 0.02430758 -0.023652036 -9.519643e-05 -0.038982946 -0.03839112 -0.012733451 0.018616082
-0.03689369 -0.07248746 -0.08631823 0.016159538 0.059246667 -0.0482511 0.021142662 -0.09689096
-0.059032694 -0.023367865 -0.029603947 -0.046421457 0.031878836 -0.069661215 -0.021572186 -0.021931771
-0.06554653 0.04429803 0.023982506 -0.059295747 -0.09106614 -0.018616816 0.023699371 0.020276485
0.04390053 0.0069803074 0.02160354 0.0108910855 0.046863727 -0.055600177 -0.047900174 -0.015390415
-0.039639868 0.007680605 0.06714613 -0.0735286 -0.024599796 -0.0018967276 -0.0867009 0.038049772
-0.053225484 -0.031969324 -0.057965674 -0.10468918 -0.011972392 -0.079399854 -0.021084564 -0.022704637
-0.08900096 -0.061896004 0.020762315 0.028510086 -0.020381264 -0.10415395 -0.04967798 -0.07562488
0.026208198 -0.0062164753 -0.012549208 -0.03012362 -0.032547027 -0.03825073 -0.008231262 -0.050762758

l2.bias f4 [300]
00000000: b8eb c3bd beef 2abd 650b 45bd c27a dfbc
00000010: 44bb dcbd f3ef 18be 2047 08bd ae36 f3bc
00000020: 5a65 5fbd c880 44bd 4e62 6cbd e267 17bd
00000030: 9885 6fbc 459d 73bd fcb4 9abd a384 a3bc
00000040: 7f2f 993e 1464 8a3c 980f 56bc 9ce3 123b
00000050: 5cdf 87bd e603 a1bc fd25 893d dce8 e33a
00000060: 5686 a0bd 9719 81bd 0451 ffbc ab5a 37bd
00000070: 56f7 25bd 2b60 5cbd f2d1 7f3b 6db4 f1bc
00000080: e494 b4bc d2c4 c9ba 6b99 c83c 6175 79bd
00000090: 8fec a3bd 7891 5bbc 370c a2bd 7d14 98bd
000000a0: b150 a8bc ed37 fabc 9e2d 8bbd 37f6 9fbd
000000b0: 5be4 16bc ebf3 b6bd 0ee1 01be c4cf 7ebd
000000c0: 1aaa 46b6 4ef6 98bb c401 f23c b67c bb3b
000000d0: b7fb 58bd 2578 8cbd b70e fb3c 2da6 7cbd
000000e0: eed8 73bc e8fe a4bb 905e ba3e 66c8 7cbc
000000f0: c2f4 66bc 6263 d43b 1075 82be 575a c8bc
00000100: 5605 0ebc 1805 0fbd 50ad 6c3b cbbc a2bc
00000110: 9454 00bd 36fe 19bc 06a4 74bd 1ead b5bd
00000120: 5e6f 8abc 2aa3 a0bc 36eb 1bbd f588 85bd
00000130: 41cd 16bc 411d bdbd c843 42bd e55e 6e3d
00000140: 4b30 eebc ab42 57be f616 97bd f189 8fbe
00000150: 45de cabd 28cb d7bc d4d7 1dbd 2e7a 3fbe
00000160: c5dd bfbc aec2 d43e 6db2 a9bb 4411 e73b
00000170: b6c1 c9bc e8cc 6cbd 8f53 c33e 5e92 4fbd
00000180: ac4c ab3c e7c2 b7bc fd13 263d 94f4 ab3c
00000190: c073 22bd 46e0 e2bd 4552 81bc faca 813c
000001a0: 69d6 a6bd 6c24 08bd 6081 f03d 60ce 6339
000001b0: d836 d8bc 1009 aabd 7cd2 0c3c 6eb2 33bd
000001c0: b8bc 15bd d8e4 d23c 9042 78bd be36 9a3c
000001d0: 1a81 57bd e298 fa3c 8c07 20bd 4870 95bd
000001e0: 7863 403c 9e73 10bc 7789 1ebd d652 1c3d
000001f0: b539 0bbc 3bda c8bc 0f97 013e 769a 55bd
00000200: 8312 54bd 6fc3 40bd c9e4 6dbd 1693 32bd
00000210: 538d 42bd 3dd6 afbe 0928 8fbd fb35 3abf
00000220: 58a1 bebc f038 6cbd bd68 9cbc c748 133c
00000230: 1bdd 58bd d94e 93bd 4574 a3bd ea39 a63c
00000240: f986 5ebd 94b0 1abe 078b 3ebd 572d f03c
00000250: fb45 2cbd c3c6 97bd fb0d 5bbc 81a1 6abd
00000260: e6d5 793c 642d 0dbd d43b 3ebd f786 93bb
00000270: 4f47 d93d 2da6 0bbe 0908 febd 1ae6 29bd
00000280: 5f5f 58bd c1e6 abbc d7fa 87bd d40d 79bc
00000290: f945 39bd 5082 24be 7d34 92bc 6732 c0bd
000002a0: fd1a 25bd 0b5f 113d a392 abbd ba32 29bb
000002b0: d4a0 3ebd 66de 5abc 27ce 5dbd 6dc5 9b3b
000002c0: 6108 85bd 14d7 febd b506 a7bd 89c6 bd3c
000002d0: 4393 cdbb 9705 b4bd 2f5c e7bc 56b4 f4bd
000002e0: 530b 7bbc 99d0 97bc 3c1f e1bc 8cfb fcbd
000002f0: f0aa dabc 39e5 0fbd 588a 8cbd 21e8 11bd
00000300: e489 a2bc ef7c 953c 4ddc 163f f136 23be
00000310: 10a2 d93b d16c 83bc a461 8bbd 2c74 5a3c
00000320: 1a3e 20bd c980 b63b 28a1 f03c efc9 113c
00000330: e0ae 5ebd fbea 29bb be2f c83c 18ac abbd
00000340: 0cf8 f43c df42 b5bc 5d12 57bd d80e 953e
00000350: 95c0 4d3c dc62 b2bd 2b1d 03bd 86ad db3a
00000360: 9a7e 1a3d 9de2 dabc 6962 7dbf 6d9e 14bd
00000370: 65ec e43c e251 7bbd c10a 23bc 7f08 ba3e
00000380: 3e2b 243d 183a 04be aabd 4fbe 44dd 603c
00000390: 9f1b 123c 2866 67bd f5d5 953d 5d98 33bd
000003a0: 3931 40bd 750f 22be 51cd 1fbd b23b d43c
000003b0: fcb8 b9bd 10a1 2a3a 5041 84bd 5de6 393d
000003c0: 493f 0e3d 5e0f 5b3c 8fe2 22bd 9cc8 e3bc
000003d0: 34eb 4cbd 1556 89bd 731a 98bd fd1f 45bd
000003e0: c165 4bbd 46bb 0bbd 088a 76bd 0ba9 a1be
000003f0: d517 17bd 3389 143d d191 17bc b426 a83b
-0.09566444 -0.041732542 -0.04810657 -0.027280215 -0.107779056 -0.14935283 -0.033270955 -0.02968916
-0.054540016 -0.047974378 -0.05771094 -0.036964305 -0.014619254 -0.059476156 -0.07554051 -0.019960707
0.2991905 0.016893424 -0.013065241 0.0022413498 -0.06634399 -0.01965518 0.06696699 0.0017388123
-0.078381225 -0.06303709 -0.031166561 -0.044764202 -0.04051908 -0.05380265 0.003903505 -0.029504979
-0.022043653 -0.001539374 0.024487218 -0.060902957 -0.08004104 -0.013401382 -0.07912486 -0.07425783
-0.02054629 -0.030544246 -0.0679581 -0.07810634 -0.009209718 -0.089332424 -0.12683508 -0.06220986
-2.9603311e-06 -0.0046680337 0.029541858 0.005721654 -0.05297443 -0.06858853 0.030646665 -0.061681915
-0.014883263 -0.00503527 0.3640027 -0.015428638 -0.014096441 0.006481574 -0.25479937 -0.02445714
-0.008668264 -0.034916967 0.0036114044 -0.019865414 -0.03133066 -0.0093989875 -0.059726737 -0.0887091
-0.016898807 -0.019609053 -0.03806611 -0.06520263 -0.00920421 -0.09234095 -0.047427922 0.058195967
-0.029075762 -0.21021526 -0.07377426 -0.28034928 -0.09905676 -0.02634199 -0.038535908 -0.18698952
-0.023421178 0.4155478 -0.0051787407 0.007051619 -0.024628501 -0.0578126 0.38149688 -0.050676696
0.020910583 -0.022431804 0.040546406 0.020990647 -0.03966117 -0.11077933 -0.0157863 0.015843857
-0.08146364 -0.03323786 0.11743426 0.00021725288 -0.026393339 -0.0830251 0.008595105 -0.043871336
-0.03655693 0.025743887 -0.060610354 0.018824931 -0.052613355 0.030590478 -0.039069697 -0.072968066
0.011742465 -0.008816628 -0.038705315 0.038164936 -0.008497645 -0.024518123 0.1265528 -0.05214926
-0.051775467 -0.04706138 -0.058079515 -0.043597303 -0.04749806 -0.34343138 -0.06990058 -0.7273862
-0.023270294 -0.057671487 -0.019092912 0.008989519 -0.052945238 -0.07192773 -0.07981161 0.020291287
-0.05432794 -0.15106422 -0.046519306 0.029318495 -0.042058926 -0.07410958 -0.013370032 -0.05728293
0.015248751 -0.034467116 -0.046443775 -0.004502173 0.10609304 -0.1363761 -0.12403876 -0.041479208
-0.052825328 -0.020984055 -0.06639641 -0.015201051 -0.045232747 -0.16065335 -0.017847294 -0.093846135
-0.04030894 0.03549103 -0.08377578 -0.002581759 -0.046540096 -0.013358688 -0.05415168 0.0047537596
-0.06495739 -0.12443367 -0.08155576 0.023165958 -0.0062736585 -0.08790129 -0.028242199 -0.11948459
-0.015322524 -0.018532084 -0.027480714 -0.12352666 -0.026692837 -0.035130713 -0.068623245 -0.035621766
-0.019841142 0.01824805 0.589299 -0.15938927 0.006641634 -0.016043099 -0.06805733 0.013333362
-0.039121725 0.0055695516 0.02937372 0.008898242 -0.054365993 -0.0025927413 0.024436828 -0.08382434
0.029903434 -0.022126613 -0.052507747 0.29112887 0.012558122 -0.08710262 -0.03201024 0.0016760088
0.037718393 -0.026719386 -0.98978287 -0.0362839 0.027944753 -0.061357386 -0.009951294 0.36334607
0.0400803 -0.12912786 -0.20287195 0.013724629 0.008917718 -0.05649391 0.073162 -0.043846477
-0.046921942 -0.15826209 -0.039014164 0.025907371 -0.09068486 0.00065089855 -0.0645777 0.045385707
0.034728322 0.013370363 -0.039766844 -0.027805619 -0.050028995 -0.06705872 -0.0742692 -0.04812621
-0.049657587 -0.034114145 -0.06019023 -0.31574282 -0.036887962 0.036263656 -0.009251074 0.005131567

l3.weight f4 [1, 300]
00000000: d8b1 c2ba 99df 7fbd f559 3abc 4a21 453c
00000010: 6207 b0bc 8af2 8738 e7fc 9f3c 4f42 313d
00000020: 9017 e8b9 38fb 28bd eb11 d93a 586c 7b3c
00000030: c3db 76ba 9b98 803c 1c97 9a3b 537d 813b
00000040: 7c54 c0be ae20 fabc 80bd 8c3a 8603 bb3c
00000050: 0a09 97bc 63a6 2fbc 884a b6be c178 17bf
00000060: 1b3b 833a dd40 0ebc c8eb ff3c f4ab 063d
00000070: c39d 45bd ba7a b93a 77de 2c3a e417 9f3a
00000080: 972f 87bc 07e2 80bb 555e 9e3c 88de 9abc
00000090: 157d ae3b 0ff6 343c 99c5 e33e 430f 603d
000000a0: 024d 133d 7c7a 7abc abc2 bcbb 63da 54bb
000000b0: 2958 ecbb 3d96 ab3c a614 4abd 8c2e 0bbc
000000c0: 7b5f dc3b c919 c03b 1047 17bc 5001 9f3c
000000d0: 8369 d9ba 7be9 4a3c 0bc1 05bd ad69 cc3b
000000e0: 0bfe 3dbd 942f 7bbb 7386 9abe 30f0 da3b
000000f0: 600f b53c 61e5 9d3c 3c47 8bbf 8914 8c3a
00000100: e0f6 993c 4480 5bba 17e0 3c3d a01f 92bc
00000110: fb42 143b 0382 95ba 145d f1bc a8c4 ddba
00000120: 6bf1 833b 40c5 073d 9bee ae3c 376b 06bc
00000130: e46c 3dbd 37a3 3ebc 19e5 863c d75d 11be
00000140: e73f 783b 61a4 b5be 64fd 93bc 0724 61c0
00000150: 39ba 893e 31d3 d6bc 3e5a 17bb 848c a83a
00000160: c858 9b3e c3bc 72be fabc 0bbd e0b8 26bc
00000170: 1463 43bc 814f a5bc 10d1 a03f c7f1 7c3e
00000180: 6443 273d f7a1 3dbd 95b5 353d e975 aeba
00000190: bf21 4dbd fa42 abb9 84e6 b8bc bcca b2bb
000001a0: f24b d03b f176 293d d7e7 06c1 e3bb 05bb
000001b0: c5e8 143b 2e23 9b3b 9538 1cbd 3d21 dcbc
000001c0: f8e6 b53c 729b 3e3f ef8a 3e3c e36c 673b
000001d0: f7ec 0cbb 1f1a dd3a 2f85 c0bc 02ff ca3b
000001e0: a4c8 533c 4f81 0c3c 57e4 1b3d 39c8 a53d
000001f0: 97cf 4f3c 97d6 1fbc 0618 8dc0 f1f0 a9bc
00000200: 8365 043d 0a05 743c f9f1 5b3e c067 713d
00000210: 89d2 01bc 84c1 fabf 953e 1bba 3907 30be
00000220: ecc0 26bd fc14 e13c d2a1 ac3c 3605 04bc
00000230: 72e7 e9bc ba7b b13c 0a45 a23b 4910 083c
00000240: 79f1 5ebc 6a7c 8e3d ed18 debc 3d40 a53c
00000250: 9d6c 483b f8bd debc e75b bebc c0c2 a63c
00000260: fbb8 92bb d728 a9bc f3f8 d6bc 7e14 5e3c
00000270: fd3c 023e e70a 0fbc 3677 2ebd 748c 18bc
00000280: 5b2f d93c 4f9c 4cbb fd38 4bbe 16a3 d23a
00000290: 587b 29be 71d1 fabe 26b6 923c 62cf 9a3c
000002a0: c6b7 00bc a6af b93c 0375 8dbb 0810 a5ba
000002b0: 67c9 dfbc 6cee 3cbc 8852 a1bc 9567 d7bc
000002c0: 5112 60bc be77 55bf 51a5 873b 3bdc 193c
000002d0: b5c6 e53a 3d45 e03c c7c8 a1ba bc6e e63c
000002e0: 9cf3 4d3c 8681 453b 24eb d9bb 5fb0 4ebb
000002f0: f650 0a3c 031c 3b3b 1b7c de3c 7d7c 0db9
00000300: 5386 52bc e47f d0b8 9d07 a6bf 879f 513f
00000310: 3659 29bc 41af 413d c2ce acbb fab3 d43a
00000320: b34b c0bb 4114 373e 77e0 87bc 352b 8d3c
00000330: 0d82 80bb c8eb 453a 1942 b1bc 77fe 2b3c
00000340: ec1b ca3b f5b6 f139 cc5b 973c fecb 02bf
00000350: 05e0 eabc 7fe0 3fbc d6b5 1f3c 8465 083d
00000360: 4487 e2bb 0ff1 143d 3dab abbd 8ecb ddbc
00000370: a6fe ee3c abaa c33c 50fb bd3c 6ce9 c53e
00000380: 4a68 0fbd 16e4 b1bc a0f6 7cbd 9781 1abc
00000390: 17dd 143d bb97 17bd 1891 6ac0 380c a93b
000003a0: 75c1 e53b 5454 e73c a107 0d3d ee47 bf3c
000003b0: 0cc7 823c 7717 a43c 2f75 68bb 124a 95bf
000003c0: 8283 08b9 3dd0 4abc e19c 693b b609 b03c
000003d0: 2447 103d 2f1a 013d 174d c1bc 7592 0fbc
000003e0: fb10 593b e4f5 c13b 4264 0d3d f98b 6fbd
000003f0: 8a86 df3c 509d 3a39 419b 353c 61b1 dabc
-0.0014854027 -0.0624691 -0.0113739865 0.0120318625 -0.021487895 6.482478e-05 0.019529773 0.043276127
-0.00044268044 -0.041255206 0.0016561126 0.015345655 -0.00094169023 0.015697768 0.0047177207 0.0039517074
-0.37564456 -0.030533161 0.0010737628 0.022828829 -0.018436927 -0.010720822 -0.35603738 -0.5916863
0.0010012122 -0.008682457 0.031240359 0.03287883 -0.048246156 0.0014150955 0.0006594429 0.0012137857
-0.016502185 -0.0039331946 0.01933209 -0.01890494 0.0053249695 0.011044993 0.44486693 0.054702055
0.035962112 -0.015287992 -0.005760511 -0.0032478801 -0.007212658 0.020945663 -0.049336098 -0.008494984
0.0067252493 0.005862449 -0.009233251 0.019409806 -0.0016587231 0.012384768 -0.032654803 0.0062381835
-0.046384852 -0.003832792 -0.30180702 0.0066814646 0.022102058 0.019274415 -1.0881114 0.0010687272
0.018794477 -0.00083733 0.046112146 -0.017837346 0.0022622931 -0.0011406544 -0.029463328 -0.001691957
0.004026582 0.033147097 0.02135401 -0.008204273 -0.046246424 -0.011635593 0.016466664 -0.14195953
0.0037879886 -0.35476974 -0.018065162 -3.517824 0.2689989 -0.02622375 -0.002309456 0.001285926
0.30341172 -0.2370482 -0.03411577 -0.010175914 -0.011925478 -0.020179512 1.2563801 0.24701606
0.040835753 -0.04629704 0.044362623 -0.0013310286 -0.05008101 -0.00032665563 -0.022570856 -0.0054562967
0.0063567096 0.041373197 -8.431602 -0.0020406179 0.002272175 0.0047344184 -0.0381399 -0.026871318
0.022204861 0.7445594 0.011629804 0.0035312704 -0.0021503547 0.0016868747 -0.023501007 0.00619495
0.012926254 0.008575751 0.03805956 0.0809483 0.012683771 -0.009755752 -4.4091825 -0.020744773
0.03232337 0.0148937795 0.21479024 0.058936834 -0.007923731 -1.9590306 -0.0005922106 -0.17190255
-0.04071133 0.027475826 0.021073256 -0.008057883 -0.028552745 0.021665443 0.0049520778 0.008304664
-0.013607376 0.06957324 -0.027111495 0.020172233 0.0030582317 -0.027190194 -0.023237182 0.020356536
-0.004477618 -0.020649357 -0.026241755 0.01355469 0.12718578 -0.008730627 -0.042594157 -0.00931083
0.026511839 -0.0031221097 -0.19845958 0.0016070332 -0.16550958 -0.48987916 0.01790912 0.018897716
-0.007856315 0.022666764 -0.0043169274 -0.0012593279 -0.027317716 -0.011531454 -0.019692674 -0.026294509
-0.013676242 -0.8338584 0.0041395803 0.009390886 0.0017530533 0.027376765 -0.0012343162 0.028128974
0.012570288 0.0030137016 -0.0066503454 -0.003153823 0.008442154 0.0028550632 0.027158787 -0.00013493183
-0.012849408 -9.9420344e-05 -1.2971073 0.81884044 -0.010336211 0.047286276 -0.005273671 0.0016227954
-0.005868399 0.1787882 -0.016586525 0.017232517 -0.0039217533 0.0007550088 -0.021637963 0.010497681
0.0061678793 0.00046103416 0.01847639 -0.5109252 -0.028671274 -0.011711239 0.009747943 0.033299938
-0.0069130976 0.036362704 -0.083822705 -0.027074602 0.02917416 0.023885092 0.023191124 0.3865465
-0.035011567 -0.021715205 -0.061758637 -0.009430311 0.03634366 -0.037009936 -3.6651058 0.0051589273
0.0070115873 0.028238453 0.034431104 0.023349728 0.015964054 0.02003072 -0.0035470237 -1.166323
-0.00013018961 -0.012378749 0.0035646486 0.021489006 0.035224095 0.03151911 -0.02359633 -0.008762945
0.0033121693 0.005919205 0.03451944 -0.058483098 0.027285833 0.00017796946 0.011084379 -0.026695909
