Pendulum/Pendulum-v1_actor_finalized_08.pth (torch, 491758 bytes, 5 tensors)

l1.weight f4 [400, 3]
000000 68 b4 a8 bd f5 ee 79 3e cc b4 fc bb 90 73 e7 bf
       -0.08237535 0.24407561 -0.0077119824 -1.8082142
000010 7b 15 2a 3f 31 2d 90 3d 7e f6 d2 bd 3f 0c ce 3f
       0.66439027 0.070398696 -0.10300921 1.6097487
000020 db f0 16 3d 43 40 09 3f 81 0f 0e bf ac 81 3c 3f
       0.03685079 0.5361368 -0.5549241 0.73635364
000030 7d 44 c8 3e 81 89 fd be b1 03 ba be df cf 83 3e
       0.39114752 -0.4951897 -0.3633094 0.2574453
000040 45 03 37 3f fb a8 29 3f ff 79 2c 3f d1 59 7e bf
       0.71489364 0.6627347 0.6737365 -0.993558
000050 ea c2 07 3e 32 ad 72 3e 45 b9 0a 3f 82 a1 11 3e
       0.13257948 0.23698881 0.5418895 0.14221767
000060 01 3b c3 be 40 71 0b 40 8c 42 90 3e 51 90 94 bf
       -0.38130954 2.1787872 0.2817577 -1.1606542
000070 e2 17 61 3e 2d 9b 12 3e ef ab ac bf e2 6d 51 bf
       0.21981767 0.14317007 -1.348997 -0.8180829
000080 79 f1 01 be 50 19 22 3f 24 9b 7b bf 9c f5 b1 be
       -0.12689771 0.63319874 -0.982836 -0.34757698
000090 04 d6 8a bf cb e9 22 bf 43 6c b3 be 7d 18 5a 3f
       -1.0846562 -0.6363799 -0.35043535 0.85193616
0000a0 06 2a b5 be e6 45 1b 3f ed 71 ae 3e 44 67 65 3e
       -0.35383624 0.6065353 0.34071293 0.22402674
0000b0 8f d0 63 bd 05 ad c1 3e b3 d7 a2 bc ea ce 86 bd
       -0.05561882 0.37827316 -0.019878244 -0.065824345
0000c0 35 06 c9 bf 90 46 fb be cc 8f 67 3a 35 d2 30 3f
       -1.5705019 -0.49077272 0.0008833378 0.6907075
0000d0 d5 57 da bf cb f7 d4 be be 79 80 be a9 02 03 3e
       -1.7058054 -0.415953 -0.25092882 0.12793984
0000e0 6d 3a 7b bd 80 11 a4 3f 4b 19 97 bf 1a 86 17 3f
       -0.061335016 1.281784 -1.1804594 0.59189
0000f0 27 eb 93 be 16 04 8e 3e 84 3d ea 3c cd b4 16 3f
       -0.28890345 0.27737492 0.028593786 0.5886963
000100 cf ab d3 be 07 ca 42 3f b2 ff e8 3f 1e 1f 86 3f
       -0.41342017 0.7608952 1.8203032 1.0478246
000110 0a 0e c4 3e 38 2c c4 3e cb 01 89 bf 35 2b 95 3e
       0.3829196 0.38314986 -1.0703672 0.29134527
000120 ae 25 fb 3e 11 2d 02 c0 b6 3d 6e 3e 98 cb 1e 3e
       0.49052185 -2.0340006 0.23265728 0.15507352
000130 c6 49 8d 3d 68 11 38 3f 99 07 9a 3f 8c 6f e7 bf
       0.06898837 0.7190156 1.2033569 -1.8080916
000140 bf 1d 76 3e 81 9f a0 3f 19 48 0f 40 e2 81 87 3f
       0.24034785 1.2548677 2.2387755 1.0586512
000150 d2 82 68 bf c0 9d 34 bf 0b b1 52 be 06 3d a0 3c
       -0.90824616 -0.7055321 -0.20575349 0.019560348
000160 b1 b8 fc bf 13 dd 5e be 33 ba 9d bf 4e ea 39 3f
       -1.9743863 -0.2176402 -1.2322448 0.72623146
000170 0a 0d 66 3e 64 90 43 be 89 8d 8b 3f 21 f1 cd 3e
       0.22465912 -0.1909805 1.0902568 0.4022303
000180 d3 35 4a bf 46 95 b5 bf 1f c0 b1 be a8 9d 21 bf
       -0.7898838 -1.418618 -0.3471689 -0.6313119
000190 68 36 e5 be 17 09 ee 3a 97 bc b2 be e2 a1 5a 3f
       -0.4476807 0.0018160668 -0.34909508 0.85403264
0001a0 0c c1 85 3d 5e 67 d1 3f 7a dd dc bf 75 9d 34 bf
       0.065309614 1.635967 -1.7255089 -0.7055276
0001b0 eb b6 a9 be c3 c1 36 3e 49 8a 80 bc db 98 03 3f
       -0.33147368 0.17847352 -0.01569094 0.51405114
0001c0 dc 15 22 3e 91 3d c4 bd 3b ef c9 bf be 9b 40 3f
       0.15828651 -0.09582055 -1.5776132 0.75237644
0001d0 47 8d 39 3f 9b 61 82 3f bb c1 0f bf cd cc ae 3f
       0.724812 1.0186037 -0.56154984 1.365625
0001e0 b1 13 42 3e 63 6b 5b bf bd 19 1e be 41 05 06 3f
       0.18952824 -0.85710734 -0.15439506 0.52351767
0001f0 e0 7b 67 bf 8f 68 63 3f 8e 95 a9 3f 02 37 6e bf
       -0.90423393 0.8883142 1.3248765 -0.93052685
000200 c6 72 f2 be 02 97 bb 3f 33 ca 7b bf c6 21 10 bf
       -0.4735319 1.4655459 -0.98355407 -0.56301534
000210 8e 1d 12 bd cd 3f 7c 3e 27 09 0a 3a 38 22 86 bf
       -0.035672717 0.24633713 0.0005265646 -1.0479193
000220 81 97 6c bf a6 ca b2 be 0f bb ff 3f e5 81 6b 3f
       -0.92418677 -0.34920233 1.9978961 0.9199508
000230 77 46 7c 3f a1 22 8f bc 32 86 f0 3f 11 17 e0 3d
       0.9854502 -0.017472567 1.8790953 0.109418996
000240 b2 c9 30 be 86 3b bf 3f af f3 b8 3e 85 b7 29 3f
       -0.1726444 1.494004 0.36123416 0.66295654
000250 66 08 5e bf 1e af 9b 3f 5b f5 25 bf 62 a6 11 bf
       -0.86731565 1.2162817 -0.6482751 -0.56894505
000260 38 f4 16 3c b4 7c 32 3f d7 3d 8c bf a1 85 72 3e
       0.0092135 0.6972153 -1.0956372 0.23683788
000270 75 71 ef 3e 34 6a 6e bf c7 e8 93 3e 8d 1d 92 3e
       0.46766248 -0.93130803 0.28888533 0.2853817
000280 62 35 52 bf 8f a3 06 3e ce 57 0b 3f 6b 98 9a bf
       -0.82112706 0.1314833 0.54430854 -1.2077764
000290 4c 7d a5 ba 59 09 39 bf c5 a8 f5 be 2b 96 f6 3b
       -0.0012625842 -0.7227989 -0.47980323 0.0075252256
0002a0 8b 6f a7 3d b5 c2 0d 3d f5 e2 23 bc 4c d1 a3 be
       0.08175572 0.034609515 -0.010002841 -0.31995618
0002b0 3d ef 0a 3e e9 d5 36 3d 40 3a 64 3f d1 a4 92 3f
       0.13567825 0.044637594 0.8915138 1.1456548
0002c0 84 5a ce 3f 7c 92 8c bf 80 c5 96 bf 51 ba 57 be
       1.6121373 -1.0982203 -1.1779022 -0.21067168
0002d0 e7 1e bd 3f 96 d7 a6 bf 41 2d 1c bf 61 55 c8 3e
       1.4775056 -1.3034542 -0.6100655 0.3912764
0002e0 51 d9 8f bf 9a af a5 3f da 35 16 3d c3 ab 76 3d
       -1.1238195 1.2944214 0.03667245 0.0602224
0002f0 97 da 70 bc 1c 9a 9b bf 71 e9 5b bf 0d 9d a7 be
       -0.014700553 -1.2156405 -0.8590308 -0.32737008
000300 0a 9f 2c 3f be 08 8b bf 42 0e c4 3d bc 8f d0 3f
       0.67430174 -1.0862043 0.09573032 1.6293864
000310 1b 53 cd bf f4 d3 27 bf fd 16 5f 3f fe ed 0a bf
       -1.6040987 -0.6555779 0.8714445 -0.542694
000320 6f ea 27 3e 5b 72 a5 3e 25 45 5d bf 21 6c 20 3e
       0.16398023 0.3231381 -0.8643363 0.15666248
000330 5f 97 0c bf b3 ab 7e be d2 c9 af bd c8 5e 8e be
       -0.54918474 -0.24870186 -0.08583416 -0.27806687
000340 de 35 fb 3f 86 aa ff 3e 92 17 3e 3e 57 86 15 c0
       1.9625814 0.49934787 0.18563679 -2.3363245
000350 27 67 4f be 27 e5 ac be 01 16 cb 3f 01 31 fd 3e
       -0.20254193 -0.3376858 1.586609 0.4945145
000360 79 5e 41 bd 97 59 b1 3f 07 7e 1e 3f 7e b9 06 3f
       -0.047209237 1.3855466 0.6191105 0.5262679
000370 98 26 80 3f 6c 80 de bd d4 ec 15 3c 55 18 7b 3d
       1.0011778 -0.10864338 0.0091507025 0.0613025
000380 c4 97 64 bb cf a4 23 bf b0 07 3d 3e 15 2c c5 bc
       -0.0034880498 -0.6392335 0.18459964 -0.024068872
000390 3d 0d 8a 3f c3 a2 12 bf 2c e4 53 3f 19 82 05 3f
       1.078529 -0.57279605 0.8277004 0.5215164
0003a0 f2 b4 80 3f ba 74 02 3f 60 1d 24 3f ee c6 bd bf
       1.005522 0.5095936 0.6410732 -1.4826334
0003b0 50 8c b2 3e 1e 93 8e bf 1e 4f 12 bf 89 19 0a be
       0.34872675 -1.1138647 -0.57151973 -0.13486303
0003c0 16 22 55 be 5b 94 b7 3f 27 d3 c0 3e 59 4a f4 be
       -0.20813784 1.434215 0.37661096 -0.47712973
0003d0 86 97 08 40 64 a7 20 3e 28 a0 d9 3c 33 ba 12 bf
       2.1342483 0.15688854 0.026565626 -0.5731537
0003e0 d3 28 09 3c a6 3e e8 bd 62 aa d0 3f 2a 4e ff 3e
       0.00837155 -0.11340074 1.6301997 0.49864322
0003f0 b9 0b 02 3f 81 12 5e 3f a9 b7 58 3f 74 6e 2b 3f
       0.5079914 0.86746985 0.84655243 0.66965413

l1.bias f4 [400]
000000 ae e7 ad be 2f 8c 25 be 95 c3 94 be 45 d8 20 bf
       -0.3396582 -0.16166757 -0.29055467 -0.6283
000010 1c 8b 64 bf c3 89 19 3e 2b a8 1c bf a3 f6 a9 bf
       -0.89274764 0.14993958 -0.61194104 -1.3278393
000020 7f 30 b0 be 39 eb ac be 5d ca 8e bf f8 ff e6 be
       -0.34412 -0.3377321 -1.1155506 -0.45117164
000030 f2 10 7e bf 2d bc 8b be 47 5f 43 bf ff 67 50 bf
       -0.99244606 -0.27292004 -0.76317257 -0.81408685
000040 ad c3 7d bf d3 3a 44 bf 5f c6 4b bf ac 30 cb be
       -0.991267 -0.7665226 -0.79599565 -0.3968557
000050 90 d8 17 bf 2e 10 a5 3d 79 ac 9d be f4 3b 41 bf
       -0.59314823 0.08059727 -0.3079565 -0.75482106
000060 a2 b3 e8 be 82 0d 0c bf 0c ed 82 bf 18 06 e7 3d
       -0.4544955 -0.5470811 -1.0228591 0.11280459
000070 13 a2 68 bf 12 f3 17 bf 50 54 30 3d 63 69 2d bd
       -0.90872306 -0.5935527 0.043049157 -0.042336833
000080 ef d9 0c bf 83 0d 4b bf e1 95 1f bf 22 2f 28 bf
       -0.5502004 -0.7931749 -0.6233807 -0.6569692
000090 cc 4a 03 bf ad 3c 9b bf b4 8f 8f be 3e 69 5f bf
       -0.51286006 -1.2127892 -0.28039324 -0.8726996
0000a0 07 1b 0d bf 3e e9 b0 bd 63 fb 38 bf dc c7 83 bf
       -0.55119365 -0.086382374 -0.72258586 -1.0295367
0000b0 b3 52 83 be 2d cc e6 be 27 1a 8a be fd a1 83 be
       -0.25649032 -0.4507765 -0.26973078 -0.25709525
0000c0 15 c1 e3 be ff e6 8a bf 86 8e 73 bf b6 c2 27 bf
       -0.44483247 -1.0851744 -0.9513935 -0.6553148
0000d0 8f d5 33 bf c1 8f 35 bf 47 45 23 bf 3b c3 70 bf
       -0.7024774 -0.70922476 -0.63777584 -0.940479
0000e0 39 c1 4c be 13 c2 2d bf a7 46 86 3e 4c 56 84 bf
       -0.19995584 -0.6787426 0.26225778 -1.0338836
0000f0 e6 db 33 bf 79 88 1a 3f cd b7 3c be 96 f2 3e bf
       -0.70257413 0.6036449 -0.1842949 -0.74588907
000100 28 d8 24 bf b4 d7 34 bf 52 b3 31 be 8e 5a 44 bf
       -0.6439233 -0.70641637 -0.17353562 -0.76700675
000110 1f fb ed be ed bb 02 bf 66 d2 36 3c 9c 7f a0 be
       -0.46480653 -0.51068 0.011158561 -0.31347358
000120 36 e9 bc bf ed 21 5c bf c4 29 c3 bd 39 9c 65 bf
       -1.475867 -0.85989267 -0.095294505 -0.896915
000130 ba 18 ac be 68 e5 0b 3e 18 d8 16 bf 75 74 6e bf
       -0.33612615 0.1366173 -0.5892348 -0.9314645
000140 82 7a 9d be 74 fb 6c bf 68 56 27 bf 42 a1 d7 be
       -0.3075753 -0.92571187 -0.6536622 -0.42115217
000150 8b c0 bb bc f4 e7 13 be 53 88 d3 be af 5d 5c bb
       -0.02291896 -0.14443952 -0.41314945 -0.0033625176
000160 60 19 bc be 3e 8a 14 bf 41 37 ce be bb 7f 6a bf
       -0.3673811 -0.5802344 -0.4027653 -0.9160115
000170 94 04 19 bf 61 8a 38 bf a9 21 81 bf ce b9 ed be
       -0.5977261 -0.7208615 -1.0088397 -0.4643082
000180 9e f0 0e bf 51 b0 cc be 0f 96 aa bf 6d 89 2e bf
       -0.558359 -0.3997827 -1.3327044 -0.68178445
000190 36 bc 2f bf fb 58 e5 be a6 54 30 bf b2 2c 44 bf
       -0.6864656 -0.4479445 -0.68879163 -0.766307
0001a0 ad a2 e5 3e ea 7a c8 bd f1 b5 1c bf 26 d9 f3 bf
       0.44850674 -0.09789069 -0.6121512 -1.9050643
0001b0 d9 b6 35 bf 6b bf d9 bf 32 4e 65 3e be 20 1f bf
       -0.7098213 -1.7011541 0.2239311 -0.62159336
0001c0 12 af 94 bf d1 e2 85 bf c0 83 b4 3d 98 14 2f bf
       -1.1615927 -1.0459844 0.08814192 -0.683908
0001d0 b2 62 10 bf 18 33 13 bf 6b da 5d bf 52 9e 19 bf
       -0.564006 -0.5749984 -0.86661404 -0.600072
0001e0 58 48 ca be e6 0d 0f bf 1e 6b 9c bf 26 57 03 bf
       -0.3950832 -0.5588058 -1.222019 -0.5130485
0001f0 6b 42 8f bf 92 77 14 bf 23 a7 05 bf ea a6 73 be
       -1.1192144 -0.5799495 -0.52208155 -0.23794141
000200 f0 75 a3 bf fb 5e 88 be 23 c1 80 bf 7b 52 78 bf
       -1.2770367 -0.26634964 -1.0058941 -0.97000855
000210 7a 46 23 bf a7 63 1e 3f 81 fe 68 bf 76 b3 f2 be
       -0.63779414 0.6187081 -0.9101334 -0.47402543
000220 8a e8 9b bf d5 a8 27 bf 02 5d a6 bf b6 c4 ce be
       -1.218034 -0.6549199 -1.2997134 -0.40384454
000230 45 16 20 bf 71 67 28 bf bc 58 48 be 8d ea 26 bf
       -0.6253398 -0.6578284 -0.195651 -0.65201646
000240 2f 77 8b bf 07 07 ea bf eb 32 2d bd f3 1e 0f bf
       -1.0895747 -1.8283395 -0.042284887 -0.559066
000250 02 65 fd be c5 e7 88 bf 85 65 e4 be 17 cc 34 bd
       -0.49491125 -1.069573 -0.44608703 -0.044139948
000260 70 cf b5 be cf d5 e7 be 58 93 bf be 79 5d ff be
       -0.35509825 -0.4528031 -0.37417102 -0.49876
000270 e3 dc 94 bf ac bf 14 bf 1e d2 c0 bf 04 43 53 bf
       -1.1629909 -0.5810497 -1.5064123 -0.8252413
000280 5c 09 1e bf df e6 b3 be 29 16 9f bf b8 54 1a bf
       -0.6173303 -0.35137078 -1.2428638 -0.6028552
000290 61 70 6b be 76 09 4f bf 06 c0 b0 3e 33 c0 33 bf
       -0.22992088 -0.8087381 0.34521502 -0.7021515
0002a0 2f 4e 23 be 4b 6a e1 be d3 62 2e bf 10 b9 e5 be
       -0.15947793 -0.44026408 -0.68119544 -0.44867754
0002b0 9d 46 9f be 03 d7 42 bf ae 99 df bf 28 e9 23 bf
       -0.3110856 -0.7610933 -1.7468774 -0.64027643
0002c0 15 0e 4f be 01 5f c0 3e ff cd 4d bf 87 31 48 bf
       -0.20220216 0.37572482 -0.8039245 -0.7820057
0002d0 38 f6 45 bf 73 15 01 bf 25 18 51 bf a7 37 f8 be
       -0.77328825 -0.50423354 -0.81677467 -0.4847996
0002e0 11 3b e6 be 76 c3 be be cb a6 76 bf b3 31 5f bf
       -0.4496694 -0.372585 -0.96348256 -0.8718521
0002f0 43 1c 69 3e 93 69 14 bf 4c eb 9e bf fc b0 55 be
       0.22764687 -0.57973593 -1.2415557 -0.20868295
000300 33 02 90 3d 72 28 5e bf 0c ab 87 be 09 44 3d bf
       0.070316695 -0.86780465 -0.26497686 -0.7393194
000310 2b 0c 3d bf 0b c2 e7 be ac 89 59 be 16 67 14 bf
       -0.7384669 -0.4526523 -0.21243924 -0.57969797
000320 ed ea e5 be 3c aa 3f bf 17 5e e0 be aa 42 70 3e
       -0.44905797 -0.7486913 -0.43821785 0.2346293
000330 0e be 44 3f 30 92 01 bf 91 07 17 bf d4 2b 7c bf
       0.768525 -0.5061369 -0.5899592 -0.98504376
000340 d2 74 d2 be 12 d9 ba bf 4e de 29 bf 92 ba 8c be
       -0.41104752 -1.4597495 -0.66354835 -0.27486092
000350 3d 4c 04 bf 13 45 3e bf 50 8c 99 bf 46 76 c9 bd
       -0.5167883 -0.7432415 -1.1995945 -0.09837012
000360 2e 4d e2 be 4f 7d 42 bf a3 8e 4f be ed 79 07 bf
       -0.44199508 -0.75972456 -0.20269255 -0.5292042
000370 5c de 4c bf f4 4c 2f bf 95 f6 9b be 47 1a 5b bf
       -0.80026793 -0.68476796 -0.30461565 -0.8558697
000380 f4 91 7c 3d 9a 11 27 be 93 7f 37 bf 6d 97 5d bf
       0.06166263 -0.16315308 -0.7167904 -0.8655918
000390 94 45 9c be 51 30 af be 4e 39 fc be d3 82 99 be
       -0.30521834 -0.3421655 -0.4926247 -0.29982623
0003a0 d3 8c ee be e4 6e 1d bf cb dd 1d bf e5 f6 19 bf
       -0.46591815 -0.6149733 -0.61666554 -0.60142356
0003b0 a5 b9 ab be 45 a8 30 bf ab 66 02 bf 40 3d a1 be
       -0.33540073 -0.6900676 -0.5093791 -0.31492043
0003c0 27 6b 90 be cd 30 43 bf 09 7b 09 bf d7 26 80 be
       -0.2820675 -0.7624634 -0.5370336 -0.25029632
0003d0 ec cd 9a be dd 86 48 bf 85 6b 25 bf 0a e6 8b bd
       -0.3023523 -0.78330785 -0.64617187 -0.06830986
0003e0 dd 3d af be 8b 89 56 bf d0 4f 2b bf 2f d2 03 bf
       -0.34226885 -0.83803624 -0.6691866 -0.5149259
0003f0 6d 97 f4 be 46 bf 3c bf f6 1a 1f 3e 35 46 ca be
       -0.4777178 -0.7372936 0.15537629 -0.3950669

l2.weight f4 [300, 400]
000000 10 21 4f 3c 4f 64 7e bd a7 5b fe bc 1b 67 57 bc
       0.01264216 -0.06210738 -0.031049563 -0.013147141
000010 f9 db 1c bd 65 c0 cb bd ff 59 7a bc 82 d8 40 bd
       -0.03829572 -0.09948806 -0.015280246 -0.047081478
000020 d7 45 72 bd 36 18 fa bb ab dd 96 bd cc dc 70 bc
       -0.059148636 -0.0076322807 -0.073664986 -0.01470108
000030 9d 21 04 bd b0 cf ae bc 31 1e d8 bc c4 0d 8f bc
       -0.03225862 -0.021339267 -0.026381584 -0.017462619
000040 6d 82 67 bd cd 4a a6 bc cc 74 8c bd 2c 06 62 3c
       -0.056520868 -0.02029934 -0.06858215 0.013795417
000050 a8 cf c5 bd 22 74 76 bd fb 64 5a bd c9 48 03 3d
       -0.09658748 -0.060169347 -0.05331896 0.032051835
000060 43 41 5a bd 96 26 c1 bc 2d 36 70 bd 71 56 88 bc
       -0.053284895 -0.02357797 -0.058645416 -0.016642781
000070 49 19 ca bd 01 dd 33 bd 65 86 9c bd 4c f1 85 bd
       -0.09868104 -0.043911938 -0.07642821 -0.06540164
000080 90 38 a9 bc 43 75 03 bd fb d4 40 bc 38 d1 db 3c
       -0.020656854 -0.03209425 -0.0117695285 0.026833162
000090 1b bd cd 3c 13 fc af ba b9 82 73 bc b5 f7 39 bd
       0.025114587 -0.0013426564 -0.01486271 -0.045402247
0000a0 25 2a 4e bd 9a 7f 49 3b a8 1a 08 b9 aa 00 16 bd
       -0.05033316 0.0030746222 -0.00012979901 -0.036621727
0000b0 48 92 21 bd 47 fe 6e 3c 99 85 b7 bd 17 e5 35 bd
       -0.039446145 0.014586992 -0.089610286 -0.04440793
0000c0 72 2a 50 bd cb ba 73 bd 01 f3 43 bd 41 a3 43 bd
       -0.05082173 -0.05950431 -0.04783917 -0.047763113
0000d0 53 03 2a bd 6c 03 22 bd 21 41 d1 3c 28 18 3d bd
       -0.041507076 -0.039554045 0.025543751 -0.046165615
0000e0 97 81 a8 bd f5 89 8d bd 4c 10 82 bd 26 54 28 bd
       -0.08227842 -0.06911079 -0.06350765 -0.041095875
0000f0 0c 7e 06 ba 4e 1e d3 bc 48 30 bb 3c 13 67 5e bd
       -0.0005130477 -0.025771286 0.02285017 -0.054297518
000100 53 de 54 bd 66 86 f1 bc bb a8 b1 3c 0c f9 47 bc
       -0.051969837 -0.029483031 0.021686902 -0.0122053735
000110 10 07 3f bd 61 90 ac bd f0 44 12 bd 95 5f 8d bd
       -0.046637595 -0.084259756 -0.035710275 -0.069029965
000120 8e aa 47 bd b7 af 3c bd 8b 7c a5 3c fa 98 12 3c
       -0.048746638 -0.046066012 0.020200988 0.008947605
000130 5a 28 3e bd f3 e8 9f bd de d8 34 bc f4 20 16 bd
       -0.0464252 -0.078081034 -0.011038033 -0.03665252
000140 8c c9 89 bd 05 1b a8 bd c1 79 fd bc dc ad 97 bd
       -0.06727895 -0.082082786 -0.030941846 -0.07406208
000150 17 1b 80 bd 89 8c 02 bd 4d cd 7b bd ae a5 e4 bc
       -0.06255167 -0.031872306 -0.061475087 -0.027911033
000160 65 8b 00 bd 0a 08 09 bc 30 4d 37 bd 50 4e 9d bd
       -0.031382937 -0.008363733 -0.044751346 -0.076809525
000170 44 0f 99 bc fc 87 0b 3d 0e a4 9c bd c4 6a 96 3c
       -0.018684037 0.03406523 -0.076484784 0.018361457
000180 00 8a cc 3c c7 2f 9d 3c ed cb 91 bc a4 94 0d bd
       0.024968147 0.019187821 -0.017797435 -0.034565583
000190 9c 34 9d bd ab 1d 68 bc 27 1e 00 bd 0b 24 39 bd
       -0.0767605 -0.01416723 -0.031278756 -0.04520039
0001a0 fd 87 a6 3c 4d ff 6f bd 70 61 c2 bc 97 18 b0 3d
       0.020328516 -0.058593083 -0.023728102 0.0859844
0001b0 65 d5 0b bc 4d f6 3b bd c0 0d 28 3c 93 9a db bd
       -0.008534764 -0.045889188 0.0102571845 -0.10722842
0001c0 03 47 04 bd 01 b4 8f 3c 49 df 4a bd 34 7b 58 bd
       -0.032294285 0.017541887 -0.049529348 -0.05285187
0001d0 5a e4 c8 3c e6 bc 03 be 37 bf 2b bd 50 8b 74 bd
       0.024522949 -0.12865028 -0.041930404 -0.05970317
0001e0 96 4e 22 3d 9f c0 0a bd 58 76 c9 3a 7f 87 56 bd
       0.039625727 -0.033875104 0.0015370352 -0.052375313
0001f0 c3 74 fd 3c df 7e a7 bc 77 37 95 3d 49 db 5c bc
       0.030939465 -0.020446239 0.0728597 -0.013480016
000200 21 31 10 3d 99 11 a8 bc f5 c9 b4 bd e3 0c 02 bc
       0.035203103 -0.020516204 -0.08827583 -0.007937643
000210 d5 bf cf 3c f1 d7 29 bd 4f 86 09 bd c8 7c ff bc
       0.025360027 -0.041465703 -0.033575352 -0.03118743
000220 52 6e 81 bd 28 d8 24 bd b9 01 94 bb 9e 11 d6 bd
       -0.0631987 -0.040245205 -0.004516807 -0.10452579
000230 dc c2 9f 3d 92 68 5a bd 01 30 2c 3a a0 f3 0e b9
       0.07800838 -0.053322382 0.00065684324 -0.00013632933
000240 85 69 68 bd 53 fc a7 bc 33 b3 07 3c 1c a1 dc bd
       -0.056741256 -0.02050606 0.0082824705 -0.10772917
000250 88 d2 61 bc 15 18 a5 3a 2a f6 32 3d c5 79 70 bc
       -0.013783105 0.0012595678 0.04369179 -0.01467747
000260 1b a9 11 bd f6 08 34 bd 64 02 ae bd 93 95 cd 3c
       -0.035561662 -0.04395386 -0.0849655 0.025095737
000270 0c 5c bf bc 09 26 05 bc b7 97 8d 3c 32 a6 3e 3d
       -0.023359321 -0.008126744 0.017284257 0.046545215
000280 8e 50 6e bd ae 77 84 3a 82 84 ee bc 0a bc da bb
       -0.05818229 0.0010106468 -0.029115919 -0.006675248
000290 90 70 85 bd 4c cd c4 bd d7 58 87 bd e8 af 06 bc
       -0.0651561 -0.0960947 -0.06608742 -0.00822065
0002a0 dc 45 cd bc fc 0f ff bc 5a 9a c9 3c 8c f7 05 3c
       -0.025057726 -0.031135552 0.024609733 0.008176696
0002b0 b6 9e a2 bd d4 63 6b bc 11 21 2c 3d 05 21 0e bd
       -0.07940428 -0.014367063 0.042023722 -0.03469946
0002c0 94 93 fc 3c ed 7c 3a bd 4f aa bb bd a3 95 b3 3c
       0.03083209 -0.045529295 -0.09163343 0.021921938
0002d0 57 9b 43 3c 66 08 97 bc 16 b0 89 bd bf c8 9c bc
       0.011938891 -0.018436622 -0.06723039 -0.019138692
0002e0 96 5f d9 bd b1 20 c7 3c ea c1 c1 bc 32 a4 c7 b8
       -0.10613935 0.02430758 -0.023652036 -9.519643e-05
0002f0 95 ac 1f bd 02 40 1d bd f7 9f 50 bc c1 80 98 3c
       -0.038982946 -0.03839112 -0.012733451 0.018616082
000300 d6 1d 17 bd 4e 74 94 bd 9d c7 b0 bd 02 61 84 3c
       -0.03689369 -0.07248746 -0.08631823 0.016159538
000310 a2 ac 72 3d f2 a2 45 bd 60 33 ad 3c c5 6e c6 bd
       0.059246667 -0.0482511 0.021142662 -0.09689096
000320 44 cc 71 bd f7 6d bf bc fa 83 f2 bc 6d 24 3e bd
       -0.059032694 -0.023367865 -0.029603947 -0.046421457
000330 62 93 02 3d 8a aa 8e bd 27 b8 b0 bc 42 aa b3 bc
       0.031878836 -0.069661215 -0.021572186 -0.021931771
000340 42 3d 86 bd da 71 35 3d f6 76 c4 3c 19 e0 72 bd
       -0.06554653 0.04429803 0.023982506 -0.059295747
000350 e2 80 ba bd 4b 82 98 bc 2f 25 c2 3c df 1a a6 3c
       -0.09106614 -0.018616816 0.023699371 0.020276485
000360 0b d1 33 3d 10 bb e4 3b e8 f9 b0 3c 86 70 32 3c
       0.04390053 0.0069803074 0.02160354 0.0108910855
000370 2e f4 3f 3d 03 bd 63 bd f9 32 44 bd 14 28 7c bc
       0.046863727 -0.055600177 -0.047900174 -0.015390415
000380 6a 5d 22 bd 96 ad fb 3b e9 83 89 3d 2a 96 96 bd
       -0.039639868 0.007680605 0.06714613 -0.0735286
000390 83 85 c9 bc 9e 9b f8 ba 3e 90 b1 bd 14 da 1b 3d
       -0.024599796 -0.0018967276 -0.0867009 0.038049772
0003a0 f7 02 5a bd 44 f2 02 bd 6a 6d 6d bd 48 67 d6 bd
       -0.053225484 -0.031969324 -0.057965674 -0.10468918
0003b0 da 27 44 bc 64 9c a2 bd 89 b9 ac bc 13 ff b9 bc
       -0.011972392 -0.079399854 -0.021084564 -0.022704637
0003c0 23 46 b6 bd aa 86 7d bd bb 15 aa 3c fc 8d e9 3c
       -0.08900096 -0.061896004 0.020762315 0.028510086
0003d0 9c f6 a6 bc ab 4e d5 bd 23 7b 4b bd 38 e1 9a bd
       -0.020381264 -0.10415395 -0.04967798 -0.07562488
0003e0 93 b2 d6 3c 93 b3 cb bb 31 9b 4d bc cf c5 f6 bc
       0.026208198 -0.0062164753 -0.012549208 -0.03012362
0003f0 08 50 05 bd cc ac 1c bd 6a dc 06 bc 9c ec 4f bd
       -0.032547027 -0.03825073 -0.008231262 -0.050762758

l2.bias f4 [300]
000000 b8 eb c3 bd be ef 2a bd 65 0b 45 bd c2 7a df bc
       -0.09566444 -0.041732542 -0.04810657 -0.027280215
000010 d5 b9 dc bd 47 1c 23 be 20 47 08 bd ae 36 f3 bc
       -0.10777632 -0.15928756 -0.033270955 -0.02968916
000020 5a 65 5f bd c8 80 44 bd 4e 62 6c bd e2 67 17 bd
       -0.054540016 -0.047974378 -0.05771094 -0.036964305
000030 08 a6 38 bd 45 9d 73 bd fc b4 9a bd a3 84 a3 bc
       -0.045080215 -0.059476156 -0.07554051 -0.019960707
000040 1f d1 39 3f 99 3e 24 bc 98 0f 56 bc 9c e3 12 3b
       0.7258472 -0.01002469 -0.013065241 0.0022413498
000050 5c df 87 bd e6 03 a1 bc ed 6b 52 bd dc e8 e3 3a
       -0.06634399 -0.01965518 -0.051372457 0.0017388123
000060 56 86 a0 bd 01 78 81 bd 04 51 ff bc 56 7d 9c bd
       -0.078381225 -0.06321717 -0.031166561 -0.076410934
000070 56 f7 25 bd 4c 06 92 bd 78 d2 7f 3b 6d b4 f1 bc
       -0.04051908 -0.07130107 0.0039035361 -0.029504979
000080 e4 94 b4 bc d2 c4 c9 ba 6b 99 c8 3c 61 75 79 bd
       -0.022043653 -0.001539374 0.024487218 -0.060902957
000090 8f ec a3 bd 78 91 5b bc 63 73 04 bf 7d 14 98 bd
       -0.08004104 -0.013401382 -0.51738566 -0.07425783
0000a0 b1 50 a8 bc ed 37 fa bc 9e 2d 8b bd 37 f6 9f bd
       -0.02054629 -0.030544246 -0.0679581 -0.07810634
0000b0 5b e4 16 bc eb f3 b6 bd 0e e1 01 be c4 cf 7e bd
       -0.009209718 -0.089332424 -0.12683508 -0.06220986
0000c0 1a aa 46 b6 71 2e f2 bc 23 26 0a bb b6 7c bb 3b
       -2.9603311e-06 -0.02956316 -0.002107986 0.005721654
0000d0 b7 fb 58 bd 25 78 8c bd ed eb 91 3c 2d a6 7c bd
       -0.05297443 -0.06858853 0.017812693 -0.061681915
0000e0 ee d8 73 bc e8 fe a4 bb b5 8d 12 3f 66 c8 7c bc
       -0.014883263 -0.00503527 0.5724748 -0.015428638
0000f0 1c e2 16 bc 62 63 d4 3b 10 75 82 be ab 2b 76 bd
       -0.009209182 0.006481574 -0.25479937 -0.06010024
000100 56 05 0e bc 18 05 0f bd 50 ad 6c 3b cb bc a2 bc
       -0.008668264 -0.034916967 0.0036114044 -0.019865414
000110 94 54 00 bd 36 fe 19 bc 06 a4 74 bd 1e ad b5 bd
       -0.03133066 -0.0093989875 -0.059726737 -0.0887091
000120 36 e1 88 be 2a a3 a0 bc 59 a1 81 bd f5 88 85 bd
       -0.26734322 -0.019609053 -0.06329603 -0.06520263
000130 41 cd 16 bc 41 1d bd bd c8 43 42 bd e5 5e 6e 3d
       -0.00920421 -0.09234095 -0.047427922 0.058195967
000140 4b 30 ee bc ab 42 57 be 6a f8 d7 bd f1 89 8f be
       -0.029075762 -0.21021526 -0.10545428 -0.28034928
000150 45 de ca bd ed 4d ca bd d4 d7 1d bd 06 f4 46 be
       -0.09905676 -0.098781444 -0.038535908 -0.19429025
000160 c5 dd bf bc 95 6e e6 3f 87 f8 16 bd 3c 0b b0 bc
       -0.023421178 1.8002497 -0.036858108 -0.021489732
000170 b6 c1 c9 bc e8 cc 6c bd 0c dd 8d 3e 5e 92 4f bd
       -0.024628501 -0.0578126 0.27707708 -0.050676696
000180 ac 4c ab 3c e7 c2 b7 bc fd 13 26 3d 94 f4 ab 3c
       0.020910583 -0.022431804 0.040546406 0.020990647
000190 c0 73 22 bd 46 e0 e2 bd 45 52 81 bc fa ca 81 3c
       -0.03966117 -0.11077933 -0.0157863 0.015843857
0001a0 69 d6 a6 bd 6c 24 08 bd d4 58 6d 3c 60 ce 63 39
       -0.08146364 -0.03323786 0.01448651 0.00021725288
0001b0 d8 36 d8 bc 10 09 aa bd eb ea 7e bc 6e b2 33 bd
       -0.026393339 -0.0830251 -0.0155589385 -0.043871336
0001c0 b8 bc 15 bd c1 4f c5 bb 90 42 78 bd 84 34 1d 3c
       -0.03655693 -0.0060214703 -0.060610354 0.00959504
0001d0 1a 81 57 bd ff 28 8a b9 8c 07 20 bd 48 70 95 bd
       -0.052613355 -0.00026351956 -0.039069697 -0.072968066
0001e0 78 63 40 3c 9e 73 10 bc 77 89 1e bd d6 52 1c 3d
       0.011742465 -0.008816628 -0.038705315 0.038164936
0001f0 b5 af c8 bc 3b da c8 bc 0b d3 32 3e 12 b8 a1 bd
       -0.024497846 -0.024518123 0.17463319 -0.07896437
000200 61 ab 74 3e 8c c3 7d bd c2 39 24 bf 16 93 32 bd
       0.23893501 -0.061954066 -0.6415063 -0.043597303
000210 53 8d 42 bd 3d d6 af be 09 28 8f bd 43 9c 00 c0
       -0.04749806 -0.34343138 -0.06990058 -2.0095375
000220 58 a1 be bc f0 38 6c bd 34 ef 21 bd c7 48 13 3c
       -0.023270294 -0.057671487 -0.039534763 0.008989519
000230 1b dd 58 bd d9 4e 93 bd 45 74 a3 bd ea 39 a6 3c
       -0.052945238 -0.07192773 -0.07981161 0.020291287
000240 cb 3b b0 bd 72 38 1b be ec 7f 97 bd 57 2d f0 3c
       -0.086051546 -0.15158251 -0.07397446 0.029318495
000250 fb 45 2c bd c3 c6 97 bd fb 0d 5b bc 81 a1 6a bd
       -0.042058926 -0.07410958 -0.013370032 -0.05728293
000260 e6 d5 79 3c 64 2d 0d bd d4 3b 3e bd f7 86 93 bb
       0.015248751 -0.034467116 -0.046443775 -0.004502173
000270 29 f3 a4 3e 2d a6 0b be 09 08 fe bd 1a e6 29 bd
       0.32216766 -0.1363761 -0.12403876 -0.041479208
000280 09 ee a9 bd b5 e4 b5 bc 4e 36 77 3d d4 0d 79 bc
       -0.08297355 -0.022203783 0.060354523 -0.015201051
000290 f2 af 76 bd 50 82 24 be 7d 34 92 bc 67 32 c0 bd
       -0.06022639 -0.16065335 -0.017847294 -0.093846135
0002a0 fd 1a 25 bd 0b 5f 11 3d d1 6b ed bd ba 32 29 bb
       -0.04030894 0.03549103 -0.1159283 -0.002581759
0002b0 d4 a0 3e bd 66 de 5a bc 00 62 09 be 6d c5 9b 3b
       -0.046540096 -0.013358688 -0.1341629 0.0047537596
0002c0 61 08 85 bd 14 d7 fe bd b5 06 a7 bd 89 c6 bd 3c
       -0.06495739 -0.12443367 -0.08155576 0.023165958
0002d0 43 93 cd bb 8e 52 f6 bd 2f 5c e7 bc 54 c3 1a be
       -0.0062736585 -0.12027465 -0.028242199 -0.15113574
0002e0 e9 0d 3f bd 99 d0 97 bc 3c 1f e1 bc 9a 55 28 be
       -0.046644125 -0.018532084 -0.027480714 -0.16438904
0002f0 f0 aa da bc 66 87 6d bd e3 a4 e6 bd ed 67 24 bd
       -0.026692837 -0.057990454 -0.112619184 -0.040138174
000300 e4 89 a2 bc ef 7c 95 3c 6e eb 92 3f f1 36 23 be
       -0.019841142 0.01824805 1.1478097 -0.15938927
000310 10 a2 d9 3b d1 6c 83 bc a4 61 8b bd 31 11 1c bc
       0.006641634 -0.016043099 -0.06805733 -0.009525583
000320 1a 3e 20 bd 1f 94 d6 bc 28 a1 f0 3c ef c9 11 3c
       -0.039121725 -0.026193677 0.02937372 0.008898242
000330 e0 ae 5e bd fb ea 29 bb a6 f9 e5 bb 18 ac ab bd
       -0.054365993 -0.0025927413 -0.007018286 -0.08382434
000340 7f ef 2a ba df 42 b5 bc 5d 12 57 bd 83 f0 d0 3e
       -0.0006520673 -0.022126613 -0.052507747 0.40808496
000350 95 c0 4d 3c dc 62 b2 bd 2b 1d 03 bd 86 ad db 3a
       0.012558122 -0.08710262 -0.03201024 0.0016760088
000360 9a 7e 1a 3d 9d e2 da bc 96 73 d0 bf 6d 9e 14 bd
       0.037718393 -0.026719386 -1.6285274 -0.0362839
000370 65 ec e4 3c e2 51 7b bd c1 0a 23 bc 99 70 9c 3f
       0.027944753 -0.061357386 -0.009951294 1.2221862
000380 3e 2b 24 3d 87 14 15 be 35 3c 70 be 43 72 95 bb
       0.0400803 -0.14558612 -0.23460467 -0.00456074
000390 75 2a bb bc 28 66 67 bd d1 20 6e 3e 5d 98 33 bd
       -0.022847394 -0.05649391 0.23254706 -0.043846477
0003a0 39 31 40 bd 75 0f 22 be 82 28 72 bd b2 3b d4 3c
       -0.046921942 -0.15826209 -0.059120663 0.025907371
0003b0 fc b8 b9 bd 10 a1 2a 3a 50 41 84 bd 5a c7 0a be
       -0.09068486 0.00065089855 -0.0645777 -0.13552609
0003c0 74 fc c9 3c 5e 0f 5b 3c 8f e2 22 bd 9c c8 e3 bc
       0.024656512 0.013370363 -0.039766844 -0.027805619
0003d0 5e 28 89 bd 15 56 89 bd 73 1a 98 bd fd 1f 45 bd
       -0.066971526 -0.06705872 -0.0742692 -0.04812621
0003e0 c1 65 4b bd 46 bb 0b bd 6c 2b bc bd 0b a9 a1 be
       -0.049657587 -0.034114145 -0.091879696 -0.31574282
0003f0 d5 17 17 bd 74 50 9b 3c d1 91 17 bc b4 26 a8 3b
       -0.036887962 0.018959261 -0.009251074 0.005131567

l3.weight f4 [1, 300]
000000 d8 b1 c2 ba 99 df 7f bd f5 59 3a bc 4a 21 45 3c
       -0.0014854027 -0.0624691 -0.0113739865 0.0120318625
000010 d9 07 b0 bc a0 58 43 3b e7 fc 9f 3c 4f 42 31 3d
       -0.021488117 0.0029807463 0.019529773 0.043276127
000020 90 17 e8 b9 38 fb 28 bd eb 11 d9 3a 58 6c 7b 3c
       -0.00044268044 -0.041255206 0.0016561126 0.015345655
000030 00 ab e9 3c 9b 98 80 3c 1c 97 9a 3b 53 7d 81 3b
       0.028523922 0.015697768 0.0047177207 0.0039517074
000040 f0 1f 73 bf 1e 6b 2f bc 80 bd 8c 3a 86 03 bb 3c
       -0.9497061 -0.010706691 0.0010737628 0.022828829
000050 0a 09 97 bc 63 a6 2f bc 3a 8e 0f bf c1 78 17 bf
       -0.018436927 -0.010720822 -0.56076396 -0.5916863
000060 1b 3b 83 3a f1 92 0d bc c8 eb ff 3c 87 49 c1 3a
       0.0010012122 -0.008640991 0.031240359 0.0014746644
000070 c3 9d 45 bd 51 5a cf 3c 12 ea 2c 3a e4 17 9f 3a
       -0.048246156 0.02531162 0.00065961585 0.0012137857
000080 97 2f 87 bc 07 e2 80 bb 55 5e 9e 3c 88 de 9a bc
       -0.016502185 -0.0039331946 0.01933209 -0.01890494
000090 15 7d ae 3b 0f f6 34 3c 64 a1 bf 3e 43 0f 60 3d
       0.0053249695 0.011044993 0.3742782 0.054702055
0000a0 02 4d 13 3d 7c 7a 7a bc ab c2 bc bb 63 da 54 bb
       0.035962112 -0.015287992 -0.005760511 -0.0032478801
0000b0 29 58 ec bb 3d 96 ab 3c a6 14 4a bd 8c 2e 0b bc
       -0.007212658 0.020945663 -0.049336098 -0.008494984
0000c0 7b 5f dc 3b 9e 73 5d bc 73 f9 b7 3c 50 01 9f 3c
       0.0067252493 -0.013516335 0.022457814 0.019409806
0000d0 83 69 d9 ba 7b e9 4a 3c e6 18 d4 bc ad 69 cc 3b
       -0.0016587231 0.012384768 -0.025890779 0.0062381835
0000e0 0b fe 3d bd 94 2f 7b bb 21 e7 1e be 30 f0 da 3b
       -0.046384852 -0.003832792 -0.15517856 0.0066814646
0000f0 70 c8 01 bd 61 e5 9d 3c 3c 47 8b bf 4f 9d 92 bc
       -0.031685293 0.019274415 -1.0881114 -0.017897276
000100 e0 f6 99 3c 44 80 5b ba 17 e0 3c 3d a0 1f 92 bc
       0.018794477 -0.00083733 0.046112146 -0.017837346
000110 fb 42 14 3b 03 82 95 ba 14 5d f1 bc a8 c4 dd ba
       0.0022622931 -0.0011406544 -0.029463328 -0.001691957
000120 9d 7a ee be 40 c5 07 3d eb 20 14 3c 37 6b 06 bc
       -0.46577922 0.033147097 0.009041051 -0.008204273
000130 e4 6c 3d bd 37 a3 3e bc 19 e5 86 3c d7 5d 11 be
       -0.046246424 -0.011635593 0.016466664 -0.14195953
000140 e7 3f 78 3b 61 a4 b5 be 2c 2c 53 3c 07 24 61 c0
       0.0037879886 -0.35476974 0.012888949 -3.517824
000150 39 ba 89 3e 27 ad 74 be 3e 5a 17 bb 6a c5 e0 b9
       0.2689989 -0.23894177 -0.002309456 -0.00042871694
000160 c8 58 9b 3e 15 ec 2b bf 2a e9 97 bc cf 8e 63 3c
       0.30341172 -0.6715711 -0.018543798 0.013889029
000170 14 63 43 bc 81 4f a5 bc 5b b4 cb 3f c7 f1 7c 3e
       -0.011925478 -0.020179512 1.5914415 0.24701606
000180 64 43 27 3d f7 a1 3d bd 95 b5 35 3d e9 75 ae ba
       0.040835753 -0.04629704 0.044362623 -0.0013310286
000190 bf 21 4d bd fa 42 ab b9 84 e6 b8 bc bc ca b2 bb
       -0.05008101 -0.00032665563 -0.022570856 -0.0054562967
0001a0 f2 4b d0 3b f1 76 29 3d 58 38 04 c1 e3 bb 05 bb
       0.0063567096 0.041373197 -8.263756 -0.0020406179
0001b0 c5 e8 14 3b 2e 23 9b 3b 06 17 0b bc 3d 21 dc bc
       0.002272175 0.0047344184 -0.008489376 -0.026871318
0001c0 f8 e6 b5 3c 95 7a 36 3f ef 8a 3e 3c 34 db b2 ba
       0.022204861 0.71280795 0.011629804 -0.001364565
0001d0 f7 ec 0c bb 1d 46 f2 bc 2f 85 c0 bc 02 ff ca 3b
       -0.0021503547 -0.029574448 -0.023501007 0.00619495
0001e0 a4 c8 53 3c 4f 81 0c 3c 57 e4 1b 3d 39 c8 a5 3d
       0.012926254 0.008575751 0.03805956 0.0809483
0001f0 30 d4 2d bc 97 d6 1f bc 4b 34 a9 c0 81 de 5e 3c
       -0.0106096715 -0.009755752 -5.2876334 0.013602854
000200 01 f4 c9 be 63 2e c8 3b 52 9b 0c 3e c0 67 71 3d
       -0.39443973 0.0061090454 0.13731125 0.058936834
000210 89 d2 01 bc 84 c1 fa bf 95 3e 1b ba 0e a5 28 be
       -0.007923731 -1.9590306 -0.0005922106 -0.16469213
000220 ec c0 26 bd fc 14 e1 3c d5 da 4d bc 36 05 04 bc
       -0.04071133 0.027475826 -0.012564381 -0.008057883
000230 72 e7 e9 bc ba 7b b1 3c 0a 45 a2 3b 49 10 08 3c
       -0.028552745 0.021665443 0.0049520778 0.008304664
000240 e1 62 94 3c 85 b7 8c 3d 0f 8d 65 3a 3d 40 a5 3c
       0.018113555 0.06870941 0.0008756676 0.020172233
000250 9d 6c 48 3b f8 bd de bc e7 5b be bc c0 c2 a6 3c
       0.0030582317 -0.027190194 -0.023237182 0.020356536
000260 fb b8 92 bb d7 28 a9 bc f3 f8 d6 bc 7e 14 5e 3c
       -0.004477618 -0.020649357 -0.026241755 0.01355469
000270 61 8c ee 3e e7 0a 0f bc 36 77 2e bd 74 8c 18 bc
       0.46591476 -0.008730627 -0.042594157 -0.00931083
000280 a8 2f 05 bb 72 a9 42 bb 09 d0 8b bf 16 a3 d2 3a
       -0.0020322595 -0.0029703048 -1.0922862 0.0016070332
000290 a3 6d 19 be 71 d1 fa be 26 b6 92 3c 62 cf 9a 3c
       -0.1498323 -0.48987916 0.01790912 0.018897716
0002a0 c6 b7 00 bc a6 af b9 3c 9e f3 04 bd 08 10 a5 ba
       -0.007856315 0.022666764 -0.032458894 -0.0012593279
0002b0 67 c9 df bc 6c ee 3c bc ae 4e 75 bc 95 67 d7 bc
       -0.027317716 -0.011531454 -0.014972372 -0.026294509
0002c0 51 12 60 bc be 77 55 bf 51 a5 87 3b 3b dc 19 3c
       -0.013676242 -0.8338584 0.0041395803 0.009390886
0002d0 b5 c6 e5 3a 0c 51 cf ba c7 c8 a1 ba b8 4c 75 ba
       0.0017530533 -0.0015817 -0.0012343162 -0.000935744
0002e0 25 66 9a bc 86 81 45 3b 24 eb d9 bb 1a 57 db bc
       -0.018847534 0.0030137016 -0.0066503454 -0.026774932
0002f0 f6 50 0a 3c 1d d9 9b bc 97 26 83 bc 8f 2c ed 3c
       0.008442154 -0.019024426 -0.016009612 0.028951911
000300 53 86 52 bc e4 7f d0 b8 dd ea 15 be 87 9f 51 3f
       -0.012849408 -9.9420344e-05 -0.14640374 0.81884044
000310 36 59 29 bc 41 af 41 3d c2 ce ac bb 6d 5f 19 3c
       -0.010336211 0.047286276 -0.005273671 0.00936113
000320 b3 4b c0 bb d9 a4 16 3e 77 e0 87 bc 35 2b 8d 3c
       -0.005868399 0.14711322 -0.016586525 0.017232517
000330 0d 82 80 bb c8 eb 45 3a 05 f4 24 bb 77 fe 2b 3c
       -0.0039217533 0.0007550088 -0.002516986 0.010497681
000340 32 fd cd bc f5 b6 f1 39 cc 5b 97 3c 38 b1 3e be
       -0.025145147 0.00046103416 0.01847639 -0.18622291
000350 05 e0 ea bc 7f e0 3f bc d6 b5 1f 3c 84 65 08 3d
       -0.028671274 -0.011711239 0.009747943 0.033299938
000360 44 87 e2 bb 0f f1 14 3d 4e 10 25 bf 8e cb dd bc
       -0.0069130976 0.036362704 -0.64478004 -0.027074602
000370 a6 fe ee 3c ab aa c3 3c 50 fb bd 3c d8 40 2b 3e
       0.02917416 0.023885092 0.023191124 0.16723955
000380 4a 68 0f bd da 94 9e bb fe 07 f8 bc 0c c3 f6 ba
       -0.035011567 -0.004839522 -0.030277248 -0.0018826439
000390 96 b4 96 3b bb 97 17 bd 55 1d 95 c0 38 0c a9 3b
       0.0045991642 -0.037009936 -4.6598306 0.0051589273
0003a0 75 c1 e5 3b 54 54 e7 3c 21 3a 03 3d ee 47 bf 3c
       0.0070115873 0.028238453 0.032037858 0.023349728
0003b0 0c c7 82 3c 77 17 a4 3c 2f 75 68 bb b4 28 a9 bf
       0.015964054 0.02003072 -0.0035470237 -1.3215547
0003c0 78 c0 19 bc 3d d0 4a bc e1 9c 69 3b b6 09 b0 3c
       -0.009384267 -0.012378749 0.0035646486 0.021489006
0003d0 33 e2 0f 3d 2f 1a 01 3d 17 4d c1 bc 75 92 0f bc
       0.03512783 0.03151911 -0.02359633 -0.008762945
0003e0 fb 10 59 3b e4 f5 c1 3b fe 32 6d 3b f9 8b 6f bd
       0.0033121693 0.005919205 0.0036193724 -0.058483098
0003f0 8a 86 df 3c 7f 4c 8e 3b 41 9b 35 3c 61 b1 da bc
       0.027285833 0.004342615 0.011084379 -0.026695909
