Pendulum/Pendulum-v1_actor_finalized_04.pth (torch, 491758 bytes, 5 tensors)

l1.weight f4 [400, 3]
-0.08237535 0.24407561 -0.0077119824 -1.3405184 0.6263861 0.0741878 0.08125013 1.3947318
0.19794524 0.73456794 -0.09195814 0.64655554 0.46376592 -0.25264204 -0.31178913 -0.23147501
0.6606894 0.26530945 0.20813337 -0.85769683 0.24389227 0.26454133 0.5616902 0.15610726
-0.08250601 1.83178 0.59936064 -1.0591335 0.27809453 0.13814141 -1.2983142 -0.39208543
0.06265057 0.010367772 -1.2349414 0.48750788 -0.5477417 -0.2823336 -0.35754666 0.33482763
-0.5066211 0.44763654 0.34071293 0.22402674 -0.05561882 0.37827316 -0.019878244 -0.065824345
-1.3607222 -0.4084161 0.07977765 0.49889222 -1.1054887 -0.0854002 -0.25092882 0.12793984
-0.061335016 1.2150284 -1.2911863 0.13430026 -0.28903544 0.27751848 0.029876227 -0.10621702
-0.3268478 0.40231997 1.1727953 0.46781796 0.6486384 0.5615354 -1.0231087 0.5139997
0.24871588 -2.373026 0.5888099 -0.106673576 -0.41821045 0.5480151 0.5684953 -1.797562
0.086489156 1.0725331 1.6009023 0.39935553 -0.9004042 -0.27091306 0.034135204 -0.38630003
-1.762499 -0.45160785 -1.1644435 0.7490054 0.18054219 -0.18878302 0.8844537 0.30588502
-0.8247244 -1.3012327 0.0036238898 -0.6313119 -0.4476807 0.0018160668 -0.2062277 1.1614039
-0.14197752 1.0826123 -1.1287806 -0.5447041 -0.33147368 0.17847352 -0.01569094 0.51405114
0.15828651 -0.09582055 -1.3131832 0.43847963 0.65754795 0.43218088 -0.38472885 0.6146075
-0.08213294 -0.52276736 0.461256 0.41201103 -0.8032686 0.45353386 0.72329706 -0.459975
-0.31586626 1.122569 -0.5303661 -0.43419564 -0.035672717 0.24633713 0.0005265646 -0.6877078
-0.7683494 -0.117781885 1.174718 0.64505875 0.7068869 0.07456626 1.5817448 0.23245731
0.030221427 1.0251038 0.3367043 0.8676266 -0.2971959 0.78932124 -0.44749227 -0.5939235
0.30609658 0.33996826 -0.9254652 0.15782905 0.24795462 -0.92906475 0.22571658 0.089462355
-0.37275603 0.18688188 0.2425521 -1.0713342 0.16582252 -0.9649411 -0.48548436 0.0019162076
0.08175572 0.034609515 -0.010002841 -0.32305363 0.13681032 0.049323652 0.800201 1.0834434
1.1070503 -1.0733443 -0.5525405 -0.104948916 0.8425976 -0.82474524 -0.4245594 0.05718638
-0.4304689 1.0010929 0.03667245 0.0602224 -0.014700553 -0.94648683 -0.8279007 -0.15928134
0.46149585 -0.9297794 0.5726154 1.2079252 -0.98635805 -0.46817216 0.3146312 -0.97106624
-0.33346155 0.07635991 -0.73384726 -0.019256027 -0.70652306 -0.18704179 -0.11380001 -0.14122657
1.5552208 0.3703319 -0.018978028 -1.8379443 0.52704257 -0.047866613 1.0017464 0.42620283
0.2193722 1.1455288 0.39876014 0.25086984 0.69865066 0.6770638 0.0091507025 0.0613025
-0.0034880498 -0.69271624 0.03276261 -0.20789263 0.49383613 -0.44001496 0.6171334 0.27972975
1.1134616 0.46529028 0.5442869 -1.2217878 0.14996351 -0.91600466 -0.5575228 -0.13175802
-0.28436133 0.99238837 0.34069774 -0.19619201 1.4966991 0.15517394 -0.022450015 -0.62541413
0.30151182 -0.003525163 1.2682965 0.30894062 0.1641096 0.59430516 0.8264816 0.039595537
00000000: 68b4 a8bd f5ee 793e ccb4 fcbb 1b96 abbf
00000010: d75a 203f c6ef 973d 7866 a63d 9286 b23f
00000020: 28b2 4a3e a50c 3c3f 8d54 bcbd aa84 253f
00000030: ba72 ed3e 4c5a 81be d3a2 9fbe c907 6dbe
00000040: f122 293f a4d6 873e ea20 553e 0592 5bbf
00000050: e5be 793e f671 873e eeca 0f3f 95da 1f3e
00000060: e9f8 a8bd c477 ea3f b36f 193f b091 87bf
00000070: 6862 8e3e f174 0d3e 292f a6bf 6cbf c8be
00000080: f14e 803d 96dd 293c 8f12 9ebf a29a f93e
00000090: cd38 0cbf 088e 90be 5b10 b7be 876e ab3e
000000a0: ecb1 01bf 9e30 e53e ed71 ae3e 4467 653e
000000b0: 8fd0 63bd 05ad c13e b3d7 a2bc eace 86bd
000000c0: 252c aebf ea1b d1be 7762 a33d cd6e ff3e
000000d0: a780 8dbf 4de6 aebd be79 80be a902 033e
000000e0: 6d3a 7bbd 0d86 9b3f 9845 a5bf 0286 093e
000000f0: 74fc 93be e716 8e3e fdbe f43c 4f88 d9bd
00000100: 9858 a7be e2fc cd3e 281e 963f d685 ef3e
00000110: 2b0d 263f c9c0 0f3f 3af5 82bf 7c95 033f
00000120: 60af 7e3e a8df 17c0 3fbc 163f ad77 dabd
00000130: ae1f d6be b84a 0c3f e888 113f 8316 e6bf
00000140: 3a21 b13d c448 893f 5eea cc3f 5478 cc3e
00000150: e480 66bf 1eb5 8abe 5bd1 0b3d 1ec9 c5be
00000160: 9199 e1bf 2539 e7be 7c0c 95bf d1be 3f3f
00000170: 0de0 383e 5650 41be 8f6b 623f f69c 9c3e
00000180: 2321 53bf cb8e a6bf c87e 6d3b a89d 21bf
00000190: 6836 e5be 1709 ee3a 5b2d 53be e2a8 943f
000001a0: 8e62 11be 0a93 8a3f e27b 90bf ba71 0bbf
000001b0: ebb6 a9be c3c1 363e 498a 80bc db98 033f
000001c0: dc15 223e 913d c4bd 6316 a8bf 6780 e03e
000001d0: 1055 283f d046 dd3e 2efb c4be eb56 1d3f
000001e0: 5135 a8bd 15d4 05bf bf29 ec3e 1cf3 d23e
000001f0: 03a3 4dbf 9735 e83e ff29 393f d881 ebbe
00000200: 39b9 a1be 57b0 8f3f 13c6 07bf e44e debe
00000210: 8e1d 12bd cd3f 7c3e 2709 0a3a 9e0d 30bf
00000220: 8cb2 44bf a137 f1bd 295d 963f 9222 253f
00000230: 8af6 343f 32b6 983d 9d76 ca3f 4a09 6e3e
00000240: ed92 f73c 9a36 833f 8264 ac3e c71c 5e3f
00000250: 102a 98be f510 4a3f b51d e5be 5f0b 18bf
00000260: b1b8 9c3e 5210 ae3e 4aeb 6cbf f09d 213e
00000270: d1e7 7d3e 30d7 6dbf 3f22 673e 0a38 b73d
00000280: e1d9 bebe f75d 3f3e 945f 783e 7b21 89bf
00000290: 61cd 293e 6106 77bf 6891 f8be 4229 fb3a
000002a0: 8b6f a73d b5c2 0d3d f5e2 23bc 4967 a5be
000002b0: 0118 0c3e 9907 4a3d f9d9 4c3f 46ae 8a3f
000002c0: d3b3 8d3f 5963 89bf 4b73 0dbf 75ef d6bd
000002d0: 7ab4 573f 8122 53bf da5f d9be 443c 6a3d
000002e0: 6b66 dcbe d023 803f da35 163d c3ab 763d
000002f0: 97da 70bc f64c 72bf 4df1 53bf a61a 23be
00000300: 2f49 ec3e 0606 6ebf ec96 123f 4b9d 9a3f
00000310: f681 7cbf 43b4 efbe 5717 a13e cc97 78bf
00000320: 79bb aabe 9662 9c3d 6add 3bbf d1be 9dbc
00000330: b2de 34bf e287 3fbe fb0f e9bd b39d 10be
00000340: 7a11 c73f 259c bd3e cf77 9bbc c241 ebbf
00000350: 43ec 063f c80f 44bd 3a39 803f 4237 da3e
00000360: 1ba3 603e b0a0 923f 4a2a cc3e 0372 803e
00000370: c5da 323f 0e54 2d3f d4ec 153c 5518 7b3d
00000380: c497 64bb da55 31bf 1632 063d cee1 54be
00000390: 17d8 fc3e a449 e1be 74fc 1d3f bd38 8f3e
000003a0: e985 8e3f 873a ee3e 6356 0b3f 8b63 9cbf
000003b0: 0990 193e 487f 6abf d0b9 0ebf 93eb 06be
000003c0: cf97 91be 2a0d 7e3f ef6f ae3e 8fe6 48be
000003d0: d693 bf3f ebe5 1e3e 18e9 b7bc 241b 20bf
000003e0: c25f 9a3e 6c06 67bb 8a57 a23f 772d 9e3e
000003f0: 590c 283e 6224 183f 4c94 533f ee2e 223d

l1.bias f4 [400]
-0.3396582 -0.24172486 -0.042240478 -0.40893435 -0.768522 -0.038623422 -0.42451796 -1.3087753
-0.4016489 -0.2353661 -0.80816245 -0.27431536 -0.7875001 -0.7245243 -0.76317257 -0.81408685
-0.8784248 -0.3911707 -0.79599565 -0.6222301 -0.5929517 -0.42485297 -0.5417476 -0.6232789
-0.27010906 -0.47660047 -0.57898283 -0.18370992 -0.55842793 -0.17748353 0.19511725 -0.14702852
-0.31866422 -0.7931749 -0.21805088 -0.6064455 -0.51286006 -1.2127892 -0.45079333 -0.86101633
-0.515647 -0.6800695 -0.6571724 -0.81846803 -0.25649032 -0.39447317 -0.5333897 -0.044317484
-0.32338238 -0.7158815 -0.7824475 -0.5660589 -0.48556557 -0.48024368 -0.46694317 -0.5132919
-0.19995584 -0.6760029 -0.14078629 -0.5881754 -0.73612416 -0.47718197 -0.1842949 -0.60946596
-0.52221096 -0.737956 -0.1607516 -0.32548344 0.25488305 -0.50512475 -0.33052906 -0.3697974
-0.9778526 0.041063517 -0.095294505 -0.75802463 -0.8327275 -0.19069757 -0.41045296 -0.6365741
-0.13376583 -0.87211657 -0.531742 -0.3652663 -0.4807237 -0.0014436344 -0.23726441 -0.21106738
-0.08725388 -0.82373303 -0.4027653 -0.9160115 -1.0311022 -0.36234063 -0.78287274 -0.067525946
-0.48980212 -0.34441215 -1.0106404 -0.6039741 -0.6864656 -0.3692538 -0.68879163 -0.5697449
0.38675895 0.016507268 -0.630189 -1.5712348 -0.5263131 -1.2486973 -0.266211 -0.5393886
-0.9962674 -0.75513905 -0.46961057 -0.56035066 -0.564006 -0.5749984 -0.41157806 -0.21297
-0.3950832 -0.46682703 -0.09666072 -0.38195562 -0.8325966 -0.5799495 -0.52208155 -0.83102953
-1.1136992 0.24931383 -0.7154253 -0.66707504 -0.6124903 0.20708184 -0.4304178 -0.44580385
-0.79860514 -0.33781645 -0.99952847 -0.44121444 -0.6767739 -0.7782648 -0.195651 -0.65201646
-0.80884093 -1.0886523 -0.37033802 -0.5413652 -0.49491125 -0.82665664 -0.42366415 -0.75832725
-0.2515347 -0.5020823 -0.4773362 -0.49725217 -0.7331463 -0.58370465 -0.5861691 -0.8252413
-0.54262346 -0.35137078 -1.0910785 -0.4880067 -0.5510991 0.018075595 -0.27914745 -0.7021515
-0.40418425 -0.5323557 -0.049731687 -0.2679254 -0.29590717 -0.7354332 -1.3704314 -0.41478255
0.14022681 -0.11600273 -0.45787102 -0.6800607 -0.16535014 -0.10412197 -0.47000113 -0.4847996
0.035669852 -0.6932707 -0.48951188 -0.3523135 0.09812663 -0.42799777 -1.1066716 -0.50883174
-0.30636352 -0.84662884 -0.26497686 -0.50715196 -0.2459466 -0.44223088 -0.48803732 -0.049190078
-0.4560657 -0.9346543 -0.5331343 0.44113687 0.07040108 -0.5589643 -0.4899233 -0.46326485
-0.35239893 -0.84996134 -0.72419673 -0.27486092 -0.42481604 -0.3536412 -0.78414905 -0.17778775
0.08981886 -0.75972456 -0.48717576 -0.8905291 -0.6472056 -0.5731751 -0.25882155 -0.8558697
0.03761294 -0.28257105 -0.5767128 -0.7133784 0.1448131 -0.18601502 -0.4143457 0.054428615
-0.25456634 -0.6149733 -0.19013195 -0.47116727 -0.1513469 -0.23419091 -0.009870248 -0.35803437
-0.33125016 -0.38909733 -0.10523764 0.16933908 -0.91882414 -0.79885554 -0.22242752 -0.06830986
-0.34226885 -0.43831328 -0.58335185 -0.7130293 -0.32698452 -0.83043087 -0.1032797 -0.10367047
00000000: aee7 adbe b986 77be 5a04 2dbd d85f d1be
00000010: dcbd 44bf 9833 1ebd 6b5a d9be f385 a7bf
00000020: eda4 cdbe d003 71be bce3 4ebf 1073 8cbe
00000030: 9b99 49bf 6d7a 39bf 475f 43bf ff67 50bf
00000040: 73e0 60bf 8747 c8be 5fc6 4bbf 794a 1fbf
00000050: afcb 17bf 5486 d9be f9af 0abf 358f 1fbf
00000060: bc4b 8abe fa04 f4be 3838 14bf 741e 3cbe
00000070: 22f5 0ebf 3ebe 35be d1cc 473e a58e 16be
00000080: f527 a3be 830d 4bbf bb48 5fbe 0340 1bbf
00000090: cc4a 03bf ad3c 9bbf 62ce e6be 916b 5cbf
000000a0: 7101 04bf 0919 2ebf 733c 28bf 1f87 51bf
000000b0: b352 83be 63f8 c9be 3a8c 08bf 4086 35bd
000000c0: 6092 a5be 0344 37bf 7b4e 48bf 3ce9 10bf
000000d0: 0d9c f8be 80e2 f5be 2d13 efbe 1967 03bf
000000e0: 39c1 4cbe 870e 2dbf 482a 10be aa92 16bf
000000f0: a272 3cbf 3251 f4be cdb7 3cbe f605 1cbf
00000100: 9eaf 05bf afea 3cbf 119c 24be c4a5 a6be
00000110: 0880 823e db4f 01bf 1b3b a9be 1656 bdbe
00000120: 8c54 7abf 3832 283d c429 c3bd e70d 42bf
00000130: a12d 55bf 3946 43be e426 d2be 85f6 22bf
00000140: e9f9 08be 0843 5fbf 3e20 08bf 2f04 bbbe
00000150: 6b21 f6be 5538 bdba 71f5 72be 0c22 58be
00000160: 2ab2 b2bd 2be0 52bf 4137 cebe bb7f 6abf
00000170: 28fb 83bf b684 b9be 596a 48bf 0b4b 8abd
00000180: 58c7 fabe ca56 b0be aa5c 81bf 0c9e 1abf
00000190: 36bc 2fbf d60e bdbe a654 30bf cdda 11bf
000001a0: 4505 c63e 403a 873c 1154 21bf 391e c9bf
000001b0: 75bc 06bf 50d5 9fbf cf4c 88be 5f15 0abf
000001c0: 610b 7fbf cb50 41bf cc70 f0be 2473 0fbf
000001d0: b262 10bf 1833 13bf 5cba d2be cf14 5abe
000001e0: 5848 cabe f403 efbe 0ef6 c5bd b08f c3be
000001f0: 0d25 55bf 9277 14bf 23a7 05bf 5abe 54bf
00000200: b28d 8ebf 204c 7f3e 1d26 37bf 6ec5 2abf
00000210: 2acc 1cbf 430d 543e b95f dcbe 6740 e4be
00000220: 6371 4cbf 47f6 acbe 19e1 7fbf dce6 e1be
00000230: 0e41 2dbf 5d3c 47bf bc58 48be 8dea 26bf
00000240: 3310 4fbf f558 8bbf f29c bdbe e996 0abf
00000250: 0265 fdbe c59f 53bf 82ea d8be bc21 42bf
00000260: 28c9 80be 7788 00bf 6965 f4be d697 febe
00000270: 7aaf 3bbf ab6d 15bf 2e0f 16bf 0443 53bf
00000280: 5fe9 0abf dfe6 b3be 76a8 8bbf 04dc f9be
00000290: d514 0dbf 4513 943c 6aec 8ebe 33c0 33bf
000002a0: 3df1 cebe 7748 08bf 74b3 4bbd 852d 89be
000002b0: 2581 97be 5a45 3cbf 4c6a afbf 615e d4be
000002c0: 9e97 0f3e d792 edbd 126e eabe 7518 2ebf
000002d0: 8c51 29be e63d d5bd fda3 f0be a737 f8be
000002e0: 8d1a 123d 307a 31bf 4da1 fabe 6f62 b4be
000002f0: 9df6 c83d 8622 dbbe 6aa7 8dbf cc42 02bf
00000300: aedb 9cbe abbc 58bf 0cab 87be b6d4 01bf
00000310: 6dd9 7bbe 166c e2be 07e0 f9be 897b 49bd
00000320: 7281 e9be 8145 6fbf 7d7b 08bf b1dc e13e
00000330: 712e 903d 4918 0fbf 3ad7 fabe 0d31 edbe
00000340: a26d b4be 1197 59bf f564 39bf 92ba 8cbe
00000350: 7d81 d9be 7610 b5be febd 48bf fe0d 36be
00000360: f3f2 b73d 4f7d 42bf 1a6f f9be b7f9 63bf
00000370: 44af 25bf 9abb 12bf 4284 84be 471a 5bbf
00000380: 0710 1a3d 27ad 90be 73a3 13bf f89f 36bf
00000390: e349 143e b97a 3ebe 1f25 d4be 8af0 5e3d
000003a0: 8556 82be e46e 1dbf f3b1 42be d63c f1be
000003b0: affa 1abe becf 6fbe d2b6 21bc 4850 b7be
000003c0: 9f99 a9be c437 c7be d586 d7bd 3967 2d3e
000003d0: 0f38 6bbf cc81 4cbf 0ac4 63be 0ae6 8bbd
000003e0: dd3d afbe 996a e0be 8c56 15bf 1789 36bf
000003f0: 846a a7be 1e97 54bf 4f84 d3bd 2f51 d4bd

l2.weight f4 [300, 400]
0.01264216 -0.06210738 -0.031049563 -0.013147141 -0.03829572 -0.09948806 -0.015280246 -0.047081478
-0.059148636 -0.0076322807 -0.073664986 -0.01470108 -0.03225862 -0.021339267 -0.026381584 -0.017462619
-0.056520868 -0.02029934 -0.06858215 0.013795417 -0.09658748 -0.060169347 -0.05331896 0.032051835
-0.053284895 -0.02357797 -0.058645416 -0.016642781 -0.09868104 -0.043911938 -0.07642821 -0.06540164
-0.020656854 -0.03209425 -0.0117695285 0.026833162 0.025114587 -0.0013426564 -0.01486271 -0.045402247
-0.05033316 0.0030746222 -0.00012979901 -0.036621727 -0.039446145 0.014586992 -0.089610286 -0.04440793
-0.05082173 -0.05950431 -0.04783917 -0.047763113 -0.041507076 -0.039554045 0.025543751 -0.046165615
-0.08227842 -0.06911079 -0.06350765 -0.041095875 -0.0005130477 -0.025771286 0.02285017 -0.054297518
-0.051969837 -0.029483031 0.021686902 -0.0122053735 -0.046637595 -0.084259756 -0.035710275 -0.069029965
-0.048746638 -0.046066012 0.020200988 0.008947605 -0.0464252 -0.078081034 -0.011038033 -0.03665252
-0.06727895 -0.082082786 -0.030941846 -0.07406208 -0.06255167 -0.031872306 -0.061475087 -0.027911033
-0.031382937 -0.008363733 -0.044751346 -0.076809525 -0.018684037 0.03406523 -0.076484784 0.018361457
0.024968147 0.019187821 -0.017797435 -0.034565583 -0.0767605 -0.01416723 -0.031278756 -0.04520039
0.020328516 -0.058593083 -0.023728102 0.0859844 -0.008534764 -0.045889188 0.0102571845 -0.10722842
-0.032294285 0.017541887 -0.049529348 -0.05285187 0.024522949 -0.12865028 -0.041930404 -0.05970317
0.039625727 -0.033875104 0.0015370352 -0.052375313 0.030939465 -0.020446239 0.0728597 -0.013480016
0.035203103 -0.020516204 -0.08827583 -0.007937643 0.025360027 -0.041465703 -0.033575352 -0.03118743
-0.0631987 -0.040245205 -0.004516807 -0.10452579 0.07800838 -0.053322382 0.00065684324 -0.00013632933
-0.056741256 -0.02050606 0.0082824705 -0.10772917 -0.013783105 0.0012595678 0.04369179 -0.01467747
-0.035561662 -0.04395386 -0.0849655 0.025095737 -0.023359321 -0.008126744 0.017284257 0.046545215
-0.05818229 0.0010106468 -0.029115919 -0.006675248 -0.0651561 -0.0960947 -0.06608742 -0.00822065
-0.025057726 -0.031135552 0.024609733 0.008176696 -0.07940428 -0.014367063 0.042023722 -0.03469946
0.03083209 -0.045529295 -0.09163343 0.021921938 0.011938891 -0.018436622 -0.06723039 -0.019138692
-0.10613935 0.02430758 -0.023652036 -9.519643e-05 -0.038982946 -0.03839112 -0.012733451 0.018616082
-0.03689369 -0.07248746 -0.08631823 0.016159538 0.059246667 -0.0482511 0.021142662 -0.09689096
-0.059032694 -0.023367865 -0.029603947 -0.046421457 0.031878836 -0.069661215 -0.021572186 -0.021931771
-0.06554653 0.04429803 0.023982506 -0.059295747 -0.09106614 -0.018616816 0.023699371 0.020276485
0.04390053 0.0069803074 0.02160354 0.0108910855 0.046863727 -0.055600177 -0.047900174 -0.015390415
-0.039639868 0.007680605 0.06714613 -0.0735286 -0.024599796 -0.0018967276 -0.0867009 0.038049772
-0.053225484 -0.031969324 -0.057965674 -0.10468918 -0.011972392 -0.079399854 -0.021084564 -0.022704637
-0.08900096 -0.061896004 0.020762315 0.028510086 -0.020381264 -0.10415395 -0.04967798 -0.07562488
0.026208198 -0.0062164753 -0.012549208 -0.03012362 -0.032547027 -0.03825073 -0.008231262 -0.050762758
00000000: 1021 4f3c 4f64 7ebd a75b febc 1b67 57bc
00000010: f9db 1cbd 65c0 cbbd ff59 7abc 82d8 40bd
00000020: d745 72bd 3618 fabb abdd 96bd ccdc 70bc
00000030: 9d21 04bd b0cf aebc 311e d8bc c40d 8fbc
00000040: 6d82 67bd cd4a a6bc cc74 8cbd 2c06 623c
00000050: a8cf c5bd 2274 76bd fb64 5abd c948 033d
00000060: 4341 5abd 9626 c1bc 2d36 70bd 7156 88bc
00000070: 4919 cabd 01dd 33bd 6586 9cbd 4cf1 85bd
00000080: 9038 a9bc 4375 03bd fbd4 40bc 38d1 db3c
00000090: 1bbd cd3c 13fc afba b982 73bc b5f7 39bd
000000a0: 252a 4ebd 9a7f 493b a81a 08b9 aa00 16bd
000000b0: 4892 21bd 47fe 6e3c 9985 b7bd 17e5 35bd
000000c0: 722a 50bd cbba 73bd 01f3 43bd 41a3 43bd
000000d0: 5303 2abd 6c03 22bd 2141 d13c 2818 3dbd
000000e0: 9781 a8bd f589 8dbd 4c10 82bd 2654 28bd
000000f0: 0c7e 06ba 4e1e d3bc 4830 bb3c 1367 5ebd
00000100: 53de 54bd 6686 f1bc bba8 b13c 0cf9 47bc
00000110: 1007 3fbd 6190 acbd f044 12bd 955f 8dbd
00000120: 8eaa 47bd b7af 3cbd 8b7c a53c fa98 123c
00000130: 5a28 3ebd f3e8 9fbd ded8 34bc f420 16bd
00000140: 8cc9 89bd 051b a8bd c179 fdbc dcad 97bd
00000150: 171b 80bd 898c 02bd 4dcd 7bbd aea5 e4bc
00000160: 658b 00bd 0a08 09bc 304d 37bd 504e 9dbd
00000170: 440f 99bc fc87 0b3d 0ea4 9cbd c46a 963c
00000180: 008a cc3c c72f 9d3c edcb 91bc a494 0dbd
00000190: 9c34 9dbd ab1d 68bc 271e 00bd 0b24 39bd
000001a0: fd87 a63c 4dff 6fbd 7061 c2bc 9718 b03d
000001b0: 65d5 0bbc 4df6 3bbd c00d 283c 939a dbbd
000001c0: 0347 04bd 01b4 8f3c 49df 4abd 347b 58bd
000001d0: 5ae4 c83c e6bc 03be 37bf 2bbd 508b 74bd
000001e0: 964e 223d 9fc0 0abd 5876 c93a 7f87 56bd
000001f0: c374 fd3c df7e a7bc 7737 953d 49db 5cbc
00000200: 2131 103d 9911 a8bc f5c9 b4bd e30c 02bc
00000210: d5bf cf3c f1d7 29bd 4f86 09bd c87c ffbc
00000220: 526e 81bd 28d8 24bd b901 94bb 9e11 d6bd
00000230: dcc2 9f3d 9268 5abd 0130 2c3a a0f3 0eb9
00000240: 8569 68bd 53fc a7bc 33b3 073c 1ca1 dcbd
00000250: 88d2 61bc 1518 a53a 2af6 323d c579 70bc
00000260: 1ba9 11bd f608 34bd 6402 aebd 9395 cd3c
00000270: 0c5c bfbc 0926 05bc b797 8d3c 32a6 3e3d
00000280: 8e50 6ebd ae77 843a 8284 eebc 0abc dabb
00000290: 9070 85bd 4ccd c4bd d758 87bd e8af 06bc
000002a0: dc45 cdbc fc0f ffbc 5a9a c93c 8cf7 053c
000002b0: b69e a2bd d463 6bbc 1121 2c3d 0521 0ebd
000002c0: 9493 fc3c ed7c 3abd 4faa bbbd a395 b33c
000002d0: 579b 433c 6608 97bc 16b0 89bd bfc8 9cbc
000002e0: 965f d9bd b120 c73c eac1 c1bc 32a4 c7b8
000002f0: 95ac 1fbd 0240 1dbd f79f 50bc c180 983c
00000300: d61d 17bd 4e74 94bd 9dc7 b0bd 0261 843c
00000310: a2ac 723d f2a2 45bd 6033 ad3c c56e c6bd
00000320: 44cc 71bd f76d bfbc fa83 f2bc 6d24 3ebd
00000330: 6293 023d 8aaa 8ebd 27b8 b0bc 42aa b3bc
00000340: 423d 86bd da71 353d f676 c43c 19e0 72bd
00000350: e280 babd 4b82 98bc 2f25 c23c df1a a63c
00000360: 0bd1 333d 10bb e43b e8f9 b03c 8670 323c
00000370: 2ef4 3f3d 03bd 63bd f932 44bd 1428 7cbc
00000380: 6a5d 22bd 96ad fb3b e983 893d 2a96 96bd
00000390: 8385 c9bc 9e9b f8ba 3e90 b1bd 14da 1b3d
000003a0: f702 5abd 44f2 02bd 6a6d 6dbd 4867 d6bd
000003b0: da27 44bc 649c a2bd 89b9 acbc 13ff b9bc
000003c0: 2346 b6bd aa86 7dbd bb15 aa3c fc8d e93c
000003d0: 9cf6 a6bc ab4e d5bd 237b 4bbd 38e1 9abd
000003e0: 93b2 d63c 93b3 cbbb 319b 4dbc cfc5 f6bc
000003f0: 0850 05bd ccac 1cbd 6adc 06bc 9cec 4fbd

l2.bias f4 [300]
-0.09566444 -0.041732542 -0.04810657 -0.027280215 -0.107779056 -0.15928756 -0.033270955 -0.02968916
-0.054540016 -0.047974378 -0.05771094 -0.036964305 -0.045080215 -0.059476156 -0.07554051 -0.019960707
0.39976957 0.016893424 -0.013065241 0.0022413498 -0.06634399 -0.01965518 0.08909 0.0017388123
-0.078381225 -0.06303709 -0.031166561 -0.044764202 -0.04051908 -0.05380265 0.003903505 -0.029504979
-0.022043653 -0.001539374 0.024487218 -0.060902957 -0.08004104 -0.013401382 -0.06350335 -0.07425783
-0.02054629 -0.030544246 -0.0679581 -0.07810634 -0.009209718 -0.089332424 -0.12683508 -0.06220986
-2.9603311e-06 -0.0046680337 0.029541858 0.005721654 -0.05297443 -0.06858853 0.030646665 -0.061681915
-0.014883263 -0.00503527 0.50416714 -0.015428638 -0.014096441 0.006481574 -0.25479937 -0.02445714
-0.008668264 -0.034916967 0.0036114044 -0.019865414 -0.03133066 -0.0093989875 -0.059726737 -0.0887091
-0.052952774 -0.019609053 -0.03806611 -0.06520263 -0.00920421 -0.09234095 -0.047427922 0.058195967
-0.029075762 -0.21021526 -0.07377426 -0.28034928 -0.09905676 -0.026345568 -0.038535908 -0.19429025
-0.023421178 0.5278685 -0.0051787407 0.007051619 -0.024628501 -0.0578126 0.3692386 -0.050676696
0.020910583 -0.022431804 0.040546406 0.020990647 -0.03966117 -0.11077933 -0.0157863 0.015843857
-0.08146364 -0.03323786 0.16322264 0.00021725288 -0.026393339 -0.0830251 0.008595105 -0.043871336
-0.03655693 0.025743887 -0.060610354 0.018824931 -0.052613355 0.030590478 -0.039069697 -0.072968066
0.011742465 -0.008816628 -0.038705315 0.038164936 -0.008943897 -0.024518123 0.09973832 -0.05214926
-0.051775467 -0.04706138 -0.080932096 -0.043597303 -0.04749806 -0.34343138 -0.06990058 -0.8764402
-0.023270294 -0.057671487 -0.039534763 0.008989519 -0.052945238 -0.07192773 -0.07981161 0.020291287
-0.086051546 -0.15106422 -0.07397446 0.029318495 -0.042058926 -0.07410958 -0.013370032 -0.05728293
0.015248751 -0.034467116 -0.046443775 -0.004502173 -0.017821439 -0.1363761 -0.12403876 -0.041479208
-0.08297355 -0.020984055 0.24116823 -0.015201051 -0.045232747 -0.16065335 -0.017847294 -0.093846135
-0.04030894 0.03549103 -0.08377578 -0.002581759 -0.046540096 -0.013358688 -0.05415168 0.0047537596
-0.06495739 -0.12443367 -0.08155576 0.023165958 -0.0062736585 -0.12027465 -0.028242199 -0.15113574
-0.015322524 -0.018532084 -0.027480714 -0.13273463 -0.026692837 -0.035130713 -0.068623245 -0.035621766
-0.019841142 0.01824805 0.66192067 -0.15938927 0.006641634 -0.016043099 -0.06805733 0.013333362
-0.039121725 0.0055695516 0.02937372 0.008898242 -0.054365993 -0.0025927413 0.024436828 -0.08382434
-0.0006520673 -0.022126613 -0.052507747 0.25489295 0.012558122 -0.08710262 -0.03201024 0.0016760088
0.037718393 -0.026719386 -1.1773384 -0.0362839 0.027944753 -0.061357386 -0.009951294 0.4673024
0.0400803 -0.14558612 -0.23460467 -0.00456074 0.008917718 -0.05649391 0.099915445 -0.043846477
-0.046921942 -0.15826209 -0.039014164 0.025907371 -0.09068486 0.00065089855 -0.0645777 0.03658488
0.034728322 0.013370363 -0.039766844 -0.027805619 -0.050028995 -0.06705872 -0.0742692 -0.04812621
-0.049657587 -0.034114145 -0.06019023 -0.31574282 -0.036887962 0.036263656 -0.009251074 0.005131567
00000000: b8eb c3bd beef 2abd 650b 45bd c27a dfbc
00000010: 44bb dcbd 471c 23be 2047 08bd ae36 f3bc
00000020: 5a65 5fbd c880 44bd 4e62 6cbd e267 17bd
00000030: 08a6 38bd 459d 73bd fcb4 9abd a384 a3bc
00000040: 99ae cc3e 1464 8a3c 980f 56bc 9ce3 123b
00000050: 5cdf 87bd e603 a1bc d174 b63d dce8 e33a
00000060: 5686 a0bd 9719 81bd 0451 ffbc ab5a 37bd
00000070: 56f7 25bd 2b60 5cbd f2d1 7f3b 6db4 f1bc
00000080: e494 b4bc d2c4 c9ba 6b99 c83c 6175 79bd
00000090: 8fec a3bd 7891 5bbc 0b0e 82bd 7d14 98bd
000000a0: b150 a8bc ed37 fabc 9e2d 8bbd 37f6 9fbd
000000b0: 5be4 16bc ebf3 b6bd 0ee1 01be c4cf 7ebd
000000c0: 1aaa 46b6 4ef6 98bb c401 f23c b67c bb3b
000000d0: b7fb 58bd 2578 8cbd b70e fb3c 2da6 7cbd
000000e0: eed8 73bc e8fe a4bb 1911 013f 66c8 7cbc
000000f0: c2f4 66bc 6263 d43b 1075 82be 575a c8bc
00000100: 5605 0ebc 1805 0fbd 50ad 6c3b cbbc a2bc
00000110: 9454 00bd 36fe 19bc 06a4 74bd 1ead b5bd
00000120: 02e5 58bd 2aa3 a0bc 36eb 1bbd f588 85bd
00000130: 41cd 16bc 411d bdbd c843 42bd e55e 6e3d
00000140: 4b30 eebc ab42 57be f616 97bd f189 8fbe
00000150: 45de cabd a9d2 d7bc d4d7 1dbd 06f4 46be
00000160: c5dd bfbc 6422 073f 6db2 a9bb 4411 e73b
00000170: b6c1 c9bc e8cc 6cbd d70c bd3e 5e92 4fbd
00000180: ac4c ab3c e7c2 b7bc fd13 263d 94f4 ab3c
00000190: c073 22bd 46e0 e2bd 4552 81bc faca 813c
000001a0: 69d6 a6bd 6c24 08bd d623 273e 60ce 6339
000001b0: d836 d8bc 1009 aabd 7cd2 0c3c 6eb2 33bd
000001c0: b8bc 15bd d8e4 d23c 9042 78bd be36 9a3c
000001d0: 1a81 57bd e298 fa3c 8c07 20bd 4870 95bd
000001e0: 7863 403c 9e73 10bc 7789 1ebd d652 1c3d
000001f0: 6c89 12bc 3bda c8bc 9b43 cc3d 769a 55bd
00000200: 8312 54bd 6fc3 40bd babf a5bd 1693 32bd
00000210: 538d 42bd 3dd6 afbe 0928 8fbd 635e 60bf
00000220: 58a1 bebc f038 6cbd 34ef 21bd c748 133c
00000230: 1bdd 58bd d94e 93bd 4574 a3bd ea39 a63c
00000240: cb3b b0bd 94b0 1abe ec7f 97bd 572d f03c
00000250: fb45 2cbd c3c6 97bd fb0d 5bbc 81a1 6abd
00000260: e6d5 793c 642d 0dbd d43b 3ebd f786 93bb
00000270: 44fe 91bc 2da6 0bbe 0908 febd 1ae6 29bd
00000280: 09ee a9bd c1e6 abbc cef4 763e d40d 79bc
00000290: f945 39bd 5082 24be 7d34 92bc 6732 c0bd
000002a0: fd1a 25bd 0b5f 113d a392 abbd ba32 29bb
000002b0: d4a0 3ebd 66de 5abc 27ce 5dbd 6dc5 9b3b
000002c0: 6108 85bd 14d7 febd b506 a7bd 89c6 bd3c
000002d0: 4393 cdbb 8e52 f6bd 2f5c e7bc 54c3 1abe
000002e0: 530b 7bbc 99d0 97bc 3c1f e1bc 96eb 07be
000002f0: f0aa dabc 39e5 0fbd 588a 8cbd 21e8 11bd
00000300: e489 a2bc ef7c 953c a273 293f f136 23be
00000310: 10a2 d93b d16c 83bc a461 8bbd 2c74 5a3c
00000320: 1a3e 20bd c980 b63b 28a1 f03c efc9 113c
00000330: e0ae 5ebd fbea 29bb be2f c83c 18ac abbd
00000340: 7fef 2aba df42 b5bc 5d12 57bd 5481 823e
00000350: 95c0 4d3c dc62 b2bd 2b1d 03bd 86ad db3a
00000360: 9a7e 1a3d 9de2 dabc 06b3 96bf 6d9e 14bd
00000370: 65ec e43c e251 7bbd c10a 23bc 4342 ef3e
00000380: 3e2b 243d 8714 15be 353c 70be 4372 95bb
00000390: 9f1b 123c 2866 67bd 78a0 cc3d 5d98 33bd
000003a0: 3931 40bd 750f 22be 51cd 1fbd b23b d43c
000003b0: fcb8 b9bd 10a1 2a3a 5041 84bd 07da 153d
000003c0: 493f 0e3d 5e0f 5b3c 8fe2 22bd 9cc8 e3bc
000003d0: 34eb 4cbd 1556 89bd 731a 98bd fd1f 45bd
000003e0: c165 4bbd 46bb 0bbd 088a 76bd 0ba9 a1be
000003f0: d517 17bd 3389 143d d191 17bc b426 a83b

l3.weight f4 [1, 300]
-0.0014854027 -0.0624691 -0.0113739865 0.0120318625 -0.021487895 0.0029807463 0.019529773 0.043276127
-0.00044268044 -0.041255206 0.0016561126 0.015345655 0.028523922 0.015697768 0.0047177207 0.0039517074
-0.2332944 -0.030533161 0.0010737628 0.022828829 -0.018436927 -0.010720822 -0.31914103 -0.5916863
0.0010012122 -0.008682457 0.031240359 0.03287883 -0.048246156 0.0014150955 0.0006594429 0.0012137857
-0.016502185 -0.0039331946 0.01933209 -0.01890494 0.0053249695 0.011044993 0.5101987 0.054702055
0.035962112 -0.015287992 -0.005760511 -0.0032478801 -0.007212658 0.020945663 -0.049336098 -0.008494984
0.0067252493 0.005862449 -0.009233251 0.019409806 -0.0016587231 0.012384768 -0.032654803 0.0062381835
-0.046384852 -0.003832792 -0.2364988 0.0066814646 0.022102058 0.019274415 -1.0881114 0.0010687272
0.018794477 -0.00083733 0.046112146 -0.017837346 0.0022622931 -0.0011406544 -0.029463328 -0.001691957
-0.046868797 0.033147097 0.02135401 -0.008204273 -0.046246424 -0.011635593 0.016466664 -0.14195953
0.0037879886 -0.35476974 -0.018065162 -3.517824 0.2689989 -0.026223399 -0.002309456 -0.00042871694
0.30341172 -0.35372525 -0.03411577 -0.010175914 -0.011925478 -0.020179512 1.4321585 0.24701606
0.040835753 -0.04629704 0.044362623 -0.0013310286 -0.05008101 -0.00032665563 -0.022570856 -0.0054562967
0.0063567096 0.041373197 -8.409702 -0.0020406179 0.002272175 0.0047344184 -0.0381399 -0.026871318
0.022204861 0.7445594 0.011629804 0.0035312704 -0.0021503547 0.0016868747 -0.023501007 0.00619495
0.012926254 0.008575751 0.03805956 0.0809483 0.012573819 -0.009755752 -4.551491 -0.020744773
0.03232337 0.0148937795 0.24387144 0.058936834 -0.007923731 -1.9590306 -0.0005922106 -0.14159735
-0.04071133 0.027475826 -0.012564381 -0.008057883 -0.028552745 0.021665443 0.0049520778 0.008304664
0.018113555 0.06957324 0.0008756676 0.020172233 0.0030582317 -0.027190194 -0.023237182 0.020356536
-0.004477618 -0.020649357 -0.026241755 0.01355469 0.12433009 -0.008730627 -0.042594157 -0.00931083
-0.0020322595 -0.0031221097 -0.50328916 0.0016070332 -0.16550958 -0.48987916 0.01790912 0.018897716
-0.007856315 0.022666764 -0.0043169274 -0.0012593279 -0.027317716 -0.011531454 -0.019692674 -0.026294509
-0.013676242 -0.8338584 0.0041395803 0.009390886 0.0017530533 -0.0015817 -0.0012343162 -0.000935744
0.012570288 0.0030137016 -0.0066503454 0.004178547 0.008442154 0.0028550632 0.027158787 -0.00013493183
-0.012849408 -9.9420344e-05 -1.2614648 0.81884044 -0.010336211 0.047286276 -0.005273671 0.0016227954
-0.005868399 0.1787882 -0.016586525 0.017232517 -0.0039217533 0.0007550088 -0.021637963 0.010497681
-0.025145147 0.00046103416 0.01847639 -0.35083166 -0.028671274 -0.011711239 0.009747943 0.033299938
-0.0069130976 0.036362704 -0.24655575 -0.027074602 0.02917416 0.023885092 0.023191124 0.16731505
-0.035011567 -0.004839522 -0.030277248 -0.0018826439 0.03634366 -0.037009936 -3.8599389 0.0051589273
0.0070115873 0.028238453 0.034431104 0.023349728 0.015964054 0.02003072 -0.0035470237 -1.1239232
-0.00013018961 -0.012378749 0.0035646486 0.021489006 0.035224095 0.03151911 -0.02359633 -0.008762945
0.0033121693 0.005919205 0.03451944 -0.058483098 0.027285833 0.00017796946 0.011084379 -0.026695909
00000000: d8b1 c2ba 99df 7fbd f559 3abc 4a21 453c
00000010: 6207 b0bc a058 433b e7fc 9f3c 4f42 313d
00000020: 9017 e8b9 38fb 28bd eb11 d93a 586c 7b3c
00000030: 00ab e93c 9b98 803c 1c97 9a3b 537d 813b
00000040: bae4 6ebe ae20 fabc 80bd 8c3a 8603 bb3c
00000050: 0a09 97bc 63a6 2fbc 7466 a3be c178 17bf
00000060: 1b3b 833a dd40 0ebc c8eb ff3c f4ab 063d
00000070: c39d 45bd ba7a b93a 77de 2c3a e417 9f3a
00000080: 972f 87bc 07e2 80bb 555e 9e3c 88de 9abc
00000090: 157d ae3b 0ff6 343c 629c 023f 430f 603d
000000a0: 024d 133d 7c7a 7abc abc2 bcbb 63da 54bb
000000b0: 2958 ecbb 3d96 ab3c a614 4abd 8c2e 0bbc
000000c0: 7b5f dc3b c919 c03b 1047 17bc 5001 9f3c
000000d0: 8369 d9ba 7be9 4a3c 0bc1 05bd ad69 cc3b
000000e0: 0bfe 3dbd 942f 7bbb be2c 72be 30f0 da3b
000000f0: 600f b53c 61e5 9d3c 3c47 8bbf 8914 8c3a
00000100: e0f6 993c 4480 5bba 17e0 3c3d a01f 92bc
00000110: fb42 143b 0382 95ba 145d f1bc a8c4 ddba
00000120: 7ff9 3fbd 40c5 073d 9bee ae3c 376b 06bc
00000130: e46c 3dbd 37a3 3ebc 19e5 863c d75d 11be
00000140: e73f 783b 61a4 b5be 64fd 93bc 0724 61c0
00000150: 39ba 893e 74d2 d6bc 3e5a 17bb 6ac5 e0b9
00000160: c858 9b3e 7a1b b5be fabc 0bbd e0b8 26bc
00000170: 1463 43bc 814f a5bc f850 b73f c7f1 7c3e
00000180: 6443 273d f7a1 3dbd 95b5 353d e975 aeba
00000190: bf21 4dbd fa42 abb9 84e6 b8bc bcca b2bb
000001a0: f24b d03b f176 293d 248e 06c1 e3bb 05bb
000001b0: c5e8 143b 2e23 9b3b 9538 1cbd 3d21 dcbc
000001c0: f8e6 b53c 729b 3e3f ef8a 3e3c e36c 673b
000001d0: f7ec 0cbb 1f1a dd3a 2f85 c0bc 02ff ca3b
000001e0: a4c8 533c 4f81 0c3c 57e4 1b3d 39c8 a53d
000001f0: 6b02 4e3c 97d6 1fbc d0a5 91c0 f1f0 a9bc
00000200: 8365 043d 0a05 743c 6fb9 793e c067 713d
00000210: 89d2 01bc 84c1 fabf 953e 1bba e5fe 10be
00000220: ecc0 26bd fc14 e13c d5da 4dbc 3605 04bc
00000230: 72e7 e9bc ba7b b13c 0a45 a23b 4910 083c
00000240: e162 943c 6a7c 8e3d 0f8d 653a 3d40 a53c
00000250: 9d6c 483b f8bd debc e75b bebc c0c2 a63c
00000260: fbb8 92bb d728 a9bc f3f8 d6bc 7e14 5e3c
00000270: c6a0 fe3d e70a 0fbc 3677 2ebd 748c 18bc
00000280: a82f 05bb 4f9c 4cbb 8fd7 00bf 16a3 d23a
00000290: 587b 29be 71d1 fabe 26b6 923c 62cf 9a3c
000002a0: c6b7 00bc a6af b93c 0375 8dbb 0810 a5ba
000002b0: 67c9 dfbc 6cee 3cbc 8852 a1bc 9567 d7bc
000002c0: 5112 60bc be77 55bf 51a5 873b 3bdc 193c
000002d0: b5c6 e53a 0c51 cfba c7c8 a1ba b84c 75ba
000002e0: 9cf3 4d3c 8681 453b 24eb d9bb 31ec 883b
000002f0: f650 0a3c 031c 3b3b 1b7c de3c 7d7c 0db9
00000300: 5386 52bc e47f d0b8 ae77 a1bf 879f 513f
00000310: 3659 29bc 41af 413d c2ce acbb fab3 d43a
00000320: b34b c0bb 4114 373e 77e0 87bc 352b 8d3c
00000330: 0d82 80bb c8eb 453a 1942 b1bc 77fe 2b3c
00000340: 32fd cdbc f5b6 f139 cc5b 973c 35a0 b3be
00000350: 05e0 eabc 7fe0 3fbc d6b5 1f3c 8465 083d
00000360: 4487 e2bb 0ff1 143d 1c79 7cbe 8ecb ddbc
00000370: a6fe ee3c abaa c33c 50fb bd3c a354 2b3e
00000380: 4a68 0fbd da94 9ebb fe07 f8bc 0cc3 f6ba
00000390: 17dd 143d bb97 17bd 3d09 77c0 380c a93b
000003a0: 75c1 e53b 5454 e73c a107 0d3d ee47 bf3c
000003b0: 0cc7 823c 7717 a43c 2f75 68bb b7dc 8fbf
000003c0: 8283 08b9 3dd0 4abc e19c 693b b609 b03c
000003d0: 2447 103d 2f1a 013d 174d c1bc 7592 0fbc
000003e0: fb10 593b e4f5 c13b 4264 0d3d f98b 6fbd
000003f0: 8a86 df3c 509d 3a39 419b 353c 61b1 dabc
