Pendulum/Pendulum-v1_critic.pth (torch, 984994 bytes, 10 tensors)

l1.weight f4 [400, 4]
1.5919586 -2.18248 0.6213704 0.042569302 -0.009717294 -0.0550698 -0.008841088 0.016817084
0.10766129 -0.2174895 0.008845393 -0.020706292 0.10479411 0.12658666 -0.0017636183 -0.006029995
0.018245496 0.33405498 0.007121278 0.034748003 -0.13010125 0.15108506 0.00021728611 -0.024226706
-0.041833695 0.2609224 0.016564023 0.14549342 0.024854546 0.18183076 -0.0033528006 0.018307993
0.16723877 0.6556342 0.00494378 0.17613687 0.7461856 -0.650658 0.03567387 0.01352335
-0.9694593 0.5688533 0.35721862 0.036270794 -0.049694847 -0.3579939 0.090275586 0.24395514
0.10867317 -0.21560514 0.007275533 0.0009421479 0.32990843 -0.5639213 0.0053106695 0.0039242906
0.04286874 0.016740536 0.011993889 0.020066673 -0.105217166 0.54958856 0.012865411 -0.0005265609
0.21842322 0.45578355 -0.0146817 0.044544928 0.029958747 0.038947128 -0.010420581 0.028542323
1.4935591 -1.9922433 0.87911695 0.1301553 2.2247336 -0.75907356 0.05760289 0.035629526
-0.013588968 0.37297577 0.0135072 0.1687311 1.5691938 0.61474186 0.27008125 0.039879408
0.23032713 0.3114652 -0.041318666 -0.21948317 -0.6461644 0.56375617 -0.067777574 -0.0633759
-0.050555486 -0.020174595 0.00040220338 0.00066413486 -1.846825 1.2627816 0.46652088 0.10216987
-0.87091583 0.72372204 -0.053141285 0.13820048 0.23630868 1.7185396 0.27584612 0.07185143
-0.35370308 -0.8184189 0.039727572 0.06424611 0.055137686 0.20111829 0.004507139 -0.028027346
0.06448401 -0.021012498 0.004756697 0.040673383 -0.1025705 0.89206874 0.6950032 0.409301
-1.1367682 1.9008228 -0.033815134 -0.07182854 0.14165013 0.18617275 0.012678 0.00086531235
-0.0016182635 0.20819294 0.0033367279 0.051060334 -0.7715184 -0.43443263 -0.004042815 0.018814638
-0.1154854 0.0899231 0.0013494429 0.00417735 -0.13765997 -0.4292921 0.07483752 -0.10375339
0.036557168 0.86122453 0.88648546 0.15758482 -0.22326776 -0.19153501 -0.001013699 0.0324344
-0.02295945 -0.15282677 0.0031636795 0.015014087 -0.40925112 -0.3540071 0.005995835 0.054164976
1.5251107 1.588539 -0.18136115 -0.09108297 1.6849111 -0.8380583 -0.79213965 -0.12787344
0.8015229 -0.47131723 0.041819125 -0.10640197 1.8048623 1.023862 -0.2640296 0.0010153971
1.226765 1.349224 0.18335953 -0.08546366 -0.10731495 -1.182495 0.055149294 0.15288688
1.3793612 -0.41771173 0.21389124 -0.02568635 2.493876 -2.54138 -0.5456418 -0.077787876
-0.17623414 0.7488482 -0.012808115 -0.33035663 0.22317427 0.3174123 0.021204734 0.02593333
-0.26212937 2.9734337 0.6247473 0.059550777 0.006085048 -0.050466526 0.015954262 0.031422388
0.67577016 1.6833329 0.3974904 0.07266892 -0.42699075 0.35753202 -0.033877805 0.07626757
0.57878506 1.2328581 0.2733941 0.022979772 -2.3086886 1.3111598 0.7590404 0.12961756
0.68882585 0.25032604 -0.016711304 0.031696755 1.6300101 -0.14196397 0.28708118 0.090392575
0.3106182 0.69611627 0.015764693 0.033788737 0.49349526 0.12407108 -0.09346923 -0.03598505
0.7410461 -0.71363497 0.1025172 -0.03874894 -0.96694714 -2.168393 -0.07777072 0.014097064
00000000: 4dc5 cb3f c1ad 0bc0 2112 1f3f 265d 2e3d
00000010: 4935 1fbc df90 61bd 36da 10bc fbc3 893c
00000020: 867d dc3d 91b5 5ebe 44ec 103c 3ea0 a9bc
00000030: 4b9e d63d ef9f 013e 3629 e7ba 4497 c5bb
00000040: 9477 953c 4109 ab3e 9c59 e93b ec53 0e3d
00000050: 4339 05be 0bb6 1a3e 4cd7 6339 1677 c6bc
00000060: cf59 2bbd 9f97 853e 46b1 873c 3afc 143e
00000070: c39b cb3c d831 3a3e a9ba 5bbb a5fa 953c
00000080: a440 2b3e a5d7 273f 6fff a13b 395d 343e
00000090: 0506 3f3f 8691 26bf c41e 123d 0a91 5d3c
000000a0: 7c2e 78bf 5fa0 113f 5ce5 b63e af90 143d
000000b0: d38c 4bbd fa4a b7be 68e2 b83d 60cf 793e
000000c0: 0a90 de3d 98c7 5cbe 9867 ee3b 7afa 763a
000000d0: c2e9 a83e 255d 10bf 2005 ae3b 5697 803b
000000e0: 2297 2f3d 7323 893c 0482 443c dd62 a43c
000000f0: 197c d7bd d6b1 0c3f 72c9 523c e708 0aba
00000100: 56aa 5f3e 765c e93e 838b 70bc be74 363d
00000110: 0c6c f53c 0687 1f3d 16bb 2abc 97d1 e93c
00000120: f22c bf3f d401 ffbf cf0d 613f 6e47 053e
00000130: 0962 0e40 a552 42bf 02f1 6b3d 44f0 113d
00000140: 43a4 5ebc aef6 be3e 4e4d 5d3c d8c7 2c3e
00000150: 58db c83f b95f 1d3f 1748 8a3e 9758 233d
00000160: e0da 6b3e 5e78 9f3e c33d 29bd 32c0 60be
00000170: 086b 25bf 5352 103f f8ce 8abd 39cb 81bd
00000180: 4513 4fbd 3145 a5bc d3de d239 5619 2e3a
00000190: c364 ecbf d4a2 a13f d3db ee3e 703e d13d
000001a0: 57f4 5ebf d945 393f adaa 59bd 6d84 0d3e
000001b0: e7fa 713e 1bf9 db3f b43b 8d3e d826 933d
000001c0: 9218 b5be e783 51bf 61b9 223d 7793 833d
000001d0: 0ed8 613d f4f1 4d3e 9fb0 933b 9b99 e5bc
000001e0: 3110 843d 6722 acbc 11de 9b3b 2299 263d
000001f0: 7b10 d2bd 9e5e 643f bbeb 313f e78f d13e
00000200: 9f81 91bf 294e f33f bd81 0abd d71a 93bd
00000210: bb0c 113e 12a4 3e3e 63b7 4f3c 21d6 623a
00000220: ea1b d4ba 8830 553e 01ad 5a3b a424 513d
00000230: 3b82 45bf f46d debe 9779 84bb 2821 9a3c
00000240: 9c83 ecbd 9a29 b83d cadf b03a 27e2 883b
00000250: bcf6 0cbe 2dcc dbbe 6a44 993d a87c d4bd
00000260: f8bc 153d 3679 5c3f b6f0 623f ea5d 213e
00000270: 4ea0 64be c121 44be 18de 84ba efd9 043d
00000280: 7515 bcbc 9f7e 1cbe bc55 4f3b a5fd 753c
00000290: 5d89 d1be 6b40 b5be b678 c43b 18dc 5d3d
000002a0: d436 c33f 3f55 cb3f bdb6 39be b589 babd
000002b0: 2bab d73f fd8a 56bf aac9 4abf 41f1 02be
000002c0: 9b30 4d3f 7e50 f1be 884a 2b3d 47e9 d9bd
000002d0: ba05 e73f e90d 833f e32e 87be 1317 853a
000002e0: a306 9d3f 5fb3 ac3f 9ac2 3b3e 9207 afbd
000002f0: f1c7 dbbd ff5b 97bf 3ae4 613d 618e 1c3e
00000300: e88e b03f 50de d5be 4e06 5b3e 2e6c d2bc
00000310: aa9b 1f40 f8a5 22c0 2eaf 0bbf 404f 9fbd
00000320: b976 34be 84b4 3f3f 21d9 51bc 8124 a9be
00000330: cc87 643e dd83 a23e 8db5 ad3c 2372 d43c
00000340: d235 86be bd4c 3e40 70ef 1f3f 84eb 733d
00000350: 1565 c73b fdb5 4ebd 83b2 823c c3b4 003d
00000360: 46ff 2c3f 7477 d73f dd83 cb3e 71d3 943d
00000370: 889e dabe 700e b73e 74c3 0abd 2c32 9c3d
00000380: 422b 143f 4bce 9d3f 50fa 8b3e 1340 bc3c
00000390: 8ec1 13c0 16d4 a73f 7950 423f 77ba 043e
000003a0: e456 303f bc2a 803e 25e6 88bc 75d4 013d
000003b0: 2ca4 d03f 015f 11be 4efc 923e be1f b93d
000003c0: 5909 9f3e ad34 323f f524 813c 0f66 0a3d
000003d0: 69ab fc3e fa18 fe3d cc6c bfbd 0f65 13bd
000003e0: 32b5 3d3f c8b0 36bf 8af4 d13d 35b7 1ebd
000003f0: d989 77bf f3c6 0ac0 4146 9fbd 5ff7 663c

l1.bias f4 [400]
-1.7424003 -0.1542101 -0.3002984 -0.2310216 -0.4775291 -0.29082805 -0.6360126 -0.26394832
-1.0525618 -1.066277 0.99560976 -1.5356851 -0.27607253 -0.67212075 -0.118817694 -0.6710756
-0.7019934 -0.23476152 -1.893782 0.2016537 -0.8447223 -0.46343085 -1.211177 -1.5370845
-0.0911024 1.1164533 -1.8421177 -0.894615 -1.182297 -0.34100097 -0.17272675 -1.6192493
-1.2838315 -0.30441234 -0.4010248 -0.9695979 -0.22716916 0.7023457 -1.8052824 -0.36711544
-0.19381484 -0.6813964 -2.2366261 -2.5087569 -0.8970562 -3.0353425 -0.03951413 -1.001196
-1.7771084 -1.3333725 -1.5679605 -0.50993687 -0.824479 -0.2037667 -1.2894237 -0.97961795
-1.0705698 1.5537548 -0.88512564 -1.8619866 -0.9349143 -1.1485437 -1.2413672 -0.5549622
-0.22161084 -2.1490161 -0.21137254 -0.21276073 -0.57616806 -1.374129 -0.12033026 -1.2273697
-0.61233974 -2.018254 -1.4986876 -0.5946139 -0.67363656 -0.46730584 -1.7933664 -0.48959935
-2.1726465 -1.0832894 0.7444956 -0.30346796 -0.2882706 -0.23460646 -0.95237714 -0.033060066
-0.24936242 -2.3851395 -1.9655323 -2.0344467 -2.0069752 -1.3589581 -0.8523554 1.4479434
-0.60919255 -0.105296746 -1.9011949 -0.8563366 -1.5435024 -1.3682747 -0.078077696 -2.0563076
-0.9262093 -2.1358693 -2.5970182 -0.3526993 -0.9927749 -0.06654156 -0.12050699 -0.38868648
-0.22380401 0.06274215 -0.8209126 -1.1472284 -0.9337328 -2.0697072 -0.25047836 -0.7512372
-0.046042252 -0.38621238 -0.09760431 -0.4133203 -0.49263793 -1.6843985 0.27146804 -1.4051948
-1.1927046 -1.0331951 -1.3503077 -1.703038 -0.29609227 -0.89295775 -1.8638191 -2.845176
0.21591121 -0.28999496 -0.12660219 -2.8659465 -0.8531327 -0.85686946 -0.34714773 -2.0880637
-1.1625433 -0.41411614 -0.72034925 -0.7202439 -1.0287216 0.17222843 -1.8805306 -0.09381302
-0.16369765 -0.3642242 -0.06059613 -0.30112198 -0.78562564 -0.5482652 -2.631713 -0.2726957
-1.0455819 -1.3599486 -0.23176803 -2.250474 -0.5843103 -1.0544848 0.56706 -0.079405986
-1.0455157 -1.7287854 -1.4228479 -0.43261585 -0.9038877 0.060877047 -1.7723204 -0.13998014
-0.406612 0.13654608 -0.3875837 -0.5937659 -1.1170355 -0.018018216 -0.5807053 1.786566
-0.82555205 -0.22205845 -0.40139994 -0.749807 -0.2631463 -0.86332494 -0.9490035 -0.453659
-0.8646735 -1.3580683 -0.73397964 -0.14455445 -1.3353802 -0.5043611 1.16889 -1.257139
-0.34666342 -0.057132065 -0.97211474 -0.63078874 -2.0183823 -0.69698995 -0.32476863 -0.41516227
-0.5635032 -1.185648 -1.3498713 -0.4980541 -0.81434405 -0.78211576 -0.30624092 -1.1765977
-0.20926505 -1.5111241 -1.4324465 -1.6360592 -0.6772604 -0.365138 -0.07939378 -0.96075314
-0.043788344 -0.39323637 -1.8587967 -0.49505842 -0.11189633 -0.42584166 -1.0598147 -0.159569
-1.1596438 -0.3972293 -0.6290028 -0.24717924 -0.1779187 -0.20177384 -0.12807648 -0.2640249
-0.2154691 -1.873126 -2.126179 -1.6798065 -0.10963929 -0.5221057 -0.117577724 -0.07719821
-1.2184325 -0.34168497 0.13259637 -0.68290246 -0.36942184 -0.8148912 -2.1164913 -2.0988042
00000000: f906 dfbf 41e9 1dbe b6c0 99be ed90 6cbe
00000010: b27e f4be 6ae7 94be b9d1 22bf 3c24 87be
00000020: 58ba 86bf c47b 88bf 48e0 7e3f 5491 c4bf
00000030: 6159 8dbe 1b10 2cbf b156 f3bd 9ccb 2bbf
00000040: d7b5 33bf 5365 70be 7367 f2bf 4f7e 4e3e
00000050: b83f 58bf cf46 edbe d907 9bbf 2fbf c4bf
00000060: e593 babd f1e7 8e3f 83ca ebbf 7d05 65bf
00000070: 8255 97bf ae97 aebe 48df 30be 9043 cfbf
00000080: 9754 a4bf efdb 9bbe 1f53 cdbe 9137 78bf
00000090: 089f 68be eecc 333f 7e13 e7bf 8ef6 bbbe
000000a0: 6677 46be ff6f 2ebf e224 0fc0 798f 20c0
000000b0: 7aa5 65bf 0d43 42c0 92d9 21bd 3127 80bf
000000c0: 4a78 e3bf f3ab aabf eeb2 c8bf 398b 02bf
000000d0: 0e11 53bf 38a8 50be d60b a5bf 3ec8 7abf
000000e0: 6e08 89bf 70e1 c63f 9897 62bf 9455 eebf
000000f0: 8b56 6fbf 7b03 93bf 1fe5 9ebf 0112 0ebf
00000100: f4ed 62be 7b89 09c0 0b72 58be f3dd 59be
00000110: c07f 13bf 76e3 afbf b66f f6bd 731a 9dbf
00000120: 4cc2 1cbf 132b 01c0 ffd4 bfbf 9e38 18bf
00000130: 7273 2cbf b642 efbe 088d e5bf c4ac fabe
00000140: a40c 0bc0 3aa9 8abf 4397 3e3f 2760 9bbe
00000150: 3498 93be ad3c 70be fdce 73bf fe69 07bd
00000160: dd58 7fbe 20a6 18c0 9096 fbbf 6034 02c0
00000170: 4872 00c0 57f2 adbf f733 5abf 3656 b93f
00000180: 0bf4 1bbf d2a5 d7bd 5b5a f3bf e038 5bbf
00000190: 7d91 c5bf a023 afbf 33e7 9fbd 8b9a 03c0
000001a0: 0d1c 6dbf 15b2 08c0 8c35 26c0 0195 b4be
000001b0: 7f26 7ebf f146 88bd 5ecc f6bd ea01 c7be
000001c0: e12c 65be f57e 803d 5427 52bf 61d8 92bf
000001d0: 1d09 6fbf 1576 04c0 b33e 80be 1551 40bf
000001e0: cd96 3cbd a1bd c5be c5e4 c7bd b89e d3be
000001f0: 0a3b fcbe 5f9a d7bf dcfd 8a3e 6cdd b3bf
00000200: 8baa 98bf bd3f 84bf e2d6 acbf 26fd d9bf
00000210: 6899 97be e198 64bf a091 eebf 5d17 36c0
00000220: d417 5d3e 387a 94be 01a4 01be ab6b 37c0
00000230: e866 5abf cc5b 5bbf 59bd b1be d6a2 05c0
00000240: 38ce 94bf 0807 d4be cf68 38bf e761 38bf
00000250: 26ad 83bf a65c 303e 3ab5 f0bf 0a21 c0bd
00000260: 5ba0 27be 987b babe a633 78bd a92c 9abe
00000270: c31e 49bf 1c5b 0cbf fc6d 28c0 c59e 8bbe
00000280: a1d5 85bf cc12 aebf 9954 6dbe c407 10c0
00000290: 5c95 15bf 5cf9 86bf d82a 113f 9b9f a2bd
000002a0: 75d3 85bf d748 ddbf e11f b6bf d37f ddbe
000002b0: 2f65 67bf 365a 793d 65db e2bf f456 0fbe
000002c0: 732f d0be bcd2 0b3e 5f71 c6be 0b01 18bf
000002d0: 05fb 8ebf f09a 93bc 1aa9 14bf 32ae e43f
000002e0: 6157 53bf 4a63 63be 4b84 cdbe 5af3 3fbf
000002f0: 1dbb 86be dd02 5dbf e5f1 72bf fe45 e8be
00000300: 3e5b 5dbf 2fd5 adbf 17e6 3bbf 1506 14be
00000310: bded aabf cf1d 01bf 309e 953f eee9 a0bf
00000320: de7d b1be 5003 6abd 83dc 78bf 5f7b 21bf
00000330: 2d2d 01c0 ef6d 32bf 1348 a6be 2690 d4be
00000340: bf41 10bf 50c3 97bf 95c8 acbf f200 ffbe
00000350: da78 50bf bd38 48bf 9ccb 9cbe c19a 96bf
00000360: 9449 56be 846c c1bf 685a b7bf 636a d1bf
00000370: f060 2dbf 5ef3 babe 3599 a2bd ebf3 75bf
00000380: 685b 33bd 4756 c9be 0ded edbf 4c78 fdbe
00000390: e729 e5bd eb07 dabe 02a8 87bf 0e66 23be
000003a0: 356f 94bf a461 cbbe 5406 21bf 8e1c 7dbe
000003b0: 5230 36be cd9d 4ebe 7b26 03be 462e 87be
000003c0: efa3 5cbe 98c2 efbf 5113 08c0 e603 d7bf
000003d0: 908a e0bd b8a8 05bf 97cc f0bd 181a 9ebd
000003e0: 99f5 9bbf 55f1 aebe 58c7 073e b2d2 2ebf
000003f0: dc24 bdbe b69c 50bf 9874 07c0 cf52 06c0

l2.weight f4 [300, 400]
-0.87425166 0.15248486 0.241437 0.5632553 1.2675219 -0.53136855 -0.08313978 0.22164702
-0.98146 1.4693972 -0.65438825 2.0752265 0.22207943 0.9135385 0.8825081 -0.4748179
-1.0733919 0.07457312 0.15328215 -4.3472376 -0.20423986 2.003554 0.08989131 0.06370502
-0.22077261 -1.573206 -0.959815 -3.8177404 0.4502123 -0.88033545 0.07362885 -1.8594086
-0.060149424 -0.65357 -0.017966462 -0.61751443 1.0796795 0.26215205 0.8365315 -0.1518701
0.0016706855 -0.41075894 -0.42499956 -1.5340583 -7.3665633 -0.8679158 0.8233338 4.847201
-0.028313236 2.6548645 -0.16897842 0.06268135 -4.795817 0.05272455 -1.9797873 0.23809908
-0.6465686 -1.1657414 -0.7503844 1.0624084 -2.807018 -0.06408606 2.1995473 0.4422677
-0.1958322 -12.945012 -0.02842325 0.40282232 -0.289882 2.2218485 1.4214401 -1.002445
0.02115229 0.45010912 0.6872079 1.3080338 -0.07809489 0.5571912 -0.15424913 0.04189948
0.987921 -7.3309646 0.22753829 -0.18887128 -0.5584553 0.28966722 -0.3586865 -0.14480132
0.21968427 -6.097191 -0.13822828 0.8894038 -0.19902596 -4.494957 0.042280406 -1.1639366
0.85527927 0.08443821 -2.5691223 1.5635936 -2.132429 -0.2214812 0.114886515 0.7956235
-2.1905239 -0.87330943 0.43071675 -6.086671 0.8393829 -0.00906208 0.076951265 -0.038758524
1.4274923 -0.19770496 0.09609922 -2.2650073 3.7208972 0.9503883 0.2874219 0.4223559
-0.14494897 -0.18007226 0.12339642 -0.6418914 0.07150043 0.31908748 -0.053056087 -0.13003132
-1.2262939 1.7599005 0.7832231 5.342848 0.31022602 -2.853152 0.07996123 1.2713537
-1.5354055 -0.1178587 -0.024119018 -0.5047773 -0.80211246 -0.34936872 -0.19841279 -10.361832
-1.9052755 0.0403531 0.25050178 0.20836914 0.27878222 -2.543969 0.049654663 0.04142393
-1.8239194 0.08261607 0.021107135 -1.4556419 0.01988994 -0.079939395 -0.14141981 -0.5544087
-6.743597 1.149686 -0.0659479 -5.4328074 -2.8679476 -2.1808178 -0.44758996 3.1720574
3.7895012 -1.4668937 1.123487 -0.7699695 2.4244623 0.2951937 0.10083931 1.5915883
0.27564606 0.007077696 0.2928196 0.26847154 -1.8866875 -3.585276 0.27632666 0.27537844
1.8090978 1.5656018 0.26207426 0.0030952615 -0.028335728 -0.32498875 -1.5154177 0.30636948
-0.05504311 0.5101737 0.5100849 -0.48200738 -0.4434468 0.6516224 -1.036001 2.259261
-0.41381758 -0.0100685125 -2.0765543 0.837921 -0.14420031 0.5215521 -0.43449435 -0.06572243
0.18571232 -0.12247066 1.090731 1.7729766 1.1100067 -0.13175005 -0.1045244 -6.3816013
-0.12695786 -0.624598 -3.318477 0.74855965 -1.4353323 -0.25944507 -0.066394806 1.5644351
0.08739585 0.32118577 -4.0230374 -2.372541 0.18569316 -0.10679922 -0.80385524 -0.14576888
1.4361746 -0.41748348 0.40457046 0.020904472 -0.09301978 1.5998906 0.14709474 0.6657362
0.35202447 1.0156603 0.22850202 1.8266243 0.00618397 -0.15917647 -4.4804397 0.5206206
-0.37138224 2.6125042 0.6373328 -0.0680969 -0.07868532 -0.20355333 -0.16773479 0.86036664
00000000: f5ce 5fbf fe24 1c3e 433b 773e 8031 103f
00000010: 283e a23f c507 08bf 3045 aabd 70f7 623e
00000020: f640 7bbf 3515 bc3f fd85 27bf 83d0 0440
00000030: ca68 633e a9dd 693f 0dec 613f 551b f3be
00000040: e864 89bf cbb9 983d fff5 1c3e 921c 8bc0
00000050: 4124 51be 3b3a 0040 ef18 b83d c777 823d
00000060: 3712 62be d05e c9bf 70b6 75bf dc55 74c0
00000070: 3a82 e63e aa5d 61bf b9ca 963d 1a01 eebf
00000080: 3e5f 76bd 5d50 27bf 672e 93bc 6d15 1ebf
00000090: f032 8a3f cb38 863e ee26 563f d683 1bbe
000000a0: e7fa da3a ff4e d2be 8b99 d9be 065c c4bf
000000b0: e3ba ebc0 bb2f 5ebf 01c6 523f 451c 9b40
000000c0: 29f1 e7bc 4de9 2940 ae08 2dbe 145f 803d
000000d0: 5577 99c0 b3f5 573d ac69 fdbf 3fd0 733e
000000e0: 8585 25bf 0437 95bf 3119 40bf 00fd 873f
000000f0: 2fa6 33c0 8d3f 83bd 62c5 0c40 e970 e23e
00000100: 3c88 48be c51e 4fc1 e0d7 e8bc ba3e ce3e
00000110: 6a6b 94be c432 0e40 c0f1 b53f 1e50 80bf
00000120: 9147 ad3c b474 e63e dbec 2f3f a76d a73f
00000130: 37f0 9fbd 15a4 0e3f 7cf3 1dbe ca9e 2b3d
00000140: 64e8 7c3f 4397 eac0 ccff 683e 7967 41be
00000150: edf6 0ebf 434f 943e c2a5 b7be cc46 14be
00000160: eaf4 603e 301c c3c0 b78b 0dbe f8af 633f
00000170: 76cd 4bbe b0d6 8fc0 382e 2d3d e0fb 94bf
00000180: 95f3 5a3f f1ed ac3d 806c 24c0 d623 c83f
00000190: b779 08c0 f8cb 62be 9f49 eb3d fbad 4b3f
000001a0: 8b31 0cc0 3591 5fbf e886 dc3e 02c6 c2c0
000001b0: cce1 563f 1e79 14bc a098 9d3d 42c1 1ebd
000001c0: 11b8 b63f 2b73 4abe abcf c43d e1f5 10c0
000001d0: 2e23 6e40 a64c 733f f728 933e 083f d83e
000001e0: 816d 14be dd64 38be 43b7 fc3d ff52 24bf
000001f0: d16e 923d 6f5f a33e 5751 59bd ee26 05be
00000200: 33f7 9cbf 6b44 e13f 4f81 483f 9cf8 aa40
00000210: f2d5 9e3e 0b9a 36c0 b7c2 a33d b8bb a23f
00000220: 2b88 c4bf e75f f1bd 3f95 c5bc 1639 01bf
00000230: 3e57 4dbf 75e0 b2be b92c 4bbe 10ca 25c1
00000240: 11e0 f3bf 4b49 253d c541 803e b85e 553e
00000250: 8bbc 8e3e 63d0 22c0 b062 4b3d 24ac 293d
00000260: 3176 e9bf 9d32 a93d dfe8 ac3c 7952 babf
00000270: 3af0 a23c 44b7 a3bd 5bd0 10be bbed 0dbf
00000280: 8ccb d7c0 e928 933f b10f 87bd 8fd9 adc0
00000290: 748c 37c0 8592 0bc0 832a e5be fd02 4b40
000002a0: 3087 7240 2cc3 bbbf 6cce 8f3f b91c 45bf
000002b0: 642a 1b40 a123 973e d784 ce3d 2ab9 cb3f
000002c0: 7b21 8d3e 04ec e73b 73ec 953e 1a75 893e
000002d0: fa7e f1bf 2975 65c0 b07a 8d3e 67fe 8c3e
000002e0: 8490 e73f a465 c83f 992e 863e dfd9 4a3b
000002f0: 5420 e8bc ed64 a6be 35f9 c1bf 76dc 9c3e
00000300: e274 61bd be9a 023f ed94 023f acc9 f6be
00000310: 750b e3be bad0 263f ae9b 84bf bb97 1040
00000320: e6df d3be 67f6 24bc 44e6 04c0 fe81 563f
00000330: 3fa9 13be 7084 053f 0b76 debe 7b99 86bd
00000340: 5f2b 3e3e e6d1 fabd 139d 8b3f e6f0 e23f
00000350: b314 8e3f 7ce9 06be e310 d6bd 1436 ccc0
00000360: 3e01 02be a8e5 1fbf ed61 54c0 9ba1 3f3f
00000370: f8b8 b7bf fcd5 84be 00fa 87bd 693f c83f
00000380: 98fc b23d 7672 a43e b9bc 80c0 b6d7 17c0
00000390: 5926 3e3e 8db9 dabd 75c9 4dbf 7044 15be
000003a0: 92d4 b73f 65c0 d5be dc23 cf3e db3f ab3c
000003b0: 2881 bebd 37c9 cc3f 01a0 163e b06d 2a3f
000003c0: 8d3c b43e 2801 823f 6ffc 693e d3ce e93f
000003d0: e6a2 ca3b 28ff 22be c35f 8fc0 6447 053f
000003e0: d025 bebe 4533 2740 3e28 233f 6376 8bbd
000003f0: c525 a1bd 4970 50be abc2 2bbe fd40 5c3f

l2.bias f4 [300]
-0.6534701 -0.024110053 -0.095436074 -0.0042032534 -0.06379926 -0.06346104 -0.03024373 -0.093603395
-0.01356024 -0.01056176 -0.0760299 0.312318 -0.033751223 -0.049494755 0.003443238 1.9542118
-0.04716051 -0.052583426 -0.08918501 -0.095242396 0.2343902 1.0091217 -0.0048119426 -0.021490915
-0.0940868 -0.7224749 2.3660393 -0.04971257 1.3791115 1.6852037 0.4263676 0.19024214
-0.1307747 0.049660005 0.011728431 1.1539319 1.9425918 -0.054305196 -0.04936388 -0.039512258
0.68357706 1.4473803 1.913074 1.0272536 -0.00741009 -0.03603179 -0.061409652 0.004322333
0.12458135 -0.46790493 -0.055352964 -0.045898207 -0.010141359 -0.008620453 -0.018510943 -0.039762367
0.010429621 -0.08614251 -0.041635726 -0.0009121332 -0.010157423 -0.06451617 -0.07168165 0.02117515
-0.022560302 0.0022375074 0.05609946 0.7160514 -0.16111983 -0.05221257 -0.0018745015 0.0070750196
-0.035770338 2.3425548 -0.017076286 1.9390587 -0.037488088 0.12878722 0.013818728 -0.036053207
0.039798003 -0.0215081 0.033952195 -0.015130106 -0.002652578 -0.06911717 -0.0122751845 -0.18797696
-0.019539958 -0.02991231 0.34276322 -0.021925593 -0.052432958 -0.032779973 -0.03847821 -0.060571007
0.9246442 -0.049928058 -0.111930564 -0.056120537 0.027184539 0.3532573 -0.07620196 -0.03064928
2.6302516 0.014284792 -0.088277645 -0.15133667 -0.09434354 -0.05727251 0.021431308 0.016999237
0.06963786 0.19308265 -0.041044924 -0.0487097 -0.11838422 0.00953107 -0.047277097 -0.06599884
0.15627286 -0.020068087 0.019758457 1.0403564 -0.088265695 1.8535981 -0.06483172 0.67999744
-0.05743536 -0.010760014 0.026570195 -0.006823093 -0.057090834 -0.060516935 -0.008507848 -0.09811227
2.475249 0.3255603 -0.011162332 -0.061717495 0.018409709 0.36828995 -0.00075875496 -0.06434853
-0.093403704 0.011515464 -0.08603524 -0.05596414 0.029021952 -0.20214452 -0.025841998 0.63126963
0.08975791 -0.016838104 -0.038874023 2.3292694 -0.07860912 0.37429833 -0.107895285 -0.010703994
1.7067055 0.33598396 -0.05981553 -0.050247293 -0.010487293 -0.020064726 0.03144509 -0.004972197
-0.03784508 -0.05465049 -0.059343405 -1.1041464 -0.040756196 -0.062078286 -0.03351639 0.0012274523
-0.0016894215 2.2232451 0.7585274 0.034832824 2.3137684 0.7744944 -0.08110491 0.007498112
-0.23025985 -0.1768953 -0.016458996 -0.025664546 0.29916778 -0.012625408 0.007862381 1.7841301
-0.08447055 0.2924313 -0.016681198 -0.112703614 -0.09603541 0.052416958 1.871414 -0.1336966
-0.030301439 0.08626887 -0.050518617 -0.0018392064 -0.0495928 -0.03604721 -0.11009426 -0.0047943923
1.3057381 0.2594176 -0.18131474 -0.10977513 -0.03470712 -0.05561028 0.29506811 -0.049918056
-0.0015454234 -0.07326571 -0.0036472443 -0.051905196 -0.11538383 -0.05237257 2.4471745 0.33132604
1.9396944 -0.054662496 -0.00437915 -0.063774094 -0.056521025 -0.05196394 -0.035303272 -0.036876187
0.0057070977 -0.019877654 0.7250822 0.029247973 -0.063721456 -0.053902376 2.246778 -0.008474883
0.32734254 -0.0023890112 -0.010937338 -0.04793036 1.1436833 -0.010102079 0.006869146 -0.13755012
0.011170208 -0.07310194 -0.005096882 0.35111022 1.7513211 0.6179031 -0.031531155 0.5488577
00000000: d149 27bf 7282 c5bc fd73 c3bd 72bb 89bb
00000010: 30a9 82bd ddf7 81bd b3c1 f7bc 23b3 bfbd
00000020: c52b 5ebc 3b0b 2dbc 90b5 9bbd 25e8 9f3e
00000030: b93e 0abd 03bb 4abd f3a7 613b 9d23 fa3f
00000040: 612b 41bd b861 57bd a1a6 b6bd 720e c3bd
00000050: fc03 703e e62a 813f 80ad 9dbb b70d b0bc
00000060: 95b0 c0bd 1df4 38bf 306d 1740 689f 4bbd
00000070: ba86 b03f c1b4 d73f db4c da3e d6ce 423e
00000080: cee9 05be 4a68 4b3d 9b28 403c 0ab4 933f
00000090: d9a6 f83f 206f 5ebd c831 4abd 9bd7 21bd
000000a0: e8fe 2e3f c243 b93f 9cdf f43f 0c7d 833f
000000b0: 57d0 f2bb 1296 13bd b088 7bbd 5ba2 8d3b
000000c0: 8224 ff3d 3c91 efbe cab9 62bd c2ff 3bbd
000000d0: f127 26bc cd3c 0dbc 43a4 97bc dddd 22bd
000000e0: 00e1 2a3c 7c6b b0bd 398a 2abd 391c 6fba
000000f0: 526b 26bc 0e21 84bd d4cd 92bd 8277 ad3c
00000100: 62d0 b8bc 25a3 123b 8cc8 653d 254f 373f
00000110: 99fc 24be d9dc 55bd d5b1 f5ba 91d5 e73b
00000120: eb83 12bd 6bec 1540 91e3 8bbc 1333 f83f
00000130: 1c8d 19bd cce0 033e f267 623c 87ac 13bd
00000140: 3b03 233d c131 b0bc 7511 0b3d 44e4 77bc
00000150: e0d6 2dbb 4e8d 8dbd db1d 49bc 087d 40be
00000160: 4312 a0bc a90a f5bc a97e af3e 4d9d b3bc
00000170: f1c3 56bd 4b44 06bd 549b 1dbd 4e19 78bd
00000180: 7bb5 6c3f 5d81 4cbd da3b e5bd a6de 65bd
00000190: 1cb2 de3c 24de b43e c60f 9cbd 3314 fbbc
000001a0: 0b56 2840 c30a 6a3c e9ca b4bd 00f8 1abe
000001b0: 3037 c1bd 9496 6abd b690 af3c fc41 8b3c
000001c0: 4b9e 8e3d 75b7 453e b91e 28bd d383 47bd
000001d0: 6d73 f2bd 3428 1c3c a1a5 41bd 662a 87bd
000001e0: fe05 203e d465 a4bc 7ddc a13c 662a 853f
000001f0: a5c4 b4bd b442 ed3f 7ec6 84bd 5014 2e3f
00000200: 5741 6bbd c54a 30bc bda9 d93c 4194 dfbb
00000210: 14d8 69bd 9be0 77bd 8064 0bbc 16ef c8bd
00000220: 7b6a 1e40 d7af a63e 37e2 36bc 7ccb 7cbd
00000230: f5cf 963c 8090 bc3e 2fe7 46ba 29c9 83bd
00000240: 714a bfbd 5bab 3c3c 3e33 b0bd a73a 65bd
00000250: 72bf ed3c f9fe 4ebe 99b2 d3bc e39a 213f
00000260: ffd2 b73d 10f0 89bc 5e3a 1fbd c012 1540
00000270: d1fd a0bd 08a4 bf3e 34f8 dcbd ce5f 2fbc
00000280: 5375 da3f 1706 ac3e 2101 75bd 1bd0 4dbd
00000290: e5d2 2bbc c85e a4bc 91cc 003d d0ed a2bb
000002a0: 7103 1bbd 31d9 5fbd 1212 73bd ab54 8dbf
000002b0: f8ef 26bd cd45 7ebd 7b48 09bd 77e2 a03a
000002c0: 946f ddba a649 0e40 da2e 423f ddac 0e3d
000002d0: c814 1440 4445 463f 551a a6bd b9b2 f53b
000002e0: 3dc9 6bbe 0b24 35be 04d5 86bc 743e d2bc
000002f0: 852c 993e cdda 4ebc 37d1 003c 605e e43f
00000300: e5fe acbd 8eb9 953e 02a7 88bc 27d1 e6bd
00000310: 37ae c4bd 2ab3 563d 7e8a ef3f c3e7 08be
00000320: b93a f8bc bcad b03d 9cec 4ebd 8711 f1ba
00000330: d221 4bbd 3da6 13bd 1979 e1bd 471a 9dbb
00000340: 6d22 a73f 62d2 843e 92aa 39be c9d1 e0bd
00000350: 0e29 0ebd 9bc7 63bd 2b13 973e e076 4cbd
00000360: ce8f caba 550c 96bd 9b06 6fbb 8b9a 54bd
00000370: 5c4e ecbd 9f84 56bd 829e 1c40 91a3 a93e
00000380: e847 f83f c8e5 5fbd f97e 8fbb fe9b 82bd
00000390: 9782 67bd 24d8 54bd 2a9a 10bd 7c0b 17bd
000003a0: 9b02 bb3b 76d6 a2bc fd9e 393f 7299 ef3c
000003b0: 6580 82bd bdc8 5cbd 36cb 0f40 3cda 0abc
000003c0: 7199 a73e f590 1cbb 8532 33bc a052 44bd
000003d0: 3764 923f 3183 25bc 9316 e13b f0d9 0cbe
000003e0: 4003 373c 78b6 95bd bf03 a7bb b8c4 b33e
000003f0: 4a2b e03f e62e 1e3f d026 01bd f081 0c3f

l3.weight f4 [1, 300]
0.38514107 -0.00602835 0.019198215 -0.026853435 0.025760649 0.00088048185 0.019885404 0.030203927
0.005666834 0.0042079743 -0.00069393753 0.005979777 0.00085074507 0.013073612 0.0073072743 -0.51596
-0.020326734 -0.006196077 -0.026663382 -0.011333314 -0.026248915 -0.37491894 0.022020638 -0.00034148715
-0.025307773 1.91737 -0.28739953 0.046527855 -0.18064299 -0.64738935 0.00108007 -0.025253333
0.006922125 0.012752782 0.00015101877 -1.1488446 -0.081168324 0.013161078 0.024605392 0.025611324
-1.3993026 -0.30329952 -0.06827055 -0.3325922 0.041437447 -0.008863836 0.026313951 0.045416594
-0.028815815 0.35749432 0.008068987 0.0015530974 -0.003100981 0.0071404073 0.0012267907 -0.016165983
-0.044213694 -0.011375072 0.046817318 0.01263581 0.10364912 -0.030525494 0.0036422866 -0.0007192032
-0.006667944 0.019095441 0.028279362 -0.022161907 0.43353358 0.023817096 0.040200695 0.0032579591
-0.005993291 -0.22632404 -0.015283819 -0.14792183 -0.024726363 -0.035813604 0.006253181 -0.03492971
-0.030030629 0.0129320305 0.005763435 -0.014928708 0.041319765 -0.019760389 0.0044909683 0.4596248
-0.025773749 0.014648356 -0.023927795 -0.021528289 0.012568775 0.004995903 -0.03070005 0.024486043
-0.0015793886 -0.028843034 -0.028698657 0.01189585 0.042934615 -0.0015650613 -0.02555433 -0.027577976
-0.50444776 0.029055037 -0.0012276304 0.0049710283 -0.0142827025 0.010144085 -0.039285187 -0.011629571
-0.0007638819 -0.27918935 -0.0034794454 -0.027296513 0.024620097 -0.0038432647 0.00928017 -0.006299895
0.0056056264 0.015303889 0.0046455637 0.015474967 0.01199858 -0.2563399 -0.016021207 0.36419004
0.034569725 0.029956616 -0.0021795605 0.00533576 0.022222875 0.0075355074 0.024389053 -0.02034555
-0.38151127 0.021872876 0.0011679064 0.040584866 -0.02845937 -1.0343583 -0.02086042 -0.00042413117
-0.023920057 0.0051350007 0.0035142985 -0.030293649 0.004521117 2.1247149 -0.006872155 -0.6199145
0.00839331 0.0010518343 0.031747743 -0.2396072 0.021850228 0.011795674 -0.023751633 0.020285163
-0.8936291 -0.5987717 -0.01702847 -0.018537132 0.0039927517 0.024958638 0.0021070347 -0.00049279555
0.035364848 0.025179429 -0.011436206 0.8955858 0.016580664 0.003964486 0.008015015 0.021037806
0.019385029 -0.43266314 0.023412913 -0.0050151004 -0.24865809 -0.7897668 0.024883937 -0.0032116545
2.195897 0.009435777 -0.0307587 0.00890244 -0.27886686 0.008171331 0.0015752031 -0.16434474
-0.030766778 -0.7376305 -0.021076787 -0.0047827046 -0.006738645 0.026725251 -0.07407411 -0.022135561
-0.010135914 4.3789234 0.030748125 -0.025892682 0.008492597 0.027102087 -0.005773507 0.003730984
-0.25445524 -0.33510238 2.0551758 -0.029297711 -0.025574043 -0.019151371 -0.022352012 -0.0068012807
0.01287543 -0.030941848 0.010054958 -0.027959056 0.07019739 -0.026774928 -0.2929968 0.00062044285
-0.29576474 -0.022223098 -0.014491709 -0.0014691494 0.028702047 -0.017274776 0.0015097982 0.017293064
0.025219748 0.013863829 -1.7828909 0.0020429343 0.024557572 -0.006527327 -5.2397056 -0.02537525
-0.03136434 -0.028742524 0.015526467 0.026796227 -0.04330505 0.014201556 0.028624887 0.0075222263
-0.010506055 -0.0051966296 0.0035886962 0.00369022 -0.69914144 -0.0061610905 0.0045868615 -0.3459364
00000000: 3631 c53e 7789 c5bb 9345 9d3c bcfb dbbc
00000010: ff07 d33c 23d0 663a b7e6 a23c 3a6e f73c
00000020: d9b0 b93b 0ce3 893b 5ce9 35ba 01f2 c33b
00000030: 8904 5f3a b432 563c dc71 ef3b f415 04bf
00000040: 4084 a6bc 7608 cbbb 2a6d dabc 5daf 39bc
00000050: f707 d7bc 60f5 bfbe a064 b43c a109 b3b9
00000060: 3f52 cfbc 616c f53f 0826 93be fe93 3e3d
00000070: 7afa 38be 4fbb 25bf 2391 8d3a 14e0 cebc
00000080: fed2 e23b 0bf1 503c cb5a 1e39 570d 93bf
00000090: 943b a6bd 90a1 573c 3f91 c93c d7ce d13c
000000a0: 591c b3bf 134a 9bbe 6ed1 8bbd 8649 aabe
000000b0: 50ba 293d 9f39 11bc 5b90 d73c c006 3a3d
000000c0: 250f ecbc 7f09 b73e c933 043c 4d91 cb3a
000000d0: d439 4bbb 14fa e93b 44cc a03a 866e 84bc
000000e0: 6b19 35bd 835e 3abc 84c3 3f3d 6e06 4f3c
000000f0: fd45 d43d 9a10 fabc 6eb3 6e3b e988 3cba
00000100: c57e dabb 0b6e 9c3c 1faa e73c e38c b5bc
00000110: 1df8 dd3e 121c c33c 7ca9 243d 7c83 553b
00000120: 5e63 c4bb 7dc1 67be fc68 7abc d278 17be
00000130: f18e cabc 49b1 12bd 7ce7 cc3b 7512 0fbd
00000140: cb02 f6bc dee0 533c 32db bc3b 8a97 74bc
00000150: ea3e 293d 8ae0 a1bc f928 933b f153 eb3e
00000160: 7823 d3bc a8ff 6f3c 3904 c4bc 185c b0bc
00000170: 43ed 4d3c acb4 a33b ac7e fbbc f496 c83c
00000180: 7d03 cfba 3a48 ecbc 7219 ebbc d0e6 423c
00000190: 35dc 2f3d be22 cdba 5057 d1bc 35eb e1bc
000001a0: 7d23 01bf d404 ee3c 71e8 a0ba 02e4 a23b
000001b0: ff01 6abc 6033 263c 81e9 20bd f589 3ebc
000001c0: 3f3f 48ba e8f1 8ebe 6807 64bb f09c dfbc
000001d0: 16b0 c93c 48df 7bbb db0b 183c 596f cebb
000001e0: 67af b73b 2abd 7a3c d039 983b b78a 7d3c
000001f0: b195 443c fc3e 83be e83e 83bc 1e77 ba3e
00000200: fc98 0d3d 9467 f53c f5d6 0ebb 99d7 ae3b
00000210: bf0c b63c 6bec f63b 8dcb c73c b6ab a6bc
00000220: 7255 c3be bf2e b33c 7014 993a 513c 263d
00000230: a023 e9bc da65 84bf 79e3 aabc ec5d deb9
00000240: fff3 c3bc 8243 a83b 2550 663b 632a f8bc
00000250: e125 943b 54fb 0740 d02f e1bb b7b2 1ebf
00000260: 1884 093c b4dd 893a ec09 023d 975b 75be
00000270: 40ff b23c a542 413c c992 c2bc 122d a63c
00000280: e0c4 64bf 1a49 19bf 4a7f 8bbc 2fdb 97bc
00000290: a1d5 823b 0f76 cc3c 2d16 0a3b f32e 01ba
000002a0: bbda 103d 1745 ce3c ed5e 3bbc 1c45 653f
000002b0: 2cd4 873c 85e8 813b 6951 033c 7a57 ac3c
000002c0: 5acd 9e3c 0686 ddbe 70cc bf3c b655 a4bb
000002d0: 3aa0 7ebe 282e 4abf 66d9 cb3c 9f7a 52bb
000002e0: 9489 0c40 8498 1a3c abf9 fbbc 8adb 113c
000002f0: a3c7 8ebe 0ce1 053c 0c77 ce3a fd49 28be
00000300: 9c0a fcbc 5ad5 3cbf 3aa9 acbc 3cb8 9cbb
00000310: dacf dcbb eaee da3c 2bb4 97bd a355 b5bc
00000320: 1b11 26bc 2420 8c40 7ee3 fb3c e41c d4bc
00000330: 8924 0b3c 3205 de3c b02f bdbb 8683 743b
00000340: f547 82be 8a92 abbe 0088 0340 c101 f0bc
00000350: a880 d1bc 56e3 9cbc 911b b7bc 47dd debb
00000360: 78f3 523c c279 fdbc 8dbd 243c 640a e5bc
00000370: a6c3 8f3d 1857 dbbc ad03 96be 37a5 223a
00000380: 7a6e 97be 370d b6bc a26e 6dbc 7990 c0ba
00000390: 8e20 eb3c d583 8dbc 6ce4 c53a 2faa 8d3c
000003a0: a599 ce3c 1d25 633c c535 e4bf c0e2 053b
000003b0: f62c c93c 30e3 d5bb abab a7c0 c2df cfbc
000003c0: e577 00bd 7175 ebbc b962 7e3c c383 db3c
000003d0: a360 31bd a5ad 683c bd7e ea3c 027d f63b
000003e0: 9721 2cbc 7d48 aabb 5530 6b3b 9ed7 713b
000003f0: effa 32bf f9e2 c9bb 624d 963b 931e b1be

l4.weight f4 [400, 4]
-8.10012e-06 -0.08654956 -0.0070050387 0.1024383 1.9479705 -0.17373437 -0.24506769 -0.06601123
0.17815535 1.5267242 -0.19836521 -0.044213068 -0.26108843 0.39166844 0.009131291 0.031201212
-0.003917069 0.009626686 0.0030759554 -0.16342455 0.019733828 -0.20120072 -0.01520585 0.05445149
0.5041851 -0.28560063 0.0211054 0.002962287 0.05239283 0.19097881 0.008670983 0.012060165
0.07872596 -0.043639254 0.017870136 -0.009341321 1.5525762 -2.3282769 0.6790532 0.09839232
2.3424888 -0.57340956 -0.3770345 -0.03802407 0.042155627 -0.4696469 0.0083075 0.0121308435
-1.228093 -1.6638658 0.0068817926 -0.0050009997 0.18662211 0.033002798 0.0048379307 0.025970483
0.085693695 -0.16220047 -0.0043763793 -0.0130112115 0.0069430787 -0.030808607 0.008981229 0.017745031
1.2810578 -0.38580233 0.51654613 0.10936735 -0.017979667 0.10608107 -0.0034920198 0.04814273
0.29001996 0.5793913 -0.12989697 0.008035683 0.04037578 -0.057593804 0.00612691 -0.0050784647
-0.21762978 0.81807446 0.32752606 0.25936636 0.03166267 -0.09059304 0.005285118 0.0024503658
0.9791456 -0.008038501 -0.034763433 0.0038991175 -0.71384656 2.9649289 0.7379823 0.1027676
-0.5799845 0.6930086 0.011290726 0.01566034 0.04888326 -0.0650385 0.037508667 0.0764603
-0.13020177 3.336072 0.28247994 0.012958683 0.029573953 -0.11264444 0.0013197459 0.011709466
0.042475 0.36035243 0.0035006162 0.0044906903 -0.2989845 1.0084026 -0.47804752 -0.14230722
-0.013389681 0.09392902 0.003895787 0.037224405 -0.0136739025 -0.0991111 -0.0051912237 0.026828961
1.8482018 -2.2126143 -0.27371517 -0.057534896 -0.07838682 -0.07652237 0.0015866876 -0.0030602657
0.95836186 -0.6740141 -0.19852345 -0.21153578 2.3618658 1.1094066 -0.37141454 -0.14852762
1.2301174 1.0741935 0.18949383 -0.053115908 0.43039855 0.021345844 0.9702616 0.17184891
0.44100118 -0.46587282 0.8237236 0.10486746 0.2006246 -0.28483465 0.014601689 -0.019580694
-0.544589 0.49937376 0.035927627 0.008528279 0.6299312 -0.3403937 -0.023977755 -0.0023372076
0.87505513 0.8101482 0.0369925 0.0157024 0.20738512 -0.26604894 0.06485446 0.05618316
0.07611091 -0.041766126 0.010528167 0.020945314 -0.8078099 1.4325008 0.12694956 0.1622606
-0.583057 0.41101912 1.5746046 0.19054656 0.046610247 0.30261192 -0.0064725187 0.18559763
-0.058484856 0.4038259 -0.01006049 -0.0026971467 0.05207954 0.13253988 0.0032480734 0.058018446
0.028092196 0.077040896 -0.00076824956 -0.3595519 0.5394512 2.1671627 1.3153948 0.21258792
0.1671309 -0.20691781 -0.02542057 0.083200365 -0.25263658 1.2170289 0.20678113 0.3466418
1.0193356 -0.39098725 -0.61635756 -0.11242256 0.0049196407 -0.1669285 -0.0013683098 0.010021826
-0.08450716 2.9577813 0.19772705 0.027875021 1.3891215 3.5756955 0.910694 0.14020547
-0.30610967 0.2740969 -0.00120444 -0.013615176 -0.16257206 0.13723856 0.0067603523 -0.24545486
0.056635257 -0.11744256 0.0034837339 0.022752218 1.1531043 -1.2299334 1.0417001 0.136529
0.7329312 -0.6554287 0.9709854 0.058827132 0.012671298 0.08248169 0.0026701684 0.011676212
00000000: c0e5 07b7 e540 b1bd 868a e5bb 2ccb d13d
00000010: 1957 f93f 6ce7 31be 06f3 7abe e530 87bd
00000020: 5b6e 363e b36b c33f 4020 4bbe c318 35bd
00000030: 62ad 85be c488 c83e 699b 153c af99 ff3c
00000040: c25a 80bb 3fb9 1d3c f895 493b c458 27be
00000050: d6a8 a13c 9007 4ebe f521 79bc 8708 5f3d
00000060: 4612 013f 3f3a 92be 3be5 ac3c ee22 423b
00000070: dd99 563d f38f 433e bd10 0e3c 0098 453c
00000080: 133b a13d 13bf 32bd 6464 923c 570c 19bc
00000090: d1ba c63f 7d02 15c0 6ed6 2d3f ea81 c93d
000000a0: 56eb 1540 f8ca 12bf aa0a c1be 21bf 1bbd
000000b0: 61ab 2c3d 8f75 f0be 2e1c 083c 72c0 463c
000000c0: 2732 9dbf 8ef9 d4bf a980 e13b 6ddf a3bb
000000d0: de19 3f3e f12d 073d 8187 9e3b 0dc0 d43c
000000e0: 2d80 af3d e117 26be bb67 8fbb fa2c 55bc
000000f0: c482 e33b 5562 fcbc 0126 133c 075e 913c
00000100: b4f9 a33f e287 c5be 5e3c 043f fdfb df3d
00000110: 184a 93bc 0841 d93d 5fda 64bb 5031 453d
00000120: 7f7d 943e fd52 143f b603 05be 19a8 033c
00000130: 1361 253d 7be7 6bbd 3fc4 c83b 4069 a6bb
00000140: 57da 5ebe 546d 513f 7fb1 a73e abcb 843e
00000150: b7b0 013d d888 b9bd c82e ad3b 5196 203b
00000160: 49a9 7a3f ebb3 03bc 1a64 0ebd 5688 7f3b
00000170: a6be 36bf 65c1 3d40 68ec 3c3f d277 d23d
00000180: dd79 14bf 0369 313f bdfc 383c 1d4a 803c
00000190: d039 483d e832 85bd b0a2 193d 3897 9c3d
000001a0: 9d53 05be 3482 5540 36a1 903e a850 543c
000001b0: 1345 f23c 21b2 e6bd 53fb ac3a 0fd9 3f3c
000001c0: 44fa 2d3d 1d80 b83e 986a 653b a426 933b
000001d0: 7f14 99be 5613 813f a5c2 f4be fcb8 11be
000001e0: 6460 5bbc dc5d c03d 7650 7f3b 9e78 183d
000001f0: 8108 60bc c3fa cabd 241b aabb 69c8 db3c
00000200: e091 ec3f 799b 0dc0 6524 8cbe b6a9 6bbd
00000210: 4589 a0bd c3b7 9cbd 67f8 cf3a bd8e 48bb
00000220: 3457 753f 308c 2cbf bb49 4bbe d69c 58be
00000230: cf28 1740 0901 8e3f 0c2a bebe a017 18be
00000240: 7d74 9d3f 2c7f 893f ac0a 423e 1190 59bd
00000250: 335d dc3e 7bdd ae3c 1063 783f 29f9 2f3e
00000260: e8ca e13e e286 eebe 8ddf 523f c0c4 d63d
00000270: 8970 4d3e d9d5 91be ec3b 6f3c b167 a0bc
00000280: 2f6a 0bbf ebad ff3e d928 133d 32ba 0b3c
00000290: 2c43 213f 1548 aebe ff6c c4bc d62b 19bb
000002a0: 9d03 603f df65 4f3f 7385 173d 52a2 803c
000002b0: c45c 543e 9137 88be 6ad2 843d 5020 663d
000002c0: 09e0 9b3d f512 2bbd 557e 2c3c 8295 ab3c
000002d0: a1cc 4ebf 305c b73f 11ff 013e a527 263e
000002e0: 3943 15bf 1971 d23e a58c c93f a31e 433e
000002f0: 63ea 3e3d f3ef 9a3e 6c17 d4bb 4e0d 3e3e
00000300: d18d 6fbd 45c2 ce3e c1d4 24bc 9dc2 30bb
00000310: 5b51 553d 89b8 073e a1dd 543b c0a4 6d3d
00000320: 9b21 e63c 9ec7 9d3d 5b64 49ba 3017 b8be
00000330: 7919 0a3f cbb2 0a40 db5e a83f a6b0 593e
00000340: 5d24 2b3e 43e2 53be cd3e d0bc f464 aa3d
00000350: 9559 81be 9ac7 9b3f 6fbe 533e 097b b13e
00000360: 9779 823f 7b2f c8be 9cc9 1dbf cd3d e6bd
00000370: f034 a13b 4eef 2abe dc58 b3ba 9632 243c
00000380: 1712 adbd 4a4c 3d40 f678 4a3e 285a e43c
00000390: bcce b13f 32d8 6440 3e23 693f 0692 0f3e
000003a0: 68ba 9cbe 6e56 8c3e 4dde 9dba 3012 5fbc
000003b0: 4a79 26be 4488 0c3e f285 dd3b 8558 7bbe
000003c0: 5ffa 673d ba85 f0bd 5b4f 643b dc62 ba3c
000003d0: ec98 933f 756e 9dbf 6e56 853f 42ce 0b3e
000003e0: 61a1 3b3f 2dca 27bf 8092 783f b8f4 703d
000003f0: 479b 4f3c 29ec a83d fefd 2e3b 954d 3f3c

l4.bias f4 [400]
-0.34027174 -2.0996077 0.24408779 -0.7237979 -0.3572426 -0.41500565 -0.6186726 -0.3053186
-0.1397874 -1.8134052 -2.621812 -0.5218601 0.90925246 -0.25333297 -0.248848 -0.101823464
-1.7128443 -0.36264777 -1.5702947 -0.09106074 -0.89762014 -0.115591474 -1.2035949 -1.2408046
-0.99434173 -0.4026186 -0.9726066 -0.18833059 -0.45932254 -3.0969522 -0.1899423 -0.27219656
-0.9203623 -0.12546745 -2.4719646 -2.9612324 -0.7528104 -1.9439553 -1.8981375 -0.41198766
-0.99673384 -0.8967037 -1.3146628 -0.5934184 -0.15930288 -1.2436392 -0.7224891 -0.85619444
-0.6103405 -0.27293187 -0.8607835 -1.6127553 -0.575711 -1.1972407 -2.2685232 -0.19721769
-0.8918453 -0.120354615 -0.47682226 -0.75181437 -0.1795094 -2.1673212 -1.983444 -0.14079782
-0.3057187 -0.13575095 -0.16245918 -1.1275636 -0.3489906 -0.16743009 -0.5462519 -0.085931145
-0.23905608 -0.392215 -0.09900215 -0.5104584 -1.6213268 -0.2792251 -1.0712636 -1.1245133
-0.53399915 -1.4503403 1.1520321 -0.7770605 -0.26217332 -0.97020584 -1.2957591 -1.8464007
-0.28175434 -0.20583907 -0.49675354 -0.8240583 -2.152908 -1.0758356 -0.10608696 -0.5183813
-0.45562372 -0.4133741 -0.40373003 0.8269717 -2.1737018 -1.6281971 -0.6845052 -0.2671598
-0.2232054 -1.7913184 -0.15933749 -0.5374649 0.93510115 -1.9844708 -0.48623285 -1.8676047
-0.13658978 -1.1681371 -0.11799568 0.45533255 0.03219556 -1.0963895 -0.27671522 -1.0643437
-0.6957093 0.26353666 -0.54578 -1.0629952 0.8461571 -0.24775127 -0.38687545 -0.49564716
-0.31043738 -0.84230226 -0.2990609 -0.21012297 -0.26793623 -0.497084 -2.2252247 -1.4436573
-2.0184846 -0.5496588 -0.93659604 -0.33118358 -1.3142997 -0.07914114 -1.5336049 -0.77521145
-1.0993286 -0.568075 -0.25188595 -1.6179868 -1.3373034 -1.0985442 -0.2397102 0.08918058
-0.105127506 -0.54805756 -0.18643107 -1.00894 -0.27020788 -1.0478809 -0.27932075 -0.613467
0.035933685 -0.2267109 -2.428359 -1.1757562 -2.5067687 -1.1550688 -1.9830208 -1.9900336
0.555311 -1.3467548 -1.4360836 -0.57879204 -0.12809741 -0.4158356 -0.366849 -1.3015007
-1.4749368 -0.3711143 -0.3667486 -0.28749514 -2.0933652 -1.1525247 -0.11441805 -0.9534181
-3.0824065 -0.9035341 -0.17353043 -0.18166497 1.058988 -1.0150255 -0.27014104 0.12263536
-1.3680491 -2.2096372 -0.097110204 0.6240534 -0.19625832 -0.6512769 -1.3823713 -0.51472014
-0.21074511 -0.71553105 -1.2238661 0.7946895 -0.38334998 -0.93062085 -1.8540014 -0.77568907
-1.2079842 -0.5691689 -2.4647915 -0.91674656 -0.9094764 -0.18681404 -0.6510449 -0.6341457
-0.68676054 -2.6496515 -0.520142 -2.543529 -0.62941605 -1.3214456 -1.8903524 -0.76484454
-1.615514 -0.5929436 -1.7394522 -1.4126171 -2.2242894 -2.5769815 -0.10192332 -2.0870063
-0.6602067 -0.22742438 0.33360296 -1.1791995 -0.7375726 -1.1268896 -2.1446292 -0.3605649
-0.9375604 -0.5933882 -1.7687215 -0.5382937 0.23337245 0.30238307 0.70332146 0.77514595
0.7777618 -1.1394922 -1.260496 -1.2112495 0.66289234 -0.5057692 -2.518951 -0.6715333
00000000: 1938 aebe f95f 06c0 26f2 793e d24a 39bf
00000010: 81e8 b6be 9f7b d4be 5461 1ebf b852 9cbe
00000020: 6e24 0fbe a91d e8bf c5cb 27c0 a098 05bf
00000030: c5c4 683f dcb4 81be 03d2 7ebe d288 d0bd
00000040: 7b3e dbbf f8ac b9be 6bff c8bf 0e7e babd
00000050: 6fca 65bf 39bb ecbd 660f 9abf afd2 9ebf
00000060: 2e8d 7ebf 0624 cebe bffc 78bf bcd9 40be
00000070: 532c ebbe 7734 46c0 3c80 42be 595d 8bbe
00000080: dd9c 6bbf 8a7a 00be ab34 1ec0 d584 3dc0
00000090: 2fb8 40bf 87d3 f8bf 2bf6 f2bf 0cf0 d2be
000000a0: f329 7fbf 608e 65bf df46 a8bf 45ea 17bf
000000b0: 4b20 23be 922f 9fbf 0cf5 38bf 8f2f 5bbf
000000c0: 463f 1cbf babd 8bbe 4f5c 5cbf c46e cebf
000000d0: cc61 13bf 2f3f 99bf 7c2f 11c0 6ff3 49be
000000e0: f94f 64bf 7b7c f6bd 0c22 f4be e876 40bf
000000f0: 50d1 37be 64b5 0ac0 7ee1 fdbf 4e2d 10be
00000100: 2987 9cbe 4c02 0bbe b35b 26be 0154 90bf
00000110: e5ae b2be cb72 2bbe 2ad7 0bbf abfc afbd
00000120: 1ecb 74be 68d0 c8be a4c1 cabd 67ad 02bf
00000130: a387 cfbf 98f6 8ebe 2a1f 89bf 0df0 8fbf
00000140: 2bb4 08bf c0a4 b9bf ca75 933f 70ed 46bf
00000150: 953b 86be 695f 78bf 6fdb a5bf dc56 ecbf
00000160: 1b42 90be 7ac7 52be 7b56 febe 7cf5 52bf
00000170: 3fc9 09c0 fbb4 89bf 1f44 d9bd a3b4 04bf
00000180: 8347 e9be c5a5 d3be b4b5 cebe 6bb4 533f
00000190: ee1d 0bc0 c368 d0bf bc3b 2fbf 2bc9 88be
000001a0: f58f 64be ec49 e5bf 5e29 23be 4d97 09bf
000001b0: ca62 6f3f 2403 febf 83f3 f8be ac0d efbf
000001c0: 31de 0bbe 8485 95bf b8a7 f1bd 5921 e93e
000001d0: 7edf 033d 7e56 8cbf 9ead 8dbe 6a3c 88bf
000001e0: 011a 32bf 47ee 863e 3db8 0bbf 3a10 88bf
000001f0: c09d 583f 82b2 7dbe 8a14 c6be 77c5 fdbe
00000200: a6f1 9ebe 1fa1 57bf 831e 99be 7a2a 57be
00000210: f02e 89be cb81 febe 156a 0ec0 c3c9 b8bf
00000220: da2e 01c0 70b6 0cbf c2c4 6fbf e590 a9be
00000230: f93a a8bf c014 a2bd 2a4d c4bf 4274 46bf
00000240: cdb6 8cbf 5d6d 11bf 32f7 80be 311a cfbf
00000250: c22c abbf 199d 8cbf 9776 75be 4fa4 b63d
00000260: 174d d7bd 804d 0cbf c9e7 3ebe f224 81bf
00000270: b058 8abe f620 86bf 2103 8fbe 2c0c 1dbf
00000280: 332f 133d e726 68be 3c6a 1bc0 2e7f 96bf
00000290: e66e 20c0 4bd9 93bf a0d3 fdbf 6cb9 febf
000002a0: dd28 0e3f 7662 acbf 96d1 b7bf b72b 14bf
000002b0: f82b 03be 67e8 d4be a2d3 bbbe 9397 a6bf
000002c0: bbca bcbf b202 bebe 79c6 bbbe 9032 93be
000002d0: b2f9 05c0 ee85 93bf 0354 eabd 3513 74bf
000002e0: 2646 45c0 034e 67bf f6b1 31be 6206 3abe
000002f0: eb8c 873f 5bec 81bf ed4f 8abe 3f28 fb3d
00000300: 3c1c afbf b26a 0dc0 b7e1 c6bd f7c1 1f3f
00000310: f1f7 48be 15ba 26bf 8bf1 b0bf b3c4 03bf
00000320: 91cd 57be 0b2d 37bf a5a7 9cbf c570 4b3f
00000330: 7346 c4be 2b3d 6ebf eb4f edbf 8f93 46bf
00000340: 3a9f 9abf 0eb5 11bf 25bf 1dc0 e7af 6abf
00000350: 72d3 68bf 2e4c 3fbe e1aa 26bf 5f57 22bf
00000360: 8acf 2fbf e493 29c0 0728 05bf 2ec9 22c0
00000370: 6921 21bf 2125 a9bf 11f7 f1bf dacc 43bf
00000380: 2ac9 cebf 27cb 17bf 5fa6 debf a3d0 b4bf
00000390: c25a 0ec0 44ed 24c0 2cbd d0bd 8391 05c0
000003a0: 4e03 29bf f0e1 68be 02ce aa3e 02f0 96bf
000003b0: 8fd1 3cbf eb3d 90bf 9b41 09c0 f69b b8be
000003c0: f503 70bf 4ae8 17bf 7765 e2bf 9ecd 09bf
000003d0: 30f9 6e3e f4d1 9a3e e00c 343f f76f 463f
000003e0: 661b 473f e1da 91bf ef57 a1bf 390a 9bbf
000003f0: 50b3 293f 177a 01bf 7e36 21c0 9be9 2bbf

l5.weight f4 [300, 400]
-0.043017276 -0.049691137 -0.0034733329 0.030413501 0.006415326 -0.032085355 -0.001099032 -0.053180892
-0.02200244 0.03442975 -0.020565612 -0.026428578 0.024206793 -0.0174097 -0.05626113 0.009973443
-0.058504082 0.03921121 0.0045155063 0.017571762 0.013592456 0.03884138 -0.038941614 -0.004920257
-0.004316258 -0.042868953 0.003698902 0.027290542 -0.025884025 -0.021652585 -0.011685081 -0.004103053
0.0069044447 0.035334665 -0.023875242 -0.049500465 0.04986312 -0.0290699 -0.0011947923 0.036175158
-0.05096115 -0.024191143 0.017670373 -0.017223312 -0.018795129 -0.028114859 -0.030647203 -0.024828825
0.02829068 -0.046258718 0.046331856 -0.017344376 -0.04073358 -0.0066026887 0.040520974 0.034901425
-0.026087891 0.005495636 -0.021394065 -0.030169714 -0.031303097 0.026245087 0.03743585 -0.012073098
-0.016573448 -0.0062420294 -0.025257861 0.010610551 0.018521255 0.0038882433 -0.049303673 -0.025100624
0.014741089 0.010388825 -0.013841336 0.038578805 0.009207738 -0.042884197 0.031005096 -0.04068608
-0.021784496 -0.004046439 -0.011662007 -0.0024343324 0.01864775 0.032279465 0.0008515569 -0.020992892
-0.03320483 -0.02015811 -0.037640564 -0.036608614 -0.025993377 0.031668182 -0.02152406 -0.037228715
0.013557328 0.027359229 -0.04172988 0.014927536 0.009819306 -0.060015164 0.025132017 -0.0012157011
0.016373655 0.02384523 0.0358065 0.014179153 -0.016673932 -0.012566019 0.03682 -0.037833884
-0.057183784 -0.032251 -0.02158551 0.02539358 -0.007207934 0.025782675 -0.011767628 -0.0039686263
-0.048777502 -0.0021463365 -0.0065710046 0.032267746 -0.006570946 -0.00064618065 -0.022905502 -0.00091535144
0.02800489 -0.026508784 -0.0014222625 -0.036281604 -0.058380056 -0.03112325 -0.041168984 0.020123538
-0.0068775485 0.026737679 0.019473543 -0.022189116 -0.044531424 -0.045622673 -0.019483823 -0.0046373103
0.046385627 -0.034564115 -0.052249186 0.00051318295 0.0034448863 -0.021828614 -0.04289172 -0.03167669
0.03150329 -0.0083188005 -0.02841564 -0.027911842 -0.036729295 0.022095794 0.007602778 -0.020071194
-0.034807928 -0.016260602 0.030207705 -0.03314796 0.018983308 -0.056608655 -0.051819365 -0.0052232784
0.012524878 -0.0498189 -0.0105718635 -0.026238963 0.021426462 -0.012931582 0.027894143 -0.045551773
-0.018763829 -0.05485424 -0.012558613 -0.025015423 0.010045475 -0.00034466368 0.02339134 -0.029724462
-0.0039784014 -0.007206016 -0.038080692 -0.0137812 -0.03611169 -0.057403993 0.010233362 -0.05276448
0.019499324 0.020647733 -0.04479997 -0.02626765 -0.026028419 -0.032192692 0.021120863 -0.051060293
0.007359922 -0.0128423665 -0.038033184 -0.039664097 -0.0020449262 -0.02737926 0.035556477 -0.055600226
0.028802663 -0.033051204 0.0009228762 -0.006764464 -0.047080994 0.0056595174 0.024804657 0.002805989
-0.055661146 0.020105507 -0.047146905 -0.04426969 -0.047180485 0.017088389 0.003544296 -0.023466868
0.008326446 0.028726444 -0.016043063 -0.039778844 -0.0027053666 -0.010589182 -0.045290593 0.023077268
-0.015749691 -0.0009402421 0.011368997 -0.03504497 -0.04163958 -0.025348105 -0.044657886 -0.049743526
0.017150618 -0.022248026 -0.045173626 0.021726022 -0.012535314 0.020094074 -0.022916496 -0.048899956
-0.059018053 -0.0095996605 0.024281073 -0.045023024 -0.03069818 0.024335701 0.0042607374 -0.032681517
00000000: e232 30bd ef88 4bbd dba0 63bb bc25 f93c
00000010: a837 d23b ef6b 03bd 650d 90ba 35d4 59bd
00000020: 763e b4bc 3606 0d3d 3779 a8bc bf80 d8bc
00000030: 534d c63c ca9e 8ebc 1272 66bd a767 233c
00000040: faa1 6fbd ef9b 203d d0f6 933b a8f2 8f3c
00000050: e4b2 5e3c 2418 1f3d 3e81 1fbd 1b3a a1bb
00000060: 656f 8dbb 5b97 2fbd 4769 723b 6a90 df3c
00000070: bc0a d4bc c360 b1bc c872 3fbc e772 86bb
00000080: ae3e e23b 15bb 103d 0396 c3bc 00c1 4abd
00000090: 453d 4c3d 0024 eebc 949a 9cba 672c 143d
000000a0: a4bc 50bd 812c c6bc 75c1 903c e717 8dbc
000000b0: 3ef8 99bc 2251 e6bc d80f fbbc d265 cbbc
000000c0: dbc1 e73c c879 3dbd 79c6 3d3d cb15 8ebc
000000d0: 41d8 26bd 5e5b d8bb 52f9 253d ccf4 0e3d
000000e0: 46b6 d5bc bc14 b43b 9b42 afbc 7a26 f7bc
000000f0: ad37 00bd f0ff d63c 5556 193d 3ece 45bc
00000100: 0ac5 87bc f089 ccbb 93e9 cebc e0d7 2d3c
00000110: e3b9 973c e6d1 7e3b a6f2 49bd d39f cdbc
00000120: 9c84 713c e435 2a3c c5c6 62bc cf04 1e3d
00000130: 0ddc 163c 57a7 2fbd 66fe fd3c 72a6 26bd
00000140: 6675 b2bc fe97 84bb 0112 3fbc 5289 1fbb
00000150: 2bc3 983c 7937 043d 043b 5f3a 49f9 abbc
00000160: ca01 08bd 9f22 a5bc fe2c 1abd eaf2 15bd
00000170: 10f0 d4bc 7fb6 013d 3a53 b0bc 237d 18bd
00000180: 8e1f 5e3c 7620 e03c f3ec 2abd a092 743c
00000190: 28e1 203c 76d2 75bd a9e1 cd3c 2958 9fba
000001a0: 0b22 863c 1257 c33c d6a9 123d ae4f 683c
000001b0: c597 88bc b4e1 4dbc 91d0 163d b4f7 1abd
000001c0: 8b39 6abd a019 04bd 18d4 b0bc 3206 d03c
000001d0: 8830 ecbb 3036 d33c 02cd 40bc 400b 82bb
000001e0: ebca 47bd 8da9 0cbb 9551 d7bb 2f2b 043d
000001f0: 1751 d7bb 7364 29ba 52a4 bbbc 32f4 6fba
00000200: 836a e53c f328 d9bc 366b baba 059c 14bd
00000210: ed1f 6fbd 30f6 febc cfa0 28bd 1eda a43c
00000220: 0f5d e1bb fa08 db3c fb86 9f3c f3c5 b5bc
00000230: 9566 36bd d7de 3abd 8a9c 9fbc 94f4 97bb
00000240: dbfe 3d3d 1a93 0dbd 3e03 56bd 2087 063a
00000250: 9ac3 613b ecd1 b2bc 3aaf 2fbd 6bbf 01bd
00000260: 9809 013d 944b 08bc ebc7 e8bc 60a7 e4bc
00000270: 7571 16bd 3d02 b53c b920 f93b 586c a4bc
00000280: c292 0ebd f434 85bc 2676 f73c 28c6 07bd
00000290: e282 9b3c 7ade 67bd 8b40 54bd 0928 abbb
000002a0: 2535 4d3c e70e 4cbd 9c35 2dbc 18f3 d6bc
000002b0: 8c86 af3c fcde 53bc 4282 e43c 7f94 3abd
000002c0: 9ab6 99bc d7ae 60bd a4c2 4dbc 25ed ccbc
000002d0: c795 243c fab3 b4b9 329f bf3c b780 f3bc
000002e0: 405d 82bb 7220 ecbb 80fa 1bbd 8bca 61bc
000002f0: dae9 13bd 7320 6bbd d5a9 273c 911f 58bd
00000300: 0cbd 9f3c 6f25 a93c 2c80 37bd 412f d7bc
00000310: 8d39 d5bc 7cdc 03bd a905 ad3c 9924 51bd
00000320: 802b f13b ca68 52bc afc8 1bbd d276 22bd
00000330: 2b04 06bb 784a e0bc aba3 113d 10bd 63bd
00000340: 90f3 eb3c b360 07bd 2ced 713a 70a8 ddbb
00000350: 00d8 40bd 7973 b93b 2333 cb3c afe4 373b
00000360: f1fc 63bd 4eb4 a43c 1d1d 41bd 2254 35bd
00000370: 5340 41bd f3fc 8b3c 6b47 683b 973d c0bc
00000380: a56b 083c b853 eb3c be6c 83bc 24ef 22bd
00000390: 854c 31bb 407e 2dbc a182 39bd 8a0c bd3c
000003a0: 7f05 81bc 947a 76ba 0845 3a3c 518b 0fbd
000003b0: 448e 2abd d4a6 cfbc 30eb 36bd debf 4bbd
000003c0: 747f 8c3c 7e41 b6bc fb07 39bd c5fa b13c
000003d0: eb60 4dbc 549c a43c 60bb bbbc 524b 48bd
000003e0: eabc 71bd e547 1dbc 1ae9 c63c 106a 38bd
000003f0: c07a fbbc aa5b c73c a89d 8b3b 0edd 05bd
