Pendulum/Pendulum-v1_actor_finalized_01.pth (torch, 491758 bytes, 5 tensors)

l1.weight f4 [400, 3]
000000 68 b4 a8 bd f5 ee 79 3e cc b4 fc bb 24 3e e2 bf
       -0.08237535 0.24407561 -0.0077119824 -1.7675214
000010 ad 9f 28 3f bf fc e1 3d f1 89 ac bd 2f f8 d0 3f
       0.65868646 0.110345356 -0.08424748 1.632574
000020 b9 97 90 3c 0b f4 15 3f 13 d6 11 bf b5 be 2c 3f
       0.017650472 0.58575505 -0.56967276 0.67478496
000030 80 ba dd 3e 71 13 dd be 0b 02 d9 be 22 a8 26 3e
       0.4330635 -0.43178895 -0.4238437 0.16275075
000040 b3 2b 1d 3f 71 35 50 3f 87 bd 36 3f e0 5a 84 bf
       0.61394805 0.81331545 0.71382946 -1.0340233
000050 6b b0 06 3e 32 ad 72 3e 45 b9 0a 3f 82 a1 11 3e
       0.13153236 0.23698881 0.5418895 0.14221767
000060 8b 1b ac be ba c4 0b 40 bf 92 86 3e 5b a3 93 bf
       -0.33614764 2.1838822 0.26283833 -1.1534227
000070 04 10 6e 3e f5 eb 10 3e e1 ef ab bf 8f 22 57 bf
       0.23248297 0.1415251 -1.343258 -0.8403711
000080 a1 a1 7c bd b4 f9 13 3f f2 bd 97 bf c5 65 2e be
       -0.06167758 0.5780289 -1.1854842 -0.1703101
000090 ec d1 85 bf 7e b5 2a bf f9 91 b7 be 77 b4 46 3f
       -1.0454688 -0.66683185 -0.35853556 0.7761912
0000a0 a2 7e d7 be 79 a4 3b 3f ed 71 ae 3e 44 67 65 3e
       -0.420888 0.7329784 0.34071293 0.22402674
0000b0 8f d0 63 bd 05 ad c1 3e b3 d7 a2 bc ea ce 86 bd
       -0.05561882 0.37827316 -0.019878244 -0.065824345
0000c0 c2 8c c4 bf f6 e7 04 bf 9b a6 06 3d d5 3d 4b 3f
       -1.5355456 -0.51916444 0.03287373 0.79391223
0000d0 eb a0 ca bf ab ed 6a be be 79 80 be a9 02 03 3e
       -1.5830358 -0.22942226 -0.25092882 0.12793984
0000e0 6d 3a 7b bd cd 69 b0 3f 66 93 99 bf de 84 fb 3e
       -0.061335016 1.3782288 -1.1998107 0.49124807
0000f0 27 eb 93 be 16 04 8e 3e 84 3d ea 3c 66 dc 11 3f
       -0.28890345 0.27737492 0.028593786 0.56976926
000100 94 9c 01 bf 33 23 43 3f 05 cd e5 3f 4c 99 7c 3f
       -0.50629544 0.76225585 1.7953192 0.9867141
000110 fe 12 e9 3e 7b e4 c2 3e a0 e4 8c bf df 4c 96 3e
       0.45522302 0.38064942 -1.1007271 0.29355523
000120 5e cf 0e 3f d1 09 03 c0 15 5d 85 3e 06 14 3d 3e
       0.5578517 -2.0474741 0.26047578 0.1846467
000130 70 8f ba 3d 32 56 2c 3f 27 ab 98 3f af 05 eb bf
       0.0910939 0.67319024 1.1927232 -1.836111
000140 46 18 6a 3e 58 6b a5 3f b8 86 13 40 36 76 7e 3f
       0.22860822 1.2923384 2.3050976 0.99399126
000150 5a 3b 5a bf 31 07 3c bf 20 ea 07 be f5 8e 9f bd
       -0.85246813 -0.73448473 -0.13272905 -0.07790939
000160 75 8f fc bf f4 4a 9a be f2 eb 9a bf 0d fb 3f 3f
       -1.973128 -0.3013531 -1.2103255 0.7499245
000170 fb d2 82 3e 55 e9 45 be f2 df 88 3f 13 48 c3 3e
       0.2555159 -0.1932729 1.0693343 0.38140926
000180 c9 1a 40 bf 60 3f b6 bf 93 ab ae be a8 9d 21 bf
       -0.7504087 -1.423809 -0.34115276 -0.6313119
000190 68 36 e5 be 17 09 ee 3a 57 50 be be aa f4 70 3f
       -0.4476807 0.0018160668 -0.3717067 0.9412333
0001a0 80 73 03 3e e2 fc cb 3f 7b 64 dd bf f2 9b 38 bf
       0.12837029 1.5936549 -1.7296289 -0.72112954
0001b0 eb b6 a9 be c3 c1 36 3e 49 8a 80 bc db 98 03 3f
       -0.33147368 0.17847352 -0.01569094 0.51405114
0001c0 dc 15 22 3e 91 3d c4 bd 43 6a cb bf d2 ea 39 3f
       0.15828651 -0.09582055 -1.5891804 0.7262393
0001d0 80 fd 32 3f 89 16 66 3f 3b 5d fe be ba 11 a5 3f
       0.6991806 0.89878136 -0.49680504 1.2896035
0001e0 4e 85 45 3e 41 39 5f bf ee ac 48 be da a3 10 3f
       0.19289133 -0.8719674 -0.19597217 0.5650002
0001f0 e4 b8 5d bf 5c 09 5e 3f 6a d0 a4 3f 4b 00 6e bf
       -0.86610246 0.8673303 1.2876103 -0.929692
000200 58 21 f8 be 7d b9 b1 3f 88 41 81 bf 12 bb 0f bf
       -0.4846294 1.3884732 -1.0098124 -0.5614482
000210 8e 1d 12 bd cd 3f 7c 3e 27 09 0a 3a bb 75 80 bf
       -0.035672717 0.24633713 0.0005265646 -1.0035928
000220 14 61 67 bf 43 47 b4 be 3c 98 fd 3f 0c a2 84 3f
       -0.90382504 -0.35210618 1.9812083 1.0361953
000230 91 ac 51 3f 47 09 22 3d f5 67 f2 3f 9f ed ce 3d
       0.8190394 0.03955963 1.8937975 0.101039164
000240 f0 53 17 be ff 42 c0 3f 13 c4 ac 3e 0e 44 2a 3f
       -0.14778113 1.5020446 0.33743343 0.66510093
000250 02 0f 4d bf 6e 1b 93 3f 5b f5 25 bf 62 a6 11 bf
       -0.80101025 1.1492746 -0.6482751 -0.56894505
000260 38 f4 16 3c 77 42 47 3f f2 07 8e bf 86 16 8a 3e
       0.0092135 0.7783579 -1.1096175 0.2697031
000270 0a d4 cd 3e 54 3e 6f bf 91 ef 94 3e a3 22 63 3e
       0.40200835 -0.9345448 0.29089025 0.22181182
000280 bb ca 54 bf 5d 16 3d 3e 49 74 10 3f a1 ed 97 bf
       -0.8312184 0.18465562 0.5642744 -1.1869394
000290 9d 15 1a bd 59 09 39 bf c5 a8 f5 be 2b 96 f6 3b
       -0.03761827 -0.7227989 -0.47980323 0.0075252256
0002a0 8b 6f a7 3d b5 c2 0d 3d f5 e2 23 bc 4c d1 a3 be
       0.08175572 0.034609515 -0.010002841 -0.31995618
0002b0 3d ef 0a 3e e9 d5 36 3d 1b a4 73 3f 43 32 9c 3f
       0.13567825 0.044637594 0.9517228 1.2202839
0002c0 0f a8 c4 3f be c9 89 bf 87 4b 97 bf b2 2b 3b be
       1.5363787 -1.0764692 -1.1819924 -0.18278387
0002d0 0a 8a b8 3f a3 bf a6 bf 3c 74 20 bf 49 8a d8 3e
       1.4417126 -1.3027233 -0.6267736 0.42293003
0002e0 b4 fc 8d bf e7 eb 9c 3f da 35 16 3d c3 ab 76 3d
       -1.1092744 1.2259492 0.03667245 0.0602224
0002f0 97 da 70 bc bc d2 97 bf b4 77 63 bf db 34 96 be
       -0.014700553 -1.1861186 -0.8885453 -0.293372
000300 fb 9c 3b 3f be 3d 8f bf c8 20 0b 3e 83 28 ce 3f
       0.7328641 -1.1190717 0.13586724 1.6106113
000310 6c 54 cd bf 9a eb 28 bf 0b 52 60 3f 22 a0 1c bf
       -1.6041389 -0.659845 0.8762519 -0.61181843
000320 43 c8 45 3e d8 3c 68 3e 49 6d 61 bf 4b 2f 80 3e
       0.19314675 0.2267946 -0.8805738 0.25036082
000330 d0 34 0b bf b0 3f 8e be d4 82 f2 3c 58 bf 82 be
       -0.5437746 -0.27782965 0.0296034 -0.2553661
000340 a8 91 fe 3f 62 a9 f4 3e b4 40 03 3e c9 92 14 c0
       1.9888201 0.4778548 0.12817651 -2.321459
000350 d3 cd 43 be 8b e8 96 be 23 e5 cd 3f a3 6c f8 3e
       -0.19121484 -0.2947429 1.6085552 0.48520383
000360 1e 2e 0a bd 58 cd b6 3f 5d 80 1b 3f 65 25 fe 3e
       -0.033735387 1.4281416 0.6074274 0.49637905
000370 40 0a 84 3f 38 da 27 be d4 ec 15 3c 55 18 7b 3d
       1.0315628 -0.16391838 0.0091507025 0.0613025
000380 c4 97 64 bb cf a4 23 bf b0 07 3d 3e 15 2c c5 bc
       -0.0034880498 -0.6392335 0.18459964 -0.024068872
000390 a8 e9 85 3f 03 2a 1f bf 56 97 52 3f d5 1e f4 3e
       1.0461931 -0.6217348 0.8226217 0.47679773
0003a0 dd 48 6f 3f 3f 1e 18 3f 9e 9b 37 3f 98 d6 c0 bf
       0.93470556 0.5942115 0.7172183 -1.5065489
0003b0 03 68 ae 3e 92 3d 91 bf 1d 4e 14 bf fe 93 cc bd
       0.3406373 -1.1346915 -0.5793169 -0.09989165
0003c0 39 0a 42 be a2 18 b8 3f 6f 53 bc 3e 31 63 df be
       -0.18949212 1.4382517 0.36782405 -0.43630365
0003d0 25 72 0b 40 59 14 0b 3e 28 a0 d9 3c 33 ba 12 bf
       2.1788418 0.13581981 0.026565626 -0.5731537
0003e0 d3 28 09 3c 5c 27 c5 bd e4 62 d0 3f 19 97 f5 3e
       0.00837155 -0.09626648 1.6280179 0.4796684
0003f0 90 d7 e2 3e a3 05 5b 3f ed 20 6a 3f f8 d0 22 3f
       0.44305086 0.85555476 0.9145649 0.6360011

l1.bias f4 [400]
000000 ae e7 ad be 6b f3 47 be 67 fc 8d be 94 2d 1f bf
       -0.3396582 -0.1952645 -0.2773163 -0.6217892
000010 02 d4 4c bf c5 f1 e4 3d c0 17 09 bf a3 f6 a9 bf
       -0.80011 0.111789264 -0.53551865 -1.3278393
000020 37 4b bf be fe 99 b0 be 78 87 8f bf 8a f8 ea be
       -0.37362072 -0.34492487 -1.1213217 -0.45892745
000030 a0 61 82 bf ae 84 ba be 47 5f 43 bf ff 67 50 bf
       -1.0186043 -0.36429352 -0.76317257 -0.81408685
000040 75 a0 82 bf 0c 8e 32 bf 5f c6 4b bf 1f e2 94 be
       -1.0205218 -0.69747996 -0.79599565 -0.29078767
000050 90 d8 17 bf 3f ad 7b 3d f9 ef b6 be 48 ba 38 bf
       -0.59314823 0.061444517 -0.3572996 -0.7215924
000060 11 8e ab be ed 9c 18 bf 79 2a 7a bf 44 35 c1 3d
       -0.33506826 -0.5961445 -0.9772106 0.09433988
000070 41 d0 74 bf 0d 70 fe be c5 20 22 3d 53 e5 e4 bd
       -0.9563027 -0.49694863 0.039582033 -0.111765526
000080 5e d3 15 bf 83 0d 4b bf d6 ca 0d bf 5e 26 1b bf
       -0.58525646 -0.7931749 -0.5538763 -0.6060542
000090 cc 4a 03 bf ad 3c 9b bf e4 0e 8c be 60 61 89 bf
       -0.51286006 -1.2127892 -0.2735511 -1.0732841
0000a0 5a 6b f9 be 0d 99 67 bd a9 69 2d bf 7e b5 84 bf
       -0.48714715 -0.056542445 -0.6773935 -1.0367887
0000b0 b3 52 83 be 5c 3e ec be 32 cd 83 be ef 6c 87 be
       -0.25649032 -0.46141326 -0.2574249 -0.26450297
0000c0 4b 7d f3 be 78 d3 98 bf 86 8e 73 bf 51 43 0c bf
       -0.47556528 -1.1939535 -0.9513935 -0.54790217
0000d0 1b 2e 37 bf 9d 3d 30 bf 48 a6 1f bf 3b c3 70 bf
       -0.71554726 -0.68844014 -0.623631 -0.940479
0000e0 39 c1 4c be 13 c2 2d bf e7 8b 8c 3e d8 87 84 bf
       -0.19995584 -0.6787426 0.27450487 -1.0353956
0000f0 39 10 26 bf 71 3b 1f 3f cd b7 3c be 4b f9 46 bf
       -0.64868504 0.62200075 -0.1842949 -0.7772414
000100 38 b5 0c bf 6c 6e 29 bf d2 b1 c9 bd a2 d2 39 bf
       -0.5496402 -0.66184115 -0.0984837 -0.72587025
000110 2a bc ef be 04 02 07 bf b9 64 1f bd be 3c a9 be
       -0.46823245 -0.5273745 -0.038914416 -0.33054155
000120 e7 32 bf bf 36 1c 55 bf c4 29 c3 bd 39 9c 65 bf
       -1.4937409 -0.8324617 -0.095294505 -0.896915
000130 40 e6 d1 be e5 a5 f6 3c 98 6d 00 bf 32 9f 67 bf
       -0.4099598 0.030108402 -0.50167227 -0.9047729
000140 65 73 b2 be 18 fc 5e bf 68 56 27 bf 07 71 eb be
       -0.34853664 -0.87103415 -0.6536622 -0.4598467
000150 ca c4 15 be 51 57 04 be e4 45 e3 be ed d2 e9 bd
       -0.1462585 -0.12923934 -0.4438926 -0.11417184
000160 52 93 cf be a2 9d fc be 41 37 ce be bb 7f 6a bf
       -0.40542084 -0.49339014 -0.4027653 -0.9160115
000170 dc 02 2f bf a0 1d 21 bf a9 21 81 bf ce b9 ed be
       -0.6836374 -0.6293583 -1.0088397 -0.4643082
000180 ff a1 14 bf 0f 0f e1 be 2d 37 9c bf 0a 35 29 bf
       -0.58059686 -0.439568 -1.2204338 -0.66096556
000190 36 bc 2f bf 5f ec f9 be a6 54 30 bf cc e0 37 bf
       -0.6864656 -0.4881315 -0.68879163 -0.7182739
0001a0 12 a8 f5 3e c6 1b be bd 33 1c 1f bf ed cc ed bf
       0.4797979 -0.09282641 -0.62152404 -1.8578163
0001b0 d1 d7 26 bf 47 e5 db bf c3 13 49 3e 87 09 1f bf
       -0.6517306 -1.7179345 0.19636445 -0.6212391
0001c0 9a 4f 9f bf 57 55 81 bf a4 41 c0 3c a6 91 35 bf
       -1.2446167 -1.0104169 0.0234688 -0.70925367
0001d0 b2 62 10 bf 18 33 13 bf 7d 7d 5c bf e4 c2 0f bf
       -0.564006 -0.5749984 -0.8612898 -0.56156754
0001e0 58 48 ca be a5 e6 16 bf 4c b5 a0 bf 83 43 02 bf
       -0.3950832 -0.58945686 -1.2555327 -0.50884265
0001f0 d9 b2 8d bf 92 77 14 bf 23 a7 05 bf 43 24 8f be
       -1.1070205 -0.5799495 -0.52208155 -0.27957353
000200 77 c1 a2 bf 2c 07 7e be 8b 9c 7b bf 38 f1 80 bf
       -1.2715291 -0.24807423 -0.9828574 -1.0073614
000210 c4 d9 17 bf c1 26 1b 3f 62 24 5f bf db c7 de be
       -0.5931666 0.6060601 -0.8716489 -0.43511853
000220 a2 ad 92 bf 72 f7 25 bf d6 28 a3 bf 6c b5 cd be
       -1.1459239 -0.64830697 -1.2746837 -0.40177476
000230 fd 29 14 bf 9c de 2b bf bc 58 48 be 8d ea 26 bf
       -0.5787657 -0.6713655 -0.195651 -0.65201646
000240 ec 56 87 bf 97 b1 f2 bf b4 d4 07 be 0e 18 16 bf
       -1.0573401 -1.8960446 -0.13264734 -0.58630455
000250 02 65 fd be f2 d9 7e bf 3c 13 d6 be 69 f7 45 bd
       -0.49491125 -0.9955131 -0.4181155 -0.04833165
000260 5f 9c c1 be 5c 1c 0f bf 12 cc d4 be a8 72 00 bf
       -0.37814614 -0.5590265 -0.41561943 -0.5017495
000270 5e 2d 95 bf 96 86 07 bf cf 49 cc bf 04 43 53 bf
       -1.165447 -0.52939737 -1.5960025 -0.8252413
000280 38 52 35 bf df e6 b3 be c8 b1 9f bf ca 8c 0e bf
       -0.7082858 -0.35137078 -1.247613 -0.5568358
000290 65 61 66 be 94 0f 63 bf ef fb 89 3e 33 c0 33 bf
       -0.2249809 -0.88695645 0.26950023 -0.7021515
0002a0 ea 38 94 be 23 54 ef be 5c d1 25 bf 07 0e e7 be
       -0.28949672 -0.4674388 -0.6477258 -0.4512789
0002b0 03 71 90 be a3 da 38 bf 9d 99 d8 bf 22 cd 1c bf
       -0.2821122 -0.72208613 -1.6921879 -0.6125051
0002c0 bb eb 36 be bc 5b ac 3e ec 2c 45 bf 87 31 48 bf
       -0.17863362 0.33663738 -0.7702167 -0.7820057
0002d0 d1 ef 45 bf 8f ee 03 bf 5d 0b 40 bf a7 37 f8 be
       -0.77319056 -0.51535887 -0.7501734 -0.4847996
0002e0 ec 2b f2 be c2 86 d1 be 8d b5 79 bf f7 70 6b bf
       -0.47299135 -0.40923125 -0.9754265 -0.91969246
0002f0 99 54 74 3e e9 a6 19 bf 00 24 a1 bf aa 06 73 be
       0.23860396 -0.6002031 -1.2589111 -0.23733011
000300 c1 37 d3 3d 72 28 5e bf 0c ab 87 be 80 16 2a bf
       0.103133686 -0.86780465 -0.26497686 -0.6644058
000310 f8 a9 34 bf 2f fe f6 be 86 64 63 be ca ab 1b bf
       -0.7057185 -0.48240802 -0.22206315 -0.60809004
000320 22 a2 f4 be 0f 00 4e bf cd 06 cd be 79 cc 1e 3e
       -0.47779948 -0.8046884 -0.4004425 0.15507688
000330 97 e5 3c 3f e5 a6 0c bf a8 40 25 bf 72 96 83 bf
       0.73787826 -0.5494216 -0.6455178 -1.0280287
000340 64 0d d5 be ad bd bb bf 2f 93 25 bf 92 ba 8c be
       -0.4161178 -1.466726 -0.6467771 -0.27486092
000350 bf 06 0c bf 09 04 37 bf 86 c0 9d bf 73 f2 a7 bd
       -0.54697794 -0.7149053 -1.2324378 -0.082005404
000360 e8 bf db be 4f 7d 42 bf 02 c6 3b be da 21 e5 be
       -0.4291985 -0.75972456 -0.18337253 -0.4475239
000370 30 60 4a bf e1 82 17 bf 95 f6 9b be 47 1a 5b bf
       -0.7905302 -0.5918408 -0.30461565 -0.8558697
000380 47 e9 56 3d 5d ba 39 be 52 f6 2b bf bf 15 5f bf
       0.052468564 -0.18137498 -0.6717273 -0.87142557
000390 e2 76 a9 be 86 c5 c3 be 6c a5 07 bf 1d 4e 8f be
       -0.33098513 -0.38236636 -0.5298679 -0.27989283
0003a0 5b 23 01 bf e4 6e 1d bf 15 38 08 bf 0d 8f 21 bf
       -0.50444573 -0.6149733 -0.53210574 -0.63108903
0003b0 b1 ee ba be 31 b4 21 bf ab 66 02 bf f4 8a 8e be
       -0.36510232 -0.63165575 -0.5093791 -0.27840388
0003c0 ca ec 9f be d5 10 43 bf ef e9 03 bf 15 f4 86 be
       -0.31235343 -0.7619756 -0.5152883 -0.26358095
0003d0 f0 ab d5 be da cd 44 bf 02 a4 1f bf 0a e6 8b bd
       -0.4173274 -0.76876605 -0.6235963 -0.06830986
0003e0 dd 3d af be 17 51 5e bf 31 c5 31 bf 30 b4 0c bf
       -0.34226885 -0.86842483 -0.69441515 -0.54962444
0003f0 98 cb fa be 98 4f 43 bf de 4e 1e 3e e7 01 c1 be
       -0.48983455 -0.76293325 0.15459773 -0.37696764

l2.weight f4 [300, 400]
000000 10 21 4f 3c 4f 64 7e bd a7 5b fe bc 1b 67 57 bc
       0.01264216 -0.06210738 -0.031049563 -0.013147141
000010 f9 db 1c bd 65 c0 cb bd ff 59 7a bc 82 d8 40 bd
       -0.03829572 -0.09948806 -0.015280246 -0.047081478
000020 d7 45 72 bd 36 18 fa bb ab dd 96 bd cc dc 70 bc
       -0.059148636 -0.0076322807 -0.073664986 -0.01470108
000030 9d 21 04 bd b0 cf ae bc 31 1e d8 bc c4 0d 8f bc
       -0.03225862 -0.021339267 -0.026381584 -0.017462619
000040 6d 82 67 bd cd 4a a6 bc cc 74 8c bd 2c 06 62 3c
       -0.056520868 -0.02029934 -0.06858215 0.013795417
000050 a8 cf c5 bd 22 74 76 bd fb 64 5a bd c9 48 03 3d
       -0.09658748 -0.060169347 -0.05331896 0.032051835
000060 43 41 5a bd 96 26 c1 bc 2d 36 70 bd 71 56 88 bc
       -0.053284895 -0.02357797 -0.058645416 -0.016642781
000070 49 19 ca bd 01 dd 33 bd 65 86 9c bd 4c f1 85 bd
       -0.09868104 -0.043911938 -0.07642821 -0.06540164
000080 90 38 a9 bc 43 75 03 bd fb d4 40 bc 38 d1 db 3c
       -0.020656854 -0.03209425 -0.0117695285 0.026833162
000090 1b bd cd 3c 13 fc af ba b9 82 73 bc b5 f7 39 bd
       0.025114587 -0.0013426564 -0.01486271 -0.045402247
0000a0 25 2a 4e bd 9a 7f 49 3b a8 1a 08 b9 aa 00 16 bd
       -0.05033316 0.0030746222 -0.00012979901 -0.036621727
0000b0 48 92 21 bd 47 fe 6e 3c 99 85 b7 bd 17 e5 35 bd
       -0.039446145 0.014586992 -0.089610286 -0.04440793
0000c0 72 2a 50 bd cb ba 73 bd 01 f3 43 bd 41 a3 43 bd
       -0.05082173 -0.05950431 -0.04783917 -0.047763113
0000d0 53 03 2a bd 6c 03 22 bd 21 41 d1 3c 28 18 3d bd
       -0.041507076 -0.039554045 0.025543751 -0.046165615
0000e0 97 81 a8 bd f5 89 8d bd 4c 10 82 bd 26 54 28 bd
       -0.08227842 -0.06911079 -0.06350765 -0.041095875
0000f0 0c 7e 06 ba 4e 1e d3 bc 48 30 bb 3c 13 67 5e bd
       -0.0005130477 -0.025771286 0.02285017 -0.054297518
000100 53 de 54 bd 66 86 f1 bc bb a8 b1 3c 0c f9 47 bc
       -0.051969837 -0.029483031 0.021686902 -0.0122053735
000110 10 07 3f bd 61 90 ac bd f0 44 12 bd 95 5f 8d bd
       -0.046637595 -0.084259756 -0.035710275 -0.069029965
000120 8e aa 47 bd b7 af 3c bd 8b 7c a5 3c fa 98 12 3c
       -0.048746638 -0.046066012 0.020200988 0.008947605
000130 5a 28 3e bd f3 e8 9f bd de d8 34 bc f4 20 16 bd
       -0.0464252 -0.078081034 -0.011038033 -0.03665252
000140 8c c9 89 bd 05 1b a8 bd c1 79 fd bc dc ad 97 bd
       -0.06727895 -0.082082786 -0.030941846 -0.07406208
000150 17 1b 80 bd 89 8c 02 bd 4d cd 7b bd ae a5 e4 bc
       -0.06255167 -0.031872306 -0.061475087 -0.027911033
000160 65 8b 00 bd 0a 08 09 bc 30 4d 37 bd 50 4e 9d bd
       -0.031382937 -0.008363733 -0.044751346 -0.076809525
000170 44 0f 99 bc fc 87 0b 3d 0e a4 9c bd c4 6a 96 3c
       -0.018684037 0.03406523 -0.076484784 0.018361457
000180 00 8a cc 3c c7 2f 9d 3c ed cb 91 bc a4 94 0d bd
       0.024968147 0.019187821 -0.017797435 -0.034565583
000190 9c 34 9d bd ab 1d 68 bc 27 1e 00 bd 0b 24 39 bd
       -0.0767605 -0.01416723 -0.031278756 -0.04520039
0001a0 fd 87 a6 3c 4d ff 6f bd 70 61 c2 bc 97 18 b0 3d
       0.020328516 -0.058593083 -0.023728102 0.0859844
0001b0 65 d5 0b bc 4d f6 3b bd c0 0d 28 3c 93 9a db bd
       -0.008534764 -0.045889188 0.0102571845 -0.10722842
0001c0 03 47 04 bd 01 b4 8f 3c 49 df 4a bd 34 7b 58 bd
       -0.032294285 0.017541887 -0.049529348 -0.05285187
0001d0 5a e4 c8 3c e6 bc 03 be 37 bf 2b bd 50 8b 74 bd
       0.024522949 -0.12865028 -0.041930404 -0.05970317
0001e0 96 4e 22 3d 9f c0 0a bd 58 76 c9 3a 7f 87 56 bd
       0.039625727 -0.033875104 0.0015370352 -0.052375313
0001f0 c3 74 fd 3c df 7e a7 bc 77 37 95 3d 49 db 5c bc
       0.030939465 -0.020446239 0.0728597 -0.013480016
000200 21 31 10 3d 99 11 a8 bc f5 c9 b4 bd e3 0c 02 bc
       0.035203103 -0.020516204 -0.08827583 -0.007937643
000210 d5 bf cf 3c f1 d7 29 bd 4f 86 09 bd c8 7c ff bc
       0.025360027 -0.041465703 -0.033575352 -0.03118743
000220 52 6e 81 bd 28 d8 24 bd b9 01 94 bb 9e 11 d6 bd
       -0.0631987 -0.040245205 -0.004516807 -0.10452579
000230 dc c2 9f 3d 92 68 5a bd 01 30 2c 3a a0 f3 0e b9
       0.07800838 -0.053322382 0.00065684324 -0.00013632933
000240 85 69 68 bd 53 fc a7 bc 33 b3 07 3c 1c a1 dc bd
       -0.056741256 -0.02050606 0.0082824705 -0.10772917
000250 88 d2 61 bc 15 18 a5 3a 2a f6 32 3d c5 79 70 bc
       -0.013783105 0.0012595678 0.04369179 -0.01467747
000260 1b a9 11 bd f6 08 34 bd 64 02 ae bd 93 95 cd 3c
       -0.035561662 -0.04395386 -0.0849655 0.025095737
000270 0c 5c bf bc 09 26 05 bc b7 97 8d 3c 32 a6 3e 3d
       -0.023359321 -0.008126744 0.017284257 0.046545215
000280 8e 50 6e bd ae 77 84 3a 82 84 ee bc 0a bc da bb
       -0.05818229 0.0010106468 -0.029115919 -0.006675248
000290 90 70 85 bd 4c cd c4 bd d7 58 87 bd e8 af 06 bc
       -0.0651561 -0.0960947 -0.06608742 -0.00822065
0002a0 dc 45 cd bc fc 0f ff bc 5a 9a c9 3c 8c f7 05 3c
       -0.025057726 -0.031135552 0.024609733 0.008176696
0002b0 b6 9e a2 bd d4 63 6b bc 11 21 2c 3d 05 21 0e bd
       -0.07940428 -0.014367063 0.042023722 -0.03469946
0002c0 94 93 fc 3c ed 7c 3a bd 4f aa bb bd a3 95 b3 3c
       0.03083209 -0.045529295 -0.09163343 0.021921938
0002d0 57 9b 43 3c 66 08 97 bc 16 b0 89 bd bf c8 9c bc
       0.011938891 -0.018436622 -0.06723039 -0.019138692
0002e0 96 5f d9 bd b1 20 c7 3c ea c1 c1 bc 32 a4 c7 b8
       -0.10613935 0.02430758 -0.023652036 -9.519643e-05
0002f0 95 ac 1f bd 02 40 1d bd f7 9f 50 bc c1 80 98 3c
       -0.038982946 -0.03839112 -0.012733451 0.018616082
000300 d6 1d 17 bd 4e 74 94 bd 9d c7 b0 bd 02 61 84 3c
       -0.03689369 -0.07248746 -0.08631823 0.016159538
000310 a2 ac 72 3d f2 a2 45 bd 60 33 ad 3c c5 6e c6 bd
       0.059246667 -0.0482511 0.021142662 -0.09689096
000320 44 cc 71 bd f7 6d bf bc fa 83 f2 bc 6d 24 3e bd
       -0.059032694 -0.023367865 -0.029603947 -0.046421457
000330 62 93 02 3d 8a aa 8e bd 27 b8 b0 bc 42 aa b3 bc
       0.031878836 -0.069661215 -0.021572186 -0.021931771
000340 42 3d 86 bd da 71 35 3d f6 76 c4 3c 19 e0 72 bd
       -0.06554653 0.04429803 0.023982506 -0.059295747
000350 e2 80 ba bd 4b 82 98 bc 2f 25 c2 3c df 1a a6 3c
       -0.09106614 -0.018616816 0.023699371 0.020276485
000360 0b d1 33 3d 10 bb e4 3b e8 f9 b0 3c 86 70 32 3c
       0.04390053 0.0069803074 0.02160354 0.0108910855
000370 2e f4 3f 3d 03 bd 63 bd f9 32 44 bd 14 28 7c bc
       0.046863727 -0.055600177 -0.047900174 -0.015390415
000380 6a 5d 22 bd 96 ad fb 3b e9 83 89 3d 2a 96 96 bd
       -0.039639868 0.007680605 0.06714613 -0.0735286
000390 83 85 c9 bc 9e 9b f8 ba 3e 90 b1 bd 14 da 1b 3d
       -0.024599796 -0.0018967276 -0.0867009 0.038049772
0003a0 f7 02 5a bd 44 f2 02 bd 6a 6d 6d bd 48 67 d6 bd
       -0.053225484 -0.031969324 -0.057965674 -0.10468918
0003b0 da 27 44 bc 64 9c a2 bd 89 b9 ac bc 13 ff b9 bc
       -0.011972392 -0.079399854 -0.021084564 -0.022704637
0003c0 23 46 b6 bd aa 86 7d bd bb 15 aa 3c fc 8d e9 3c
       -0.08900096 -0.061896004 0.020762315 0.028510086
0003d0 9c f6 a6 bc ab 4e d5 bd 23 7b 4b bd 38 e1 9a bd
       -0.020381264 -0.10415395 -0.04967798 -0.07562488
0003e0 93 b2 d6 3c 93 b3 cb bb 31 9b 4d bc cf c5 f6 bc
       0.026208198 -0.0062164753 -0.012549208 -0.03012362
0003f0 08 50 05 bd cc ac 1c bd 6a dc 06 bc 9c ec 4f bd
       -0.032547027 -0.03825073 -0.008231262 -0.050762758

l2.bias f4 [300]
000000 b8 eb c3 bd be ef 2a bd 65 0b 45 bd c2 7a df bc
       -0.09566444 -0.041732542 -0.04810657 -0.027280215
000010 d5 b9 dc bd 47 1c 23 be 20 47 08 bd ae 36 f3 bc
       -0.10777632 -0.15928756 -0.033270955 -0.02968916
000020 5a 65 5f bd c8 80 44 bd 4e 62 6c bd e2 67 17 bd
       -0.054540016 -0.047974378 -0.05771094 -0.036964305
000030 08 a6 38 bd 45 9d 73 bd fc b4 9a bd a3 84 a3 bc
       -0.045080215 -0.059476156 -0.07554051 -0.019960707
000040 4d 90 3d 3f 99 3e 24 bc 98 0f 56 bc 9c e3 12 3b
       0.7404831 -0.01002469 -0.013065241 0.0022413498
000050 5c df 87 bd e6 03 a1 bc 94 8b 93 bd dc e8 e3 3a
       -0.06634399 -0.01965518 -0.07204357 0.0017388123
000060 56 86 a0 bd 01 78 81 bd 04 51 ff bc 56 7d 9c bd
       -0.078381225 -0.06321717 -0.031166561 -0.076410934
000070 56 f7 25 bd 4c 06 92 bd 78 d2 7f 3b 6d b4 f1 bc
       -0.04051908 -0.07130107 0.0039035361 -0.029504979
000080 e4 94 b4 bc d2 c4 c9 ba 6b 99 c8 3c 61 75 79 bd
       -0.022043653 -0.001539374 0.024487218 -0.060902957
000090 8f ec a3 bd 78 91 5b bc ee 72 01 bf 7d 14 98 bd
       -0.08004104 -0.013401382 -0.50565994 -0.07425783
0000a0 b1 50 a8 bc ed 37 fa bc 9e 2d 8b bd 37 f6 9f bd
       -0.02054629 -0.030544246 -0.0679581 -0.07810634
0000b0 5b e4 16 bc eb f3 b6 bd 0e e1 01 be c4 cf 7e bd
       -0.009209718 -0.089332424 -0.12683508 -0.06220986
0000c0 1a aa 46 b6 71 2e f2 bc 23 26 0a bb b6 7c bb 3b
       -2.9603311e-06 -0.02956316 -0.002107986 0.005721654
0000d0 b7 fb 58 bd 25 78 8c bd ed eb 91 3c 2d a6 7c bd
       -0.05297443 -0.06858853 0.017812693 -0.061681915
0000e0 ee d8 73 bc e8 fe a4 bb 65 26 06 3f 66 c8 7c bc
       -0.014883263 -0.00503527 0.52402335 -0.015428638
0000f0 1c e2 16 bc 62 63 d4 3b 10 75 82 be ab 2b 76 bd
       -0.009209182 0.006481574 -0.25479937 -0.06010024
000100 56 05 0e bc 18 05 0f bd 50 ad 6c 3b cb bc a2 bc
       -0.008668264 -0.034916967 0.0036114044 -0.019865414
000110 94 54 00 bd 36 fe 19 bc 06 a4 74 bd 1e ad b5 bd
       -0.03133066 -0.0093989875 -0.059726737 -0.0887091
000120 40 74 65 be 2a a3 a0 bc 59 a1 81 bd f5 88 85 bd
       -0.22407627 -0.019609053 -0.06329603 -0.06520263
000130 41 cd 16 bc 41 1d bd bd c8 43 42 bd e5 5e 6e 3d
       -0.00920421 -0.09234095 -0.047427922 0.058195967
000140 4b 30 ee bc ab 42 57 be 6a f8 d7 bd f1 89 8f be
       -0.029075762 -0.21021526 -0.10545428 -0.28034928
000150 45 de ca bd 6f 79 bf bd d4 d7 1d bd 06 f4 46 be
       -0.09905676 -0.093493335 -0.038535908 -0.19429025
000160 c5 dd bf bc 27 50 e1 3f 87 f8 16 bd 3c 0b b0 bc
       -0.023421178 1.7602586 -0.036858108 -0.021489732
000170 b6 c1 c9 bc e8 cc 6c bd 27 64 87 3e 5e 92 4f bd
       -0.024628501 -0.0578126 0.26443598 -0.050676696
000180 ac 4c ab 3c e7 c2 b7 bc fd 13 26 3d 94 f4 ab 3c
       0.020910583 -0.022431804 0.040546406 0.020990647
000190 c0 73 22 bd 46 e0 e2 bd 45 52 81 bc fa ca 81 3c
       -0.03966117 -0.11077933 -0.0157863 0.015843857
0001a0 69 d6 a6 bd 6c 24 08 bd bf 17 90 3c 60 ce 63 39
       -0.08146364 -0.03323786 0.017589448 0.00021725288
0001b0 d8 36 d8 bc 10 09 aa bd eb ea 7e bc 6e b2 33 bd
       -0.026393339 -0.0830251 -0.0155589385 -0.043871336
0001c0 b8 bc 15 bd c1 4f c5 bb 90 42 78 bd 84 34 1d 3c
       -0.03655693 -0.0060214703 -0.060610354 0.00959504
0001d0 1a 81 57 bd ff 28 8a b9 8c 07 20 bd 48 70 95 bd
       -0.052613355 -0.00026351956 -0.039069697 -0.072968066
0001e0 78 63 40 3c 9e 73 10 bc 77 89 1e bd d6 52 1c 3d
       0.011742465 -0.008816628 -0.038705315 0.038164936
0001f0 b5 af c8 bc 3b da c8 bc 9e fb 26 3e 12 b8 a1 bd
       -0.024497846 -0.024518123 0.16306922 -0.07896437
000200 c2 d3 58 3e 8c c3 7d bd 14 2c 0a bf 16 93 32 bd
       0.21174529 -0.061954066 -0.5397351 -0.043597303
000210 53 8d 42 bd 3d d6 af be 09 28 8f bd b1 e0 01 c0
       -0.04749806 -0.34343138 -0.06990058 -2.029339
000220 58 a1 be bc f0 38 6c bd 34 ef 21 bd c7 48 13 3c
       -0.023270294 -0.057671487 -0.039534763 0.008989519
000230 1b dd 58 bd d9 4e 93 bd 45 74 a3 bd ea 39 a6 3c
       -0.052945238 -0.07192773 -0.07981161 0.020291287
000240 cb 3b b0 bd 72 38 1b be ec 7f 97 bd 57 2d f0 3c
       -0.086051546 -0.15158251 -0.07397446 0.029318495
000250 fb 45 2c bd c3 c6 97 bd fb 0d 5b bc 81 a1 6a bd
       -0.042058926 -0.07410958 -0.013370032 -0.05728293
000260 e6 d5 79 3c 64 2d 0d bd d4 3b 3e bd f7 86 93 bb
       0.015248751 -0.034467116 -0.046443775 -0.004502173
000270 88 71 8c 3e 2d a6 0b be 09 08 fe bd 1a e6 29 bd
       0.27430367 -0.1363761 -0.12403876 -0.041479208
000280 09 ee a9 bd b5 e4 b5 bc 4e 36 77 3d d4 0d 79 bc
       -0.08297355 -0.022203783 0.060354523 -0.015201051
000290 f2 af 76 bd 50 82 24 be 7d 34 92 bc 67 32 c0 bd
       -0.06022639 -0.16065335 -0.017847294 -0.093846135
0002a0 fd 1a 25 bd 0b 5f 11 3d d1 6b ed bd ba 32 29 bb
       -0.04030894 0.03549103 -0.1159283 -0.002581759
0002b0 d4 a0 3e bd 66 de 5a bc 00 62 09 be 6d c5 9b 3b
       -0.046540096 -0.013358688 -0.1341629 0.0047537596
0002c0 61 08 85 bd 14 d7 fe bd b5 06 a7 bd 89 c6 bd 3c
       -0.06495739 -0.12443367 -0.08155576 0.023165958
0002d0 43 93 cd bb 8e 52 f6 bd 2f 5c e7 bc 54 c3 1a be
       -0.0062736585 -0.12027465 -0.028242199 -0.15113574
0002e0 e9 0d 3f bd 99 d0 97 bc 3c 1f e1 bc 9a 55 28 be
       -0.046644125 -0.018532084 -0.027480714 -0.16438904
0002f0 f0 aa da bc 66 87 6d bd e3 a4 e6 bd ed 67 24 bd
       -0.026692837 -0.057990454 -0.112619184 -0.040138174
000300 e4 89 a2 bc ef 7c 95 3c 08 fc 96 3f f1 36 23 be
       -0.019841142 0.01824805 1.1795664 -0.15938927
000310 10 a2 d9 3b d1 6c 83 bc a4 61 8b bd 31 11 1c bc
       0.006641634 -0.016043099 -0.06805733 -0.009525583
000320 1a 3e 20 bd 1f 94 d6 bc 28 a1 f0 3c ef c9 11 3c
       -0.039121725 -0.026193677 0.02937372 0.008898242
000330 e0 ae 5e bd fb ea 29 bb a6 f9 e5 bb 18 ac ab bd
       -0.054365993 -0.0025927413 -0.007018286 -0.08382434
000340 7f ef 2a ba df 42 b5 bc 5d 12 57 bd 21 72 c9 3e
       -0.0006520673 -0.022126613 -0.052507747 0.39344886
000350 95 c0 4d 3c dc 62 b2 bd 2b 1d 03 bd 86 ad db 3a
       0.012558122 -0.08710262 -0.03201024 0.0016760088
000360 9a 7e 1a 3d 9d e2 da bc 03 88 d0 bf 6d 9e 14 bd
       0.037718393 -0.026719386 -1.6291507 -0.0362839
000370 65 ec e4 3c e2 51 7b bd c1 0a 23 bc 84 47 95 3f
       0.027944753 -0.061357386 -0.009951294 1.166245
000380 3e 2b 24 3d 87 14 15 be 35 3c 70 be 43 72 95 bb
       0.0400803 -0.14558612 -0.23460467 -0.00456074
000390 75 2a bb bc 28 66 67 bd 7b 9d 64 3e 5d 98 33 bd
       -0.022847394 -0.05649391 0.22325699 -0.043846477
0003a0 39 31 40 bd 75 0f 22 be 82 28 72 bd b2 3b d4 3c
       -0.046921942 -0.15826209 -0.059120663 0.025907371
0003b0 fc b8 b9 bd 10 a1 2a 3a 50 41 84 bd ab 5b 17 be
       -0.09068486 0.00065089855 -0.0645777 -0.14781062
0003c0 74 fc c9 3c 5e 0f 5b 3c 8f e2 22 bd 9c c8 e3 bc
       0.024656512 0.013370363 -0.039766844 -0.027805619
0003d0 5e 28 89 bd 15 56 89 bd 73 1a 98 bd fd 1f 45 bd
       -0.066971526 -0.06705872 -0.0742692 -0.04812621
0003e0 c1 65 4b bd 46 bb 0b bd 6c 2b bc bd 0b a9 a1 be
       -0.049657587 -0.034114145 -0.091879696 -0.31574282
0003f0 d5 17 17 bd 74 50 9b 3c d1 91 17 bc b4 26 a8 3b
       -0.036887962 0.018959261 -0.009251074 0.005131567

l3.weight f4 [1, 300]
000000 d8 b1 c2 ba 99 df 7f bd f5 59 3a bc 4a 21 45 3c
       -0.0014854027 -0.0624691 -0.0113739865 0.0120318625
000010 d9 07 b0 bc a0 58 43 3b e7 fc 9f 3c 4f 42 31 3d
       -0.021488117 0.0029807463 0.019529773 0.043276127
000020 90 17 e8 b9 38 fb 28 bd eb 11 d9 3a 58 6c 7b 3c
       -0.00044268044 -0.041255206 0.0016561126 0.015345655
000030 00 ab e9 3c 9b 98 80 3c 1c 97 9a 3b 53 7d 81 3b
       0.028523922 0.015697768 0.0047177207 0.0039517074
000040 d0 97 60 bf 1e 6b 2f bc 80 bd 8c 3a 86 03 bb 3c
       -0.8773165 -0.010706691 0.0010737628 0.022828829
000050 0a 09 97 bc 63 a6 2f bc 3e b0 03 bf c1 78 17 bf
       -0.018436927 -0.010720822 -0.514408 -0.5916863
000060 1b 3b 83 3a f1 92 0d bc c8 eb ff 3c 87 49 c1 3a
       0.0010012122 -0.008640991 0.031240359 0.0014746644
000070 c3 9d 45 bd 51 5a cf 3c 12 ea 2c 3a e4 17 9f 3a
       -0.048246156 0.02531162 0.00065961585 0.0012137857
000080 97 2f 87 bc 07 e2 80 bb 55 5e 9e 3c 88 de 9a bc
       -0.016502185 -0.0039331946 0.01933209 -0.01890494
000090 15 7d ae 3b 0f f6 34 3c c0 e7 a1 3e 43 0f 60 3d
       0.0053249695 0.011044993 0.31622124 0.054702055
0000a0 02 4d 13 3d 7c 7a 7a bc ab c2 bc bb 63 da 54 bb
       0.035962112 -0.015287992 -0.005760511 -0.0032478801
0000b0 29 58 ec bb 3d 96 ab 3c a6 14 4a bd 8c 2e 0b bc
       -0.007212658 0.020945663 -0.049336098 -0.008494984
0000c0 7b 5f dc 3b 9e 73 5d bc 73 f9 b7 3c 50 01 9f 3c
       0.0067252493 -0.013516335 0.022457814 0.019409806
0000d0 83 69 d9 ba 7b e9 4a 3c e6 18 d4 bc ad 69 cc 3b
       -0.0016587231 0.012384768 -0.025890779 0.0062381835
0000e0 0b fe 3d bd 94 2f 7b bb c3 10 34 be 30 f0 da 3b
       -0.046384852 -0.003832792 -0.17584519 0.0066814646
0000f0 70 c8 01 bd 61 e5 9d 3c 3c 47 8b bf 4f 9d 92 bc
       -0.031685293 0.019274415 -1.0881114 -0.017897276
000100 e0 f6 99 3c 44 80 5b ba 17 e0 3c 3d a0 1f 92 bc
       0.018794477 -0.00083733 0.046112146 -0.017837346
000110 fb 42 14 3b 03 82 95 ba 14 5d f1 bc a8 c4 dd ba
       0.0022622931 -0.0011406544 -0.029463328 -0.001691957
000120 8a fd de be 40 c5 07 3d eb 20 14 3c 37 6b 06 bc
       -0.4355281 0.033147097 0.009041051 -0.008204273
000130 e4 6c 3d bd 37 a3 3e bc 19 e5 86 3c d7 5d 11 be
       -0.046246424 -0.011635593 0.016466664 -0.14195953
000140 e7 3f 78 3b 61 a4 b5 be 2c 2c 53 3c 07 24 61 c0
       0.0037879886 -0.35476974 0.012888949 -3.517824
000150 39 ba 89 3e 57 44 a0 be 3e 5a 17 bb 6a c5 e0 b9
       0.2689989 -0.3130214 -0.002309456 -0.00042871694
000160 c8 58 9b 3e 9a 7e 37 bf 2a e9 97 bc cf 8e 63 3c
       0.30341172 -0.71677554 -0.018543798 0.013889029
000170 14 63 43 bc 81 4f a5 bc b4 c5 c8 3f c7 f1 7c 3e
       -0.011925478 -0.020179512 1.5685334 0.24701606
000180 64 43 27 3d f7 a1 3d bd 95 b5 35 3d e9 75 ae ba
       0.040835753 -0.04629704 0.044362623 -0.0013310286
000190 bf 21 4d bd fa 42 ab b9 84 e6 b8 bc bc ca b2 bb
       -0.05008101 -0.00032665563 -0.022570856 -0.0054562967
0001a0 f2 4b d0 3b f1 76 29 3d 98 39 04 c1 e3 bb 05 bb
       0.0063567096 0.041373197 -8.264061 -0.0020406179
0001b0 c5 e8 14 3b 2e 23 9b 3b 06 17 0b bc 3d 21 dc bc
       0.002272175 0.0047344184 -0.008489376 -0.026871318
0001c0 f8 e6 b5 3c 95 7a 36 3f ef 8a 3e 3c 34 db b2 ba
       0.022204861 0.71280795 0.011629804 -0.001364565
0001d0 f7 ec 0c bb 1d 46 f2 bc 2f 85 c0 bc 02 ff ca 3b
       -0.0021503547 -0.029574448 -0.023501007 0.00619495
0001e0 a4 c8 53 3c 4f 81 0c 3c 57 e4 1b 3d 39 c8 a5 3d
       0.012926254 0.008575751 0.03805956 0.0809483
0001f0 30 d4 2d bc 97 d6 1f bc 86 c9 a9 c0 81 de 5e 3c
       -0.0106096715 -0.009755752 -5.30585 0.013602854
000200 cb e6 de be 63 2e c8 3b f1 1b 0c 3e c0 67 71 3d
       -0.43535456 0.0061090454 0.13682534 0.058936834
000210 89 d2 01 bc 84 c1 fa bf 95 3e 1b ba 65 71 10 be
       -0.007923731 -1.9590306 -0.0005922106 -0.14105757
000220 ec c0 26 bd fc 14 e1 3c d5 da 4d bc 36 05 04 bc
       -0.04071133 0.027475826 -0.012564381 -0.008057883
000230 72 e7 e9 bc ba 7b b1 3c 0a 45 a2 3b 49 10 08 3c
       -0.028552745 0.021665443 0.0049520778 0.008304664
000240 e1 62 94 3c 85 b7 8c 3d 0f 8d 65 3a 3d 40 a5 3c
       0.018113555 0.06870941 0.0008756676 0.020172233
000250 9d 6c 48 3b f8 bd de bc e7 5b be bc c0 c2 a6 3c
       0.0030582317 -0.027190194 -0.023237182 0.020356536
000260 fb b8 92 bb d7 28 a9 bc f3 f8 d6 bc 7e 14 5e 3c
       -0.004477618 -0.020649357 -0.026241755 0.01355469
000270 71 ef da 3e e7 0a 0f bc 36 77 2e bd 74 8c 18 bc
       0.42760804 -0.008730627 -0.042594157 -0.00931083
000280 a8 2f 05 bb 72 a9 42 bb 09 d0 8b bf 16 a3 d2 3a
       -0.0020322595 -0.0029703048 -1.0922862 0.0016070332
000290 a3 6d 19 be 71 d1 fa be 26 b6 92 3c 62 cf 9a 3c
       -0.1498323 -0.48987916 0.01790912 0.018897716
0002a0 c6 b7 00 bc a6 af b9 3c 9e f3 04 bd 08 10 a5 ba
       -0.007856315 0.022666764 -0.032458894 -0.0012593279
0002b0 67 c9 df bc 6c ee 3c bc ae 4e 75 bc 95 67 d7 bc
       -0.027317716 -0.011531454 -0.014972372 -0.026294509
0002c0 51 12 60 bc be 77 55 bf 51 a5 87 3b 3b dc 19 3c
       -0.013676242 -0.8338584 0.0041395803 0.009390886
0002d0 b5 c6 e5 3a 0c 51 cf ba c7 c8 a1 ba b8 4c 75 ba
       0.0017530533 -0.0015817 -0.0012343162 -0.000935744
0002e0 25 66 9a bc 86 81 45 3b 24 eb d9 bb 1a 57 db bc
       -0.018847534 0.0030137016 -0.0066503454 -0.026774932
0002f0 f6 50 0a 3c 1d d9 9b bc 97 26 83 bc 8f 2c ed 3c
       0.008442154 -0.019024426 -0.016009612 0.028951911
000300 53 86 52 bc e4 7f d0 b8 8d 33 0a be 87 9f 51 3f
       -0.012849408 -9.9420344e-05 -0.13496228 0.81884044
000310 36 59 29 bc 41 af 41 3d c2 ce ac bb 6d 5f 19 3c
       -0.010336211 0.047286276 -0.005273671 0.00936113
000320 b3 4b c0 bb d9 a4 16 3e 77 e0 87 bc 35 2b 8d 3c
       -0.005868399 0.14711322 -0.016586525 0.017232517
000330 0d 82 80 bb c8 eb 45 3a 05 f4 24 bb 77 fe 2b 3c
       -0.0039217533 0.0007550088 -0.002516986 0.010497681
000340 32 fd cd bc f5 b6 f1 39 cc 5b 97 3c 53 b0 71 be
       -0.025145147 0.00046103416 0.01847639 -0.23602419
000350 05 e0 ea bc 7f e0 3f bc d6 b5 1f 3c 84 65 08 3d
       -0.028671274 -0.011711239 0.009747943 0.033299938
000360 44 87 e2 bb 0f f1 14 3d f5 fd 24 bf 8e cb dd bc
       -0.0069130976 0.036362704 -0.6445001 -0.027074602
000370 a6 fe ee 3c ab aa c3 3c 50 fb bd 3c ec cb 22 3e
       0.02917416 0.023885092 0.023191124 0.15898103
000380 4a 68 0f bd da 94 9e bb fe 07 f8 bc 0c c3 f6 ba
       -0.035011567 -0.004839522 -0.030277248 -0.0018826439
000390 96 b4 96 3b bb 97 17 bd 22 9d 92 c0 38 0c a9 3b
       0.0045991642 -0.037009936 -4.5816813 0.0051589273
0003a0 75 c1 e5 3b 54 54 e7 3c 21 3a 03 3d ee 47 bf 3c
       0.0070115873 0.028238453 0.032037858 0.023349728
0003b0 0c c7 82 3c 77 17 a4 3c 2f 75 68 bb c1 d8 a3 bf
       0.015964054 0.02003072 -0.0035470237 -1.2800523
0003c0 78 c0 19 bc 3d d0 4a bc e1 9c 69 3b b6 09 b0 3c
       -0.009384267 -0.012378749 0.0035646486 0.021489006
0003d0 33 e2 0f 3d 2f 1a 01 3d 17 4d c1 bc 75 92 0f bc
       0.03512783 0.03151911 -0.02359633 -0.008762945
0003e0 fb 10 59 3b e4 f5 c1 3b fe 32 6d 3b f9 8b 6f bd
       0.0033121693 0.005919205 0.0036193724 -0.058483098
0003f0 8a 86 df 3c 7f 4c 8e 3b 41 9b 35 3c 61 b1 da bc
       0.027285833 0.004342615 0.011084379 -0.026695909
