Pendulum/Pendulum-v1_actor_finalized_05.pth (torch, 491758 bytes, 5 tensors)

l1.weight f4 [400, 3]
-0.08237535 0.24407561 -0.0077119824 -1.4473742 0.39402482 0.2119726 0.067388356 1.7064027
0.12229493 0.81976277 -0.45628986 0.6743301 0.27017584 -0.49953666 -0.27075338 0.2354004
0.47836682 0.48408213 0.5814684 -1.1557734 -0.14207436 0.23698881 0.5418895 0.14221767
-0.24310379 1.931197 0.35607633 -1.1114175 0.25953147 0.10504928 -1.3388597 -0.56482166
-0.045386523 0.22086824 -0.8068685 0.086275995 -0.9705796 -0.43286118 -0.32138976 0.39691624
-0.3083998 0.5740413 0.34071293 0.22402674 -0.05561882 0.37827316 -0.019878244 -0.065824345
-1.4303826 -0.51201546 0.0107078515 0.4862101 -1.5319461 -0.22406073 -0.25092882 0.12793984
-0.061335016 1.5515563 -1.2438308 0.558887 -0.28890345 0.27737492 0.028593786 0.5600507
-0.3907829 0.23849624 1.6786659 0.7761837 0.828493 0.41778105 -1.027218 0.44700667
0.1600582 -2.2233155 0.33558762 0.32275137 -0.30818665 0.21552578 0.8759965 -1.8248599
0.07997544 1.3145438 2.089112 0.99341255 -0.91387844 -0.52284336 -0.06532162 -0.2992956
-1.8468854 -0.44313177 -1.2419503 0.8637201 0.3057359 -0.11965036 1.0088079 0.25233477
-0.8145744 -1.5165071 -0.15983896 -0.6313119 -0.4476807 0.0018160668 -0.28976044 0.91513836
-0.04176615 1.2559944 -1.5026972 -0.69570816 -0.33147368 0.17847352 -0.01569094 0.51405114
0.15828651 -0.09582055 -1.579241 0.56619704 0.54188025 0.81401 -0.1630767 0.6846818
0.06802695 -0.58477616 0.1839262 0.57539374 -0.9260992 0.5947528 1.039403 -0.7480239
-0.4363889 1.1318501 -0.7873736 -0.4991567 -0.035672717 0.24633713 0.0005265646 -0.81349474
-1.0615546 -0.15945067 1.5517807 1.0203309 1.0985305 0.1403544 1.7772032 0.27927047
-0.10412681 1.3281833 0.32870072 0.5417162 -0.80020845 0.9624047 -0.7479966 -0.6989387
0.27950206 0.35085502 -0.94265705 0.41051477 0.3048255 -0.9035464 0.20491059 0.15940316
-0.7296143 0.32756624 0.38363323 -1.1251326 0.18344799 -0.82121086 -0.5685764 0.04869048
0.08175572 0.034609515 -0.010002841 -0.31995618 0.13567825 0.044637594 0.7703167 1.2411716
1.5304117 -1.2424273 -0.9057281 -0.05747959 1.1818607 -1.079305 -0.5892841 0.1415226
-0.9312247 1.2585747 0.03667245 0.0602224 -0.014700553 -1.066765 -0.7751748 -0.22679268
0.38712636 -0.9587125 0.43882567 1.3926287 -1.3915629 -0.604351 0.43102401 -1.2331246
-0.11866281 0.037773073 -0.98621553 0.09810939 -0.60260904 -0.16006854 -0.07088893 -0.30207506
1.7707053 0.40201274 0.32307702 -2.728281 0.12509634 -0.18686436 1.4298962 0.401242
0.13070042 1.2220441 0.56762093 -0.047687933 0.6679563 0.33666602 0.0091507025 0.0613025
-0.0034880498 -0.64805365 0.19340137 -0.037144043 0.5528428 -0.6206704 0.76929206 0.1500759
1.0958498 0.4445334 0.5628424 -1.3570632 0.4782847 -1.0166343 -0.54467946 -0.22742876
-0.21006146 1.2516974 0.29508036 -0.39881572 1.9172606 0.01879318 0.026565626 -0.5731537
0.00837155 -0.010269595 1.3642603 0.40683255 0.31930324 0.6253985 0.62637204 0.5219348
00000000: 68b4 a8bd f5ee 793e ccb4 fcbb 8f43 b9bf
00000010: 9fbd c93e 580f 593e e802 8a3d 676b da3f
00000020: c475 fa3d f9db 513f d39e e9be e6a0 2c3f
00000030: 7d54 8a3e 45c3 ffbe 30a0 8abe cd0c 713e
00000040: 7fec f43e 9dd9 f73e 1ddb 143f 62f0 93bf
00000050: f17b 11be 32ad 723e 45b9 0a3f 82a1 113e
00000060: 33f0 78be 7731 f73f a34f b63e ee42 8ebf
00000070: 4fe1 843e 1424 d73d c15f abbf 2798 10bf
00000080: 38e7 39bd 492b 623e ef8e 4ebf 78b1 b03d
00000090: e877 78bf fb9f ddbe 338d a4be 9b38 cb3e
000000a0: 94e6 9dbe 5ff4 123f ed71 ae3e 4467 653e
000000b0: 8fd0 63bd 05ad c13e b3d7 a2bc eace 86bd
000000c0: c716 b7bf 7213 03bf fc6f 2f3c 88f0 f83e
000000d0: cf16 c4bf 2d70 65be be79 80be a902 033e
000000e0: 6d3a 7bbd 6699 c63f d935 9fbf 3813 0f3f
000000f0: 27eb 93be 1604 8e3e 843d ea3c 7c5f 0f3f
00000100: b214 c8be 5c38 743e 86de d63f fab3 463f
00000110: 1e18 543f 66e7 d53e e17b 83bf 0fde e43e
00000120: 4ce6 233e cd4a 0ec0 24d2 ab3e ab3f a53e
00000130: a4ca 9dbe cab2 5c3e 4e41 603f 0295 e9bf
00000140: 2aca a33d f942 a83f 03b4 0540 4950 7e3f
00000150: f0f3 69bf 10d9 05bf 57c7 85bd 463d 99be
00000160: be66 ecbf 2be2 e2be 3af8 9ebf c31c 5d3f
00000170: 6a89 9c3e 3f0b f5bd 9e20 813f 0632 813e
00000180: f387 50bf e81c c2bf d3ac 23be a89d 21bf
00000190: 6836 e5be 1709 ee3a 7b5b 94be 8246 6a3f
000001a0: fc12 2bbd 6dc4 a03f 6258 c0bf ee19 32bf
000001b0: ebb6 a9be c3c1 363e 498a 80bc db98 033f
000001c0: dc15 223e 913d c4bd 9224 cabf 4af2 103f
000001d0: aab8 0a3f f662 503f 94fd 26be 4e47 2f3f
000001e0: b751 8b3d e4b3 15bf 2657 3c3e 014d 133f
000001f0: d614 6dbf b841 183f 280b 853f 7f7e 3fbf
00000200: 5e6e dfbe 77e0 903f 5191 49bf 7891 ffbe
00000210: 8e1d 12bd cd3f 7c3e 2709 0a3a 3141 50bf
00000220: 05e1 87bf 0947 23be c0a0 c63f 349a 823f
00000230: a69c 8c3f 10b9 0f3e 657b e33f 8afc 8e3e
00000240: 7040 d5bd e901 aa3f 764b a83e eaad 0a3f
00000250: 76da 4cbf 2860 763f b57c 3fbf a6ed 32bf
00000260: e51a 8f3e 45a3 b33e f951 71bf fe2e d23e
00000270: 1712 9c3e d14e 67bf 15d4 513e 953a 233e
00000280: 01c8 3abf c3b6 a73e 936b c43e 5804 90bf
00000290: cad9 3b3e e03a 52bf 398e 11bf ab6f 473d
000002a0: 8b6f a73d b5c2 0d3d f5e2 23bc 4cd1 a3be
000002b0: 3def 0a3e e9d5 363d 7a33 453f b6de 9e3f
000002c0: 88e4 c33f dc07 9fbf ccdd 67bf b86f 6bbd
000002d0: 3647 973f ab26 8abf 53db 16bf 4deb 103e
000002e0: be64 6ebf fa18 a13f da35 163d c3ab 763d
000002f0: 97da 70bc c18b 88bf db71 46bf 573c 68be
00000300: 6d35 c63e 2f6e 75bf c2ad e03e a841 b23f
00000310: bc1e b2bf bfb6 1abf 2eaf dc3e 07d7 9dbf
00000320: 7d05 f3bd f0b7 1a3d 9f78 7cbf 93ed c83d
00000330: 9644 1abf 02e9 23be 372e 91bd 95a9 9abe
00000340: 79a6 e23f 9dd4 cd3e 5a6a a53e 289c 2ec0
00000350: 4119 003e 5f59 3fbe d706 b73f 976f cd3e
00000360: 55d6 053e f16b 9c3f 9b4f 113f 6c54 43bd
00000370: 2fff 2a3f 7d5f ac3e d4ec 153c 5518 7b3d
00000380: c497 64bb d8e6 25bf 020b 463e 5a24 18bd
00000390: 1b87 0d3f 41e4 1ebf 53f0 443f 7fad 193e
000003a0: ce44 8c3f e299 e33e 7116 103f 3fb4 adbf
000003b0: bbe1 f43e 1321 82bf 1d70 0bbf 16e3 68be
000003c0: 5a1a 57be 9f37 a03f c614 973e 9331 ccbe
000003d0: cc68 f53f 28f4 993c 28a0 d93c 33ba 12bf
000003e0: d328 093c ce41 28bc 15a0 ae3f 5b4c d03e
000003f0: b77b a33e 1e1a 203f eb59 203f 859d 053f

l1.bias f4 [400]
-0.3396582 -0.3668766 -0.056517377 -0.55754125 -0.9381485 0.26458043 -0.46700916 -1.3278393
-0.44348887 -0.27762905 -0.97873074 -0.549721 -0.96244025 -0.746504 -0.76317257 -0.81408685
-1.0104848 -0.48006317 -0.79599565 -0.29912353 -0.59314823 -0.20282398 -0.42488456 -0.8018742
-0.51220846 -0.81736434 -1.0857372 0.05200802 -0.7595838 -0.3437101 0.20036842 -0.18054718
-0.40681943 -0.7931749 -0.48403144 -0.6151774 -0.51286006 -1.2127892 -0.29039586 -1.4242218
-0.5524208 -0.4499194 -0.7391579 -1.0183299 -0.25649032 -0.5041198 -0.45670697 -0.09264987
-0.34866548 -1.0268767 -0.78854865 -0.7643023 -0.65858436 -0.5753182 -0.6150682 -0.835886
-0.19995584 -0.6787426 0.0281389 -0.7321764 -0.74108475 0.16340855 -0.1842949 -0.7631687
-0.7427737 -0.78252804 -0.37890622 -0.5466527 -0.15858695 -0.39656717 -0.21366708 -0.373565
-0.9031018 -0.42804053 -0.095294505 -0.88789463 -0.98616683 -0.008885767 -0.6797864 -0.7947623
-0.24363303 -0.7548794 -0.6536622 -0.25025287 -0.6204014 0.058670513 -0.3276062 -0.221397
-0.22386289 -0.76483977 -0.4027653 -0.9160115 -0.7395561 -0.40466124 -1.0034945 0.044894658
-0.7293035 -0.39798763 -1.1087635 -0.5356061 -0.6864656 -0.30555618 -0.68879163 -0.66157496
0.57351005 0.046651322 -0.65312076 -1.7381568 -0.5526172 -1.5471591 -0.22635294 -0.54237545
-1.0617635 -0.94299704 -0.58983433 -0.6260085 -0.564006 -0.5749984 -0.56777716 -0.46324927
-0.3950832 -0.48674315 -0.7478965 -0.37861925 -1.2005357 -0.5799495 -0.52208155 -0.88881844
-1.1737032 0.13159779 -1.0718019 -1.0676657 -0.65615237 0.48796234 -0.77361006 -0.5369741
-1.0168595 -0.24448499 -1.1267537 -0.48738205 -0.6396972 -0.8391553 -0.195651 -0.65201646
-0.92099917 -1.5532625 -0.18798316 -0.47218668 -0.49491125 -0.9118571 -0.3735292 -0.4833027
-0.07439826 -0.345304 -0.51172364 -0.35750622 -0.89250314 -0.58607936 -1.1756754 -0.8252413
-0.5377923 -0.35137078 -1.1979741 -0.6130169 -0.32115567 -0.53633887 0.4339212 -0.7021515
-0.44299728 -0.44267726 -0.43790272 -0.55059105 -0.25916946 -0.7346608 -1.5622216 -0.50764775
0.04974977 0.43816558 -0.69894266 -0.7820057 -0.55545866 -0.35053912 -0.7359556 -0.4847996
-0.18798736 -0.33429542 -0.7820115 -0.8257811 0.081594884 -0.49620813 -1.1622202 -0.18071048
0.408292 -0.86780465 -0.26497686 -0.5474657 -0.5718652 -0.39719385 -0.16887952 -0.30765167
-0.38472232 -0.659895 -0.48160955 0.39120921 0.23396726 -0.3804708 -0.6943961 -0.6160613
-0.4641086 -1.0112687 -0.6436257 -0.27486092 -0.47122896 -0.4714552 -0.92979145 -0.2189213
0.17306413 -0.75972456 -0.52084637 -0.8393922 -0.7878008 -0.48119384 -0.30461565 -0.8558697
0.0034131412 -0.14012735 -0.6676313 -0.84869254 -0.149446 -0.28477928 -0.41850832 -0.10681649
-0.34125566 -0.6149733 -0.39294428 -0.52069885 -0.19455002 -0.32873806 -0.38966572 -0.26049408
-0.07720897 -0.64690936 -0.27619126 -0.086727716 -0.85714316 -0.71790165 -0.5079054 -0.06830986
-0.34226885 -0.62915426 -0.4733363 -0.7278752 -0.44901887 -0.55074906 0.15528467 -0.23356366
00000000: aee7 adbe 40d7 bbbe c47e 67bd 06bb 0ebf
00000010: 802a 70bf 1677 873e d31b efbe a3f6 a9bf
00000020: f910 e3be 6525 8ebe 198e 7abf 84ba 0cbf
00000030: 7c62 76bf e31a 3fbf 475f 43bf ff67 50bf
00000040: 9157 81bf d7ca f5be 5fc6 4bbf b826 99be
00000050: 90d8 17bf 17b1 4fbe 788a d9be a147 4dbf
00000060: 1820 03bf ca3e 51bf 70f9 8abf 5d06 553d
00000070: 1574 42bf c5fa afbe 612d 4d3e 5ce1 38be
00000080: a34a d0be 830d 4bbf f8d2 f7be 447c 1dbf
00000090: cc4a 03bf ad3c 9bbf c4ae 94be e64c b6bf
000000a0: 736b 0dbf d65b e6be 7439 3dbf a258 82bf
000000b0: b352 83be ff0d 01bf 7fd5 e9be 37bf bdbd
000000c0: 4884 b2be b270 83bf 53de 49bf 51a9 43bf
000000d0: fc98 28bf 0e48 13bf 1c75 1dbf a0fc 55bf
000000e0: 39c1 4cbe 13c2 2dbf 8d83 e63c ea6f 3bbf
000000f0: bbb7 3dbf 9254 273e cdb7 3cbe 065f 43bf
00000100: 6b26 3ebf c253 48bf ffff c1be 6ef1 0bbf
00000110: 9e64 22be da0a cbbe 8bcb 5abe e943 bfbe
00000120: ae31 67bf 2128 dbbe c429 c3bd 104d 63bf
00000130: 6e75 7cbf 9c95 11bc 7b06 2ebf 8b75 4bbf
00000140: f07a 79be c73f 41bf 6856 27bf 2521 80be
00000150: a0d2 1ebf 7e50 703d 00bc a7be e5b5 62be
00000160: 503c 65be 8acc 43bf 4137 cebe bb7f 6abf
00000170: 8c53 3dbf c22f cfbe 8272 80bf 76e3 373d
00000180: a2b3 3abf 09c5 cbbe f6eb 8dbf 7b1d 09bf
00000190: 36bc 2fbf dc71 9cbe a654 30bf fa5c 29bf
000001a0: 8ed1 123f 7515 3f3d ec32 27bf ec7b debf
000001b0: 5278 0dbf 4f09 c6bf 11c9 67be 1ed9 0abf
000001c0: dee7 87bf 4168 71bf 62ff 16bf 1842 20bf
000001d0: b262 10bf 1833 13bf d859 11bf 022f edbe
000001e0: 5848 cabe 6636 f9be 2576 3fbf 62da c1be
000001f0: 27ab 99bf 9277 14bf 23a7 05bf 9b89 63bf
00000200: e83b 96bf 92c1 063e ce30 89bf 45a9 88bf
00000210: 9af9 27bf 33d6 f93e 4f0b 46bf 2277 09bf
00000220: 7428 82bf 465a 7abe 7739 90bf 248a f9be
00000230: 32c3 23bf e2d2 56bf bc58 48be 8dea 26bf
00000240: 9ac6 6bbf 4ed1 c6bf a87e 40be 74c2 f1be
00000250: 0265 fdbe 786f 69bf 383f bfbe 7473 f7be
00000260: 1d5e 98bd b0cb b0be 5200 03bf 0e0b b7be
00000270: 167b 64bf 4c09 16bf 887c 96bf 0443 53bf
00000280: c2ac 09bf dfe6 b3be 3757 99bf adee 1cbf
00000290: 846e a4be 814d 09bf eb2a de3e 33c0 33bf
000002a0: 8ad0 e2be 98a6 e2be c934 e0be 89f3 0cbf
000002b0: dcb1 84be bb12 3cbf e1f6 c7bf 34f5 01bf
000002c0: 6ac6 4b3d 3d57 e03e e8ed 32bf 8731 48bf
000002d0: 8a32 0ebf dd79 b3be 9667 3cbf a737 f8be
000002e0: c27f 40be c528 abbe e831 48bf 6466 53bf
000002f0: 381b a73d fe0e febe a2c3 94bf 2b0c 39be
00000300: a60b d13e 7228 5ebf 0cab 87be b626 0cbf
00000310: c265 12bf fe5c cbbe c1ee 2cbe 8584 9dbe
00000320: 53fa c4be e1ee 28bf 8795 f6be 934c c83e
00000330: 1d95 6f3e 12cd c2be f1c3 31bf 31b6 1dbf
00000340: a49f edbe 4171 81bf a7c4 24bf 92ba 8cbe
00000350: ec44 f1be 9362 f1be d006 6ebf e82c 60be
00000360: b937 313e 4f7d 42bf 3056 05bf 68e2 56bf
00000370: 50ad 49bf 0a5f f6be 95f6 9bbe 471a 5bbf
00000380: 02af 5f3b 8b7d 0fbe e3e9 2abf ea43 59bf
00000390: 5f08 19be 97ce 91be b946 d6be 9bc2 dabd
000003a0: 10b9 aebe e46e 1dbf fe2f c9be 854c 05bf
000003b0: 1f38 47be 5b50 a8be 4482 c7be 7b5f 85be
000003c0: bd1f 9ebd da9b 25bf f168 8dbe 4d9e b1bd
000003d0: bc6d 5bbf 67c8 37bf 1706 02bf 0ae6 8bbd
000003e0: dd3d afbe 4110 21bf 2359 f2be 0756 3abf
000003f0: cde5 e5be e4fd 0cbf f202 1f3e 502b 6fbe

l2.weight f4 [300, 400]
0.01264216 -0.06210738 -0.031049563 -0.013147141 -0.03829572 -0.09948806 -0.015280246 -0.047081478
-0.059148636 -0.0076322807 -0.073664986 -0.01470108 -0.03225862 -0.021339267 -0.026381584 -0.017462619
-0.056520868 -0.02029934 -0.06858215 0.013795417 -0.09658748 -0.060169347 -0.05331896 0.032051835
-0.053284895 -0.02357797 -0.058645416 -0.016642781 -0.09868104 -0.043911938 -0.07642821 -0.06540164
-0.020656854 -0.03209425 -0.0117695285 0.026833162 0.025114587 -0.0013426564 -0.01486271 -0.045402247
-0.05033316 0.0030746222 -0.00012979901 -0.036621727 -0.039446145 0.014586992 -0.089610286 -0.04440793
-0.05082173 -0.05950431 -0.04783917 -0.047763113 -0.041507076 -0.039554045 0.025543751 -0.046165615
-0.08227842 -0.06911079 -0.06350765 -0.041095875 -0.0005130477 -0.025771286 0.02285017 -0.054297518
-0.051969837 -0.029483031 0.021686902 -0.0122053735 -0.046637595 -0.084259756 -0.035710275 -0.069029965
-0.048746638 -0.046066012 0.020200988 0.008947605 -0.0464252 -0.078081034 -0.011038033 -0.03665252
-0.06727895 -0.082082786 -0.030941846 -0.07406208 -0.06255167 -0.031872306 -0.061475087 -0.027911033
-0.031382937 -0.008363733 -0.044751346 -0.076809525 -0.018684037 0.03406523 -0.076484784 0.018361457
0.024968147 0.019187821 -0.017797435 -0.034565583 -0.0767605 -0.01416723 -0.031278756 -0.04520039
0.020328516 -0.058593083 -0.023728102 0.0859844 -0.008534764 -0.045889188 0.0102571845 -0.10722842
-0.032294285 0.017541887 -0.049529348 -0.05285187 0.024522949 -0.12865028 -0.041930404 -0.05970317
0.039625727 -0.033875104 0.0015370352 -0.052375313 0.030939465 -0.020446239 0.0728597 -0.013480016
0.035203103 -0.020516204 -0.08827583 -0.007937643 0.025360027 -0.041465703 -0.033575352 -0.03118743
-0.0631987 -0.040245205 -0.004516807 -0.10452579 0.07800838 -0.053322382 0.00065684324 -0.00013632933
-0.056741256 -0.02050606 0.0082824705 -0.10772917 -0.013783105 0.0012595678 0.04369179 -0.01467747
-0.035561662 -0.04395386 -0.0849655 0.025095737 -0.023359321 -0.008126744 0.017284257 0.046545215
-0.05818229 0.0010106468 -0.029115919 -0.006675248 -0.0651561 -0.0960947 -0.06608742 -0.00822065
-0.025057726 -0.031135552 0.024609733 0.008176696 -0.07940428 -0.014367063 0.042023722 -0.03469946
0.03083209 -0.045529295 -0.09163343 0.021921938 0.011938891 -0.018436622 -0.06723039 -0.019138692
-0.10613935 0.02430758 -0.023652036 -9.519643e-05 -0.038982946 -0.03839112 -0.012733451 0.018616082
-0.03689369 -0.07248746 -0.08631823 0.016159538 0.059246667 -0.0482511 0.021142662 -0.09689096
-0.059032694 -0.023367865 -0.029603947 -0.046421457 0.031878836 -0.069661215 -0.021572186 -0.021931771
-0.06554653 0.04429803 0.023982506 -0.059295747 -0.09106614 -0.018616816 0.023699371 0.020276485
0.04390053 0.0069803074 0.02160354 0.0108910855 0.046863727 -0.055600177 -0.047900174 -0.015390415
-0.039639868 0.007680605 0.06714613 -0.0735286 -0.024599796 -0.0018967276 -0.0867009 0.038049772
-0.053225484 -0.031969324 -0.057965674 -0.10468918 -0.011972392 -0.079399854 -0.021084564 -0.022704637
-0.08900096 -0.061896004 0.020762315 0.028510086 -0.020381264 -0.10415395 -0.04967798 -0.07562488
0.026208198 -0.0062164753 -0.012549208 -0.03012362 -0.032547027 -0.03825073 -0.008231262 -0.050762758
00000000: 1021 4f3c 4f64 7ebd a75b febc 1b67 57bc
00000010: f9db 1cbd 65c0 cbbd ff59 7abc 82d8 40bd
00000020: d745 72bd 3618 fabb abdd 96bd ccdc 70bc
00000030: 9d21 04bd b0cf aebc 311e d8bc c40d 8fbc
00000040: 6d82 67bd cd4a a6bc cc74 8cbd 2c06 623c
00000050: a8cf c5bd 2274 76bd fb64 5abd c948 033d
00000060: 4341 5abd 9626 c1bc 2d36 70bd 7156 88bc
00000070: 4919 cabd 01dd 33bd 6586 9cbd 4cf1 85bd
00000080: 9038 a9bc 4375 03bd fbd4 40bc 38d1 db3c
00000090: 1bbd cd3c 13fc afba b982 73bc b5f7 39bd
000000a0: 252a 4ebd 9a7f 493b a81a 08b9 aa00 16bd
000000b0: 4892 21bd 47fe 6e3c 9985 b7bd 17e5 35bd
000000c0: 722a 50bd cbba 73bd 01f3 43bd 41a3 43bd
000000d0: 5303 2abd 6c03 22bd 2141 d13c 2818 3dbd
000000e0: 9781 a8bd f589 8dbd 4c10 82bd 2654 28bd
000000f0: 0c7e 06ba 4e1e d3bc 4830 bb3c 1367 5ebd
00000100: 53de 54bd 6686 f1bc bba8 b13c 0cf9 47bc
00000110: 1007 3fbd 6190 acbd f044 12bd 955f 8dbd
00000120: 8eaa 47bd b7af 3cbd 8b7c a53c fa98 123c
00000130: 5a28 3ebd f3e8 9fbd ded8 34bc f420 16bd
00000140: 8cc9 89bd 051b a8bd c179 fdbc dcad 97bd
00000150: 171b 80bd 898c 02bd 4dcd 7bbd aea5 e4bc
00000160: 658b 00bd 0a08 09bc 304d 37bd 504e 9dbd
00000170: 440f 99bc fc87 0b3d 0ea4 9cbd c46a 963c
00000180: 008a cc3c c72f 9d3c edcb 91bc a494 0dbd
00000190: 9c34 9dbd ab1d 68bc 271e 00bd 0b24 39bd
000001a0: fd87 a63c 4dff 6fbd 7061 c2bc 9718 b03d
000001b0: 65d5 0bbc 4df6 3bbd c00d 283c 939a dbbd
000001c0: 0347 04bd 01b4 8f3c 49df 4abd 347b 58bd
000001d0: 5ae4 c83c e6bc 03be 37bf 2bbd 508b 74bd
000001e0: 964e 223d 9fc0 0abd 5876 c93a 7f87 56bd
000001f0: c374 fd3c df7e a7bc 7737 953d 49db 5cbc
00000200: 2131 103d 9911 a8bc f5c9 b4bd e30c 02bc
00000210: d5bf cf3c f1d7 29bd 4f86 09bd c87c ffbc
00000220: 526e 81bd 28d8 24bd b901 94bb 9e11 d6bd
00000230: dcc2 9f3d 9268 5abd 0130 2c3a a0f3 0eb9
00000240: 8569 68bd 53fc a7bc 33b3 073c 1ca1 dcbd
00000250: 88d2 61bc 1518 a53a 2af6 323d c579 70bc
00000260: 1ba9 11bd f608 34bd 6402 aebd 9395 cd3c
00000270: 0c5c bfbc 0926 05bc b797 8d3c 32a6 3e3d
00000280: 8e50 6ebd ae77 843a 8284 eebc 0abc dabb
00000290: 9070 85bd 4ccd c4bd d758 87bd e8af 06bc
000002a0: dc45 cdbc fc0f ffbc 5a9a c93c 8cf7 053c
000002b0: b69e a2bd d463 6bbc 1121 2c3d 0521 0ebd
000002c0: 9493 fc3c ed7c 3abd 4faa bbbd a395 b33c
000002d0: 579b 433c 6608 97bc 16b0 89bd bfc8 9cbc
000002e0: 965f d9bd b120 c73c eac1 c1bc 32a4 c7b8
000002f0: 95ac 1fbd 0240 1dbd f79f 50bc c180 983c
00000300: d61d 17bd 4e74 94bd 9dc7 b0bd 0261 843c
00000310: a2ac 723d f2a2 45bd 6033 ad3c c56e c6bd
00000320: 44cc 71bd f76d bfbc fa83 f2bc 6d24 3ebd
00000330: 6293 023d 8aaa 8ebd 27b8 b0bc 42aa b3bc
00000340: 423d 86bd da71 353d f676 c43c 19e0 72bd
00000350: e280 babd 4b82 98bc 2f25 c23c df1a a63c
00000360: 0bd1 333d 10bb e43b e8f9 b03c 8670 323c
00000370: 2ef4 3f3d 03bd 63bd f932 44bd 1428 7cbc
00000380: 6a5d 22bd 96ad fb3b e983 893d 2a96 96bd
00000390: 8385 c9bc 9e9b f8ba 3e90 b1bd 14da 1b3d
000003a0: f702 5abd 44f2 02bd 6a6d 6dbd 4867 d6bd
000003b0: da27 44bc 649c a2bd 89b9 acbc 13ff b9bc
000003c0: 2346 b6bd aa86 7dbd bb15 aa3c fc8d e93c
000003d0: 9cf6 a6bc ab4e d5bd 237b 4bbd 38e1 9abd
000003e0: 93b2 d63c 93b3 cbbb 319b 4dbc cfc5 f6bc
000003f0: 0850 05bd ccac 1cbd 6adc 06bc 9cec 4fbd

l2.bias f4 [300]
-0.09566444 -0.041732542 -0.04810657 -0.027280215 -0.107779056 -0.15928756 -0.033270955 -0.02968916
-0.054540016 -0.047974378 -0.05771094 -0.036964305 -0.045080215 -0.059476156 -0.07554051 -0.019960707
0.59130657 -0.01002469 -0.013065241 0.0022413498 -0.06634399 -0.01965518 0.07097812 0.0017388123
-0.078381225 -0.06321717 -0.031166561 -0.044764202 -0.04051908 -0.07130107 0.0039035361 -0.029504979
-0.022043653 -0.001539374 0.024487218 -0.060902957 -0.08004104 -0.013401382 -0.42763066 -0.07425783
-0.02054629 -0.030544246 -0.0679581 -0.07810634 -0.009209718 -0.089332424 -0.12683508 -0.06220986
-2.9603311e-06 -0.02956316 -0.002107986 0.005721654 -0.05297443 -0.06858853 0.017812693 -0.061681915
-0.014883263 -0.00503527 0.48731768 -0.015428638 -0.009209182 0.006481574 -0.25479937 -0.02445714
-0.008668264 -0.034916967 0.0036114044 -0.019865414 -0.03133066 -0.0093989875 -0.059726737 -0.0887091
-0.08452464 -0.019609053 -0.037955582 -0.06520263 -0.00920421 -0.09234095 -0.047427922 0.058195967
-0.029075762 -0.21021526 -0.10545428 -0.28034928 -0.09905676 -0.16926722 -0.038535908 -0.19429025
-0.023421178 1.2528639 -0.036858108 0.007051619 -0.024628501 -0.0578126 0.3389312 -0.050676696
0.020910583 -0.022431804 0.040546406 0.020990647 -0.03966117 -0.11077933 -0.0157863 0.015843857
-0.08146364 -0.03323786 0.12827247 0.00021725288 -0.026393339 -0.0830251 -0.0155589385 -0.043871336
-0.03655693 -0.0060214703 -0.060610354 0.018824931 -0.052613355 -0.00026351956 -0.039069697 -0.072968066
0.011742465 -0.008816628 -0.038705315 0.038164936 -0.024497846 -0.024518123 0.13320163 -0.05214926
-0.051775467 -0.04706138 -0.36070544 -0.043597303 -0.04749806 -0.34343138 -0.06990058 -1.4562992
-0.023270294 -0.057671487 -0.039534763 0.008989519 -0.052945238 -0.07192773 -0.07981161 0.020291287
-0.086051546 -0.15158251 -0.07397446 0.029318495 -0.042058926 -0.07410958 -0.013370032 -0.05728293
0.015248751 -0.034467116 -0.046443775 -0.004502173 0.12025168 -0.1363761 -0.12403876 -0.041479208
-0.08297355 -0.022203783 0.16291852 -0.015201051 -0.06022639 -0.16065335 -0.017847294 -0.093846135
-0.04030894 0.03549103 -0.08377578 -0.002581759 -0.046540096 -0.013358688 -0.05415168 0.0047537596
-0.06495739 -0.12443367 -0.08155576 0.023165958 -0.0062736585 -0.12027465 -0.028242199 -0.15113574
-0.046644125 -0.018532084 -0.027480714 -0.16438904 -0.026692837 -0.057990454 -0.112619184 -0.035621766
-0.019841142 0.01824805 0.82403606 -0.15938927 0.006641634 -0.016043099 -0.06805733 -0.009525583
-0.039121725 -0.026193677 0.02937372 0.008898242 -0.054365993 -0.0025927413 -0.007018286 -0.08382434
-0.0006520673 -0.022126613 -0.052507747 0.37872425 0.012558122 -0.08710262 -0.03201024 0.0016760088
0.037718393 -0.026719386 -1.4801831 -0.0362839 0.027944753 -0.061357386 -0.009951294 0.96481663
0.0400803 -0.14558612 -0.23460467 -0.00456074 0.008917718 -0.05649391 0.12132552 -0.043846477
-0.046921942 -0.15826209 -0.039014164 0.025907371 -0.09068486 0.00065089855 -0.0645777 -0.065842524
0.034728322 0.013370363 -0.039766844 -0.027805619 -0.066971526 -0.06705872 -0.0742692 -0.04812621
-0.049657587 -0.034114145 -0.091879696 -0.31574282 -0.036887962 0.018959261 -0.009251074 0.005131567
00000000: b8eb c3bd beef 2abd 650b 45bd c27a dfbc
00000010: 44bb dcbd 471c 23be 2047 08bd ae36 f3bc
00000020: 5a65 5fbd c880 44bd 4e62 6cbd e267 17bd
00000030: 08a6 38bd 459d 73bd fcb4 9abd a384 a3bc
00000040: de5f 173f 993e 24bc 980f 56bc 9ce3 123b
00000050: 5cdf 87bd e603 a1bc fa5c 913d dce8 e33a
00000060: 5686 a0bd 0178 81bd 0451 ffbc ab5a 37bd
00000070: 56f7 25bd 4c06 92bd 78d2 7f3b 6db4 f1bc
00000080: e494 b4bc d2c4 c9ba 6b99 c83c 6175 79bd
00000090: 8fec a3bd 7891 5bbc 68f2 dabe 7d14 98bd
000000a0: b150 a8bc ed37 fabc 9e2d 8bbd 37f6 9fbd
000000b0: 5be4 16bc ebf3 b6bd 0ee1 01be c4cf 7ebd
000000c0: 1aaa 46b6 712e f2bc 2326 0abb b67c bb3b
000000d0: b7fb 58bd 2578 8cbd edeb 913c 2da6 7cbd
000000e0: eed8 73bc e8fe a4bb b481 f93e 66c8 7cbc
000000f0: 1ce2 16bc 6263 d43b 1075 82be 575a c8bc
00000100: 5605 0ebc 1805 0fbd 50ad 6c3b cbbc a2bc
00000110: 9454 00bd 36fe 19bc 06a4 74bd 1ead b5bd
00000120: 411b adbd 2aa3 a0bc 5077 1bbd f588 85bd
00000130: 41cd 16bc 411d bdbd c843 42bd e55e 6e3d
00000140: 4b30 eebc ab42 57be 6af8 d7bd f189 8fbe
00000150: 45de cabd 6354 2dbe d4d7 1dbd 06f4 46be
00000160: c5dd bfbc d85d a03f 87f8 16bd 4411 e73b
00000170: b6c1 c9bc e8cc 6cbd 6488 ad3e 5e92 4fbd
00000180: ac4c ab3c e7c2 b7bc fd13 263d 94f4 ab3c
00000190: c073 22bd 46e0 e2bd 4552 81bc faca 813c
000001a0: 69d6 a6bd 6c24 08bd dc59 033e 60ce 6339
000001b0: d836 d8bc 1009 aabd ebea 7ebc 6eb2 33bd
000001c0: b8bc 15bd c14f c5bb 9042 78bd be36 9a3c
000001d0: 1a81 57bd ff28 8ab9 8c07 20bd 4870 95bd
000001e0: 7863 403c 9e73 10bc 7789 1ebd d652 1c3d
000001f0: b5af c8bc 3bda c8bc 0266 083e 769a 55bd
00000200: 8312 54bd 6fc3 40bd 62ae b8be 1693 32bd
00000210: 538d 42bd 3dd6 afbe 0928 8fbd 0368 babf
00000220: 58a1 bebc f038 6cbd 34ef 21bd c748 133c
00000230: 1bdd 58bd d94e 93bd 4574 a3bd ea39 a63c
00000240: cb3b b0bd 7238 1bbe ec7f 97bd 572d f03c
00000250: fb45 2cbd c3c6 97bd fb0d 5bbc 81a1 6abd
00000260: e6d5 793c 642d 0dbd d43b 3ebd f786 93bb
00000270: 8346 f63d 2da6 0bbe 0908 febd 1ae6 29bd
00000280: 09ee a9bd b5e4 b5bc 1dd4 263e d40d 79bc
00000290: f2af 76bd 5082 24be 7d34 92bc 6732 c0bd
000002a0: fd1a 25bd 0b5f 113d a392 abbd ba32 29bb
000002b0: d4a0 3ebd 66de 5abc 27ce 5dbd 6dc5 9b3b
000002c0: 6108 85bd 14d7 febd b506 a7bd 89c6 bd3c
000002d0: 4393 cdbb 8e52 f6bd 2f5c e7bc 54c3 1abe
000002e0: e90d 3fbd 99d0 97bc 3c1f e1bc 9a55 28be
000002f0: f0aa dabc 6687 6dbd e3a4 e6bd 21e8 11bd
00000300: e489 a2bc ef7c 953c 07f4 523f f136 23be
00000310: 10a2 d93b d16c 83bc a461 8bbd 3111 1cbc
00000320: 1a3e 20bd 1f94 d6bc 28a1 f03c efc9 113c
00000330: e0ae 5ebd fbea 29bb a6f9 e5bb 18ac abbd
00000340: 7fef 2aba df42 b5bc 5d12 57bd 25e8 c13e
00000350: 95c0 4d3c dc62 b2bd 2b1d 03bd 86ad db3a
00000360: 9a7e 1a3d 9de2 dabc a476 bdbf 6d9e 14bd
00000370: 65ec e43c e251 7bbd c10a 23bc 39fe 763f
00000380: 3e2b 243d 8714 15be 353c 70be 4372 95bb
00000390: 9f1b 123c 2866 67bd 8479 f83d 5d98 33bd
000003a0: 3931 40bd 750f 22be 51cd 1fbd b23b d43c
000003b0: fcb8 b9bd 10a1 2a3a 5041 84bd 72d8 86bd
000003c0: 493f 0e3d 5e0f 5b3c 8fe2 22bd 9cc8 e3bc
000003d0: 5e28 89bd 1556 89bd 731a 98bd fd1f 45bd
000003e0: c165 4bbd 46bb 0bbd 6c2b bcbd 0ba9 a1be
000003f0: d517 17bd 7450 9b3c d191 17bc b426 a83b

l3.weight f4 [1, 300]
-0.0014854027 -0.0624691 -0.0113739865 0.0120318625 -0.021487895 0.0029807463 0.019529773 0.043276127
-0.00044268044 -0.041255206 0.0016561126 0.015345655 0.028523922 0.015697768 0.0047177207 0.0039517074
-0.20080113 -0.010706691 0.0010737628 0.022828829 -0.018436927 -0.010720822 -0.32587025 -0.5916863
0.0010012122 -0.008640991 0.031240359 0.03287883 -0.048246156 0.02531162 0.00065961585 0.0012137857
-0.016502185 -0.0039331946 0.01933209 -0.01890494 0.0053249695 0.011044993 0.5357839 0.054702055
0.035962112 -0.015287992 -0.005760511 -0.0032478801 -0.007212658 0.020945663 -0.049336098 -0.008494984
0.0067252493 -0.013516335 0.022457814 0.019409806 -0.0016587231 0.012384768 -0.025890779 0.0062381835
-0.046384852 -0.003832792 -0.1424388 0.0066814646 -0.031685293 0.019274415 -1.0881114 0.0010687272
0.018794477 -0.00083733 0.046112146 -0.017837346 0.0022622931 -0.0011406544 -0.029463328 -0.001691957
-0.5613651 0.033147097 0.021370698 -0.008204273 -0.046246424 -0.011635593 0.016466664 -0.14195953
0.0037879886 -0.35476974 0.012888949 -3.517824 0.2689989 -0.038233902 -0.002309456 -0.00042871694
0.30341172 -0.3130052 -0.018543798 -0.010175914 -0.011925478 -0.020179512 1.6156676 0.24701606
0.040835753 -0.04629704 0.044362623 -0.0013310286 -0.05008101 -0.00032665563 -0.022570856 -0.0054562967
0.0063567096 0.041373197 -8.494018 -0.0020406179 0.002272175 0.0047344184 -0.008489376 -0.026871318
0.022204861 0.71280795 0.011629804 0.0035312704 -0.0021503547 -0.029574448 -0.023501007 0.00619495
0.012926254 0.008575751 0.03805956 0.0809483 -0.0106096715 -0.009755752 -5.1921635 -0.020744773
0.03232337 0.0148937795 0.123266034 0.058936834 -0.007923731 -1.9590306 -0.0005922106 -0.097600445
-0.04071133 0.027475826 -0.012564381 -0.008057883 -0.028552745 0.021665443 0.0049520778 0.008304664
0.018113555 0.06870941 0.0008756676 0.020172233 0.0030582317 -0.027190194 -0.023237182 0.020356536
-0.004477618 -0.020649357 -0.026241755 0.01355469 0.1931396 -0.008730627 -0.042594157 -0.00931083
-0.0020322595 -0.0029703048 -1.1050398 0.0016070332 -0.1498323 -0.48987916 0.01790912 0.018897716
-0.007856315 0.022666764 -0.0043169274 -0.0012593279 -0.027317716 -0.011531454 -0.019692674 -0.026294509
-0.013676242 -0.8338584 0.0041395803 0.009390886 0.0017530533 -0.0015817 -0.0012343162 -0.000935744
-0.018847534 0.0030137016 -0.0066503454 -0.026774932 0.008442154 -0.019024426 -0.016009612 -0.00013493183
-0.012849408 -9.9420344e-05 -0.45063213 0.81884044 -0.010336211 0.047286276 -0.005273671 0.00936113
-0.005868399 0.14711322 -0.016586525 0.017232517 -0.0039217533 0.0007550088 -0.002516986 0.010497681
-0.025145147 0.00046103416 0.01847639 -0.3795857 -0.028671274 -0.011711239 0.009747943 0.033299938
-0.0069130976 0.036362704 -0.6455781 -0.027074602 0.02917416 0.023885092 0.023191124 0.10608997
-0.035011567 -0.004839522 -0.030277248 -0.0018826439 0.03634366 -0.037009936 -4.3108106 0.0051589273
0.0070115873 0.028238453 0.034431104 0.023349728 0.015964054 0.02003072 -0.0035470237 -0.99691784
-0.00013018961 -0.012378749 0.0035646486 0.021489006 0.03512783 0.03151911 -0.02359633 -0.008762945
0.0033121693 0.005919205 0.0036193724 -0.058483098 0.027285833 0.004342615 0.011084379 -0.026695909
00000000: d8b1 c2ba 99df 7fbd f559 3abc 4a21 453c
00000010: 6207 b0bc a058 433b e7fc 9f3c 4f42 313d
00000020: 9017 e8b9 38fb 28bd eb11 d93a 586c 7b3c
00000030: 00ab e93c 9b98 803c 1c97 9a3b 537d 813b
00000040: d09e 4dbe 1e6b 2fbc 80bd 8c3a 8603 bb3c
00000050: 0a09 97bc 63a6 2fbc 77d8 a6be c178 17bf
00000060: 1b3b 833a f192 0dbc c8eb ff3c f4ab 063d
00000070: c39d 45bd 515a cf3c 12ea 2c3a e417 9f3a
00000080: 972f 87bc 07e2 80bb 555e 9e3c 88de 9abc
00000090: 157d ae3b 0ff6 343c 2229 093f 430f 603d
000000a0: 024d 133d 7c7a 7abc abc2 bcbb 63da 54bb
000000b0: 2958 ecbb 3d96 ab3c a614 4abd 8c2e 0bbc
000000c0: 7b5f dc3b 9e73 5dbc 73f9 b73c 5001 9f3c
000000d0: 8369 d9ba 7be9 4a3c e618 d4bc ad69 cc3b
000000e0: 0bfe 3dbd 942f 7bbb 7adb 11be 30f0 da3b
000000f0: 70c8 01bd 61e5 9d3c 3c47 8bbf 8914 8c3a
00000100: e0f6 993c 4480 5bba 17e0 3c3d a01f 92bc
00000110: fb42 143b 0382 95ba 145d f1bc a8c4 ddba
00000120: a0b5 0fbf 40c5 073d 9a11 af3c 376b 06bc
00000130: e46c 3dbd 37a3 3ebc 19e5 863c d75d 11be
00000140: e73f 783b 61a4 b5be 2c2c 533c 0724 61c0
00000150: 39ba 893e 279b 1cbd 3e5a 17bb 6ac5 e0b9
00000160: c858 9b3e 3842 a0be 2ae9 97bc e0b8 26bc
00000170: 1463 43bc 814f a5bc 32ce ce3f c7f1 7c3e
00000180: 6443 273d f7a1 3dbd 95b5 353d e975 aeba
00000190: bf21 4dbd fa42 abb9 84e6 b8bc bcca b2bb
000001a0: f24b d03b f176 293d 7fe7 07c1 e3bb 05bb
000001b0: c5e8 143b 2e23 9b3b 0617 0bbc 3d21 dcbc
000001c0: f8e6 b53c 957a 363f ef8a 3e3c e36c 673b
000001d0: f7ec 0cbb 1d46 f2bc 2f85 c0bc 02ff ca3b
000001e0: a4c8 533c 4f81 0c3c 57e4 1b3d 39c8 a53d
000001f0: 30d4 2dbc 97d6 1fbc 3426 a6c0 f1f0 a9bc
00000200: 8365 043d 0a05 743c e772 fc3d c067 713d
00000210: 89d2 01bc 84c1 fabf 953e 1bba bee2 c7bd
00000220: ecc0 26bd fc14 e13c d5da 4dbc 3605 04bc
00000230: 72e7 e9bc ba7b b13c 0a45 a23b 4910 083c
00000240: e162 943c 85b7 8c3d 0f8d 653a 3d40 a53c
00000250: 9d6c 483b f8bd debc e75b bebc c0c2 a63c
00000260: fbb8 92bb d728 a9bc f3f8 d6bc 7e14 5e3c
00000270: 63c6 453e e70a 0fbc 3677 2ebd 748c 18bc
00000280: a82f 05bb 72a9 42bb f271 8dbf 16a3 d23a
00000290: a36d 19be 71d1 fabe 26b6 923c 62cf 9a3c
000002a0: c6b7 00bc a6af b93c 0375 8dbb 0810 a5ba
000002b0: 67c9 dfbc 6cee 3cbc 8852 a1bc 9567 d7bc
000002c0: 5112 60bc be77 55bf 51a5 873b 3bdc 193c
000002d0: b5c6 e53a 0c51 cfba c7c8 a1ba b84c 75ba
000002e0: 2566 9abc 8681 453b 24eb d9bb 1a57 dbbc
000002f0: f650 0a3c 1dd9 9bbc 9726 83bc 7d7c 0db9
00000300: 5386 52bc e47f d0b8 41b9 e6be 879f 513f
00000310: 3659 29bc 41af 413d c2ce acbb 6d5f 193c
00000320: b34b c0bb d9a4 163e 77e0 87bc 352b 8d3c
00000330: 0d82 80bb c8eb 453a 05f4 24bb 77fe 2b3c
00000340: 32fd cdbc f5b6 f139 cc5b 973c 0f59 c2be
00000350: 05e0 eabc 7fe0 3fbc d6b5 1f3c 8465 083d
00000360: 4487 e2bb 0ff1 143d 9b44 25bf 8ecb ddbc
00000370: a6fe ee3c abaa c33c 50fb bd3c b345 d93d
00000380: 4a68 0fbd da94 9ebb fe07 f8bc 0cc3 f6ba
00000390: 17dd 143d bb97 17bd 29f2 89c0 380c a93b
000003a0: 75c1 e53b 5454 e73c a107 0d3d ee47 bf3c
000003b0: 0cc7 823c 7717 a43c 2f75 68bb 0236 7fbf
000003c0: 8283 08b9 3dd0 4abc e19c 693b b609 b03c
000003d0: 33e2 0f3d 2f1a 013d 174d c1bc 7592 0fbc
000003e0: fb10 593b e4f5 c13b fe32 6d3b f98b 6fbd
000003f0: 8a86 df3c 7f4c 8e3b 419b 353c 61b1 dabc
