InvertedPendulum/InvertedPendulum-v4_actor_finalized_00.pth (torch, 493438 bytes, 5 tensors)

l1.weight f4 [400, 4]
000000 1b db f5 3e bd a4 ed 3d be 4d 3f bd 76 58 27 3e
       0.48018727 0.11603687 -0.046705 0.16342339
000010 c9 07 76 3e 2d 0a 2a 3b ac 0b 86 3e cf ee b8 3e
       0.24026407 0.0025946007 0.2618078 0.36119696
000020 c2 10 d4 be 05 f5 98 3f 5c 9f 0f 3e ea 10 59 3e
       -0.41419035 1.1949774 0.14025635 0.21197858
000030 22 ab 01 3e 15 b3 e5 be e4 2d 59 bd 84 b1 aa 3d
       0.12662938 -0.4486319 -0.05302228 0.0833464
000040 80 f3 a8 3d 9e 17 2c 3d e4 0e 5d 3d 65 96 a0 3c
       0.08249569 0.04201471 0.05396928 0.019602964
000050 40 9d f0 3e a3 c7 94 be 7a 9d 5b be bb 4e a4 3e
       0.46994972 -0.2905856 -0.21446791 0.32091317
000060 ac 80 10 3e 6d cf 00 3f 49 aa 53 be f6 be 01 be
       0.14111584 0.50316507 -0.20670427 -0.12670502
000070 5a e8 19 be ff 90 74 be 03 eb 38 3e df a7 b0 bb
       -0.15030041 -0.23883437 0.180584 -0.0053911055
000080 a7 84 e4 3e 5c 0b 58 bf 42 fe bf be 1d 12 6e be
       0.44632456 -0.84392333 -0.3749867 -0.23249097
000090 97 18 f5 3e 19 29 66 3f 3d 01 f1 3d fb 89 72 bd
       0.47870323 0.8990646 0.11767814 -0.05921362
0000a0 66 31 29 bf c2 9a 50 3f 8e 8c df 3d db 31 df 3e
       -0.66091 0.8148614 0.109154806 0.43592724
0000b0 7d 4b cf be 8c 3c 95 3f 60 a7 f8 3e 43 33 e6 3e
       -0.4048728 1.1659102 0.48565197 0.44960985
0000c0 e6 fc 9a bd ef 31 bd 3f cc 26 6a be 70 81 87 3e
       -0.07567768 1.4780864 -0.22866362 0.2646594
0000d0 3d 63 cd bd d3 0b 65 3c 89 8f 5a be a8 e4 14 be
       -0.10028694 0.01397987 -0.21343817 -0.1454035
0000e0 53 6e 02 bc 97 a3 ca be 2a 09 57 3e f2 04 3f be
       -0.007960874 -0.39577934 0.2099959 -0.1865423
0000f0 64 6b aa be 6a f6 bc be f2 94 2b bf 07 cb 35 be
       -0.33285058 -0.3690675 -0.6702415 -0.1775323
000100 e6 c3 e9 be af f5 9b 3f a6 4b 5b 3e 3c 30 2f 3e
       -0.4565727 1.2184352 0.21415576 0.17108244
000110 f8 7d ba be 68 65 72 bf 53 61 80 be e9 d8 7b bd
       -0.36424232 -0.94685984 -0.25074252 -0.06148616
000120 a0 e2 f6 bd b7 5f b1 3f 86 02 ef 3e 42 72 bd 3e
       -0.12054944 1.3857335 0.46681613 0.37001234
000130 d7 32 b5 be 3d dd f8 3e a1 c6 85 3e cb 29 3f 3d
       -0.3539035 0.4860629 0.26128104 0.046670716
000140 26 14 78 bd 2e 68 0b bd 08 27 54 be f2 bd 21 3e
       -0.06056609 -0.0340349 -0.20718014 0.15795115
000150 60 a7 26 3e 30 9b 89 3d 04 cf 6b 3e 98 51 23 3e
       0.16274786 0.06719053 0.23028189 0.15949094
000160 bb e8 11 bd 5f a0 b3 3f 54 65 c3 3e 46 12 9d 3e
       -0.03562234 1.4033316 0.38163245 0.30678004
000170 89 56 d2 3d 26 9c dc 3e 35 85 00 3f 45 d1 70 bd
       0.102704115 0.43087882 0.5020326 -0.058793325
000180 e1 3c 81 be 39 6d 9d 3e a4 04 c3 3d 13 7c 3a bd
       -0.2524176 0.30747393 0.095223695 -0.045528483
000190 c4 c0 9a 3d da 03 0e 3f 10 09 93 be 6e 9f 92 3e
       0.075562984 0.55474627 -0.28717852 0.2863726
0001a0 7a 7a ca 3c 06 fa 8a 3f 26 ea d8 3e a0 45 ba 3d
       0.024716605 1.0857551 0.4236614 0.09095311
0001b0 98 00 2b 3e 46 17 6b bf 9c 8e 93 bd 0e 95 ef be
       0.16699445 -0.9183239 -0.07204935 -0.46793407
0001c0 72 fc ac 3e ea f7 17 3f d4 57 ae be d9 36 49 be
       0.3378635 0.5936266 -0.34051383 -0.19649829
0001d0 03 a5 be 3d 5d 4f eb 3c 99 4f 3e be df 3c a7 be
       0.09308817 0.028724367 -0.18585052 -0.32663628
0001e0 f7 29 99 be 7c 31 81 3f 9b d7 e2 3d 85 fd 23 3e
       -0.2991483 1.0093226 0.1107628 0.16014679
0001f0 4c 56 56 3d c5 8c 77 3f ef 71 42 be c5 26 8b 3e
       0.052328393 0.9669917 -0.18988775 0.27178016
000200 ba 7a bd 3d 7e af 0d 3f b2 c9 91 3e a8 4a f3 3e
       0.09251924 0.55345905 0.28474194 0.47517896
000210 18 ea 1a bf 50 c2 51 3f 55 c7 26 3f cb cd e1 3e
       -0.6051345 0.8193712 0.65147907 0.4410232
000220 86 83 39 be 6c 01 9e 3f dc f7 8c 3e e9 0f cc 3d
       -0.18116578 1.2344184 0.27532852 0.09963972
000230 dd b7 c2 3d 22 1d 8d 3d 56 a8 ce 3d d8 a6 d5 bd
       0.095077254 0.06890322 0.10090701 -0.104322135
000240 d1 b3 45 be 85 50 c4 3f 1a 66 11 3f 74 32 06 3e
       -0.19306876 1.5337073 0.5679642 0.13105184
000250 dc 4d 45 bf 01 49 b9 bd 99 6d c9 3d 3d 6d 31 be
       -0.7707193 -0.090471275 0.09835357 -0.17326827
000260 c7 6d 22 3f bb 15 c9 be 26 f5 b8 bd 77 8a 79 be
       0.63448757 -0.39274392 -0.09031133 -0.24369226
000270 4d 08 82 be f1 74 94 3e 4d 91 ab 3e 51 32 b9 3e
       -0.25396958 0.2899547 0.33509293 0.361712
000280 e9 77 ff be dc 59 1b 3e 35 68 ff 3e 41 d8 a7 bc
       -0.49896172 0.15170997 0.4988419 -0.02048886
000290 30 75 04 be a1 52 2a 3f f2 e8 fd 3e 6c 98 cc be
       -0.12935328 0.6653233 0.49591786 -0.3996004
0002a0 98 b6 bc bd 38 47 16 3d ce 5e 81 3e 75 a0 a6 3d
       -0.092145145 0.036689013 0.25267643 0.081360735
0002b0 3d 5f 64 be 38 cf aa be f9 44 3d bd d9 a2 8f 3c
       -0.22301956 -0.3336122 -0.046208356 0.017533707
0002c0 23 23 f8 be af 0f 83 3f 33 07 37 3f 0c 0b a9 3e
       -0.48464307 1.0239161 0.7149536 0.3301624
0002d0 58 66 0d 3e ea 86 91 3f 3d 5e a9 3e e2 93 14 3e
       0.13808572 1.1369298 0.3307971 0.14509538
0002e0 a4 b8 59 3f 7d 29 80 bf 16 39 ac be 5d 88 e8 bd
       0.85047364 -1.0012661 -0.33637303 -0.11354134
0002f0 1c d4 28 bf 93 45 75 bf 34 32 e2 be 73 f1 d2 bd
       -0.65948653 -0.95809287 -0.44178927 -0.10299959
000300 2f af 7e 3e 5b 86 03 3f fe 0b 8c be 86 d7 39 3e
       0.24871515 0.51376885 -0.273529 0.18148622
000310 b3 5a 02 bf 74 5a 68 3f c8 78 c1 3e 2f 59 b6 3d
       -0.50919646 0.9076302 0.3778746 0.08903729
000320 90 21 0b 3f 1c 54 5e 3e 29 db a7 3c 10 03 34 be
       0.5434809 0.21711773 0.020490246 -0.17579293
000330 cf 61 67 be b5 fa 20 bf 6e 19 f8 3d dd 99 5e be
       -0.22595905 -0.6288255 0.12114225 -0.21738382
000340 c5 7c 44 3e b5 13 56 3f cc 8d 0a be 41 0e 69 3e
       0.19188221 0.8362382 -0.13530654 0.22759344
000350 8f 7b 82 be cf 66 2e bf 0f 04 1e 3e 33 f7 2f be
       -0.25484893 -0.68125623 0.15431236 -0.17184143
000360 5b a1 83 be a2 42 3b bf b2 b0 bc be ff e4 ba be
       -0.25709042 -0.7314855 -0.36853558 -0.36502835
000370 a7 2c fa 3d 37 dd 37 3f 42 93 81 3e 05 ff d8 3d
       0.12215548 0.7182192 0.2530766 0.10595516
000380 ff 64 cf be ac b8 a6 3e 69 d4 6c be 2c b9 f8 bd
       -0.4050674 0.32562768 -0.23127903 -0.12144694
000390 2c 35 05 bf 90 a6 a5 bf e6 92 8d be 59 78 2d bc
       -0.5203426 -1.2941456 -0.27651137 -0.010587775
0003a0 c3 73 6a 3f 19 fa 1c 3c f9 d0 c6 be cb 5d c9 3d
       0.9158289 0.009581112 -0.38831308 0.09832343
0003b0 43 e5 24 be c5 c5 54 3f 0f 72 f0 3d bb 06 c1 3e
       -0.16103081 0.8311427 0.11740505 0.37700447
0003c0 fb 2e 18 3e 4e 00 9b 3f 0c 88 bf 3e df 3d dc 3e
       0.14861672 1.2109468 0.37408483 0.43015954
0003d0 ed c2 57 be ed 33 b6 3c e3 4e 02 be 15 78 88 3e
       -0.21070452 0.022241557 -0.12725405 0.26654115
0003e0 d4 90 e7 3b 65 c8 1c bf 47 8d 0b be 45 c1 87 be
       0.0070668254 -0.6124328 -0.13628112 -0.2651464
0003f0 16 7a 0f 3e 40 3b 88 3f 9d 39 96 bd 1b cb 89 3e
       0.14011416 1.0643082 -0.073352076 0.2691277

l1.bias f4 [400]
000000 5d 04 dc be ab 08 c7 be e8 9f 8f be c8 4b 6f bd
       -0.4297208 -0.388738 -0.28051686 -0.05842188
000010 18 d7 1b bd 7b 4f 22 bf cf f6 7f 3d 2c 07 88 3d
       -0.038046926 -0.6340253 0.062491234 0.06641993
000020 a5 7a 4c 3e 29 19 cc 3e 0e 14 13 bf b3 44 10 3e
       0.1996866 0.39862946 -0.57452476 0.14088707
000030 be e3 6c 3e 61 86 22 be 83 ff 0c be be 5b 7b be
       0.23133752 -0.15871574 -0.13769345 -0.24546716
000040 c0 48 2a 3e af 2e 00 bf b6 7c 13 3e c1 06 a9 3d
       0.16629314 -0.50071234 0.14403042 0.08253241
000050 fe 7b 0e bf f4 06 c2 be 4c 1b 9b 3b ed f2 d7 bc
       -0.5565795 -0.3789593 0.0047334787 -0.026360953
000060 36 f0 04 3e 6b ff bd be 01 3e 03 3e b3 ce 20 3e
       0.12982258 -0.3710893 0.12816621 0.1570385
000070 06 06 60 3e 1d 23 32 bf c9 cd 7c 3e f4 2f 9c be
       0.21877298 -0.6958483 0.24687876 -0.30505335
000080 01 66 f3 be 4a a6 3b 3d 01 31 92 3e 10 c8 a8 3e
       -0.4753876 0.045812882 0.28553012 0.32965136
000090 8e b7 73 3e bb 4a f1 be 95 a7 8d 3d a5 6c 09 bf
       0.2380049 -0.47127327 0.06916729 -0.53681403
0000a0 84 c5 d5 bc c8 5c 8c be fc 0c cf 3d b8 d9 16 3d
       -0.02609516 -0.27414536 0.101098984 0.036828727
0000b0 ae 49 e9 3d fa 3a d0 3e 69 3b 90 3c 35 69 85 be
       0.113910064 0.40669996 0.017606454 -0.2605683
0000c0 26 79 25 3d 07 24 53 3e 30 fc 0c bf da 16 56 bf
       0.04039874 0.20619212 -0.5507231 -0.8362862
0000d0 40 5a ec be 53 aa 43 bf 3a ed 08 3c b3 4b 87 3d
       -0.46162605 -0.7643177 0.0083573405 0.06606235
0000e0 6b 13 87 3d ae 1f 45 be 20 cf 86 be 11 a5 03 bf
       0.065955006 -0.19250366 -0.263299 -0.51423746
0000f0 02 90 99 bb 9b e6 19 bf 91 b3 2c bf 31 09 f7 be
       -0.0046863565 -0.601175 -0.67461497 -0.482492
000100 20 82 91 3d 38 db 31 3e de ea 07 3e 30 76 27 bf
       0.071048975 0.17368782 0.13273188 -0.65414715
000110 d5 2d 50 3e 1c 90 46 3e 71 5d e5 bd 3e de 11 3e
       0.20329984 0.19390911 -0.11199463 0.14244935
000120 8b 85 2b bf 03 2f 83 be 04 d3 c9 be 07 fc c7 3d
       -0.67000645 -0.25621805 -0.39418805 0.09764867
000130 6b cd 2c bf 87 54 64 3e 86 4b 15 bf 49 47 2a be
       -0.6750094 0.2229787 -0.58318365 -0.16628756
000140 7e a1 1e bf ed 76 30 bf c9 fa 99 be 90 f8 e4 be
       -0.6196517 -0.68931466 -0.30074146 -0.44720888
000150 9f 41 be be cf 30 0f bf a0 b7 2b be 32 d2 d5 be
       -0.3715944 -0.5593385 -0.16769266 -0.4176193
000160 f1 d7 d4 be 7e 87 e8 be 4c 79 d3 bd cd 6c 00 bf
       -0.41571 -0.45415872 -0.1032587 -0.50166017
000170 7d 4d b5 be c8 e2 03 bf cd 7f fa be b5 df 6a bc
       -0.3541068 -0.51517916 -0.4892563 -0.0143355625
000180 78 fb b2 be b5 f9 fc be 93 12 dc be e2 ed 53 be
       -0.3495748 -0.4940926 -0.4298292 -0.20696214
000190 4b 7c ef bc e4 ec 51 3e bb 01 93 3e 47 32 3b be
       -0.029234072 0.20500523 0.28712258 -0.18280898
0001a0 bb 7e d4 3d d1 ce 99 be 04 59 4a 3e e1 a3 4c 3e
       0.103757344 -0.300406 0.1976052 0.1998439
0001b0 87 61 7a 3e b2 ac e2 bd 94 1a e5 3a 8b bc 19 bc
       0.24451266 -0.11068095 0.0017479234 -0.009383331
0001c0 e7 e1 e5 be a6 a0 f3 be a9 1d d3 3d a8 97 93 3d
       -0.44898912 -0.47583503 0.103083916 0.072066605
0001d0 b5 49 1b bf 2e a9 f2 be d3 bc a6 bd 18 28 4c 3d
       -0.60659343 -0.473947 -0.08141484 0.049842924
0001e0 21 80 4c bf e2 56 2f 3d 15 14 5c 3e b5 45 01 3d
       -0.7988301 0.042807467 0.21492036 0.03156062
0001f0 75 8e 66 be cd c0 22 be fa 37 2a be 2f be 86 3e
       -0.2251528 -0.1589386 -0.16622916 0.26316974
000200 7c 51 61 be f5 92 19 3c f2 92 89 be d5 21 ac be
       -0.2200374 0.009373416 -0.26869923 -0.33619562
000210 b3 9a 16 bf da 3d 27 3e f4 33 cf 3e f8 d1 88 3e
       -0.588298 0.16332188 0.40469325 0.26722693
000220 43 89 eb be 5d a6 f4 be e9 3b 6a be ff d2 c7 bb
       -0.4600316 -0.47783175 -0.22874416 -0.0060981507
000230 68 e1 3c be b6 f1 f7 3d c9 63 c1 3e 97 39 38 3e
       -0.1844536 0.121066496 0.37771443 0.17990719
000240 8e 95 b1 be 69 6f 10 3b 81 79 6b be ec 1d 68 3e
       -0.34684414 0.0022039062 -0.22995569 0.22667664
000250 18 04 61 be 29 02 3e bf d8 15 0c bf c4 e7 53 3e
       -0.21974218 -0.74222046 -0.5472083 0.2069388
000260 8d ff 87 3d 52 6c 08 bf 97 4f e7 be 4f 71 0f 3e
       0.06640539 -0.53290284 -0.4517791 0.14008068
000270 71 48 98 3d 03 b5 dc be 99 cc 92 be 2b 4a d5 be
       0.07435692 -0.4310685 -0.2867172 -0.41658148
000280 70 77 e1 be 5e 99 81 3d d3 96 30 3d 2b 01 5a bc
       -0.44036436 0.063280806 0.043112587 -0.0133059425
000290 3d 65 70 3d 96 18 57 be 24 aa bc be a8 cc 33 3e
       0.0586903 -0.21005473 -0.36848557 0.17558539
0002a0 1a 9a da be 61 04 b2 3e 45 7f a5 3e 16 ea 2a 3e
       -0.42695695 0.34768966 0.3232366 0.16690859
0002b0 d7 28 29 bd 18 ed 9f bc 40 7c 2c bf 5b e8 f5 3d
       -0.041298714 -0.019522235 -0.6737709 0.12007209
0002c0 d6 40 06 bd 2e fe a7 3d 78 21 07 bd 89 7d e2 3c
       -0.032776676 0.08202778 -0.032990903 0.02764775
0002d0 fa 1b 92 3e ce e2 25 bf 3d be 29 3c 07 31 04 3e
       0.2853697 -0.647992 0.010360298 0.12909327
0002e0 67 03 c6 be 57 08 03 bf 62 c1 e7 bb 01 0a 68 3d
       -0.3867447 -0.511846 -0.0070726136 0.056650165
0002f0 0b ad 56 3e 1f 6c 0e 3e 6e 67 e7 be 34 40 92 3e
       0.20964448 0.13908432 -0.45196098 0.28564608
000300 9e 50 f8 bd e7 a1 fe bc 9c 51 5a be 6f 81 9f bd
       -0.121247515 -0.03108306 -0.21320194 -0.077883594
000310 d9 93 02 bd e6 05 61 3e 94 04 26 bf ca 5b 0e 3e
       -0.03187928 0.21974906 -0.64850736 0.13902202
000320 dc be a8 3e 4c d9 85 be 41 ce fe be 8a da 1f bf
       0.32958114 -0.26142347 -0.49766734 -0.6244284
000330 d9 96 bd be 5a 28 77 3d 8a ff 1a bf 5c 01 d7 3e
       -0.3702915 0.060341217 -0.6054617 0.41993225
000340 8d c4 b5 be 00 2e 10 3e 40 db ad bc 36 25 de be
       -0.3550152 0.14080048 -0.02122271 -0.43387765
000350 b3 11 09 bf 70 af c6 be e5 07 09 bf b8 2d 1e 3d
       -0.5354263 -0.38805723 -0.5352767 0.03861782
000360 17 c4 53 3e 05 07 f7 3d c1 34 b2 be f8 57 74 3e
       0.20680271 0.12061886 -0.34805873 0.23861682
000370 be 81 87 3c 6e bc 53 3e bb 0a e6 bd 19 2d ba 3c
       0.016541358 0.20677349 -0.112325154 0.022726582
000380 d4 06 45 3d b0 08 1b bf 57 43 d7 3e 17 2f 82 3e
       0.048102215 -0.6056013 0.42043564 0.25426552
000390 f3 24 27 3d 50 82 8a 3e c1 c3 ca 3d 05 49 bc bd
       0.040806722 0.27052546 0.09900618 -0.09193615
0003a0 15 a9 33 3e ac 5f 06 bf 9b 6d 18 be 20 4a 95 3d
       0.17544968 -0.52489734 -0.14885561 0.07289529
0003b0 40 1d 18 3e c6 97 ad be 7c 14 a1 3c 7d bd 37 bd
       0.14854908 -0.33904856 0.019663088 -0.044858444
0003c0 79 25 19 3d 91 fa d4 3d c7 0e a7 3e 18 03 03 bf
       0.037389252 0.10399354 0.32628462 -0.51176596
0003d0 f6 6a 8b be f7 82 3f bf 75 91 8c bb 80 62 a5 be
       -0.27230042 -0.7480921 -0.0042898008 -0.32301712
0003e0 a2 64 d7 3d 5c d8 ac be 5e 44 9c be 5a cd b3 be
       0.10517241 -0.3375882 -0.3052091 -0.35117608
0003f0 c8 4f 1c bc 90 05 35 be fb ed 2d be c1 98 bb bd
       -0.009540506 -0.17677903 -0.16985314 -0.09159995

l2.weight f4 [300, 400]
000000 b4 a1 b2 3c 1a 32 75 3c 80 d7 73 3b 0a 81 9f 3c
       0.021805622 0.014965558 0.0037207305 0.01947071
000010 06 d6 82 3c 0c 2a 18 bd 27 80 0d bd 14 20 9c 3b
       0.015971195 -0.037149474 -0.034546044 0.004764566
000020 e8 8b 62 3c 0b 2e 83 bc f9 e3 38 bd b1 38 ec 3c
       0.013827302 -0.016013166 -0.045139287 0.028835626
000030 84 b9 21 bd fc 86 6d ba 4d 2e f3 bc 42 5c 8d 3c
       -0.039483562 -0.0009060947 -0.029685164 0.017255906
000040 f9 22 c6 3c a0 a7 d1 ba a8 ce 85 bc 5f d6 4f bc
       0.024186598 -0.0015995391 -0.016333893 -0.012685387
000050 38 68 fd 3a da 97 93 3c 9f 1c e5 3c 18 29 d7 bb
       0.0019333428 0.018016744 0.02796775 -0.006566178
000060 50 15 e5 3c 69 85 43 3b 20 bb 2c bd 29 69 12 bc
       0.027964264 0.0029834157 -0.042170644 -0.008936205
000070 a2 cc 5a bd 87 8e b8 bc 07 e7 d1 3b 50 17 f8 3c
       -0.05341781 -0.0225289 0.0064057144 0.030284554
000080 19 04 58 3b cc c4 31 3c d8 ea b0 3c d2 03 ab bc
       0.0032961427 0.010850143 0.021596357 -0.020875845
000090 77 1e 1f 3a b6 dc 25 bd 81 0f 2b bd 7b fa f8 bc
       0.0006069908 -0.04049369 -0.041762833 -0.030392876
0000a0 32 80 db 3c cb 7c 09 3d 3a 89 5b 3a 25 12 26 3d
       0.026794527 0.033566277 0.00083746354 0.040544648
0000b0 b4 b3 3a 3c 98 aa 3d bb b5 a0 9b bd 9a a0 e7 bc
       0.011395384 -0.0028940793 -0.07599012 -0.028274823
0000c0 4d cf dc 3b 04 c7 88 3b 72 8d c5 3c 00 67 b6 ba
       0.0067385794 0.004174115 0.024115298 -0.0013916194
0000d0 1c 4e 67 3a d8 87 48 3c 8e 1f 26 bd 9c e4 4a bd
       0.000882359 0.012239419 -0.040557437 -0.049534425
0000e0 4f f3 58 bc d2 2b 31 bd e4 28 eb 3b c6 50 e1 3b
       -0.013241603 -0.04325468 0.0071765054 0.006876084
0000f0 d1 4c 94 3c 4c 67 58 3d 98 9c d3 3b 0c 45 11 3c
       0.018103035 0.052832887 0.0064578764 0.00886656
000100 6b 03 8a 3b 81 3c 01 bd 98 20 1c 3c b0 ab 61 3b
       0.0042118332 -0.03155184 0.009529255 0.003443461
000110 a5 0a 17 bd 5b c3 49 bd ec 82 62 3d 8b c6 10 bd
       -0.036875386 -0.04925857 0.055300638 -0.035345595
000120 c6 a7 97 bc cb 10 03 3d ca 96 9d bc 70 7b 86 bd
       -0.018512618 0.031998437 -0.01923694 -0.065665126
000130 9e 2e 9a 3b 13 21 34 bd 70 66 ff bc 9b cc 06 bb
       0.0047052642 -0.043976855 -0.031176776 -0.0020568732
000140 4b 38 38 3d 7c de ee bc 04 50 a4 bc 50 c5 0b 3b
       0.04497556 -0.029158823 -0.020057686 0.0021327324
000150 cf 48 18 bc 43 bb 9f bc d0 0a b3 bc 34 45 89 bc
       -0.009294703 -0.019498473 -0.021855742 -0.016756631
000160 ed 65 bb bc d1 10 b3 3c bc ce cb bc b4 44 2d 3c
       -0.02287575 0.021858605 -0.024878852 0.010575462
000170 f4 b0 4b 3d d8 8d 2f 3c 71 0a 40 bd 17 9b d7 bc
       0.049729303 0.0107149705 -0.046884958 -0.02631907
000180 28 5a bf 3b 89 78 22 bc ed 35 46 bb 26 eb 05 bd
       0.005839605 -0.009916433 -0.0030244545 -0.03269496
000190 25 84 04 bb ce 67 5f bc 7f 5e 83 bb 42 37 08 3d
       -0.0020220366 -0.013635589 -0.0040090675 0.033255823
0001a0 18 8f 80 bc 87 c4 b3 bc ec cd 57 bd 89 cf 1b bd
       -0.015693232 -0.021944297 -0.052686617 -0.038039718
0001b0 52 dd e4 3c 78 61 2c 3c db 3d ad bc cc 3a 24 bc
       0.027937565 0.010521285 -0.021147659 -0.010023784
0001c0 b1 3d 8b bc 53 87 25 bd 4a 05 7f bc c6 2e 09 3d
       -0.01699719 -0.04041226 -0.015565226 0.033491872
0001d0 90 3b a3 3b 4b 56 47 bd 38 3e f9 bb 19 95 fa 3c
       0.0049814656 -0.04866628 -0.007606294 0.030588673
0001e0 e6 89 eb bc d7 31 a0 3a d5 f6 87 bd 11 ba 3e bd
       -0.028752279 0.0012221885 -0.06638876 -0.046564166
0001f0 1d 78 94 bc 5f c2 b4 3c 03 47 2f bc 4f 4c ee bc
       -0.01812368 0.02206534 -0.010698083 -0.029089121
000200 ed fb 32 bd c0 b9 2c 3d d1 4a 47 3d 0e 54 14 3c
       -0.043697286 0.042169333 0.048655335 0.009053243
000210 55 ad 2c 3d b7 18 15 3d 93 c7 ed 39 a6 31 0d bd
       0.04215749 0.036400523 0.00045352857 -0.034471177
000220 0b 49 fd bc de 3d 8b 3c d7 fc e9 bb c9 34 88 3b
       -0.030918619 0.016997274 -0.0071407366 0.004156683
000230 f8 83 46 bc 38 15 19 3d 39 2c 9d 3b 32 fd a4 ba
       -0.012116425 0.03737375 0.0047965315 -0.0012587665
000240 44 98 26 bc ef 98 a8 3c 78 22 91 bc d1 54 9e 3c
       -0.010168139 0.020580737 -0.017716631 0.019327553
000250 20 82 7c 3b f7 dc fe bc 18 99 8b 3b 59 d3 e9 bc
       0.003852971 -0.031111224 0.0042601936 -0.028543161
000260 89 2b 41 bb 35 af e4 3b 60 a7 1a 3d 95 50 0d bc
       -0.0029475412 0.006978894 0.037757277 -0.008625169
000270 1c 98 d8 3b 30 7e fd 3b 9e 5e ef bc 2c 84 96 3d
       0.0066099297 0.00773599 -0.029219922 0.073494285
000280 72 2c 5f bb 83 16 0e 3b 1f 51 44 bd fb 53 45 3d
       -0.003405359 0.0021680898 -0.047928926 0.048175793
000290 47 36 16 bd bf 84 c4 3c 59 f0 93 bc f4 31 16 3c
       -0.036672857 0.02398908 -0.018058943 0.009167183
0002a0 50 ad 49 bd fd 56 8e bc d4 fe b3 bc 82 4b af bc
       -0.04923755 -0.017375464 -0.021972097 -0.02139831
0002b0 33 62 f3 bc 61 7f c8 bc c6 fe c6 bc 93 a7 68 3c
       -0.029709911 -0.024474801 -0.024291407 0.014200109
0002c0 51 e5 99 3c ec f1 95 3b 1d 4f f6 bc d3 92 3d 3d
       0.018786104 0.0045759585 -0.030067021 0.0462826
0002d0 ba 08 12 3d c7 ba 1b 3d 8e 43 a0 3c 68 5d 9e bd
       0.035652854 0.03801992 0.019563463 -0.077326596
0002e0 54 5a b7 3c 74 2f 3f bc 8a 01 13 bd 21 53 26 bd
       0.022381939 -0.011669029 -0.03589014 -0.04060662
0002f0 06 51 0d bd 39 22 34 bd fa 17 da 3c 1e b7 7d 3c
       -0.034501098 -0.04397795 0.026622761 0.015485553
000300 15 92 0a bc f2 45 9a 3c 43 81 b1 3a ba c8 b6 3c
       -0.00845768 0.01883218 0.0013542551 0.02231251
000310 97 25 a9 bc 98 a5 89 bd 07 75 39 bd fa d9 b9 3b
       -0.020647807 -0.067210376 -0.04527762 0.005671737
000320 ff 8c 6f bd 48 b4 0f bd 38 21 47 bd 93 4d 2f bd
       -0.058484074 -0.03508404 -0.048615664 -0.04279859
000330 d2 9c 3f bd 50 24 43 bd 30 07 76 bb 7a 62 5a bd
       -0.046780415 -0.047642052 -0.0037540905 -0.05331657
000340 68 df 2c bd 4b c1 56 bd 15 9e 9b 3c ae 86 e2 3c
       -0.042205244 -0.052430432 0.018996278 0.02765211
000350 7c 9b b8 bc a8 ba 80 3c 1a 42 21 bd 2a 3d 60 bd
       -0.022535078 0.015714005 -0.03936968 -0.05474583
000360 a8 68 84 3c 1b 1c 17 bd b3 cf 29 3d f5 44 17 3a
       0.016163185 -0.036892038 0.041457843 0.0005770468
000370 98 1d 1e bc 47 a1 82 bd e8 be e6 3c 39 07 5e bc
       -0.00965061 -0.063784175 0.028167203 -0.013551527
000380 30 36 95 bc 86 a4 10 bd 52 f9 6c bc 90 c5 7d bd
       -0.018214315 -0.03531315 -0.0144637395 -0.06195599
000390 31 fa 37 bd fb f1 44 bd b2 d3 ad bd 2e 40 29 3c
       -0.044916335 -0.048082333 -0.08487643 0.010330243
0003a0 89 19 09 bc 2e 55 96 3c 3d db 2d bd f6 49 ce ba
       -0.008367904 0.018351164 -0.04244541 -0.0015738595
0003b0 3f 8d 8b bb 8a e8 87 bd f6 5e 62 3c 5d 9f 6d bd
       -0.004258781 -0.0663615 0.013816586 -0.05801331
0003c0 a1 0d 82 bc be c6 37 bc bb dd 0a bd 24 2a 43 bd
       -0.01587564 -0.011216817 -0.033902865 -0.04764761
0003d0 8c 66 42 bd c7 51 f1 bc 71 ad d2 bb 84 66 1b bd
       -0.047461078 -0.02945794 -0.0064293672 -0.037939563
0003e0 da 63 00 bd f0 ef 89 3b 07 5a 33 3d b9 06 4c 3d
       -0.031345226 0.004209511 0.04378703 0.0498111
0003f0 38 c4 9c 3c 1a 03 9a 3c 09 07 da bc 64 22 7e 3c
       0.019136533 0.018800307 -0.026614683 0.015511129

l2.bias f4 [300]
000000 a8 86 f6 bb 32 53 61 be 70 65 83 3b 8c 28 29 bc
       -0.0075233765 -0.22004393 0.004009895 -0.010324609
000010 c1 94 91 3c 1b cb b5 bc c8 fb c1 3b a0 0f 47 bc
       0.017771127 -0.022191575 0.0059199072 -0.012149721
000020 e0 3e 5d bd 33 ab 21 3d 1f 50 f3 bd 49 48 1b bd
       -0.05401504 0.03946991 -0.11880516 -0.037910733
000030 a2 54 23 bd 7f 99 49 bc f8 db 03 bb a8 66 3b bc
       -0.039875634 -0.012304663 -0.0020120125 -0.011438049
000040 91 fc 63 bc 44 4f 27 bd 3a 17 75 bd e2 fb 04 3c
       -0.013915197 -0.040847078 -0.059836604 0.008116694
000050 79 bf b0 bd 5d 10 c6 bb c4 5f b8 bd ac de 3a bc
       -0.086302705 -0.006044431 -0.09002641 -0.011405628
000060 4a ed 64 bd c6 f0 6d 3c 26 9f 67 bd f9 8d b5 bd
       -0.05589036 0.014522737 -0.05654826 -0.0886497
000070 28 e3 e5 bd 37 0e 39 bd dc a2 44 bd d5 9e a5 bc
       -0.11224967 -0.045179572 -0.048006877 -0.020217339
000080 f5 df 7f bd a1 37 83 3c 90 b4 8a bd 44 7a ee bc
       -0.06246944 0.016017737 -0.06772721 -0.029111035
000090 4d 53 af ba e1 0e fe 3c 39 c0 ba 3c a5 64 26 3d
       -0.0013376266 0.031012954 0.022796737 0.040623326
0000a0 05 23 d2 bc 48 f1 8a bd e2 85 c4 b8 81 d3 85 bc
       -0.025651464 -0.06784302 -9.370946e-05 -0.016336204
0000b0 9a 1d 75 bd fa f8 63 3c 5c cc eb 3c b7 48 94 bd
       -0.059842683 0.013914341 0.02878397 -0.07240432
0000c0 aa 98 a4 ba ad bc 8c bd e4 18 98 bc 77 a2 7f bc
       -0.0012557704 -0.068719245 -0.018566556 -0.0156026995
0000d0 b5 a7 9d bd ef ce d5 bc 93 c7 b0 bc 82 a3 99 3c
       -0.07698003 -0.02609965 -0.02157954 0.018754724
0000e0 3b 79 03 3c 92 2c ed 3c 12 09 83 bd 6e 02 ff bc
       0.008024509 0.028951917 -0.063982144 -0.031129088
0000f0 6a 96 d9 3c 5f 82 3c bd 3c 9f ae bd ed b2 a4 bd
       0.02656098 -0.04602277 -0.08526465 -0.0804194
000100 b5 5c 0b bd 27 da 36 bc 34 7a 42 bd 07 64 bc bd
       -0.03402396 -0.01116041 -0.047479823 -0.09198766
000110 1c 57 89 3c 3b b8 33 bc da 79 0c bd c5 e0 c0 bd
       0.01676517 -0.010969217 -0.034295894 -0.094178714
000120 99 97 4d bd 22 c3 ce bd 34 6f 6d bd 91 53 c5 bd
       -0.050193403 -0.100958124 -0.05796738 -0.0963508
000130 6a fb 80 3c e5 22 be 3c 3d 64 9c bb d8 66 c0 bc
       0.015744884 0.023209998 -0.0047726915 -0.02348654
000140 6b 9a 02 bd e9 75 e7 3c ee be b7 bd a1 df f0 bd
       -0.031885546 0.028254466 -0.08971964 -0.11761404
000150 dc bf 4a bd 78 0c a4 3d 8d 68 75 3c 40 a5 e4 bb
       -0.049499378 0.08010191 0.01497854 -0.006977707
000160 90 79 6c bd 93 80 d6 bc cd fc 72 3d a5 30 8d bd
       -0.05773312 -0.026184356 0.05932312 -0.06894044
000170 23 24 1d 3d 85 ef df bc 18 71 90 bd ae dd 4e bd
       0.03836454 -0.027335892 -0.07052821 -0.05050438
000180 a9 4e 68 bc 0f 56 84 bd 1d 33 cb bd 80 d6 f5 bc
       -0.01417891 -0.06461727 -0.099218585 -0.030009508
000190 32 c2 09 3d 85 16 06 bb c3 5b f0 bd 93 8b f4 bc
       0.033632465 -0.00204602 -0.11736252 -0.02985171
0001a0 01 dd 8b bd dd 47 0f bd db 22 5a bd 0c 10 a8 bc
       -0.068292625 -0.034980644 -0.053255897 -0.020515464
0001b0 9e 72 58 bd d2 59 71 bc f8 3e 2c bd 2d a4 90 bc
       -0.052843682 -0.0147308875 -0.04205224 -0.01765641
0001c0 a3 a1 45 bd 57 14 08 3d 88 39 81 bc b4 15 17 3d
       -0.048249852 0.033222523 -0.015774503 0.036885932
0001d0 16 34 27 bc de 33 c1 3c 76 3b 05 bd 30 e1 9b bd
       -0.010205289 0.023584303 -0.03252741 -0.076113105
0001e0 a8 bb 6a bd 58 6b 58 bd 44 dc be bb 69 16 73 bd
       -0.05730787 -0.052836746 -0.0058245976 -0.059347544
0001f0 4a 99 eb bc dc d7 9f 3d b6 e1 1a bd e8 d2 35 3c
       -0.028759617 0.07804844 -0.03781291 0.011097647
000200 3d 0c 23 bd e2 83 7c bd dc b4 12 bd 22 74 c8 bd
       -0.039806593 -0.06164921 -0.035817012 -0.097877756
000210 87 d5 87 bd 96 59 d7 bd 97 95 ec 3b fb be 77 3c
       -0.06632524 -0.10515134 0.007219981 0.015121217
000220 7b 1f 0d bd dd 2f a3 bd be 52 08 bd 8d 23 be 3c
       -0.03445385 -0.079681136 -0.033282034 0.023210311
000230 8c 18 6a bd 46 d6 ab 3c 67 91 d8 bc 4a e3 0a bd
       -0.057152316 0.020976197 -0.02643652 -0.033908166
000240 76 45 4f bd 36 ba 06 3e c9 83 9a bd 1a 04 12 bc
       -0.050603352 0.13156971 -0.07544667 -0.008912111
000250 6d b2 10 bd d0 3d 65 bd c5 38 49 bc dc 96 de bd
       -0.03532641 -0.055967152 -0.012281601 -0.10868618
000260 1e 29 83 bd 4c fa ac 3c d2 90 3e bd cb c4 27 b7
       -0.06404327 0.021115445 -0.04652483 -9.999795e-06
000270 91 71 29 ba fc ba 77 3a ce 1a 62 bc b9 da ed bc
       -0.0006463761 0.0009450165 -0.013800336 -0.02903496
000280 e7 4a 9d bc b8 49 68 bd a3 d6 2f 3c 2d eb 56 bc
       -0.019200755 -0.05671093 0.010732326 -0.013117594
000290 d4 a3 0a bd 7e 9b d9 bb dc 3d 9c bc 38 8f 97 bd
       -0.033847645 -0.0066408506 -0.019072466 -0.07400364
0002a0 a9 b1 22 bd af 98 1e bb 23 55 09 3d c6 d2 8b bd
       -0.03972021 -0.0024199893 0.03352846 -0.06827311
0002b0 65 0a 0c bd 64 07 3a bc 2a b6 89 bd 8c 38 55 bd
       -0.0341896 -0.011354301 -0.06724198 -0.05205588
0002c0 a7 01 ba 3a ae d4 7b bd 2b 13 45 bd 70 51 0f 3d
       0.0014191166 -0.061482124 -0.048113983 0.034989774
0002d0 54 46 0f bd 74 65 68 bc 2d 5e ed 3c 19 6c 63 bc
       -0.03497918 -0.014184345 0.02897557 -0.013880753
0002e0 04 4b b9 3b d3 d6 2b bd 6e b9 ea bd 7e e4 36 bd
       0.0056546945 -0.04195292 -0.11461149 -0.0446515
0002f0 4e 08 99 3c 4e 06 f2 bc 04 8a 53 bc a4 76 0d bd
       0.018680718 -0.029544022 -0.012911323 -0.034536973
000300 7f b8 51 3c 1e ef 4c 3d bc 66 d7 bd 93 f8 1d 3c
       0.012800335 0.050032727 -0.10517642 0.009641784
000310 79 e5 b5 3c 04 b7 d5 bd 44 c7 97 bd 06 b7 9c bd
       0.022204148 -0.10435298 -0.07411054 -0.076520965
000320 89 a3 9b bc b0 2a ba 3c 90 5b 41 3c 25 ce 5f 3c
       -0.018998878 0.022725433 0.011801615 0.0136599885
000330 77 d7 80 bd 40 39 58 bd a0 dd e3 3c 6d af 1d bd
       -0.06291097 -0.052788973 0.02781564 -0.038497377
000340 36 7f 28 bd a5 61 1c 3d 18 2f 2f bd 7d 1b 76 3c
       -0.041136943 0.03817906 -0.04276952 0.015021202
000350 a9 ee 27 bd 53 8f b4 3d 08 92 ba 3c a6 87 94 bb
       -0.04099909 0.088163994 0.022774711 -0.004532772
000360 51 44 bb bd c9 c0 b2 bb c9 91 90 bd e3 fc a1 3c
       -0.0914389 -0.0054551107 -0.07059056 0.019773906
000370 65 ca bd bd e2 ca 2d bd c8 e0 28 3c cc a4 b8 bc
       -0.09267119 -0.042429812 0.010307498 -0.022539519
000380 10 28 8d bd ba d0 2d 3b 5f 55 fa bc 53 d7 8f ba
       -0.06892407 0.0026522116 -0.030558286 -0.0010974206
000390 2f 3a e2 bc 5b 0b 06 bc e8 72 96 bd bc 7e 3a bb
       -0.027615635 -0.008181418 -0.073461354 -0.0028456887
0003a0 1b 63 ae bc 75 80 16 3d 7f a3 f7 3c ba 56 3a bd
       -0.021287492 0.0367436 0.030229328 -0.045492865
0003b0 59 ec c1 3c 69 c0 2a 3d 12 f4 86 bd 77 60 05 bc
       0.02367227 0.041687403 -0.065895215 -0.008140675
0003c0 ff e0 03 bc 04 56 25 bc 77 08 91 bd 04 4a 8f bd
       -0.008049249 -0.0100913085 -0.07081693 -0.06996539
0003d0 43 e2 48 bd 47 1d 84 bd df 77 6f 3c 7f ed 82 bc
       -0.049043905 -0.06450897 0.014615982 -0.015982388
0003e0 c5 d2 2f bd c4 8a 8e bd 7d 82 a0 bd fb c9 d7 bb
       -0.042925615 -0.06960061 -0.07837389 -0.0065853572
0003f0 60 c1 1b bd ac fb 89 bd 76 29 af bc cb 2f 9a bd
       -0.038026214 -0.06737456 -0.021382075 -0.07528647

l3.weight f4 [1, 300]
000000 40 3f 3e bc 89 07 1e 3f 5b ca da 3c 10 d7 1d 3d
       -0.01161176 0.6173025 0.026707819 0.038535178
000010 a5 f8 27 3c 5b b8 0a bb b5 d1 9f bb 50 62 dd bb
       0.010252153 -0.0021167013 -0.004877294 -0.0067561045
000020 d8 c4 13 3c c4 bc c9 3c ff 35 ee bd 54 f8 10 3d
       0.009019099 0.024626143 -0.11631393 0.035393074
000030 d6 67 57 bd 0e 4e 92 ba 44 49 d1 3b 33 e6 e8 bc
       -0.05258926 -0.0011162178 0.006386908 -0.02843008
000040 73 ba e7 bb 65 9f 96 bd c0 d5 67 3c d7 90 9e bb
       -0.007071787 -0.07354621 0.014150083 -0.0048390436
000050 58 5c 96 bd 01 99 ce 3c 06 ad ed bb 78 7d 68 3a
       -0.07341832 0.025219442 -0.007253292 0.0008868794
000060 ce 6a 1e bd 52 1c d0 3c 76 54 45 bd e7 3c 7e bd
       -0.038676076 0.02540413 -0.04817625 -0.0620698
000070 a3 c4 81 bd 34 f0 a5 bd 68 cc 4c 3b 6f 75 47 3d
       -0.063363336 -0.08102456 0.0031249765 0.048695978
000080 e1 6b 31 3e cf 6f b3 3b 14 d0 b4 ba 48 43 db 3c
       0.17326309 0.005475975 -0.0013794922 0.02676548
000090 96 4c 81 3c 57 e1 3e 3d a2 f1 b0 3c 45 c9 1c 3d
       0.01578359 0.04660162 0.021599595 0.038277883
0000a0 0b 12 0b 3b 4b cb 92 bd 7a 51 46 3c b9 8a 99 bd
       0.0021220471 -0.07167681 0.012104386 -0.07497162
0000b0 7d 9f c0 3c 49 9a 66 3c 48 cd 2a 3d d4 8b 97 bd
       0.02351355 0.01407487 0.041699678 -0.07399717
0000c0 6a d3 12 3d be 8e e0 3c c2 f1 91 bd 8e b8 76 3b
       0.03584615 0.027411815 -0.0712619 0.0037646624
0000d0 c3 03 8b bd 90 8a 7f b8 ec 8e 62 ba f6 59 cd 3c
       -0.06787827 -6.0925784e-05 -0.0008642513 0.02506731
0000e0 f7 9b 95 bb 16 7a 8a 3c d8 32 81 bd af 41 96 bb
       -0.0045657116 0.016903918 -0.06308526 -0.004585467
0000f0 1e d1 b5 3c 63 44 4c 3d 47 25 07 be 2a 1f 72 bd
       0.022194441 0.049869906 -0.13197814 -0.05911175
000100 67 6f 91 bd a6 f4 90 bb d0 e8 fe 3c 89 79 58 bd
       -0.071013264 -0.0044236956 0.031116873 -0.05285028
000110 0d 51 c8 3c ee 0c 1e 3d 34 32 4e 3c 8b b0 7d bd
       0.02445271 0.03858655 0.012585212 -0.061935943
000120 e7 d9 e7 3c 01 d1 81 bd 5d c1 ba 3c 80 95 74 bd
       0.028302146 -0.063386925 0.02279728 -0.059712887
000130 4b 74 c2 bb 42 5e 23 3d 66 ba 04 3d 45 f8 f7 3c
       -0.0059342734 0.039884813 0.032404326 0.030269751
000140 09 7e 1f bc 21 1b 72 bb 66 f9 87 bd 2b e7 a4 bd
       -0.009734639 -0.003694244 -0.06639366 -0.08051904
000150 73 96 c2 3b 2c 9d 2b 3e 9a ca d4 3c b9 48 f2 3b
       0.005938345 0.16759175 0.025975514 0.007393923
000160 49 99 b9 ba 3b 7b d3 3c ee 21 19 3e a5 b3 cb 3c
       -0.0014160062 0.025815597 0.1495435 0.024865935
000170 f3 1c 9d 3b 60 07 15 bc bc 6b 90 bd 45 b7 37 bb
       0.004794711 -0.009095997 -0.07051799 -0.002803282
000180 d6 1e 30 3c b3 89 5c 3b 68 7f 65 bd a7 fb 0c bc
       0.010749539 0.003365141 -0.056029707 -0.0086049205
000190 12 e3 49 3c b5 83 d5 3b 36 8d 0a be 32 80 28 3c
       0.012322204 0.006515945 -0.1353043 0.01028447
0001a0 e9 c4 d8 3e ec b5 32 3b f9 8b 94 bc 50 a1 25 bb
       0.4233773 0.0027269078 -0.01813315 -0.0025273152
0001b0 b8 64 df 3b 61 4e 15 bc d1 0e 18 bd 47 9d b1 bd
       0.0068174265 -0.009112925 -0.037123505 -0.086725764
0001c0 3d 0f a6 3b e5 0e 31 3d e7 66 02 3d 17 dc a6 3b
       0.0050677345 0.043227095 0.031836417 0.0050921547
0001d0 18 5b a1 bc da e4 13 3d 3f 8f b1 bd 33 48 70 bd
       -0.019696757 0.03610692 -0.086699 -0.058662605
0001e0 a4 d6 35 3c 12 ab e0 3b 0f a1 c3 bc 71 e3 43 3c
       0.011098538 0.0068563307 -0.02388051 0.011956082
0001f0 00 db c2 3c c4 45 3c 3e 89 97 21 bd 06 f1 c4 3b
       0.023786068 0.18385988 -0.039451156 0.0060101775
000200 f7 a4 e9 3c 38 7b 96 bd 4c f2 ab bb b0 d0 80 bd
       0.028521044 -0.07347721 -0.00524739 -0.06289804
000210 55 00 54 bd d0 ee 0a be df 01 95 bb e2 ec 56 bc
       -0.05175813 -0.13567662 -0.004547342 -0.013118001
000220 53 8e 85 bd 92 cb 8d 3c 28 21 b0 bd 4c c2 76 bb
       -0.06521287 0.017308984 -0.08600074 -0.003765243
000230 6c 6d 65 bd ff 36 13 3d 1e 82 24 3d 69 6e 66 bd
       -0.056012556 0.03594112 0.040163152 -0.05625764
000240 70 a4 a4 3b 50 7f 2e 3e 43 bd e9 bc e5 23 de 3a
       0.0050244853 0.17040753 -0.02853263 0.0016947953
000250 e8 1c 4f bb d8 2a 1d 3d 6a 20 17 bb bc 8b 9e bd
       -0.0031602923 0.038370937 -0.0023060092 -0.07741496
000260 e7 47 03 3e dd 3b 52 3c 78 9d 43 3c 4d 15 e1 3c
       0.12820397 0.012831655 0.011939399 0.027475977
000270 13 27 fd 3b 4e c8 ac 3c 71 8f bb 3c fa cf 8d bd
       0.0077256053 0.021091606 0.022895547 -0.06924434
000280 2d d9 1b 3c aa 44 00 bd 78 12 12 3b bf 4b dd bc
       0.009512228 -0.031315483 0.002228884 -0.027013658
000290 1f 79 8e ba 0c 0d c3 3c 6e f5 8e bd 90 55 b8 3b
       -0.0010869837 0.023809932 -0.06980406 0.005625434
0002a0 3d cf c1 3c f8 c0 1d 39 c5 c1 91 be 3a 26 b0 3c
       0.02365839 0.00015044573 -0.28468147 0.021502603
0002b0 c0 96 0c 3b 77 31 7b 3b 05 01 92 3c 54 da a4 bc
       0.0021452159 0.0038329044 0.017822752 -0.020123638
0002c0 75 18 ea bb cc 75 af bd 89 7c 3d 3c 8e 61 9b 3d
       -0.007144029 -0.0856739 0.011565336 0.075869665
0002d0 50 38 0a 3d b0 6c 05 3c ac 19 37 3d 31 16 93 bd
       0.03374511 0.008143589 0.044702217 -0.07181967
0002e0 8b 54 a6 3b c9 94 91 bd 2a 59 95 bd e4 92 89 bd
       0.0050759963 -0.07108457 -0.07292397 -0.0671747
0002f0 84 c1 8b 3c 47 41 00 3d 43 e8 9d bd a2 81 d6 3c
       0.017060049 0.031312253 -0.07710316 0.02618486
000300 e9 a9 4a 3c 26 59 99 be f3 f4 90 bd 7a c4 41 bb
       0.012369611 -0.29950827 -0.0707797 -0.0029566572
000310 db f0 8b 3c e9 0d 9f bd a6 1e 89 bd 67 d9 25 bc
       0.017082622 -0.07766325 -0.06695299 -0.010122634
000320 d6 3e 23 3d f4 28 0d 3c ae 7f 2f 3d b3 e9 99 3c
       0.039854847 0.008615721 0.042846374 0.018788194
000330 ef 84 ee 37 cb 41 35 3d bb b8 ae bb e1 12 48 bc
       2.8433713e-05 0.0442522 -0.00533208 -0.012211532
000340 14 c2 4c bd b8 cd 50 3b f2 72 83 bb e7 9b 17 bc
       -0.049989775 0.00318609 -0.0040115053 -0.009253479
000350 73 a3 8e 3c 2c 13 e4 3d 40 e0 bd bb 1b dc d9 3c
       0.017411923 0.11136469 -0.005794555 0.026594212
000360 18 f4 4f bd f4 e2 39 3c 0d 71 76 3c 9e c5 95 3c
       -0.050769895 0.011345614 0.015041602 0.018282708
000370 f0 f4 96 bd c9 58 37 3d fb 7a 87 3a d1 8f 5e 3c
       -0.07370937 0.044762406 0.0010336334 0.013584093
000380 04 21 8d 3c 0f 4e af bc 0d fe df bc 68 67 74 bb
       0.017227657 -0.021399526 -0.02734282 -0.003729308
000390 91 fb 9f bd 56 fe bb 3c e7 6c 05 bd 8d 06 f8 3c
       -0.07811654 0.022948425 -0.03257456 0.030276561
0003a0 43 f2 c2 bc a3 d7 d9 3c 3a 84 f0 3b b5 f5 bd bc
       -0.02379716 0.026592081 0.0073399814 -0.023188451
0003b0 4b 90 76 ba 72 99 68 3c 2f bb d0 3d 48 df ca bb
       -0.00094056566 0.01419674 0.101919524 -0.006191168
0003c0 e2 39 1d 3c 37 1f 0b bd 66 bf 8d 3c 78 26 6d 3c
       0.00959632 -0.033965316 0.01730318 0.014474504
0003d0 34 93 0d bd fb 56 b5 bc df 4f 15 3b 18 7a 9d bd
       -0.034564212 -0.022136202 0.0022783203 -0.07689303
0003e0 0f 45 96 bc ba 28 7a bd 1b 0c 66 bd 06 b2 80 bb
       -0.018343477 -0.061073996 -0.05616389 -0.003927472
0003f0 c7 a8 25 3b 71 e9 38 bd a3 b2 c1 bb d6 74 14 bb
       0.00252776 -0.045144502 -0.0059111877 -0.0022652647
