InvertedPendulum/InvertedPendulum-v4_critic.pth (torch, 988642 bytes, 10 tensors)

l1.weight f4 [400, 5]
0.2549693 -0.9835965 0.5679085 0.21578991 0.03500159 -2.0246642 1.5309012 0.21983841
0.028530112 -0.03407606 -0.0026048687 -0.82746124 -0.016258027 0.013045491 0.00061826647 0.34617823
0.20457904 -0.35173497 -0.1649736 -0.01561978 -1.5591917 0.76757663 0.23233229 0.33975363
0.051063944 -0.30860576 -2.709526 -0.787405 -0.53671914 0.12156962 -0.14585473 6.1554112
0.063340485 0.52532 -0.3189798 -0.16339369 2.740857 1.5765702 1.2931846 -0.36043578
-0.033997294 0.94166064 0.27795193 0.19853042 -0.0037938077 -0.031762533 -3.269899 -0.07816287
-0.04639411 0.013801633 0.27985913 -2.5800335 -0.19399115 -0.12038148 0.0006235598 0.1796987
6.045679 0.38403136 0.69007486 -0.19826163 -1.3313668 -0.090501465 -0.073008604 0.00025565593
-0.0061231344 -0.1566483 -1.8830876 -0.30292863 -0.06650349 0.015490191 -1.5264658 -2.1734638
-0.7335564 -0.48422348 0.102297276 0.19778256 0.4529502 -0.30782878 -0.16192655 -0.011335922
-1.5295014 -2.0942788 -0.6471672 -0.40804052 0.087952025 -0.8097773 -3.0756793 -1.8146067
-0.88776463 0.033007156 0.2331136 -3.8648891 0.06885162 -0.29361904 0.23921736 -0.10743195
2.8705494 -0.81862307 -0.25083655 -0.05822628 0.29267207 0.46776754 -0.5659392 -0.34611285
0.088269435 0.7266572 -0.54075545 0.33817148 -0.10956117 0.078846715 0.12151634 0.06561224
-0.12152446 -0.051994883 0.02847395 -1.0885788 -0.31761286 -0.3219789 -0.08183944 -0.022249034
1.9392995 2.5722713 0.8758111 0.3810096 -0.008947083 -0.13424669 -2.3800552 -1.6274396
-0.5390026 -0.0323551 -0.67009884 0.16384497 -1.0908461 -0.30374038 -0.1041052 2.0471148
2.4567072 0.91633654 0.41088215 -0.0043961774 1.5703733 3.7704418 1.0829233 0.6907539
-0.13412589 0.4072759 -2.3240426 -0.1995909 -0.1362137 0.0032252234 0.5026669 0.47033417
0.46145564 0.30794072 -0.0727077 -1.0653085 -0.8210814 -0.44228145 -0.14995776 0.04144373
-1.3526096 -1.1706836 -0.22165932 0.09064256 -0.1979421 0.16596326 -2.2542598 -0.080769494
-0.02277795 -0.01140421 0.05028471 0.20825922 0.017172884 0.008721433 0.000164553 -0.6183884
-3.1215842 -0.77272975 -0.24488124 0.019043855 -0.055569533 1.1930867 0.41024095 0.12500083
0.014085584 0.71184886 -3.2015822 -0.014809101 -0.21591517 0.062530145 0.2348252 -0.6697289
-0.6032106 -0.32402757 0.08151216 0.68278253 0.88767475 -0.71096545 -0.28597513 -0.021287201
1.3364296 2.720377 -0.41190663 0.5793458 0.17798936 -1.092062 1.8951894 0.12444543
0.5382102 -0.09391115 -0.14127044 -3.409498 0.042231563 0.113022394 -0.017048413 0.013877465
-1.002938 -0.08541066 -0.022660831 0.020204592 0.2700646 -4.1880813 0.030505642 -0.2952235
0.18651867 0.19460978 -2.387365 -0.14176336 -0.08141244 0.025381204 -0.015844868 -2.111471
0.29865715 0.10847043 0.056206435 0.19895579 1.8916671 -0.5061068 -0.2822999 0.033128854
1.5387301 -0.5646216 -0.17408322 -0.17644517 0.045247924 -0.2066229 0.81948304 -0.87697923
-0.35307926 -0.0236268 -0.030633572 5.555014 0.024209388 0.2179297 -0.09691521 0.11108222
00000000: 568b 823e fbcc 7bbf 7462 113f 08f8 5c3e
00000010: d45d 0f3d 1994 01c0 92f4 c33f 521d 613e
00000020: fbb7 e93c 5793 0bbd 72b6 2abb 80d4 53bf
00000030: 8e2f 85bc c1bc 553c 2913 223a 463e b13e
00000040: 2b7d 513e 9b16 b4be d7ee 28be 1bea 7fbc
00000050: 9893 c7bf e77f 443f 84e8 6d3e 30f4 ad3e
00000060: 6d28 513d 9301 9ebe e068 2dc0 6093 49bf
00000070: 6d66 09bf 7ef9 f83d f15a 15be 21f9 c440
00000080: a8b8 813d 5f7b 063f 5251 a3be ad50 27be
00000090: 336a 2f40 0dcd c93f 1387 a53f 0a8b b8be
000000a0: bf40 0bbd ac10 713f b74f 8e3e 8f4b 4b3e
000000b0: 88a1 78bb 6e19 02bd 0646 51c0 db13 a0bd
000000c0: c007 3ebd 3f20 623c b249 8f3e 451f 25c0
000000d0: 9ea5 46be 918a f6bd 6476 233a f002 383e
000000e0: 3476 c140 c29f c43e bfa8 303f 1905 4bbe
000000f0: 3a6a aabf d558 b9bd 8985 95bd 8f09 8639
00000100: 93a4 c8bb 6968 20be 0409 f1bf 7619 9bbe
00000110: fb32 88bd 92ca 7d3c 3b63 c3bf 081a 0bc0
00000120: 5aca 3bbf 24ec f7be 3c81 d13d 8387 4a3e
00000130: 17e9 e73e bc9b 9dbe 13d0 25be 4eba 39bc
00000140: b4c6 c3bf aa08 06c0 c0ac 25bf b0ea d0be
00000150: 3120 b43d 914d 4fbf eed7 44c0 0845 e8bf
00000160: 8b44 63bf 8332 073d 55b5 6e3e 585a 77c0
00000170: 1402 8d3d 3c55 96be 65f5 743e 4805 dcbd
00000180: 15b7 3740 4891 51bf a66d 80be ae7e 6ebd
00000190: 1dd9 953e 3a7f ef3e 64e1 10bf b435 b1be
000001a0: 9bc6 b43d 3506 3a3f f36e 0abf d024 ad3e
000001b0: 9b61 e0bd 637a a13d 8fdd f83d b65f 863d
000001c0: d1e1 f8bd 96f8 54bd 3442 e93c 8d56 8bbf
000001d0: 279e a2be 6bda a4be 709b a7bd 9b43 b6bc
000001e0: f73a f83f 18a0 2440 2835 603f b113 c33e
000001f0: c996 12bc f777 09be d352 18c0 f14f d0bf
00000200: 13fc 09bf c886 04bd 998b 2bbf fac6 273e
00000210: d8a0 8bbf dc83 9bbe 1b35 d5bd ee03 0340
00000220: b13a 1d40 0895 6a3f 255f d23e cf0d 90bb
00000230: fe01 c93f eb4e 7140 3b9d 8a3f 3fd5 303f
00000240: 4c58 09be 7786 d03e 1dbd 14c0 8f61 4cbe
00000250: 9b7b 0bbe 455e 533b c7ae 003f a4cf f03e
00000260: ea43 ec3e 68aa 9d3e c6e7 94bd 075c 88bf
00000270: 6432 52bf b772 e2be 878e 19be e7c0 293d
00000280: 5022 adbf f6d8 95bf a9fa 62be cea2 b93d
00000290: 55b1 4abe 46f2 293e cb45 10c0 7a6a a5bd
000002a0: d398 babc b9d8 3abc 57f7 4d3d e841 553e
000002b0: 26ae 8c3c 57e4 0e3c dc8b 2c39 b44e 1ebf
000002c0: 09c8 47c0 9ed1 45bf 26c2 7abe dc01 9c3c
000002d0: e19c 63bd 11b7 983f 1a0b d23e 3800 003e
000002e0: 39c7 663c ba3b 363f b9e6 4cc0 dfa1 72bc
000002f0: de18 5dbe ce0f 803d 0476 703e 5a73 2bbf
00000300: 036c 1abf f1e6 a5be d9ef a63d d6ca 2e3f
00000310: a73e 633f d501 36bf 556b 92be 7f62 aebc
00000320: 2010 ab3f a81a 2e40 6de5 d2be 0250 143f
00000330: d842 363e b0c8 8bbf 9195 f23f 3fdd fe3d
00000340: 25c8 093f 7d54 c0bd 33a9 10be 3735 5ac0
00000350: 01fb 2c3d 4978 e73d 1da9 8bbc 4f5e 633c
00000360: 4660 80bf c9eb aebd 35a3 b9bc 1a84 a53c
00000370: e845 8a3e c304 86c0 f8e6 f93c 8927 97be
00000380: c0fe 3e3e c947 473e 97ca 18c0 6a2a 11be
00000390: 91bb a6bd 3eec cf3c 19cd 81bc 5722 07c0
000003a0: 97e9 983e bf25 de3d b838 663d 11bb 4b3e
000003b0: 2622 f23f 3790 01bf 9d89 90be 1fb2 073d
000003c0: 1cf5 c43f 0b8b 10bf df42 32be 0bae 34be
000003d0: e355 393d f494 53be a4c9 513f b681 60bf
000003e0: cec6 b4be fe8c c1bc 42f3 fabc adc2 b140
000003f0: c452 c63c f728 5f3e 7b7b c6bd 137f e33d

l1.bias f4 [400]
-1.029212 -1.9751618 -0.20352557 -0.5174964 -1.2051321 -1.1341512 -1.7041898 -1.9234434
1.0524154 -0.86663604 -0.6957027 -1.2106314 -1.440013 -0.8302172 -1.906292 -0.405058
-1.4485898 -2.2410002 -1.526908 -1.2878715 -0.78132653 -1.540349 -0.24500532 -1.5132321
-1.9476131 -0.25099996 -0.91950625 -2.040786 -1.7770495 -0.75487816 -1.4205678 -1.8066914
-1.2579103 -0.55379367 -0.17238815 -1.7537363 -0.91837347 -1.2574389 -0.99530566 -0.91721666
-1.6185982 -1.8795655 -0.8671501 -0.31777588 -1.4052179 -0.72078913 -0.73479795 -0.7622605
-1.6976728 -1.313389 -1.0825546 -0.43196493 -1.9217634 -1.0617656 -1.0064878 -0.3265604
-1.9460257 -2.0267508 -1.2387114 -0.66935486 -1.1751941 -0.6793518 -1.6848365 -1.3580736
-0.7550384 -1.7022746 -0.7973207 -1.6782602 0.098227106 -1.975243 -1.5396162 -1.2744201
-1.4292727 -1.5333142 -0.7583154 -0.51211727 -1.1880351 -1.5599378 -1.7738013 -1.0854269
-0.6707383 -1.5354156 -1.1107556 -0.8315045 -0.7030275 -0.39234605 -1.4806157 -0.82118416
-0.62123036 -1.277195 -1.0428714 -0.60471237 -0.60407037 -0.75130874 -1.9687089 -1.0183157
0.25958118 -1.7934169 -1.0022911 -0.6030056 0.3086358 -0.7816128 -0.7839242 -1.4331163
-0.52249295 -1.2685742 -0.8360442 -0.39298555 -1.6710892 -1.4217017 -2.109818 -1.0560687
-0.96021587 -0.30207807 -1.7257978 -0.6268684 -1.6794863 -1.2653656 -0.5198535 -1.6552101
-1.7219862 -0.9872548 -1.8546576 -0.49171665 -0.6143934 -0.85296595 -0.8865201 -0.958767
-1.3480225 -0.40713036 -0.18898912 -1.7529966 -1.7752538 -1.606604 -0.5341372 -1.1381122
-1.7884694 -2.0093284 -1.4847012 -0.96998554 -1.2751081 -1.4241791 -1.4395958 -1.785095
-1.7254963 -1.3417791 -0.92515445 1.1528116 -0.68094134 -0.76083106 -0.2667432 -1.3292165
-2.126362 -1.6189756 -1.1190025 -0.22170398 -0.922696 -0.3199098 -1.7759603 -1.0893401
-0.50314444 -0.49212834 -1.3075285 -1.4754863 -1.4601874 -0.50192285 -1.6079165 -1.9062104
-1.5816859 -1.3873608 -0.33811688 -1.0334679 -1.6970538 -0.48316348 -0.24693902 -1.5315043
-0.6253445 -0.8729992 -1.0955087 1.505101 -0.4042589 -1.737804 -0.25153932 -1.4892924
-0.6388556 -0.48143667 -1.3002591 -1.8746854 -1.5895544 -0.97792774 -1.7831657 -1.0846701
-0.12947576 -1.8155512 -1.0658348 -1.3152356 -0.8073341 -1.2997553 -1.5529827 -0.26306927
-2.0221543 -0.33934224 -0.4837277 -1.4874706 -0.2538072 -1.1861483 -1.4420875 -0.6806174
-1.6997852 -0.29229116 -1.9157735 -2.397711 -0.15245804 -0.3614173 -1.8276641 -0.9627901
-0.2684674 -1.7666407 -1.3993285 -1.3698817 -1.6248641 -0.8420383 -1.2370439 -1.2857959
1.4057935 -2.0788078 -1.706483 -1.4096156 -1.7565029 -1.6792936 -1.7450105 -1.575942
-0.36425698 -0.20391372 -1.3927517 -0.35986504 -1.152425 -1.7775586 -1.6251807 -0.8727698
-0.8100739 -0.9682113 -1.6893111 -0.5654714 -1.7800227 -1.7564257 -1.4556049 -1.0274146
-0.71115524 -1.2111168 -1.9862185 -0.67547095 -0.7832471 -2.193094 -1.7932991 -1.33369
00000000: 38bd 83bf 1ad2 fcbf 0269 50be a57a 04bf
00000010: c541 9abf de2b 91bf e422 dabf 6533 f6bf
00000020: 8cb5 863f dcdb 5dbf 9219 32bf f8f5 9abf
00000030: 5952 b8bf 1d89 54bf 6001 f4bf c363 cfbe
00000040: 646b b9bf 8c6c 0fc0 b971 c3bf f9d8 a4bf
00000050: 0405 48bf 282a c5bf ade2 7abe 97b1 c1bf
00000060: 634b f9bf 1183 80be c364 6bbf 3d9c 02c0
00000070: 5c76 e3bf b23f 41bf 2ad5 b5bf aa41 e7bf
00000080: 3403 a1bf 6cc5 0dbf 8586 30be 6e7a e0bf
00000090: 861a 6bbf c2f3 a0bf 5acc 7ebf b6ce 6abf
000000a0: 3a2e cfbf 9a95 f0bf 8dfd 5dbf 85b3 a2be
000000b0: 2ede b3bf a385 38bf b81b 3cbf 8123 43bf
000000c0: 584d d9bf 211d a8bf 2691 8abf 822a ddbe
000000d0: 58fc f5bf efe7 87bf 98d4 80bf ed32 a7be
000000e0: 5f17 f9bf 49b6 01c0 188e 9ebf d75a 2bbf
000000f0: c36c 96bf 00ea 2dbf b9a8 d7bf 5bd5 adbf
00000100: 324a 41bf 22e4 d9bf 361d 4cbf 3bd1 d6bf
00000110: 4b2b c93d c3d4 fcbf 2512 c5bf 3320 a3bf
00000120: 68f2 b6bf a443 c4bf f520 42bf 1e1a 03bf
00000130: 8911 98bf 0bac c7bf ec0b e3bf 45ef 8abf
00000140: 81b5 2bbf 8088 c4bf 3d2d 8ebf 7bdd 54bf
00000150: 9cf9 33bf 95e1 c8be d184 bdbf 2039 52bf
00000160: f408 1fbf 207b a3bf cf7c 85bf 6ece 1abf
00000170: 5ba4 1abf c555 40bf a7fe fbbf 2b58 82bf
00000180: d3e7 843e af8e e5bf 134b 80bf 935e 1abf
00000190: 8305 9e3e c717 48bf 42af 48bf 5b70 b7bf
000001a0: 19c2 05bf a460 a2bf fe06 56bf 6735 c9be
000001b0: 40e6 d5bf 52fa b5bf 4207 07c0 422d 87bf
000001c0: b5d0 75bf faa9 9abe f1e6 dcbf 737a 20bf
000001d0: 68f9 d6bf 80f7 a1bf 1e15 05bf eddd d3bf
000001e0: 0b6a dcbf bbbc 7cbf 6c65 edbf 49c2 fbbe
000001f0: e348 1dbf fa5b 5abf fbf2 62bf c171 75bf
00000200: 008c acbf 6473 d0be 5d86 41be 3162 e0bf
00000210: 843b e3bf 33a5 cdbf 37bd 08bf a9ad 91bf
00000220: 91ec e4bf d698 00c0 b00a bebf f950 78bf
00000230: be36 a3bf 804b b6bf ad44 b8bf fe7d e4bf
00000240: 10dd dcbf 6bbf abbf ecd6 6cbf 558f 933f
00000250: 2c52 2ebf d3c5 42bf 9192 88be c423 aabf
00000260: 5116 08c0 983a cfbf 793b 8fbf 5e06 63be
00000270: ce35 6cbf 38cb a3be ab52 e3bf 7f6f 8bbf
00000280: 13ce 00bf 3ff8 fbbe 185d a7bf bcdc bcbf
00000290: 6ce7 babf 047e 00bf 35d0 cdbf b4fe f3bf
000002a0: af74 cabf 0a95 b1bf a81d adbe ad48 84bf
000002b0: 0f39 d9bf 3461 f7be 95dd 7cbe 5508 c4bf
000002c0: 9416 20bf e07c 5fbf a139 8cbf 26a7 c03f
000002d0: 06fb cebe 5d70 debf c3c9 80be 22a1 bebf
000002e0: 0a8c 23bf de7e f6be e46e a6bf b1f5 efbf
000002f0: 8576 cbbf 7959 7abf c63e e4bf 78d6 8abf
00000300: 4b95 04be fb63 e8bf 466d 88bf a459 a8bf
00000310: 73ad 4ebf 625e a6bf 23c8 c6bf 04b1 86be
00000320: fa6a 01c0 44be adbe 28ab f7be 7065 bebf
00000330: 04f3 81be b5d3 97bf 5396 b8bf f13c 2ebf
00000340: 9092 d9bf 30a7 95be 1138 f5bf 1974 19c0
00000350: f61d 1cbe b00b b9be e6f0 e9bf 6979 76bf
00000360: 8f74 89be 4821 e2bf 321d b3bf 4958 afbf
00000370: 8cfb cfbf d28f 57bf 7457 9ebf f694 a4bf
00000380: 0bf1 b33f 300b 05c0 096e dabf 496e b4bf
00000390: 16d5 e0bf 18f3 d6bf 815c dfbf 78b8 c9bf
000003a0: e47f babe c2ce 50be b045 b2bf 3b40 b8be
000003b0: aa82 93bf 0a87 e3bf ec05 d0bf d76d 5fbf
000003c0: 0161 4fbf b2dc 77bf 593b d8bf bcc2 10bf
000003d0: c9d7 e3bf 8fd2 e0bf 4351 babf 5282 83bf
000003e0: 450e 36bf e005 9bbf 683c febf aaeb 2cbf
000003f0: e282 48bf a75b 0cc0 d38a e5bf 5bb6 aabf

l2.weight f4 [300, 400]
-0.011353177 -0.043454573 -0.09818709 0.00047005728 0.018981962 -0.12637278 -0.079718 -0.07651331
-0.044931352 0.018403836 -0.0713539 0.008500592 -0.055031538 0.046462093 0.017937334 -0.09146913
-0.01461316 -0.012145771 -0.0960606 0.019756975 0.001341199 -0.011731277 -0.055001866 -0.04093331
-0.038627405 -0.09033797 -0.09736201 -0.027666643 -0.09531616 -0.1075293 0.086815335 0.031524807
-0.09215603 -0.00029286832 0.03834985 -0.085498296 0.008105749 -0.06485403 -0.086165614 -0.002754326
-0.064966284 0.06218885 -0.08491653 -0.10711321 -0.08851407 -0.07400058 -0.0019797913 -0.045413025
0.07344867 0.017911054 -0.045961138 0.045322623 0.01590096 0.027588192 -0.04472154 -0.07678444
0.08015899 0.035815626 -0.114647314 0.010764409 -0.049487293 0.008487732 0.042627357 0.012138007
-0.11200809 -0.042159665 -0.07089539 0.039088696 -0.052341238 0.06539199 0.058849964 -0.027190126
-0.09530667 -0.016702615 0.010166586 0.009991017 -0.02635707 0.015050953 -0.027363077 -0.08568461
-0.0657293 0.018223852 0.085632354 -0.051052347 -0.037511338 -0.06080262 0.07580346 -0.036094047
-0.04393537 -0.05253621 -0.009364175 -0.057905503 -0.0014644167 -0.10112757 0.012016242 -0.028431447
0.039400976 0.024898663 -0.0051522837 0.011714656 -0.066255964 0.0015161156 -0.09158472 0.009906695
0.007609354 0.017107412 -0.006508504 -0.01436246 0.018335849 -0.06503679 0.07174311 -0.059480444
-0.07577531 -0.105993874 -0.044269256 0.07819005 -0.0019246322 -0.03685225 -0.02578376 0.006445962
-0.018037587 0.0026613148 -0.07236675 -0.033889055 -0.01323265 -0.0219004 0.0039412193 -0.112722985
0.08211206 -0.024797015 -0.10464967 -0.07954264 -0.019455558 0.015437547 -0.058947105 -0.06869246
0.050142244 0.016814882 0.034426942 -0.040697142 -0.08928681 -0.07060896 0.026050769 0.037841562
-0.027504958 -0.017960474 -0.12358466 -0.11667998 -0.10125971 -0.052546177 -0.04300072 0.010873193
0.007521411 -0.058765616 -0.019943308 -0.04433277 -0.031975638 -0.022935942 -0.08439866 -0.086376846
-0.116271615 0.027197916 -0.001713872 -0.011193072 0.06177071 -0.08633868 -0.10654017 0.06298845
0.07222393 -0.06010446 0.040560745 -0.038671717 -0.06159222 0.020932227 -0.015906235 -0.049274437
-0.046444196 0.048238818 0.052227724 -0.058171965 -0.07646906 -0.044893228 -0.09069932 0.050536446
-0.074074104 0.017899659 -0.059341 0.0032693357 -0.0037756208 -0.14443785 -0.007749768 -0.061916117
-0.033051442 -0.022664385 0.024665628 -0.0077477465 -0.11538317 -0.043376964 -0.026911886 -0.03833101
-0.008441237 0.004179985 0.027955767 -0.04224364 -0.048507668 -0.046434034 0.04307196 -0.00025763342
-0.0585291 -0.056593828 -0.0063677127 0.041625746 -0.06002273 -0.0526148 0.007154372 -0.06046993
-0.10541977 -0.11494682 0.08340502 -0.030657617 0.041446242 0.057244137 -0.063432895 -0.03499145
-0.11240255 -0.020407323 -0.082655 0.044825498 -0.014231158 0.03672995 0.11028483 0.031703793
0.025512036 -0.08394401 -0.04601763 -0.07867422 -0.09263504 -0.041517448 -0.040746916 0.09295631
-0.041920304 0.014284035 0.039588492 -0.07218909 0.03332889 -0.034041267 -0.07120641 0.0026371537
-7.545667e-05 -0.11037977 0.044734966 0.006209839 0.03474258 0.011146927 0.054826736 0.0053816102
00000000: ad02 3abc 6cfd 31bd 5016 c9bd 0572 f639
00000010: 0f80 9b3c de67 01be 3143 a3bd 03b3 9cbd
00000020: f009 38bd a4c3 963c fe21 92bd 1146 0b3c
00000030: c068 61bd 094f 3e3d 51f1 923c 2b54 bbbd
00000040: 096c 6fbc 0eff 46bc 6bbb c4bd 61d9 a13c
00000050: 2ccb af3a 8b34 40bc a349 61bd b0a9 27bd
00000060: c537 1ebd 1d03 b9bd bc65 c7bd 28a5 e2bc
00000070: 1e35 c3bd 5238 dcbd 3dcc b13d 2820 013d
00000080: 4dbc bcbd 1f8c 99b9 bb14 1d3d bb19 afbd
00000090: facd 043c 31d2 84bd 9977 b0bd ec81 34bb
000000a0: 0b0d 85bd bcb9 7e3d b8e8 adbd 2c5e dbbd
000000b0: dd46 b5bd 9e8d 97bd 63bf 01bb 0203 3abd
000000c0: 426c 963d 34ba 923c bf41 3cbd 37a4 393d
000000d0: bb42 823c a200 e23c ef2d 37bd 2941 9dbd
000000e0: 662a a43d 68b3 123d 36cc eabd 345d 303c
000000f0: 30b3 4abd 2110 0b3c 069a 2e3d 7ede 463c
00000100: 7f64 e5bd 9daf 2cbd 9a31 91bd 781b 203d
00000110: c463 56bd 3cec 853d a90c 713d d4bd debc
00000120: 2530 c3bd ecd3 88bc c191 263c 5db1 233c
00000130: c8ea d7bc 4698 763c 8828 e0bc 6a7b afbd
00000140: 159d 86bd 304a 953c 0460 af3d 441c 51bd
00000150: 7da5 19bd 2b0c 79bd d83e 9b3d 5ad7 13bd
00000160: 93f5 33bd 3530 57bd 326c 19bc 522e 6dbd
00000170: acf1 bfba f91b cfbd c6df 443c 11e9 e8bc
00000180: eb62 213d 48f8 cb3c 7dd4 a8bb d4ee 3f3c
00000190: 35b1 87bd 66b8 c63a c590 bbbd b14f 223c
000001a0: e357 f93b d824 8c3c 4a45 d5bb 8650 6bbc
000001b0: 1035 963c 0232 85bd 0dee 923d c4a1 73bd
000001c0: 1630 9bbd 5113 d9bd ae53 35bd 1b22 a03d
000001d0: f143 fcba 63f2 16bd 7738 d3bc a638 d33b
000001e0: 90c3 93bc 7469 2e3b 0535 94bd 40cf 0abd
000001f0: c2cd 58bc 7868 b3bc 5825 813b 4fdb e6bd
00000200: 5e2a a83d 1c23 cbbc 9152 d6bd 40e7 a2bd
00000210: 4361 9fbc c4ed 7c3c 8572 71bd a2ae 8cbd
00000220: f461 4d3d 5dbf 893c 4403 0d3d 0cb2 26bd
00000230: 01dc b6bd 6e9b 90bd 6c68 d53c c1ff 1a3d
00000240: 1452 e1bc d821 93bc f419 fdbd eaf5 eebd
00000250: 4061 cfbd a93a 57bd 8621 30bd 7a25 323c
00000260: 2b76 f63b 37b4 70bd 2660 a3bc 4796 35bd
00000270: e3f8 02bd 28e4 bbbc 34d9 acbd 58e6 b0bd
00000280: d01f eebd 2ace de3c 00a4 e0ba 2663 37bc
00000290: 4903 7d3d 55d2 b0bd bc31 dabd 1700 813d
000002a0: 24ea 933d 1830 76bd 0623 263d 3c66 1ebd
000002b0: 2048 7cbd 107a ab3c cb4d 82bc fed3 49bd
000002c0: 453c 3ebd 1196 453d bdec 553d ba45 6ebd
000002d0: cf9b 9cbd f6e1 37bd 91c0 b9bd 4eff 4e3d
000002e0: 2ab4 97bd 4ea2 923c 8c0f 73bd 5a42 563b
000002f0: 6870 77bb 84e7 13be c4f1 fdbb c19b 7dbd
00000300: f360 07bd a9aa b9bc 920f ca3c cfe0 fdbb
00000310: 034e ecbd 0bac 31bd 5176 dcbc fa00 1dbd
00000320: 1d4d 0abc 41f8 883b 7e03 e53c ab07 2dbd
00000330: faaf 46bd 9d31 3ebd 396c 303d f912 87b9
00000340: 36bc 6fbd eece 67bd 3fa8 d0bb c27f 2a3d
00000350: 65da 75bd 9e82 57bd 396f ea3b 51af 77bd
00000360: 52e6 d7bd 3d69 ebbd 40d0 aa3d af25 fbbc
00000370: 89c3 293d d478 6a3d 1be9 81bd 3253 0fbd
00000380: 4f33 e6bd 422d a7bc 0647 a9bd f19a 373d
00000390: ce29 69bc 2572 163d 03dd e13d d6db 013d
000003a0: 9efe d03c d6ea abbd fb7c 3cbd f31f a1bd
000003b0: 71b7 bdbd 330e 2abd 3de6 26bd e15f be3d
000003c0: a0b4 2bbd 9607 6a3c 8b27 223d e0d7 93bd
000003d0: e083 083d db6e 0bbd abd4 91bd 19d4 2c3b
000003e0: 7e3e 9eb8 ca0e e2bd 033c 373d e87b cb3b
000003f0: 3c4e 0e3d 9aa1 363c 0092 603d 3858 b03b

l2.bias f4 [300]
-0.033707622 -0.014159673 1.9682224 -0.022569835 -0.06383528 -0.006582314 -0.036242455 2.174152
-0.025177818 -0.04862178 -0.037829507 1.7680275 -0.058717564 1.7775599 -0.08785663 -0.1348882
0.005334294 0.0032828227 2.0622375 -1.2711928 -0.058429044 -0.03881781 0.01789987 -0.04684044
-0.04105584 2.0862896 -0.0852582 1.8998576 -0.0559828 -0.021273274 -0.042972162 1.7629964
-0.034283277 -0.032843478 -0.17193635 -0.030331744 -0.050901633 2.0110962 1.7824924 2.0716984
1.9331616 -0.080482215 1.2781276 -0.044719014 -0.06528102 1.8377167 -0.05260837 -0.0930372
-0.053683676 1.8191131 -0.007690368 1.7738647 -0.012376313 1.9501084 1.9700272 -0.06513887
-0.040773284 1.9461875 1.749898 1.9279623 3.055606 1.8833641 1.8953983 1.8387544
-0.082145445 -0.24963287 1.9805521 0.0071185986 1.8905469 1.9191617 1.8615067 -0.03148264
-0.046794064 -0.018755324 0.012233565 -0.04110262 -0.054739363 1.7478894 -0.08048411 1.9118915
-0.25822985 -0.07036615 1.4669534 -0.07793306 0.005564535 -0.021792952 -0.05091491 -0.05702259
-0.084603064 -0.08491774 1.9496894 -0.0073583545 0.021063033 -1.0990508 -0.14552677 -0.052824784
1.9289439 1.9018276 -0.066593796 2.1245303 -0.00030251427 -0.004591601 -0.04044544 2.1099102
-0.04128319 2.0092175 -0.023239525 -0.05976646 0.010178362 -0.0044883 -0.07082284 -1.5108755
1.8486047 -0.01249748 -0.020905834 -0.08478157 -0.019366086 -0.01882862 -0.08780197 -0.019033264
-0.07794833 -0.06396662 -0.009848317 -0.08210228 0.45674437 -0.01197183 -0.13159908 -0.12592448
-0.026230926 -0.070322834 1.8299981 -0.050143793 -0.08327754 -0.010142812 -0.055517655 -0.09382965
-0.022397537 -0.04846866 -0.0653472 1.7914444 -0.053913895 -0.044067506 2.1313765 1.8120285
0.017602663 -0.09978531 0.0012336178 1.8266283 0.021803817 0.0021447758 -0.014704113 1.6395274
-1.1773767 2.1041949 -0.04878215 1.7594758 1.805332 0.00058029447 -0.070372544 1.9149175
-0.13763481 -0.032817833 -0.05238594 1.8395287 -0.01833359 1.7591519 -0.049832676 1.65626
0.14869197 -0.0042190542 -0.05841179 0.029796844 1.8170464 1.7487013 1.9961818 1.8694206
-0.07144459 -0.08177223 -0.016690763 -0.09276021 -0.029567959 1.9500571 1.8983694 1.8184218
0.008539717 -0.035128355 1.4257222 -0.07570357 0.010551881 1.9293832 1.779208 1.9532143
0.004081905 -0.0746884 1.8638662 -0.031785823 -0.14354517 -0.037630066 -0.00979924 -0.059786964
1.9297162 -0.035497274 1.9817649 -0.048512608 1.7403932 -0.0644826 1.9917675 0.00964633
-0.037705176 -0.0076108286 -0.033660688 0.39179647 -0.06277699 0.011372975 0.0055955797 -0.071515664
1.7917014 -0.00032188505 -0.071573615 -0.08382157 -0.076960616 -0.082508795 -0.027160509 -0.025989942
1.848609 1.7951133 -0.08653456 -0.018243011 -0.0559142 -0.045301728 -0.0016694845 -0.0014229397
-0.017850315 -0.15546672 1.7212191 -0.05058099 -0.055676997 -0.027249705 -0.0036468252 -0.06845955
0.034710452 -0.045012258 0.009666025 -0.046386782 1.8650876 1.8730388 -0.026774371 1.8438
1.9077384 2.1289937 -0.055994287 -0.044474754 2.1000907 2.0058877 -0.07043585 -0.07514667
00000000: 0111 0abd f9fd 67bc b6ee fb3f 60e4 b8bc
00000010: 12bc 82bd 74b0 d7bb f872 14bd 4e25 0b40
00000020: b641 cebc a227 47bd 1df3 1abd ba4e e23f
00000030: d481 70bd 1587 e33f 2dee b3bd 2220 0abe
00000040: 4dcb ae3b a024 573b b3fb 0340 72b6 a2bf
00000050: 4b53 6fbd 6dff 1ebd c0a2 923c c3db 3fbd
00000060: 2b2a 28bd c585 0540 da9b aebd 892e f33f
00000070: 384e 65bd 4a45 aebc 9403 30bd dea9 e13f
00000080: 9f6c 0cbd e286 06bd 1510 30be 477a f8bc
00000090: 3b7e 50bd cdb5 0040 b628 e43f b596 0440
000000a0: d771 f73f dcd3 a4bd af99 a33f 492b 37bd
000000b0: 0eb2 85bd 4d3a eb3f e07b 57bd 4a8a bebd
000000c0: 6ae3 5bbd b3d8 e83f 7cff fbbb 000e e33f
000000d0: 05c6 4abc 279d f93f da29 fc3f 8767 85bd
000000e0: e301 27bd ac1c f93f a8fc df3f 78c7 f63f
000000f0: 0c8f 4340 1312 f13f 699c f23f 4e5c eb3f
00000100: df3b a8bd c29f 7fbe bb82 fd3f 2243 e93b
00000110: 71fd f13f 17a7 f53f da45 ee3f f1f3 00bd
00000120: 22ab 3fbd c4a4 99bc 4a6f 483c 395b 28bd
00000130: 6236 60bd d7ba df3f dad4 a4bd dcb8 f43f
00000140: b436 84be 211c 90bd 21c5 bb3f 5e9b 9fbd
00000150: b456 b63b 2287 b2bc 278c 50bd 8590 69bd
00000160: 5f44 adbd 5ae9 adbd 6c8f f93f 5a1e f1bb
00000170: 628c ac3c b2ad 8cbf f804 15be cd5e 58bd
00000180: a2e7 f63f 166f f33f 5462 88bd 4ef8 0740
00000190: c79a 9eb9 2475 96bb 1eaa 25bd c508 0740
000001a0: 9018 29bd 0597 0040 d160 bebc adcd 74bd
000001b0: 25c3 263c 9712 93bb 910b 91bd 5e64 c1bf
000001c0: 149f ec3f 3bc2 4cbc b642 abbc f6a1 adbd
000001d0: a0a5 9ebc 7a3e 9abc 85d1 b3bd a6eb 9bbc
000001e0: 60a3 9fbd ee00 83bd d65a 21bc 3d25 a8bd
000001f0: 66da e93e 7f25 44bc e9c1 06be 59f2 00be
00000200: 3de2 d6bc 6b05 90bd 613d ea3f 9463 4dbd
00000210: 6a8d aabd 092e 26bc 7b66 63bd c229 c0bd
00000220: 0a7b b7bc 1387 46bd c1d4 85bd 0d4e e53f
00000230: d1d4 5cbd 2180 34bd 7968 0840 8df0 e73f
00000240: 7633 903c 3e5c ccbd 58b1 a13a f5ce e93f
00000250: eb9d b23c 5e8f 0c3b 85e9 70bc 09dc d13f
00000260: 48b4 96bf 21ab 0640 cbcf 47bd 8136 e13f
00000270: 1e15 e73f e71e 183a 7b1f 90bd 041c f53f
00000280: 24f0 0cbe fe6b 06bd a492 56bd ad75 eb3f
00000290: 5330 96bc e42b e13f 591d 4cbd 5400 d43f
000002a0: b542 183e fe3f 8abb 3341 6fbd 8318 f43c
000002b0: fa94 e83f 72d5 df3f e382 ff3f 2d49 ef3f
000002c0: 8b51 92bd 3378 a7bd 11bb 88bc 11f9 bdbd
000002d0: 8138 f2bc 799b f93f c5fd f23f 0cc2 e83f
000002e0: 2bea 0b3c c0e2 0fbd 117e b63f 790a 9bbd
000002f0: cce1 2c3c 07f6 f63f 16bd e33f ed02 fa3f
00000300: 80c1 853b 3bf6 98bd 2b93 ee3f da31 02bd
00000310: 81fd 12be fc21 1abd fe8c 20bc 2de3 74bd
00000320: f100 f73f 9765 11bd 79aa fd3f 28b5 46bd
00000330: 34c5 de3f 740f 84bd 3df2 fe3f a40b 1e3c
00000340: be70 1abd 4264 f9bb cadf 09bd 8c99 c83e
00000350: 3991 80bd b755 3a3c 205b b73b ce76 92bd
00000360: 7956 e53f aec2 a8b9 3095 92bd a5aa abbd
00000370: 879d 9dbd 5ffa a8bd b77f debc dce8 d4bc
00000380: 389f ec3f 46c6 e53f 0839 b1bd 5e72 95bc
00000390: 4a06 65bd 4e8e 39bd 9bd2 daba ef81 baba
000003a0: d33a 92bc ab32 1fbe e850 dc3f 032e 4fbd
000003b0: 900d 64bd c63a dfbc 93ff 6ebb 8534 8cbd
000003c0: 8c2c 0e3d c65e 38bd 3f5e 1e3c 1100 3ebd
000003d0: 31bb ee3f bcbf ef3f ed55 dbbc a301 ec3f
000003e0: c630 f43f 6f41 0840 445a 65bd 292b 36bd
000003f0: e367 0640 7760 0040 ac40 90bd 7fe6 99bd

l3.weight f4 [1, 300]
0.03096088 -0.014233459 10.6767235 -0.005376413 0.004808273 0.017025381 -0.02440734 8.140005
0.017913854 0.031043157 0.011413115 9.358273 0.016684178 9.875646 0.010571602 -0.01922104
0.0013773538 -0.016828062 10.427608 -33.367607 -0.0005367089 -0.024083976 -0.01774797 -0.0005963135
-0.028122569 10.002449 -0.019891992 9.471416 0.026527144 0.0154821 0.004658091 11.895149
0.031589754 0.001353126 -2.7665536 -0.010519401 0.0007730322 9.3281145 9.501752 8.218256
9.054199 0.01702453 10.470758 -0.007019311 0.012301445 9.484685 0.01513717 -0.010499011
0.018687924 9.956581 -0.018552657 8.4144125 -0.031095352 9.582715 11.978705 -0.012823774
0.02835479 9.431893 10.442537 9.756623 2.5973296 8.624713 9.414147 9.616354
-0.011681295 15.909274 9.095143 -0.029295595 9.330412 8.470472 8.848498 -0.006416495
0.024170447 -0.008680339 0.022279007 -0.025949167 0.028918372 9.7137785 -0.015777519 8.728719
0.2036041 -0.020645903 6.0331163 -0.021877391 -0.004263802 0.019856581 -0.001515355 0.023902193
0.01910881 0.017786013 11.876392 0.01703725 -0.0007278021 -2.963878 0.021964109 -0.24743685
7.990498 10.047319 -1.6224276 11.759123 0.02718077 -0.026931114 0.0058914977 8.521292
-0.020076906 8.103847 0.028150368 0.023311494 -0.0017856371 -0.014115704 -0.013232555 -40.878376
8.545824 0.02240498 0.024502095 0.0164734 -0.0022934326 0.02146888 0.023393746 -0.010062292
0.011924095 0.00074082264 -0.0050023412 -0.04269017 8.022482 0.018048305 -0.010669141 0.016551623
-0.010641509 0.0005323091 10.038584 -0.0051829284 -0.012367702 0.005857956 -0.013244671 0.04311698
0.019050123 0.0021004507 -0.019078389 9.367131 -0.026299557 -0.020264162 10.194093 9.493604
0.019639835 0.019250037 -0.023129549 9.551468 0.030536925 0.013416902 0.0002090142 10.695482
26.150434 7.641591 0.010044276 9.612939 8.579896 0.011033304 0.034725588 8.751042
0.028703405 0.034292504 -0.017728008 9.157209 0.006275766 10.083313 -0.015268064 13.334148
-1.4591296 -0.0028222005 -0.019076318 -11.477024 9.094256 9.875199 8.319015 10.2217655
0.007450231 0.014854272 0.00047584256 -0.01705057 0.026953459 9.4085045 9.161814 9.6546545
-0.0018787915 -0.025836041 13.4453945 -0.016837278 -0.02157637 8.703237 9.529441 8.008272
0.025558766 -0.015791288 10.151976 0.030890955 -0.0072950856 0.018432423 0.0110242395 -0.005113449
9.033619 0.0109331785 10.428836 -0.006022537 10.388154 0.013542471 10.906583 -0.01736414
-0.0019446126 0.0078044967 0.0312706 -6.367622 0.0030576761 0.0015699726 0.015805135 0.0004963978
9.867492 0.011319005 0.015351656 -0.030873565 -0.04087704 0.007278382 0.026715446 0.018176321
9.071494 11.702522 -0.02332406 0.027814629 0.012033857 -0.02492383 0.014955782 0.027722064
-0.017365385 0.024857247 10.0009165 0.029672138 0.026024766 0.019926105 -0.03121363 0.0028406135
-0.041851982 -0.027400192 -0.004108131 -11.643253 10.082298 10.059046 0.022589155 9.426884
8.554141 9.659644 0.027823187 -0.017290402 7.9361787 8.693174 -0.00055995176 0.021177141
00000000: aca1 fd3c 7433 69bc dcd3 2a41 9f2c b0bb
00000010: b88e 9d3b d078 8b3c e7f1 c7bc 763d 0241
00000020: 13c0 923c 384e fe3c 13fe 3a3c 7cbb 1541
00000030: 42ad 883c a502 1e41 8334 2d3c 7175 9dbc
00000040: 5388 b43a 01db 89bc 7bd7 2641 6e78 05c2
00000050: edb1 0cba c24b c5bc 3164 91bc ec51 1cba
00000060: 4d61 e6bc 080a 2041 88f4 a2bc ec8a 1741
00000070: 744f d93c a2a8 7d3c e6a2 983b 8852 3e41
00000080: 4264 013d 605b b13a 370f 31c0 9159 2cbc
00000090: 50a5 4a3a f53f 1541 2d07 1841 fa7d 0341
000000a0: 00de 1041 0777 8b3c 3a88 2741 4002 e6bb
000000b0: 008c 493c 45c1 1741 e501 783c 0b04 2cbc
000000c0: 6b17 993c 284e 1f41 befb 97bc 6fa1 0641
000000d0: aebb febc cd52 1941 c7a8 3f41 ce1a 52bc
000000e0: 4e48 e83c 09e9 1641 a214 2741 211b 1c41
000000f0: a63a 2640 d3fe 0941 59a0 1641 96dc 1941
00000100: e762 3fbc 638c 7e41 b585 1141 51fd efbc
00000110: 5e49 1541 0e87 0741 7393 0d41 7641 d2bb
00000120: 1a01 c63c fb37 0ebc 7782 b63c 5993 d4bc
00000130: 39e6 ec3c a36b 1b41 db3f 81bc d5a8 0b41
00000140: 987d 503e 9921 a9bc 4a0f c140 3738 b3bc
00000150: 5db7 8bbb 45aa a23c e09e c6ba 88ce c33c
00000160: 148a 9c3c f9b3 913c b405 3e41 b491 8b3c
00000170: f9c9 3eba 2db0 3dc0 13ee b33c 1660 7dbe
00000180: 29b2 ff40 d2c1 2041 b5ab cfbf 5e25 3c41
00000190: 35aa de3c a49e dcbc 770d c13b 3657 0841
000001a0: 5378 a4bc 5ba9 0141 9a9b e63c bff7 be3c
000001b0: 0a0c eaba 8e45 67bc 5ccd 58bc 7583 23c2
000001c0: b2bb 0841 a68a b73c 9eb8 c83c 39f3 863c
000001d0: 6a4d 16bb 81df af3c 3ea4 bf3c 50dc 24bc
000001e0: 485d 433c c433 423a aeea a3bb e3db 2ebd
000001f0: 165c 0041 0ada 933c 9fcd 2ebc 4597 873c
00000200: b959 2ebc a98a 0b3a 0a9e 2041 8ed5 a9bb
00000210: e7a1 4abc 19f4 bf3b 2d00 59bc 6e9b 303d
00000220: 010f 9c3c b7a7 093b 484a 9cbc c5df 1541
00000230: 2b72 d7bc 0701 a6bc 011b 2341 cde5 1741
00000240: b8e3 a03c 41b2 9d3c 2e7a bdbc d0d2 1841
00000250: 9328 fa3c 91d2 5b3c d22a 5b39 b220 2b41
00000260: 1734 d141 ea87 f440 bf90 243c 99ce 1941
00000270: 4147 0941 08c5 343c 6b3c 0e3d 4504 0c41
00000280: 6723 eb3c 4c76 0c3d 543a 91bc ee83 1241
00000290: f1a4 cd3b 4055 2141 e726 7abc ac58 5541
000002a0: c2c4 babf abf4 38bb f045 9cbc e4a1 37c1
000002b0: 1382 1141 d100 1e41 af1a 0541 5a8c 2341
000002c0: 1121 f43b 555f 733c 827a f939 a3ad 8bbc
000002d0: 80cd dc3c 3c89 1641 ca96 1241 7779 1a41
000002e0: c841 f6ba 1ba6 d3bc 5620 5741 55ee 89bc
000002f0: edc0 b0bc 7540 0b41 9778 1841 e221 0041
00000300: 9e60 d13c bb5c 81bc 7e6e 2241 070f fd3c
00000310: 9d0b efbb 98ff 963c 039f 343c b88e a7bb
00000320: b489 1041 1321 333c 83dc 2641 b458 c5bb
00000330: e135 2641 3ee1 5d3c 5d81 2e41 3e3f 8ebc
00000340: 5fe2 feba ddbc ff3b 9a15 003d 8fc3 cbc0
00000350: 4b63 483b 8ac7 cd3a c579 813c b120 023a
00000360: 3fe1 1d41 5973 393c 8385 7b3c 8fea fcbc
00000370: af6e 27bd 7e7f ee3b 5ada da3c 82e6 943c
00000380: d724 1141 883d 3b41 1912 bfbc 81db e33c
00000390: a829 453c 0f2d ccbc 1909 753c 6219 e33c
000003a0: da41 8ebc 6da1 cb3c c103 2041 fc12 f33c
000003b0: e431 d53c 123c a33c bab3 ffbc 9629 3a3b
000003c0: fc6c 2bbd 5e76 e0bc 809d 86bb c44a 3ac1
000003d0: 1851 2141 daf1 2041 e40c b93c 84d4 1641
000003e0: c3dd 0841 e78d 1a41 74ed e33c 9aa4 8dbc
000003f0: 2df5 fd40 3e17 0b41 bac9 12ba af7b ad3c

l4.weight f4 [400, 5]
-0.98416775 -1.5479034 -0.35744366 0.054798134 -0.053739887 0.33461186 -0.786723 -0.20424859
-0.13814688 -0.018117813 0.21079783 -4.11028 -0.17224877 -0.44721314 0.21681385 -1.1539717
-0.8415879 -0.35811126 -0.13446163 0.03609253 -0.82758677 -3.0480466 -0.57520735 -0.17167372
0.08824731 -0.12512328 0.49172568 -0.15208974 -0.07139514 -0.043215394 0.797927 1.5624009
0.29292375 -0.020191787 0.069239415 0.08397437 -3.8306901 0.015813943 -0.07908887 -0.0032802871
-0.27262482 -3.9419553 -0.25294715 -0.10198261 0.025865283 1.2399762 2.055914 1.0549388
0.30972174 0.05378877 0.20174779 -0.104243204 -0.06315119 -0.52087325 0.3373347 0.25499237
3.0305247 1.0108352 0.53571314 -0.03643908 0.84635913 -0.012257509 0.36252943 0.04792946
0.021897437 0.051222306 6.269465 -0.13681506 0.37540057 -0.20241266 -1.7400985 -1.1636164
-0.5004295 -0.21124423 -0.0012838229 -0.013725988 0.10778439 0.055389572 0.035837628 -0.00751138
0.0006624592 0.29961085 -0.0878586 -0.047738016 -0.0038989196 -0.53318167 -0.8867501 -0.21111247
-0.09581203 -0.0064164107 0.074600376 -0.43784758 -0.15710151 -0.069169655 0.010388191 0.5081768
1.8309458 0.71427053 0.44248208 -0.07125814 0.26680398 -0.7670712 -0.44016406 -0.2482342
0.025766153 -1.5348501 -3.461588 -1.0295187 -0.5747058 0.03994066 -1.6069688 -2.3205001
-0.92176116 -0.44696262 0.024046503 -0.16493312 3.7341192 0.41344932 0.2589775 -0.056034155
0.68509823 1.4143238 0.31687465 0.11945485 -0.0018703485 -1.2607802 -3.7663527 -0.915918
-0.65426946 0.123223566 0.012764661 4.972906 0.048189286 0.22990997 -0.08551782 2.1467671
2.7925913 0.9791222 0.45100644 -0.0136934025 1.2099595 0.83005035 0.4168902 -0.0003743289
0.07195027 0.46841905 -0.1921448 0.5948938 0.37203422 -0.075623564 0.6126144 -3.9873486
-0.42964897 -0.25880906 0.0110877 0.19571376 -2.191273 -0.18573296 -0.09497362 0.03383292
0.5005403 -1.955285 -0.26068044 -0.18073764 0.0041044583 0.3852822 -1.6249399 -0.13284764
-0.08012752 0.00020194022 -0.7226234 0.87668073 0.099134855 -0.055410393 0.014492098 -1.2210912
-6.2572756 0.77847487 -0.9466468 -0.029932473 -0.15700813 0.3495259 0.023721198 0.000107315376
0.07612888 -1.2325242 0.03342532 -0.2512588 0.04000149 -0.056450095 1.2555426 3.613792
1.6549795 0.88363796 -0.047584664 0.07456163 7.052642 -0.0072894064 0.30510232 -0.13493119
0.3780916 -5.4407473 -0.25372505 -0.55274796 0.28932732 0.30955195 0.16840582 -0.23519963
-0.040293626 0.10830567 -0.11869318 -0.6300766 0.22671376 0.14219898 0.003543139 1.2970535
-1.3801411 0.14183642 -0.59284365 0.2266705 -0.03493566 0.046238758 0.17865327 0.08654451
0.008305269 0.09888236 0.14816432 -0.06605076 -0.040510986 0.01669682 0.028507793 -0.08736111
0.32113224 0.16535982 0.08005525 -0.32100552 5.857307 -0.31038234 0.27590322 -0.2789324
0.11558533 -4.00405 -0.058863018 -0.26673818 0.18605027 0.039303858 6.2706447 0.06344458
0.4985142 -0.3066952 -0.14092658 0.30114567 0.17566474 0.021030063 -0.00023228957 -1.3280513
00000000: 6bf2 7bbf b321 c6bf db02 b7be 0274 603d
00000010: 5b1e 5cbd 3f52 ab3e ae66 49bf 8b26 51be
00000020: 6076 0dbe cf6b 94bc 63db 573e 6a87 83c0
00000030: fb61 30be 1ff9 e4be 7304 5e3e 58b5 93bf
00000040: 4e72 57bf 5c5a b7be 4fb0 09be c3d5 133d
00000050: badc 53bf 3213 43c0 ca40 13bf 3ccb 2fbe
00000060: 01bb b43d 5120 00be 78c3 fb3e 6abd 1bbe
00000070: 9d37 92bd a002 31bd f244 4c3f c1fc c73f
00000080: 1afa 953e 3f69 a5bc 65cd 8d3d c1fa ab3d
00000090: 072a 75c0 3e8c 813c 58f9 a1bd 16fa 56bb
000000a0: 7b95 8bbe ff48 7cc0 4a82 81be 42dc d0bd
000000b0: 6ee3 d33c 8ab7 9e3f 1894 0340 3c08 873f
000000c0: d993 9e3e 9d51 5c3d f996 4e3e 767d d5bd
000000d0: 6955 81bd f357 05bf 22b7 ac3e 5c8e 823e
000000e0: 1ef4 4140 0c63 813f 7f24 093f 2541 15bd
000000f0: feaa 583f b8d3 48bc 759d b93e ae51 443d
00000100: 4162 b33c 7bce 513d 759f c840 3f19 0cbe
00000110: 8134 c03e 4445 4fbe 8cbb debf 62f1 94bf
00000120: 261c 00bf 6850 58be f345 a8ba f7e2 60bc
00000130: 10be dc3d 2de0 623d 7aca 123d 0622 f6bb
00000140: e2a8 2d3a 9866 993e 36ef b3bd f088 43bd
00000150: 0485 7fbb 987e 08bf 0e02 63bf de2d 58be
00000160: 1939 c4bd c140 d2bb 15c8 983d 8f2d e0be
00000170: 38df 20be d2a8 8dbd 3b33 2a3c e017 023f
00000180: 6f5c ea3f 6fda 363f 038d e23e caef 91bd
00000190: 889a 883e c75e 44bf 2f5d e1be 1b31 7ebe
000001a0: 8a13 d33c f875 c4bf a88a 5dc0 45c7 83bf
000001b0: eb1f 13bf d198 233d 27b1 cdbf 1383 14c0
000001c0: 8af8 6bbf 49d8 e4be 2cfd c43c 3ae4 28be
000001d0: cffb 6e40 a1af d33e b398 843e 1284 65bd
000001e0: 9962 2f3f 9008 b53f 653d a23e bfa4 f43d
000001f0: 7b26 f5ba 3f61 a1bf ec0b 71c0 9a79 6abf
00000200: 347e 27bf a35c fc3d de22 513c 0c22 9f40
00000210: 2162 453d 856d 6b3e f823 afbd a264 0940
00000220: d1b9 3240 c1a7 7a3f 51ea e63e 4b5a 60bc
00000230: f4df 9a3f 2e7e 543f a272 d53e 9341 c4b9
00000240: aa5a 933d 9fd4 ef3e 9bc1 44be f64a 183f
00000250: 457b be3e 87e0 9abd 4cd4 1c3f b830 7fc0
00000260: f3fa dbbe 9f82 84be 2fa9 353c 3069 483e
00000270: d13d 0cc0 c830 3ebe 8781 c2bd 6394 0a3d
00000280: 6923 003f c746 fabf e877 85be 4a13 39be
00000290: b17e 863b b543 c53e 08fe cfbf 3609 08be
000002a0: e619 a4bd eabf 5339 d9fd 38bf 266e 603f
000002b0: 3707 cb3d 02f6 62bd 4470 6d3c b74c 9cbf
000002c0: 9a3b c8c0 214a 473f 7257 72bf f234 f5bc
000002d0: bdc6 20be 0ff5 b23e f552 c23c 810e e138
000002e0: 75e9 9b3d 5ac3 9dbf fde8 083d fea4 80be
000002f0: 9ad8 233d 3738 67bd 9fb5 a03f 5e48 6740
00000300: 5ed6 d33f 1936 623f 23e8 42bd c5b3 983d
00000310: 3eaf e140 f9db eebb 5f36 9c3e 672b 0abe
00000320: 3995 c13e 9a1a aec0 40e8 81be e480 0dbf
00000330: b622 943e 987d 9e3e 9372 2c3e 2cd8 70be
00000340: ee0a 25bd 5dcf dd3d 6915 f3bd b34c 21bf
00000350: a727 683e 9c9c 113e 0234 683b d905 a63f
00000360: 77a8 b0bf 913d 113e 9ac4 17bf 501c 683e
00000370: b218 0fbd da64 3d3d e2f0 363e 403e b13d
00000380: d312 083c d682 ca3d 63b8 173e 9f45 87bd
00000390: d9ee 25bd c5c7 883c 2d89 e93c 62ea b2bd
000003a0: 726b a43e 1654 293e 02f4 a33d d65a a4be
000003b0: 0f6f bb40 6fea 9ebe 3043 8d3e 3ad0 8ebe
000003c0: 00b8 ec3d 2d21 80c0 591a 71bd e891 88be
000003d0: f683 3e3e 15fd 203d 1fa9 c840 3bef 813d
000003e0: 413d ff3e 2707 9dbe 0f4f 10be c42f 9a3e
000003f0: 75e1 333e 3d47 ac3c c292 73b9 96fd a9bf

l4.bias f4 [400]
-1.6677091 -0.57281774 -1.0845541 -1.7543461 -2.0237932 1.2323251 -1.6222041 -1.0883491
-1.3563395 -1.9481074 -0.73605704 0.16053915 -1.4793932 -1.1877689 -1.7896569 -0.09561443
-0.18377616 -0.97545147 -0.22620156 -1.9324704 -0.5728129 -1.5486 -1.7266294 -1.2729769
-1.4646232 -1.5950807 -0.98466074 -2.1365762 -2.075937 -1.3842144 -1.2707766 -0.62502337
-0.7786216 -0.65006727 -1.1152695 -1.6350538 -0.47773942 -1.6122613 -0.91432273 -1.3141274
-1.2990308 -1.0811534 -0.4234137 -1.3810856 -0.2991372 -0.23666179 -0.7438903 -1.5899078
-1.164285 -1.6989281 -0.40639305 -1.8015374 -1.0882488 -1.4733086 -0.103978395 -1.2669853
1.4035711 -1.3303041 -1.3879658 -1.6240981 -1.0416453 0.3875786 -0.46153128 -1.8345771
-1.0175077 -1.81003 0.7525227 -1.2685741 -1.4015833 -1.3472725 -0.82692426 1.0465161
-1.6032499 -0.9095101 -1.0669678 -1.5080878 -0.82948923 0.19609094 -0.4847882 -1.0452232
-1.4929839 -1.2342952 -1.9742496 -1.1354973 -0.2700173 -0.8989351 -1.7882608 -0.9296591
-0.53723955 -0.73261726 -1.5638137 0.38523063 -1.1525522 -1.2191855 -1.7420435 -1.6032201
0.13948199 -1.0765333 -0.65870416 -0.117345676 -1.0143979 -0.27547145 -0.80132306 -0.081521176
-1.21088 -0.950174 -1.5009073 -1.235704 -1.7479215 -1.9307666 -1.3933641 -2.0218945
-1.7916031 -1.6638622 -0.95062697 -1.9711418 -1.4879501 -1.9594094 -0.2909572 -1.6782689
-1.1139153 -1.5220506 -0.24530038 -0.36416632 -0.79143256 1.2295792 -0.67116714 -1.7418559
-1.1656235 -1.616241 -0.22412464 -1.1284217 -0.8987919 -0.09214991 -0.16799472 -1.305285
-1.7445558 -1.0451576 -0.118347295 -1.3689138 -1.2347643 -1.3593642 -2.183387 -0.71462196
-1.0529504 -0.5613824 -1.2068099 -1.1236635 -1.2073342 -1.7313318 -0.2559016 -1.8903354
-1.3679612 -1.0423952 -0.4326107 -1.4113249 -1.9615818 -0.5547186 -2.0122237 -0.32161665
-2.0625842 -0.5242584 -1.1882502 -1.2388655 -1.8804479 -0.51639503 -0.24901944 -1.1667373
-1.0336818 -0.25256282 -2.1356082 -1.8622667 -0.18594082 -1.1591957 -1.0186723 -0.63864064
-1.3350132 -0.82453054 -0.5610782 -1.9051673 -1.760207 -1.4814912 -1.3145865 -1.0858266
-0.9556435 -2.0621126 -1.5985631 -1.6961323 -1.0013473 -1.1491569 0.9003544 -1.1085025
-0.114086874 -0.27351516 -1.0539901 -0.39284804 -0.24617106 -1.1974305 -0.25920442 -0.26741433
-1.1322767 -1.6509848 -1.9440305 -1.3399526 -0.20828928 -0.3759272 -0.18262538 -1.485287
-2.2403138 -0.09266075 -0.97102684 -0.7004686 -1.9099212 -1.2923613 -1.036679 -0.16852546
-1.7191372 -0.13667923 -1.1295149 -0.32811734 -1.672658 -1.1943891 -1.7547287 -0.44410625
-0.8533842 -1.2516259 -0.7028706 -1.804964 -1.2078652 -1.8786137 -1.7374976 -1.929794
-1.9198372 -1.5920674 -1.3284136 -1.90553 -0.7402523 -0.33968952 -1.1253645 -1.7259941
-1.6664491 -0.2717369 -1.8950598 -1.3659921 -1.3037703 -1.4667226 -0.1808345 -2.257344
-1.197667 -0.8184523 -1.9019226 -1.4856737 -0.40544122 -0.8582194 -1.1229979 -1.9868175
00000000: 7e77 d5bf 2fa4 12bf abd2 8abf 6a8e e0bf
00000010: d485 01c0 d4bc 9d3f 62a4 cfbf 064f 8bbf
00000020: 889c adbf 955b f9bf 3c6e 3cbf 6064 243e
00000030: c25c bdbf d008 98bf 7a13 e5bf 80d1 c3bd
00000040: d12f 3cbe 30b7 79bf 62a1 67be 315b f7bf
00000050: dea3 12bf 8638 c6bf 3102 ddbf e8f0 a2bf
00000060: c678 bbbf 9b2b ccbf ba12 7cbf aabd 08c0
00000070: 27dc 04c0 f02d b1bf cfa8 a2bf 8801 20bf
00000080: bf53 47bf cf6a 26bf 27c1 8ebf 7149 d1bf
00000090: 439a f4be 945e cebf 0e11 6abf 5435 a8bf
000000a0: a446 a6bf 3c63 8abf aec9 d8be 6ac7 b0bf
000000b0: 8328 99be 7857 72be 986f 3ebf 1982 cbbf
000000c0: 4a07 95bf 7a76 d9bf c012 d0be c798 e6bf
000000d0: bd4b 8bbf 6095 bcbf a0f2 d4bd 932c a2bf
000000e0: 38a8 b33f 6847 aabf dda8 b1bf 72e2 cfbf
000000f0: a254 85bf b470 c63e d44d ecbe 6cd3 eabf
00000100: b13d 82bf 10af e7bf 54a5 403f a360 a2bf
00000110: 1567 b3bf 6d73 acbf 4fb1 53bf 3df4 853f
00000120: 4b37 cdbf a7d5 68bf 6792 88bf 0509 c1bf
00000130: 6859 54bf 10cc 483e 2936 f8be e0c9 85bf
00000140: 191a bfbf 63fd 9dbf 36b4 fcbf fa57 91bf
00000150: b53f 8abe 9c20 66bf bbe5 e4bf 24fe 6dbf
00000160: 8888 09bf ce8c 3bbf 0c2b c8bf f33c c53e
00000170: d586 93bf 450e 9cbf 48fb debf 5136 cdbf
00000180: 5ed4 0e3e d8cb 89bf d6a0 28bf ee52 f0bd
00000190: cad7 81bf 980a 8dbe 8223 4dbf 93f4 a6bd
000001a0: 1efe 9abf 9a3e 73bf bb1d c0bf 8c2b 9ebf
000001b0: e4bb dfbf 5c23 f7bf c159 b2bf b866 01c0
000001c0: 4053 e5bf 70f9 d4bf 4a5c 73bf 604e fcbf
000001d0: 2675 bebf edcd fabf 58f8 94be 84d1 d6bf
000001e0: c794 8ebf 8ed2 c2bf 0630 7bbe 0274 babe
000001f0: 539b 4abf da62 9d3f 9cd1 2bbf 22f5 debf
00000200: 2733 95bf fce0 cebf ee80 65be 1f70 90bf
00000210: 3a17 66bf 18b9 bcbd cf06 2cbe 9413 a7bf
00000220: 9b4d dfbf b9c7 85bf 1160 f2bd 9138 afbf
00000230: c20c 9ebf a5ff adbf 9dbc 0bc0 77f1 36bf
00000240: 14c7 86bf c2b6 0fbf bf78 9abf 35d4 8fbf
00000250: ed89 9abf 489c ddbf 8905 83be 83f6 f1bf
00000260: 5a19 afbf 356d 85bf 267f ddbe 4ba6 b4bf
00000270: 1d15 fbbf 0a02 0ebf 46c8 00c0 f0aa a4be
00000280: 6101 04c0 cc35 06bf 9518 98bf 2593 9ebf
00000290: 84b2 f0bf 7732 04bf f4fe 7ebe a657 95bf
000002a0: af4f 84bf ea4f 81be cead 08c0 c15e eebf
000002b0: 4567 3ebe 8660 94bf db63 82bf f47d 23bf
000002c0: b6e1 aabf 6f14 53bf d2a2 0fbf 86dc f3bf
000002d0: 774e e1bf 81a1 bdbf 5f44 a8bf 5efc 8abf
000002e0: 0da5 74bf a7f9 03c0 b79d ccbf dd1a d9bf
000002f0: 262c 80bf 9317 93bf a07d 663f 69e3 8dbf
00000300: 61a6 e9bd 2e0a 8cbe 26e9 86bf 6123 c9be
00000310: 4414 7cbe 6745 99bf 71b6 84be 88ea 88be
00000320: 71ee 90bf 7853 d3bf fed5 f8bf 9183 abbf
00000330: c949 55be 8879 c0be 2602 3bbe e21d bebf
00000340: 4d61 0fc0 ebc4 bdbd 3795 78bf e951 33bf
00000350: 4c78 f4bf 186c a5bf e6b1 84bf f091 2cbe
00000360: b00c dcbf a4f5 0bbe f293 90bf fffe a7be
00000370: a819 d6bf bee1 98bf f39a e0bf e561 e3be
00000380: 6377 5abf 4735 a0bf 54ef 33bf 0f09 e7bf
00000390: 549b 9abf 6a76 f0bf 5266 debf 7d03 f7bf
000003a0: 3abd f5bf ddc8 cbbf 7509 aabf 68e8 f3bf
000003b0: 2d81 3dbf c9eb adbe f20b 90bf 60ed dcbf
000003c0: 344e d5bf 1921 8bbe 5291 f2bf d4d8 aebf
000003d0: f2e1 a6bf 91bd bbbf ae2c 39be 5378 10c0
000003e0: 274d 99bf 1786 51bf 3372 f3bf 8e2a bebf
000003f0: fe95 cfbe 44b4 5bbf 65be 8fbf 0950 febf

l5.weight f4 [300, 400]
-9.525202 -0.043598875 -1.5917827 -30.512573 -13.612247 0.48556653 -1.9749484 -4.516838
-6.052535 -0.6231701 -0.08075557 0.0032053706 -0.35211968 -0.56545556 -68.053154 0.020112706
0.009678323 -1.4558448 0.066249095 -0.39089188 -0.09100637 -2.666571 -13.545517 -0.5363391
-2.5088992 -3.598976 -2.855106 -5.4753876 -0.41640702 -0.08056363 -1.6930381 -3.0485935
-0.10260606 -0.0012774969 0.051876076 -0.55920964 -0.028844276 -10.111191 0.0976795 -7.2114387
-2.5978591 0.42438844 -0.02170991 -0.45078593 0.0023384204 0.007928719 0.12514848 -0.5239165
-2.5611224 -0.5021651 0.012267478 -26.541286 -0.8144956 0.5577622 -0.049375013 -0.8986923
0.5312682 0.94157684 -1.7902956 -3.1190817 -0.067703374 0.20512843 0.017575402 -3.7083495
0.85471666 -23.328701 -0.077742405 -0.5985415 -1.136951 -1.7828419 0.07395489 0.43984216
-1.3570924 0.106026866 -0.44606894 -1.0862242 -0.08929771 -0.82385594 0.0032661739 0.23603578
-0.6297434 -1.2677399 -61.420387 0.08083354 -0.10357781 -3.5574336 -0.6930015 1.2898282
-0.17253046 -0.36490768 -2.8457804 -0.21229923 -0.06602058 -3.4520051 -4.6871223 -2.0712347
-0.05915101 -0.024515951 0.008179581 -0.0049387193 -3.631061 0.03475664 -2.6261675 -0.0136605995
-0.35584947 -0.15597261 -2.7288582 -0.17164914 -2.1171904 -0.29184398 -0.8114957 -67.67394
-3.739902 0.9081738 0.7067949 -4.0667014 -1.1764946 -7.095915 0.021046175 -5.2727284
0.08685606 -1.3820897 -0.0124287205 -0.017286334 0.59465426 0.37969092 -0.15836084 0.14878102
0.029474488 0.512906 -0.0048988503 0.67304105 0.010783491 -0.0940417 -0.030991558 -1.7098836
0.30386698 -0.30868807 -0.05549187 -2.5153768 0.19513066 -0.17385763 -0.23274425 -0.50703174
-0.16477862 -0.02969009 -6.5329075 -7.8804417 0.07548747 -11.732541 -0.11042426 -1.1223338
-1.890862 0.25932947 -0.14202753 -0.5475509 -6.4491 0.026400719 -1.0141495 0.02207477
-9.81595 -0.0526418 0.09327664 1.8827957 -2.263917 0.056772817 0.026283031 -3.9709146
-9.90775 -0.025429124 -4.269434 -23.038118 0.03120751 -0.9177175 -0.076487675 -0.072593376
-10.612479 -0.17259699 0.07945629 -46.766617 -23.408888 -0.11610194 -0.93134415 -1.0047119
0.08589316 -10.020736 -3.239311 -0.34606308 -12.742489 -8.417946 0.18707651 -9.235995
-0.04527978 -0.0111986315 -4.0018506 0.07756183 -0.022665909 0.3441876 -0.14275415 -0.0060382863
0.8640087 0.50823265 -23.069721 0.5494725 0.015782468 0.000118873984 0.031995986 -3.1701088
-16.115088 0.017074477 0.71935964 -2.7578793 -21.394691 -0.9357919 -12.617876 -0.0544736
-1.4708372 -0.0092321625 -4.8545256 -0.06372151 -0.6634273 -0.04199172 -40.72365 -0.0099309
-4.6155353 -1.2246419 -0.30199236 3.6623626 -4.4902415 -0.90159506 -2.9930406 -4.542608
-2.7697659 -6.9058595 -3.4713006 -5.4552627 -0.053627238 -0.010768544 0.8833799 -1.3616304
-0.55906475 -0.028479869 -54.478775 0.12892593 0.4831329 -0.5258086 -0.14460212 -14.450865
-0.49386254 -0.46573144 -31.395367 0.0140491985 -0.10648064 -0.040769204 -0.25816137 0.58499736
00000000: 3a67 18c1 bc94 32bd 89bf cbbf c019 f4c1
00000010: c4cb 59c1 2d9c f83e 1ccb fcbf f089 90c0
00000020: 5eae c1c0 1388 1fbf 2d63 a5bd 3211 523b
00000030: 0849 b4be b2c1 10bf 371b 88c2 67c3 a43c
00000040: d491 1e3c 1f59 babf 9bad 873d fb22 c8be
00000050: 8c61 babd 19a9 2ac0 70ba 58c1 854d 09bf
00000060: ce91 20c0 9f55 66c0 0fba 36c0 6036 afc0
00000070: 4d33 d5be 8bfe a4bd 79b5 d8bf 281c 43c0
00000080: 2023 d2bd af71 a7ba 027c 543d 5d28 0fbf
00000090: d54a ecbc 70c7 21c1 310c c83d 1bc4 e6c0
000000a0: 5343 26c0 7149 d93e fbd8 b1bc 6acd e6be
000000b0: 2f40 193b 75e7 013c ec26 003e 641f 06bf
000000c0: 6ee9 23c0 e48d 00bf 88fd 483c 8e54 d4c1
000000d0: c982 50bf 81c9 0e3f 743d 4abd b310 66bf
000000e0: 3101 083f 2e0b 713f 6828 e5bf 099f 47c0
000000f0: 11a8 8abd 300d 523e 4afa 8f3c 9955 6dc0
00000100: b6ce 5a3f 2ea1 bac1 6937 9fbd 043a 19bf
00000110: 9c87 91bf 2a34 e4bf a975 973d fe32 e13e
00000120: 34b5 adbf 9d24 d93d 2663 e4be 6509 8bbf
00000130: b8e1 b6bd 39e8 52bf 4e0d 563b 5db3 713e
00000140: dd36 21bf 4d45 a2bf 7aae 75c2 0e8c a53d
00000150: 9a20 d4bd feac 63c0 8c68 31bf 1719 a53f
00000160: d3ab 30be 2ed5 babe 4421 36c0 f864 59be
00000170: cc35 87bd a7ed 5cc0 e8fc 95c0 1c8f 04c0
00000180: 5448 72bd add5 c8bc a603 063c fbd4 a1bb
00000190: 4e63 68c0 fb5c 0e3d 2113 28c0 b5d0 5fbc
000001a0: e731 b6be 49b7 1fbe 9da5 2ec0 cbc4 2fbe
000001b0: 0c80 07c0 936c 95be 2fbe 4fbf 0f59 87c2
000001c0: 8e5a 6fc0 147e 683f 83f0 343f 6b22 82c0
000001d0: 6097 96bf bc11 e3c0 0769 ac3c 31ba a8c0
000001e0: 97e1 b13d 51e8 b0bf d5a1 4bbc 129c 8dbc
000001f0: 433b 183f d966 c23e 5829 22be 0d5a 183e
00000200: 7b74 f13c cf4d 033f 8986 a0bb 6b4c 2c3f
00000210: 3dad 303c ef98 c0bd 02e2 fdbc 77dd dabf
00000220: 7494 9b3e 5d0c 9ebe 714b 63bd effb 20c0
00000230: 55d0 473e bc07 32be 8254 6ebe d5cc 01bf
00000240: babb 28be a238 f3bc 940d d1c0 942c fcc0
00000250: 2d99 9a3d 7db8 3bc1 1d26 e2bd a2a8 8fbf
00000260: c407 f2bf d5c6 843e aa6f 11be 4c2c 0cbf
00000270: 075f cec0 5246 d83c a7cf 81bf 26d6 b43c
00000280: 220e 1dc1 ee9e 57bd d307 bf3d 73ff f03f
00000290: 04e4 10c0 9d8a 683d 834f d73c 7723 7ec0
000002a0: 2586 1ec1 bd50 d0bc 349f 88c0 114e b8c1
000002b0: e4a6 ff3c 89ef 6abf 92a5 9cbd d6ab 94bd
000002c0: b7cc 29c1 44bd 30be fbb9 a23d 0411 3bc2
000002d0: 6745 bbc1 dbc6 edbd 926c 6ebf 669a 80bf
000002e0: c1e8 af3d ef54 20c1 df50 4fc0 2e2f b1be
000002f0: 3ce1 4bc1 e8af 06c1 fc90 3f3e a3c6 13c1
00000300: 4a77 39bd 777a 37bc 290f 80c0 bdd8 9e3d
00000310: dbad b9bc 5b39 b03e 252e 12be d1dc c5bb
00000320: ad2f 5d3f 891b 023f ca8e b8c1 3baa 0c3f
00000330: 3c4a 813c fc4b f938 390e 033d 10e3 4ac0
00000340: b3eb 80c1 c6df 8b3c f427 383f 1881 30c0
00000350: 5428 abc1 0f90 6fbf d2e2 49c1 b61f 5fbd
00000360: 6544 bcbf 7f42 17bc 4658 9bc0 6c80 82bd
00000370: 5fd6 29bf 83ff 2bbd 05e5 22c2 37b5 22bc
00000380: 77b2 93c0 11c1 9cbf be9e 9abe 2664 6a40
00000390: 0fb0 8fc0 efce 66bf fa8d 3fc0 0b5d 91c0
000003a0: d843 31c0 cdfc dcc0 ca29 5ec0 8391 aec0
000003b0: 3ca8 5bbd 8c6e 30bc 2f25 623f e849 aebf
000003c0: de1e 0fbf 9d4e e9bc 44ea 59c2 2905 043e
000003d0: 325d f73e 649b 06bf 9412 14be be36 67c1
000003e0: 8ddb fcbe 5a74 eebe b629 fbc1 9c2e 663c
000003f0: 8612 dabd 9cfd 26bd ba2d 84be 63c2 153f
