InvertedPendulum/InvertedPendulum-v4_actor_finalized_04.pth (torch, 493438 bytes, 5 tensors)

l1.weight f4 [400, 4]
00000000: 1bdb f53e bda4 ed3d be4d 3fbd 7658 273e
00000010: f739 723e e73e 7c3c 8940 813e 0fc4 bd3e
00000020: 725a f3be 9536 a13f ff80 233e fd3d 433e
00000030: f130 6f3e 2cfd 0bbf 8ce6 dabc b72c f73d
00000040: 80f3 a83d 9e17 2c3d e40e 5d3d 6596 a03c
00000050: 2df2 f03e 52c1 95be 9ce4 5dbe 7b3b a53e
00000060: 4d45 273e 1b22 283f 3c59 3bbe 086f d2bd
00000070: 9086 f4bd 92ab 8ebe 0a6b 6b3e 6621 5f3b
00000080: c954 e33e 8481 5abf 274c a5be 0250 86be
00000090: 1afc 2e3f 0f1e 813f 7e06 573e e83d cebd
000000a0: 7bc3 3abf 6e21 6d3f 220d 643d 9d99 003f
000000b0: 9428 bfbe d218 b23f e3e0 0e3f 9a66 c63e
000000c0: 026f 913d ff72 c03f 20e2 44be 38fd 9e3e
000000d0: 10e3 57be 705e 82be 1f3b 6fbe 6a0a 02be
000000e0: 1d41 cebd 4d17 00bf 49b9 6a3e a6d3 3cbe
000000f0: b7fc c7be 967f f3be 517c 36bf d426 77be
00000100: 757f ddbe 4531 b43f 44c0 673e 3ca6 213e
00000110: 29a8 abbe a6e9 67bf a287 8fbe deb6 c5bd
00000120: 9458 e3bd 3cd6 d93f 6b7a 013f 7b72 ad3e
00000130: 9c25 9cbe 9814 fe3e 94ca 873e 9105 933d
00000140: 228f 5bbd bf3f f6bc 21e4 4fbe 917d 1f3e
00000150: 60a7 263e 309b 893d 04cf 6b3e 9851 233e
00000160: 0b3e 173e aac6 cb3f a8f8 e33e da66 493e
00000170: 0cb1 c13d e72d f73e d143 0d3f 75f4 b9bd
00000180: b963 53be dea4 a83e 65ce d53d 0a84 63bc
00000190: 4978 303e 4cf5 ed3e 928b 84be b670 993e
000001a0: 72cb ce3d 4259 883f c9b4 f63e 69da 923d
000001b0: 7af6 7f3e e1f7 6ebf 9b79 cabb 8e69 febe
000001c0: 8f9c f43e 8920 283f fdd4 92be f699 42be
000001d0: bca2 263e d0cf c33c fde8 2cbe a43e acbe
000001e0: 4572 8bbe 4074 873f e777 013e ecbc 363e
000001f0: 7b90 da3d d439 773f 10e7 20be 0cac 843e
00000200: 3c37 fc3d a16c 0e3f 8542 983e 5e8e ed3e
00000210: 7d20 15bf 14de 7b3f 7f5c 293f fcd1 f73e
00000220: 0f6a b1bd e308 ae3f e8d5 843e 0698 143e
00000230: 427b 143e bc9f 133e bc17 083e 4a71 bfbd
00000240: 0f53 55be fbcf db3f fe5e 053f 16a4 0e3e
00000250: 1fa3 5dbf 974b 4a3e 0dc0 523d 5114 14be
00000260: 15ab 173f 8a51 9bbe 2c14 3fbe d89f a2be
00000270: 4d08 82be f174 943e 4d91 ab3e 5132 b93e
00000280: b49f 05bf a545 853e 4331 fa3e e4fa 40bd
00000290: 51ca 97be 7570 043f 13de 113f ea0e a6be
000002a0: 21a0 8fbd 32da d23c ba02 933e b8b2 833d
000002b0: 5d38 45be 5fea d1be 1ef2 b1bb 2d9d ef3c
000002c0: 2333 f0be 8106 a73f 7f87 2d3f bf7b ce3e
000002d0: a1e9 173e 1894 983f f353 a73e 0906 123e
000002e0: 119b 6a3f 4a01 8bbf 072f d0be c784 30be
000002f0: b57b 3bbf e3ba 98bf 9be1 e1be ee59 f3bd
00000300: 4018 873e f8e3 023f 29b0 87be 463f 693e
00000310: 27a1 e6be 4147 723f f0a3 b83e b48f 013e
00000320: 8463 0c3f b289 5c3e 1dda 003d d511 3fbe
00000330: 52dd 1abe f843 22bf 76a1 0f3e 3a2c 69be
00000340: 7e0d e63d a20e 693f e690 17be bab4 6a3e
00000350: 32f3 3cbe e248 2fbf a048 303e cfa5 39be
00000360: 1adc 93be 2d0a 54bf 6a3e c5be de69 bcbe
00000370: e79d 8f3e ca1b 543f c5d4 713e 1751 293e
00000380: 2163 cbbe da73 cc3e 09e1 64be fa5a d8bd
00000390: b19a 1ebf 2482 b8bf 3e9f 83be 8373 9bbd
000003a0: 366b 823f 1b4e 1cbe 3108 d3be bc02 f93d
000003b0: 8ffa c4bd 7997 553f ad20 043e 0b3c bc3e
000003c0: 3941 a33e 84c5 a13f 0388 e23e 26fd d43e
000003d0: 12a4 3ebe 2816 173d f7c2 d5bd 077f 743e
000003e0: ec39 ad3d 556f 1cbf d78c f9bd ddcc 89be
000003f0: 5ef8 cc3d b81a 8d3f 5439 9ebd 1628 8b3e
0.48018727 0.11603687 -0.046705 0.16342339 0.23654924 0.015395856 0.2524455 0.37063643
-0.47529942 1.2594782 0.15967177 0.19066615 0.23358513 -0.54683185 -0.026721261 0.120690756
0.08249569 0.04201471 0.05396928 0.019602964 0.47059765 -0.29249054 -0.21669239 0.32271942
0.1633503 0.6567704 -0.18295759 -0.10275084 -0.11939728 -0.27865273 0.22990051 0.0034047007
0.44400623 -0.85353875 -0.32284662 -0.26232916 0.68353426 1.0087298 0.2099857 -0.100704014
-0.7295453 0.92629135 0.055676587 0.50234395 -0.37335646 1.3913825 0.558119 0.38750154
0.07101251 1.5035094 -0.19226885 0.31052566 -0.21082711 -0.25462675 -0.23362397 -0.12699285
-0.10071013 -0.50035554 0.22922243 -0.18440112 -0.39059994 -0.47558278 -0.7128344 -0.24135906
-0.43261304 1.4077536 0.22631937 0.1578607 -0.33526734 -0.90590894 -0.28033167 -0.0965402
-0.11100879 1.7018504 0.5057742 0.33876404 -0.30497444 0.49625087 0.26521742 0.07178796
-0.0536033 -0.030059693 -0.20301868 0.15575244 0.16274786 0.06719053 0.23028189 0.15949094
0.14769761 1.5920002 0.44525647 0.19668141 0.09457597 0.48277208 0.55181605 -0.090798296
-0.2064351 0.32938284 0.10439757 -0.013886461 0.17233385 0.4647621 -0.25887734 0.29968804
0.10097398 1.0652239 0.48184803 0.07170565 0.24996367 -0.93346983 -0.0061790473 -0.49689907
0.47775695 0.65674645 -0.28678122 -0.19004044 0.16273016 0.023902804 -0.16885753 -0.3364154
-0.27235618 1.0582352 0.12643395 0.17845505 0.10672089 0.96572614 -0.15713143 0.2591251
0.123152226 0.55634505 0.2973825 0.4639768 -0.582527 0.9838574 0.6615676 0.48402393
-0.08662807 1.3596462 0.25944448 0.14511117 0.14500144 0.14416403 0.13290304 -0.0934778
-0.20832466 1.7172846 0.5209807 0.13929781 -0.8657703 0.19755398 0.051452685 -0.14460875
0.59245425 -0.30335647 -0.18660039 -0.31762576 -0.25396958 0.2899547 0.33509293 0.361712
-0.5219681 0.26029697 0.4886571 -0.047114268 -0.29646543 0.51734096 0.56979483 -0.32433254
-0.07012964 0.02573881 0.28713018 0.06430572 -0.19259782 -0.40999123 -0.005430474 0.029249752
-0.46914014 1.304886 0.67784876 0.40328786 0.14835216 1.1920195 0.32681236 0.14260115
0.9164286 -1.0859768 -0.4066088 -0.1723815 -0.73235637 -1.1932033 -0.44117436 -0.11882387
0.2638569 0.511291 -0.26501587 0.22778043 -0.45044824 0.94639975 0.36062574 0.12652475
0.5483935 0.21536902 0.03145801 -0.18659146 -0.1512349 -0.6338496 0.14026436 -0.22770777
0.11233042 0.9103795 -0.14801368 0.22920504 -0.18452147 -0.68470585 0.17215204 -0.18129657
-0.28878862 -0.82828027 -0.3852418 -0.3679952 0.28050157 0.828549 0.23616321 0.1653484
-0.39724067 0.39932138 -0.22351469 -0.105642274 -0.6195479 -1.4414716 -0.2570743 -0.075903915
1.0188968 -0.1526417 -0.41217187 0.12158725 -0.09618103 0.83434254 0.1290309 0.3676456
0.31885698 1.2638402 0.44244394 0.41599387 -0.18617275 0.036886364 -0.10437577 0.23876582
0.08458313 -0.6110738 -0.12185066 -0.2691411 0.1000831 1.1023779 -0.07725778 0.2717902

l1.bias f4 [400]
00000000: 5d04 dcbe cf33 c3be 601a 89be 1794 95bd
00000010: 18d7 1bbd 4b40 22bf d0ee ef3c 39b8 bf3c
00000020: 91d9 183e 1b56 a83e a7db 04bf 62b7 b83d
00000030: 5e69 5b3e d7f9 6bbe d52d 37be b2b0 32be
00000040: 370b 033e 3d2c 02bf 534f d83d 2205 8b3d
00000050: 9131 0fbf f406 c2be f9a3 bb3d 7021 96bd
00000060: b9b3 d43d ed2f c6be bc54 e93d 55a7 163e
00000070: d545 2b3e 5ce0 35bf 98a8 823e 4db3 a9be
00000080: 27fb f8be b7a1 893a ed0d 843e c82f 963e
00000090: d7ea 5a3e 0fad c8be dcd5 c13d a56c 09bf
000000a0: 7ac2 c7bb 5595 9ebe b1cd 7d3d 601c bd3c
000000b0: 38de 243d 3631 c83e 19e1 283d 7346 1fbe
000000c0: d8a5 803d cf83 5a3e 01a8 10bf 76a7 59bf
000000d0: 8528 eabe b28e 47bf 7f01 c93c b54c aa3d
000000e0: ee72 a53c 29d2 c0bd dd65 50be 4702 07bf
000000f0: d0f2 dcbc 72cf 1ebf 034b 32bf 7350 f5be
00000100: 1baa 803c 2265 283e 2ddc f53d 3b05 2abf
00000110: 1aca 7c3e 0ffd 323e ceaf 51bc d083 1d3e
00000120: 85a0 2ebf 4d79 65be 04d3 c9be 88a8 b43d
00000130: 7b9f 2dbf 5959 5c3e d19a 16bf be17 b4bd
00000140: 2e7f 29bf a1c7 2fbf 6094 90be 90f8 e4be
00000150: 9f41 bebe 2e04 16bf d2d2 2abe 8223 d2be
00000160: f1d7 d4be 7bef f5be 5afe dcbd d7d0 03bf
00000170: 6188 a0be 887c 09bf b2b0 06bf 0c89 e2bc
00000180: 323a 86be a4c8 fabe 9312 dcbe b064 8ebd
00000190: 3895 b3bd ae52 293e 528b 843e f984 30be
000001a0: 98df d83d 23fe 9dbe d436 153e a468 433e
000001b0: cf45 4a3e 5017 3a3b 89cf e7bc db89 23bb
000001c0: a0b9 ebbe a6a0 f3be afeb ba3d b6ea be3d
000001d0: fa60 1dbf b6f1 05bf d3c3 923b a654 943d
000001e0: 3e8c 4dbf 07a7 0ebd fe2d 493e 7e3d 883c
000001f0: 3108 83be 41d3 48be df04 2dbe bd08 673e
00000200: 80ab 1cbe f26d b03d f292 89be 9a13 b5be
00000210: 7eda 19bf a4d1 e13d 4d21 bf3e b580 883e
00000220: 73cd f7be 53a3 f4be 2229 5dbe 9332 053d
00000230: 6835 39be 34f9 f43d da98 ab3e 70d9 323e
00000240: 8e95 b1be 15cc e83c b67b 9dbe 069c 463e
00000250: 1804 61be e652 41bf 6ff6 c9be ba4d 463e
00000260: b7aa d13d 526c 08bf 78b6 fbbe cb7f 1a3e
00000270: 385a fe3d db77 e2be f50c 9ebe 2b4a d5be
00000280: 29b7 e8be 7f96 703d d34e 903d 0eaa 23bd
00000290: 3d36 f83c b203 48be c8b3 b4be d730 d23d
000002a0: 1a9a dabe 022b 933e e340 9c3e b7ca 2c3e
000002b0: a7aa 90bc 5122 a53a eaa8 2cbf e30c a23d
000002c0: 7283 6cbb babe c53d 799f 5dbd a101 a13d
000002d0: 7a57 7f3e 419c 27bf 7f7c 173c 83f0 a63d
000002e0: 6703 c6be 6cf9 d3be 1258 0cbb f150 4c3d
000002f0: 1217 383e f756 393e 6e67 e7be 1d1c 7d3e
00000300: 7cda f1bd 65c7 5bbd 0e62 29be 3080 c438
00000310: c45b c4bb 48dd 363e e6ca 2bbf 45bf db3d
00000320: 6006 983e a5b3 92be e9c4 fabe eb06 23bf
00000330: ea90 d9be 9443 523c 1a41 1bbf 89fa c33e
00000340: 3284 b5be 709b ef3d 9afc 79b9 301b 84be
00000350: 2d93 0bbf 6c0e b5be 0da0 0abf 674d 8f3b
00000360: fa8e 4e3e 2da8 183e f5dd b1be b304 563e
00000370: c31a 643d a496 213e 010f 03be 1553 85bb
00000380: b293 c53c cde6 1ebf 29c2 c33e d82f 7a3e
00000390: 44c1 af3c c7af 4d3e 05d4 c53d 97e1 ad3b
000003a0: be07 2d3e b7f4 09bf cd02 3ebe 74dc 833d
000003b0: b33c 0a3e 069a bcbe 91dd e63c 1243 09bb
000003c0: 8835 513a 1904 ae3d d540 943e ce3e 00bf
000003d0: 5b4b 99be 042e 45bf 538b 8fbd bbab c7be
000003e0: 28fe 033e 5f50 c1be 5e44 9cbe 5acd b3be
000003f0: 5f13 f6bc 9005 35be 1a13 81be c198 bbbd
-0.4297208 -0.38125464 -0.26777935 -0.073036365 -0.038046926 -0.63379353 0.02928868 0.023403274
0.14926745 0.32878193 -0.5189766 0.090193525 0.21426913 -0.23044525 -0.17888577 -0.17450216
0.12797247 -0.5084875 0.10562005 0.067880884 -0.5593501 -0.3789593 0.09162135 -0.073305964
0.10385842 -0.3870844 0.11393115 0.1471227 0.16725858 -0.7104547 0.25519252 -0.33144608
-0.48629114 0.0010500465 0.25791875 0.2933333 0.21378647 -0.39194533 0.094646186 -0.53681403
-0.0060961815 -0.30973306 0.06196374 0.02308482 0.040250987 0.39100045 0.041230295 -0.15554218
0.06281632 0.21339343 -0.56506354 -0.8502115 -0.4573404 -0.7795211 0.024536846 0.08315412
0.020196404 -0.09415085 -0.20351358 -0.5273785 -0.02697125 -0.62035286 -0.6964571 -0.4791294
0.015706113 0.16444829 0.12004886 -0.6641423 0.2468647 0.17479347 -0.012798263 0.15382314
-0.68213683 -0.22409554 -0.39418805 0.08821207 -0.6782147 0.21518458 -0.5882998 -0.08793591
-0.66209686 -0.68663985 -0.282382 -0.44720888 -0.3715944 -0.5860013 -0.16681984 -0.41042715
-0.41571 -0.48034272 -0.10790701 -0.5149054 -0.3135405 -0.53705645 -0.52613366 -0.02765324
-0.26216274 -0.48981202 -0.4298292 -0.06952798 -0.087686956 0.16535446 0.25887543 -0.17238225
0.10589522 -0.30857953 0.14571697 0.19082886 0.19753192 0.0028395243 -0.028297203 -0.0024953994
-0.46040058 -0.47583503 0.09126984 0.09322111 -0.614761 -0.52321947 0.0044789105 0.07242708
-0.8029212 -0.03482726 0.19646451 0.016630884 -0.25592187 -0.19611837 -0.1689639 0.22561927
-0.15299797 0.086147204 -0.26869923 -0.35366517 -0.6009902 0.11026314 0.37330094 0.26660696
-0.48398933 -0.47780856 -0.21597722 0.032518934 -0.18086779 0.11961594 0.33515054 0.17465758
-0.34684414 0.028417626 -0.30758446 0.19395456 -0.21974218 -0.7551712 -0.39445826 0.19365588
0.102376394 -0.53290284 -0.4916265 0.15087812 0.124195516 -0.44232067 -0.3086926 -0.41658148
-0.4545224 0.058737274 0.070462845 -0.0399571 0.0302993 -0.1953266 -0.35293412 0.10263222
-0.42695695 0.2874375 0.30518255 0.16874205 -0.017659498 0.0012598728 -0.6744524 0.07912614
-0.003608909 0.09655519 -0.054107163 0.07861639 0.24935713 -0.654728 0.009245991 0.08151343
-0.3867447 -0.4140123 -0.0021414799 0.04988188 0.1797755 0.1809958 -0.45196098 0.24717756
-0.11809251 -0.053656954 -0.16541311 9.369885e-05 -0.0059923846 0.1785785 -0.67106473 0.10729841
0.29692364 -0.28652683 -0.48978356 -0.6368243 -0.42493373 0.012833495 -0.6064621 0.3827708
-0.3545242 0.11699569 -0.00023840592 -0.25801992 -0.5452145 -0.35362566 -0.5415047 0.0043732408
0.20171729 0.14907904 -0.34739652 0.2090023 0.055689584 0.15780121 -0.12798692 -0.004068742
0.024118278 -0.62070924 0.3823407 0.24432313 0.02145446 0.20086585 0.0965958 0.0053064334
0.16897485 -0.5388903 -0.18555756 0.064385325 0.13499717 -0.3683626 0.028181823 -0.0020944518
0.0007980694 0.08496875 0.28955713 -0.5009583 -0.29940304 -0.7702334 -0.07008996 -0.38998207
0.12889922 -0.3775663 -0.3052091 -0.35117608 -0.030038534 -0.17677903 -0.25209886 -0.09159995

l2.weight f4 [300, 400]
00000000: b4a1 b23c 1a32 753c 80d7 733b 0a81 9f3c
00000010: 06d6 823c 0c2a 18bd 2780 0dbd 1420 9c3b
00000020: e88b 623c 0b2e 83bc f9e3 38bd b138 ec3c
00000030: 84b9 21bd fc86 6dba 4d2e f3bc 425c 8d3c
00000040: f922 c63c a0a7 d1ba a8ce 85bc 5fd6 4fbc
00000050: 3868 fd3a da97 933c 9f1c e53c 1829 d7bb
00000060: 5015 e53c 6985 433b 20bb 2cbd 2969 12bc
00000070: a2cc 5abd 878e b8bc 07e7 d13b 5017 f83c
00000080: 1904 583b ccc4 313c d8ea b03c d203 abbc
00000090: 771e 1f3a b6dc 25bd 810f 2bbd 7bfa f8bc
000000a0: 3280 db3c cb7c 093d 3a89 5b3a 2512 263d
000000b0: b4b3 3a3c 98aa 3dbb b5a0 9bbd 9aa0 e7bc
000000c0: 4dcf dc3b 04c7 883b 728d c53c 0067 b6ba
000000d0: 1c4e 673a d887 483c 8e1f 26bd 9ce4 4abd
000000e0: 4ff3 58bc d22b 31bd e428 eb3b c650 e13b
000000f0: d14c 943c 4c67 583d 989c d33b 0c45 113c
00000100: 6b03 8a3b 813c 01bd 9820 1c3c b0ab 613b
00000110: a50a 17bd 5bc3 49bd ec82 623d 8bc6 10bd
00000120: c6a7 97bc cb10 033d ca96 9dbc 707b 86bd
00000130: 9e2e 9a3b 1321 34bd 7066 ffbc 9bcc 06bb
00000140: 4b38 383d 7cde eebc 0450 a4bc 50c5 0b3b
00000150: cf48 18bc 43bb 9fbc d00a b3bc 3445 89bc
00000160: ed65 bbbc d110 b33c bcce cbbc b444 2d3c
00000170: f4b0 4b3d d88d 2f3c 710a 40bd 179b d7bc
00000180: 285a bf3b 8978 22bc ed35 46bb 26eb 05bd
00000190: 2584 04bb ce67 5fbc 7f5e 83bb 4237 083d
000001a0: 188f 80bc 87c4 b3bc eccd 57bd 89cf 1bbd
000001b0: 52dd e43c 7861 2c3c db3d adbc cc3a 24bc
000001c0: b13d 8bbc 5387 25bd 4a05 7fbc c62e 093d
000001d0: 903b a33b 4b56 47bd 383e f9bb 1995 fa3c
000001e0: e689 ebbc d731 a03a d5f6 87bd 11ba 3ebd
000001f0: 1d78 94bc 5fc2 b43c 0347 2fbc 4f4c eebc
00000200: edfb 32bd c0b9 2c3d d14a 473d 0e54 143c
00000210: 55ad 2c3d b718 153d 93c7 ed39 a631 0dbd
00000220: 0b49 fdbc de3d 8b3c d7fc e9bb c934 883b
00000230: f883 46bc 3815 193d 392c 9d3b 32fd a4ba
00000240: 4498 26bc ef98 a83c 7822 91bc d154 9e3c
00000250: 2082 7c3b f7dc febc 1899 8b3b 59d3 e9bc
00000260: 892b 41bb 35af e43b 60a7 1a3d 9550 0dbc
00000270: 1c98 d83b 307e fd3b 9e5e efbc 2c84 963d
00000280: 722c 5fbb 8316 0e3b 1f51 44bd fb53 453d
00000290: 4736 16bd bf84 c43c 59f0 93bc f431 163c
000002a0: 50ad 49bd fd56 8ebc d4fe b3bc 824b afbc
000002b0: 3362 f3bc 617f c8bc c6fe c6bc 93a7 683c
000002c0: 51e5 993c ecf1 953b 1d4f f6bc d392 3d3d
000002d0: ba08 123d c7ba 1b3d 8e43 a03c 685d 9ebd
000002e0: 545a b73c 742f 3fbc 8a01 13bd 2153 26bd
000002f0: 0651 0dbd 3922 34bd fa17 da3c 1eb7 7d3c
00000300: 1592 0abc f245 9a3c 4381 b13a bac8 b63c
00000310: 9725 a9bc 98a5 89bd 0775 39bd fad9 b93b
00000320: ff8c 6fbd 48b4 0fbd 3821 47bd 934d 2fbd
00000330: d29c 3fbd 5024 43bd 3007 76bb 7a62 5abd
00000340: 68df 2cbd 4bc1 56bd 159e 9b3c ae86 e23c
00000350: 7c9b b8bc a8ba 803c 1a42 21bd 2a3d 60bd
00000360: a868 843c 1b1c 17bd b3cf 293d f544 173a
00000370: 981d 1ebc 47a1 82bd e8be e63c 3907 5ebc
00000380: 3036 95bc 86a4 10bd 52f9 6cbc 90c5 7dbd
00000390: 31fa 37bd fbf1 44bd b2d3 adbd 2e40 293c
000003a0: 8919 09bc 2e55 963c 3ddb 2dbd f649 ceba
000003b0: 3f8d 8bbb 8ae8 87bd f65e 623c 5d9f 6dbd
000003c0: a10d 82bc bec6 37bc bbdd 0abd 242a 43bd
000003d0: 8c66 42bd c751 f1bc 71ad d2bb 8466 1bbd
000003e0: da63 00bd f0ef 893b 075a 333d b906 4c3d
000003f0: 38c4 9c3c 1a03 9a3c 0907 dabc 6422 7e3c
0.021805622 0.014965558 0.0037207305 0.01947071 0.015971195 -0.037149474 -0.034546044 0.004764566
0.013827302 -0.016013166 -0.045139287 0.028835626 -0.039483562 -0.0009060947 -0.029685164 0.017255906
0.024186598 -0.0015995391 -0.016333893 -0.012685387 0.0019333428 0.018016744 0.02796775 -0.006566178
0.027964264 0.0029834157 -0.042170644 -0.008936205 -0.05341781 -0.0225289 0.0064057144 0.030284554
0.0032961427 0.010850143 0.021596357 -0.020875845 0.0006069908 -0.04049369 -0.041762833 -0.030392876
0.026794527 0.033566277 0.00083746354 0.040544648 0.011395384 -0.0028940793 -0.07599012 -0.028274823
0.0067385794 0.004174115 0.024115298 -0.0013916194 0.000882359 0.012239419 -0.040557437 -0.049534425
-0.013241603 -0.04325468 0.0071765054 0.006876084 0.018103035 0.052832887 0.0064578764 0.00886656
0.0042118332 -0.03155184 0.009529255 0.003443461 -0.036875386 -0.04925857 0.055300638 -0.035345595
-0.018512618 0.031998437 -0.01923694 -0.065665126 0.0047052642 -0.043976855 -0.031176776 -0.0020568732
0.04497556 -0.029158823 -0.020057686 0.0021327324 -0.009294703 -0.019498473 -0.021855742 -0.016756631
-0.02287575 0.021858605 -0.024878852 0.010575462 0.049729303 0.0107149705 -0.046884958 -0.02631907
0.005839605 -0.009916433 -0.0030244545 -0.03269496 -0.0020220366 -0.013635589 -0.0040090675 0.033255823
-0.015693232 -0.021944297 -0.052686617 -0.038039718 0.027937565 0.010521285 -0.021147659 -0.010023784
-0.01699719 -0.04041226 -0.015565226 0.033491872 0.0049814656 -0.04866628 -0.007606294 0.030588673
-0.028752279 0.0012221885 -0.06638876 -0.046564166 -0.01812368 0.02206534 -0.010698083 -0.029089121
-0.043697286 0.042169333 0.048655335 0.009053243 0.04215749 0.036400523 0.00045352857 -0.034471177
-0.030918619 0.016997274 -0.0071407366 0.004156683 -0.012116425 0.03737375 0.0047965315 -0.0012587665
-0.010168139 0.020580737 -0.017716631 0.019327553 0.003852971 -0.031111224 0.0042601936 -0.028543161
-0.0029475412 0.006978894 0.037757277 -0.008625169 0.0066099297 0.00773599 -0.029219922 0.073494285
-0.003405359 0.0021680898 -0.047928926 0.048175793 -0.036672857 0.02398908 -0.018058943 0.009167183
-0.04923755 -0.017375464 -0.021972097 -0.02139831 -0.029709911 -0.024474801 -0.024291407 0.014200109
0.018786104 0.0045759585 -0.030067021 0.0462826 0.035652854 0.03801992 0.019563463 -0.077326596
0.022381939 -0.011669029 -0.03589014 -0.04060662 -0.034501098 -0.04397795 0.026622761 0.015485553
-0.00845768 0.01883218 0.0013542551 0.02231251 -0.020647807 -0.067210376 -0.04527762 0.005671737
-0.058484074 -0.03508404 -0.048615664 -0.04279859 -0.046780415 -0.047642052 -0.0037540905 -0.05331657
-0.042205244 -0.052430432 0.018996278 0.02765211 -0.022535078 0.015714005 -0.03936968 -0.05474583
0.016163185 -0.036892038 0.041457843 0.0005770468 -0.00965061 -0.063784175 0.028167203 -0.013551527
-0.018214315 -0.03531315 -0.0144637395 -0.06195599 -0.044916335 -0.048082333 -0.08487643 0.010330243
-0.008367904 0.018351164 -0.04244541 -0.0015738595 -0.004258781 -0.0663615 0.013816586 -0.05801331
-0.01587564 -0.011216817 -0.033902865 -0.04764761 -0.047461078 -0.02945794 -0.0064293672 -0.037939563
-0.031345226 0.004209511 0.04378703 0.0498111 0.019136533 0.018800307 -0.026614683 0.015511129

l2.bias f4 [300]
00000000: a886 f6bb 61ab 7ebe 7065 833b 8c28 29bc
00000010: c194 913c 1bcb b5bc c8fb c13b a00f 47bc
00000020: e03e 5dbd 33ab 213d 4c51 f3bd 4948 1bbd
00000030: a254 23bd 7f99 49bc f8db 03bb a866 3bbc
00000040: 5f44 82bd 444f 27bd 3a17 75bd e2fb 043c
00000050: 79bf b0bd 5d10 c6bb d275 cdbd acde 3abc
00000060: 4aed 64bd c6f0 6d3c 269f 67bd f98d b5bd
00000070: 28e3 e5bd 370e 39bd dca2 44bd 04a9 e3bc
00000080: 928a 8fbd a137 833c 90b4 8abd 447a eebc
00000090: 4d53 afba e10e fe3c 39c0 ba3c a564 263d
000000a0: 0523 d2bc 48f1 8abd e285 c4b8 81d3 85bc
000000b0: 9a1d 75bd faf8 633c 5ccc eb3c b748 94bd
000000c0: aa98 a4ba adbc 8cbd e88e 353d 77a2 7fbc
000000d0: b5a7 9dbd efce d5bc 93c7 b0bc 82a3 993c
000000e0: 3b79 033c 922c ed3c 1209 83bd 529c 76bd
000000f0: 6a96 d93c 5f82 3cbd 3c9f aebd edb2 a4bd
00000100: b55c 0bbd 6966 4bbd 347a 42bd 0764 bcbd
00000110: 1c57 893c 6c4e 2ebd da79 0cbd c5e0 c0bd
00000120: 9997 4dbd 22c3 cebd 346f 6dbd 9153 c5bd
00000130: 6afb 803c e522 be3c 3d64 9cbb d866 c0bc
00000140: 6b9a 02bd e975 e73c eebe b7bd a1df f0bd
00000150: dcbf 4abd acd5 893d 8d68 753c 40a5 e4bb
00000160: 9079 6cbd 9380 d6bc 62e0 543d a530 8dbd
00000170: 2324 1d3d 85ef dfbc 1871 90bd aedd 4ebd
00000180: a94e 68bc 0f56 84bd 1d33 cbbd 80d6 f5bc
00000190: 32c2 093d 8516 06bb c35b f0bd 938b f4bc
000001a0: b479 95bd dd47 0fbd db22 5abd 0c10 a8bc
000001b0: 9e72 58bd d259 71bc f83e 2cbd 2da4 90bc
000001c0: a3a1 45bd 5714 083d 8839 81bc b415 173d
000001d0: 1634 27bc de33 c13c 763b 05bd 30e1 9bbd
000001e0: a8bb 6abd 586b 58bd 44dc bebb 6916 73bd
000001f0: 4a99 ebbc afe9 833d b6e1 1abd e8d2 353c
00000200: 3d0c 23bd e283 7cbd dcb4 12bd 2274 c8bd
00000210: 87d5 87bd f55b d7bd 9795 ec3b fbbe 773c
00000220: 7b1f 0dbd dd2f a3bd be52 08bd 8d23 be3c
00000230: 8c18 6abd 46d6 ab3c 6791 d8bc 4ae3 0abd
00000240: 7645 4fbd f5bc fe3d c983 9abd 1a04 12bc
00000250: 6db2 10bd d03d 65bd c538 49bc dc96 debd
00000260: 1e45 cebd 4cfa ac3c d290 3ebd cbc4 27b7
00000270: 9171 29ba fcba 773a ce1a 62bc b9da edbc
00000280: e74a 9dbc b849 68bd a3d6 2f3c 2deb 56bc
00000290: d4a3 0abd 7e9b d9bb dc3d 9cbc 388f 97bd
000002a0: a9b1 22bd af98 1ebb 4efb 553d c6d2 8bbd
000002b0: 650a 0cbd 6407 3abc 2ab6 89bd 8c38 55bd
000002c0: a701 ba3a aed4 7bbd 2b13 45bd ef00 123d
000002d0: 5446 0fbd 7465 68bc 2d5e ed3c 196c 63bc
000002e0: cf16 d3bc d3d6 2bbd 6eb9 eabd 7ee4 36bd
000002f0: 4e08 993c 4e06 f2bc 048a 53bc a476 0dbd
00000300: 7fb8 513c b3ea 7c3c bc66 d7bd 93f8 1d3c
00000310: 79e5 b53c 04b7 d5bd 44c7 97bd 06b7 9cbd
00000320: 89a3 9bbc b02a ba3c 905b 413c 25ce 5f3c
00000330: 77d7 80bd 4039 58bd a0dd e33c 6daf 1dbd
00000340: 367f 28bd a561 1c3d 182f 2fbd 7d1b 763c
00000350: a9ee 27bd 3990 8e3d 0892 ba3c a687 94bb
00000360: 5144 bbbd c9c0 b2bb c991 90bd e3fc a13c
00000370: 65ca bdbd e2ca 2dbd c8e0 283c cca4 b8bc
00000380: 1028 8dbd bad0 2d3b 5f55 fabc 53d7 8fba
00000390: 2f3a e2bc 5b0b 06bc e872 96bd bc7e 3abb
000003a0: 1b63 aebc 7580 163d 7fa3 f73c ba56 3abd
000003b0: 59ec c13c 69c0 2a3d 8dcc 86bd 7760 05bc
000003c0: ffe0 03bc 0456 25bc 7708 91bd 044a 8fbd
000003d0: 43e2 48bd 471d 84bd df77 6f3c 7fed 82bc
000003e0: c5d2 2fbd c48a 8ebd 7d82 a0bd fbc9 d7bb
000003f0: 60c1 1bbd acfb 89bd 7629 afbc cb2f 9abd
-0.0075233765 -0.24870063 0.004009895 -0.010324609 0.017771127 -0.022191575 0.0059199072 -0.012149721
-0.05401504 0.03946991 -0.118807405 -0.037910733 -0.039875634 -0.012304663 -0.0020120125 -0.011438049
-0.06360697 -0.040847078 -0.059836604 0.008116694 -0.086302705 -0.006044431 -0.10032238 -0.011405628
-0.05589036 0.014522737 -0.05654826 -0.0886497 -0.11224967 -0.045179572 -0.048006877 -0.027790554
-0.07008852 0.016017737 -0.06772721 -0.029111035 -0.0013376266 0.031012954 0.022796737 0.040623326
-0.025651464 -0.06784302 -9.370946e-05 -0.016336204 -0.059842683 0.013914341 0.02878397 -0.07240432
-0.0012557704 -0.068719245 0.04432574 -0.0156026995 -0.07698003 -0.02609965 -0.02157954 0.018754724
0.008024509 0.028951917 -0.063982144 -0.060207672 0.02656098 -0.04602277 -0.08526465 -0.0804194
-0.03402396 -0.049658213 -0.047479823 -0.09198766 0.01676517 -0.042555258 -0.034295894 -0.094178714
-0.050193403 -0.100958124 -0.05796738 -0.0963508 0.015744884 0.023209998 -0.0047726915 -0.02348654
-0.031885546 0.028254466 -0.08971964 -0.11761404 -0.049499378 0.06730208 0.01497854 -0.006977707
-0.05773312 -0.026184356 0.0519718 -0.06894044 0.03836454 -0.027335892 -0.07052821 -0.05050438
-0.01417891 -0.06461727 -0.099218585 -0.030009508 0.033632465 -0.00204602 -0.11736252 -0.02985171
-0.07298604 -0.034980644 -0.053255897 -0.020515464 -0.052843682 -0.0147308875 -0.04205224 -0.01765641
-0.048249852 0.033222523 -0.015774503 0.036885932 -0.010205289 0.023584303 -0.03252741 -0.076113105
-0.05730787 -0.052836746 -0.0058245976 -0.059347544 -0.028759617 0.06441056 -0.03781291 0.011097647
-0.039806593 -0.06164921 -0.035817012 -0.097877756 -0.06632524 -0.10515586 0.007219981 0.015121217
-0.03445385 -0.079681136 -0.033282034 0.023210311 -0.057152316 0.020976197 -0.02643652 -0.033908166
-0.050603352 0.124383844 -0.07544667 -0.008912111 -0.03532641 -0.055967152 -0.012281601 -0.10868618
-0.10071777 0.021115445 -0.04652483 -9.999795e-06 -0.0006463761 0.0009450165 -0.013800336 -0.02903496
-0.019200755 -0.05671093 0.010732326 -0.013117594 -0.033847645 -0.0066408506 -0.019072466 -0.07400364
-0.03972021 -0.0024199893 0.052241616 -0.06827311 -0.0341896 -0.011354301 -0.06724198 -0.05205588
0.0014191166 -0.061482124 -0.048113983 0.03564542 -0.03497918 -0.014184345 0.02897557 -0.013880753
-0.025767712 -0.04195292 -0.11461149 -0.0446515 0.018680718 -0.029544022 -0.012911323 -0.034536973
0.012800335 0.015436816 -0.10517642 0.009641784 0.022204148 -0.10435298 -0.07411054 -0.076520965
-0.018998878 0.022725433 0.011801615 0.0136599885 -0.06291097 -0.052788973 0.02781564 -0.038497377
-0.041136943 0.03817906 -0.04276952 0.015021202 -0.04099909 0.06961102 0.022774711 -0.004532772
-0.0914389 -0.0054551107 -0.07059056 0.019773906 -0.09267119 -0.042429812 0.010307498 -0.022539519
-0.06892407 0.0026522116 -0.030558286 -0.0010974206 -0.027615635 -0.008181418 -0.073461354 -0.0028456887
-0.021287492 0.0367436 0.030229328 -0.045492865 0.02367227 0.041687403 -0.06581984 -0.008140675
-0.008049249 -0.0100913085 -0.07081693 -0.06996539 -0.049043905 -0.06450897 0.014615982 -0.015982388
-0.042925615 -0.06960061 -0.07837389 -0.0065853572 -0.038026214 -0.06737456 -0.021382075 -0.07528647

l3.weight f4 [1, 300]
00000000: 403f 3ebc 914f 2c3f 5bca da3c 10d7 1d3d
00000010: a5f8 273c 5bb8 0abb b5d1 9fbb 5062 ddbb
00000020: d8c4 133c c4bc c93c ff35 eebd 54f8 103d
00000030: d667 57bd 0e4e 92ba 4449 d13b 33e6 e8bc
00000040: 61e2 4ebe 659f 96bd c0d5 673c d790 9ebb
00000050: 585c 96bd 0199 ce3c 2cac 17bb 787d 683a
00000060: ce6a 1ebd 521c d03c 7654 45bd e73c 7ebd
00000070: a3c4 81bd 34f0 a5bd 68cc 4c3b c566 463d
00000080: 1280 463e cf6f b33b 14d0 b4ba 4843 db3c
00000090: 964c 813c 57e1 3e3d a2f1 b03c 45c9 1c3d
000000a0: 0b12 0b3b 4bcb 92bd 7a51 463c b98a 99bd
000000b0: 7d9f c03c 499a 663c 48cd 2a3d d48b 97bd
000000c0: 6ad3 123d be8e e03c b07a 34be 8eb8 763b
000000d0: c303 8bbd 908a 7fb8 ec8e 62ba f659 cd3c
000000e0: f79b 95bb 167a 8a3c d832 81bd 2368 413d
000000f0: 1ed1 b53c 6344 4c3d 4725 07be 2a1f 72bd
00000100: 676f 91bd 974c e83c d0e8 fe3c 8979 58bd
00000110: 0d51 c83c 9db3 4d3c 3432 4e3c 8bb0 7dbd
00000120: e7d9 e73c 01d1 81bd 5dc1 ba3c 8095 74bd
00000130: 4b74 c2bb 425e 233d 66ba 043d 45f8 f73c
00000140: 097e 1fbc 211b 72bb 66f9 87bd 2be7 a4bd
00000150: 7396 c23b ea40 7c3e 9aca d43c b948 f23b
00000160: 4999 b9ba 3b7b d33c b8e9 583e a5b3 cb3c
00000170: f31c 9d3b 6007 15bc bc6b 90bd 45b7 37bb
00000180: d61e 303c b389 5c3b 687f 65bd a7fb 0cbc
00000190: 12e3 493c b583 d53b 368d 0abe 3280 283c
000001a0: a88c ed3e ecb5 323b f98b 94bc 50a1 25bb
000001b0: b864 df3b 614e 15bc d10e 18bd 479d b1bd
000001c0: 3d0f a63b e50e 313d e766 023d 17dc a63b
000001d0: 185b a1bc dae4 133d 3f8f b1bd 3348 70bd
000001e0: a4d6 353c 12ab e03b 0fa1 c3bc 71e3 433c
000001f0: 00db c23c 14df 823e 8997 21bd 06f1 c43b
00000200: f7a4 e93c 387b 96bd 4cf2 abbb b0d0 80bd
00000210: 5500 54bd d0ee 0abe df01 95bb e2ec 56bc
00000220: 538e 85bd 92cb 8d3c 2821 b0bd 4cc2 76bb
00000230: 6c6d 65bd ff36 133d 1e82 243d 696e 66bd
00000240: 70a4 a43b d153 7d3e 43bd e9bc e523 de3a
00000250: e81c 4fbb d82a 1d3d 6a20 17bb bc8b 9ebd
00000260: 40b3 4a3e dd3b 523c 789d 433c 4d15 e13c
00000270: 1327 fd3b 4ec8 ac3c 718f bb3c facf 8dbd
00000280: 2dd9 1b3c aa44 00bd 7812 123b bf4b ddbc
00000290: 1f79 8eba 0c0d c33c 6ef5 8ebd 9055 b83b
000002a0: 3dcf c13c f8c0 1d39 d76a 8dbe 3a26 b03c
000002b0: c096 0c3b 7731 7b3b 0501 923c 54da a4bc
000002c0: 7518 eabb cc75 afbd 897c 3d3c 6fd0 073e
000002d0: 5038 0a3d b06c 053c ac19 373d 3116 93bd
000002e0: a58c 8abc c994 91bd 2a59 95bd e492 89bd
000002f0: 84c1 8b3c 4741 003d 43e8 9dbd a281 d63c
00000300: e9a9 4a3c 59f4 acbe f3f4 90bd 7ac4 41bb
00000310: dbf0 8b3c e90d 9fbd a61e 89bd 67d9 25bc
00000320: d63e 233d f428 0d3c ae7f 2f3d b3e9 993c
00000330: ef84 ee37 cb41 353d bbb8 aebb e112 48bc
00000340: 14c2 4cbd b8cd 503b f272 83bb e79b 17bc
00000350: 73a3 8e3c 6c77 253e 40e0 bdbb 1bdc d93c
00000360: 18f4 4fbd f4e2 393c 0d71 763c 9ec5 953c
00000370: f0f4 96bd c958 373d fb7a 873a d18f 5e3c
00000380: 0421 8d3c 0f4e afbc 0dfe dfbc 6867 74bb
00000390: 91fb 9fbd 56fe bb3c e76c 05bd 8d06 f83c
000003a0: 43f2 c2bc a3d7 d93c 3a84 f03b b5f5 bdbc
000003b0: 4b90 76ba 7299 683c a9df c43d 48df cabb
000003c0: e239 1d3c 371f 0bbd 66bf 8d3c 7826 6d3c
000003d0: 3493 0dbd fb56 b5bc df4f 153b 187a 9dbd
000003e0: 0f45 96bc ba28 7abd 1b0c 66bd 06b2 80bb
000003f0: c7a8 253b 71e9 38bd a3b2 c1bb d674 14bb
-0.01161176 0.6730891 0.026707819 0.038535178 0.010252153 -0.0021167013 -0.004877294 -0.0067561045
0.009019099 0.024626143 -0.11631393 0.035393074 -0.05258926 -0.0011162178 0.006386908 -0.02843008
-0.20203544 -0.07354621 0.014150083 -0.0048390436 -0.07341832 0.025219442 -0.0023143394 0.0008868794
-0.038676076 0.02540413 -0.04817625 -0.0620698 -0.063363336 -0.08102456 0.0031249765 0.048437852
0.19384792 0.005475975 -0.0013794922 0.02676548 0.01578359 0.04660162 0.021599595 0.038277883
0.0021220471 -0.07167681 0.012104386 -0.07497162 0.02351355 0.01407487 0.041699678 -0.07399717
0.03584615 0.027411815 -0.17624927 0.0037646624 -0.06787827 -6.0925784e-05 -0.0008642513 0.02506731
-0.0045657116 0.016903918 -0.06308526 0.047218453 0.022194441 0.049869906 -0.13197814 -0.05911175
-0.071013264 0.028356833 0.031116873 -0.05285028 0.02445271 0.01255503 0.012585212 -0.061935943
0.028302146 -0.063386925 0.02279728 -0.059712887 -0.0059342734 0.039884813 0.032404326 0.030269751
-0.009734639 -0.003694244 -0.06639366 -0.08051904 0.005938345 0.24634138 0.025975514 0.007393923
-0.0014160062 0.025815597 0.21182907 0.024865935 0.004794711 -0.009095997 -0.07051799 -0.002803282
0.010749539 0.003365141 -0.056029707 -0.0086049205 0.012322204 0.006515945 -0.1353043 0.01028447
0.46396375 0.0027269078 -0.01813315 -0.0025273152 0.0068174265 -0.009112925 -0.037123505 -0.086725764
0.0050677345 0.043227095 0.031836417 0.0050921547 -0.019696757 0.03610692 -0.086699 -0.058662605
0.011098538 0.0068563307 -0.02388051 0.011956082 0.023786068 0.2556082 -0.039451156 0.0060101775
0.028521044 -0.07347721 -0.00524739 -0.06289804 -0.05175813 -0.13567662 -0.004547342 -0.013118001
-0.06521287 0.017308984 -0.08600074 -0.003765243 -0.056012556 0.03594112 0.040163152 -0.05625764
0.0050244853 0.24739005 -0.02853263 0.0016947953 -0.0031602923 0.038370937 -0.0023060092 -0.07741496
0.19794941 0.012831655 0.011939399 0.027475977 0.0077256053 0.021091606 0.022895547 -0.06924434
0.009512228 -0.031315483 0.002228884 -0.027013658 -0.0010869837 0.023809932 -0.06980406 0.005625434
0.02365839 0.00015044573 -0.27620575 0.021502603 0.0021452159 0.0038329044 0.017822752 -0.020123638
-0.007144029 -0.0856739 0.011565336 0.13263105 0.03374511 0.008143589 0.044702217 -0.07181967
-0.016912768 -0.07108457 -0.07292397 -0.0671747 0.017060049 0.031312253 -0.07710316 0.02618486
0.012369611 -0.33780172 -0.0707797 -0.0029566572 0.017082622 -0.07766325 -0.06695299 -0.010122634
0.039854847 0.008615721 0.042846374 0.018788194 2.8433713e-05 0.0442522 -0.00533208 -0.012211532
-0.049989775 0.00318609 -0.0040115053 -0.009253479 0.017411923 0.16158837 -0.005794555 0.026594212
-0.050769895 0.011345614 0.015041602 0.018282708 -0.07370937 0.044762406 0.0010336334 0.013584093
0.017227657 -0.021399526 -0.02734282 -0.003729308 -0.07811654 0.022948425 -0.03257456 0.030276561
-0.02379716 0.026592081 0.0073399814 -0.023188451 -0.00094056566 0.01419674 0.09612972 -0.006191168
0.00959632 -0.033965316 0.01730318 0.014474504 -0.034564212 -0.022136202 0.0022783203 -0.07689303
-0.018343477 -0.061073996 -0.05616389 -0.003927472 0.00252776 -0.045144502 -0.0059111877 -0.0022652647
