InvertedPendulum/InvertedPendulum-v4_actor_finalized_07.pth (torch, 493438 bytes, 5 tensors)

l1.weight f4 [400, 4]
0.48018727 0.11603687 -0.046705 0.16342339 0.23007716 -0.0029738394 0.2657449 0.35760042
-0.46808478 1.2182659 0.21388805 0.12543605 0.40046886 -0.6027385 -0.019650113 0.18761057
0.08249569 0.04201471 0.05396928 0.019602964 0.46965826 -0.304901 -0.20748131 0.31247702
0.17732255 0.8486905 -0.22284274 -0.13196221 -0.12846945 -0.2885443 0.26489773 0.04512489
0.50347364 -0.9393325 -0.3059049 -0.26050642 0.64566284 0.9678702 0.16149773 -0.06582602
-0.74535966 0.7777658 0.059428394 0.4585298 -0.31318513 1.7223562 0.6082972 0.39120337
0.14658605 1.6382575 -0.17719927 0.3141573 -0.26259094 -0.4969955 -0.19965252 -0.15074737
-0.25333047 -0.59610903 0.33139586 -0.14924896 -0.38760158 -0.41582957 -0.6571032 -0.2875971
-0.4185201 1.4468449 0.21145454 0.14719492 -0.37528008 -0.92051774 -0.2886566 -0.16221447
-0.1475212 2.097601 0.49292415 0.34451485 -0.24885148 0.6070324 0.32424873 0.10085955
-0.019922454 -0.04336455 -0.17666118 0.13625059 0.16274786 0.06719053 0.23028189 0.15949094
0.17363322 1.5881959 0.5386025 0.13101386 0.0019293387 0.58976024 0.5610361 -0.1118779
-0.16158791 0.32801652 0.114697814 0.0068882364 0.25772235 0.5214677 -0.22835335 0.31741053
0.06184548 1.0392462 0.5743301 0.044646807 0.33926445 -1.0926933 -0.054107953 -0.4494301
0.46815115 0.71988755 -0.32786098 -0.18766893 0.1505525 0.00014378381 -0.16069356 -0.3450231
-0.2546686 1.0772942 0.12448401 0.17321359 0.1952533 0.9908062 -0.15293421 0.3020484
0.1168582 0.56438935 0.31523275 0.44669038 -0.5140774 1.1219842 0.7073528 0.45528498
-0.014722601 1.3940921 0.2888428 0.08528234 0.18056387 0.22435513 0.13748299 -0.07353224
-0.17633586 1.8156574 0.5256104 0.1245467 -0.8935354 0.18896957 0.11859337 -0.18531756
0.5524644 -0.401661 -0.13770221 -0.35798678 -0.25396958 0.2899547 0.33509293 0.361712
-0.522294 0.25044903 0.49389708 -0.106484555 -0.51811105 0.42445132 0.5962247 -0.21554033
-0.0960375 0.010198745 0.3036636 0.05640754 -0.15984245 -0.39498073 0.027674299 0.047242537
-0.41619146 1.6607047 0.7143072 0.386762 0.21039382 1.3453615 0.34717134 0.16324206
0.9754633 -1.1493623 -0.44430348 -0.18059306 -0.7088015 -1.2854787 -0.45243266 -0.09421383
0.2926933 0.570228 -0.24978626 0.22786735 -0.40200457 0.9825321 0.3746513 0.13026811
0.5582329 0.2053508 0.033556517 -0.18815026 -0.1943634 -0.65166867 0.14190066 -0.23458433
0.08154083 0.93286234 -0.15012552 0.227295 -0.22090884 -0.70023763 0.17487559 -0.18835314
-0.27613404 -0.85489553 -0.37641993 -0.38237324 0.31887025 0.81435436 0.12744954 0.24603245
-0.38067976 0.53169805 -0.18124339 -0.12131467 -0.62907636 -1.520458 -0.25043753 -0.09507278
1.0867339 -0.19819042 -0.42073235 0.15932342 -0.08111288 0.8679518 0.13545087 0.36673883
0.32129455 1.2250336 0.47305292 0.38017568 -0.18604076 0.036709722 -0.104112454 0.23842321
0.05719746 -0.6296462 -0.11842045 -0.27572966 0.09818521 1.1086922 -0.062906966 0.26219508
00000000: 1bdb f53e bda4 ed3d be4d 3fbd 7658 273e
00000010: 5999 6b3e bfe4 42bb b70f 883e 6717 b73e
00000020: cfa8 efbe 23f0 9b3f 7805 5b3e 4f72 003e
00000030: 410a cd3e 124d 1abf 46f9 a0bc fc1c 403e
00000040: 80f3 a83d 9e17 2c3d e40e 5d3d 6596 a03c
00000050: 0c77 f03e fc1b 9cbe fb75 54be fdfc 9f3e
00000060: 0b94 353e c843 593f e330 64be 1a21 07be
00000070: 7f8d 03be 14bc 93be ada0 873e e0d4 383d
00000080: a6e3 003f 1878 70bf 919f 9cbe 1961 85be
00000090: 294a 253f 57c6 773f a95f 253e cbcf 86bd
000000a0: e4cf 3ebf a91b 473f 306b 733d 6bc4 ea3e
000000b0: cd59 a0be 2b76 dc3f 5eb9 1b3f cf4b c83e
000000c0: a71a 163e 6cb2 d13f ba73 35be 3ad9 a03e
000000d0: 5272 86be 3276 febe b671 4cbe 855d 1abe
000000e0: 88b4 81be 9a9a 18bf b8ac a93e b8d4 18be
000000f0: b773 c6be 9de7 d4be ea37 28bf ed3f 93be
00000100: 4448 d6be 3732 b93f 8a87 583e 44ba 163e
00000110: b624 c0be 0da7 6bbf ccca 93be 8d1b 26be
00000120: cc0f 17be 183f 0640 8e60 fc3e 4064 b03e
00000130: ecd2 7ebe 7a66 1b3f ee03 a63e 748f ce3d
00000140: 6a34 a3bc 079f 31bd abe6 34be 4685 0b3e
00000150: 60a7 263e 309b 893d 04cf 6b3e 9851 233e
00000160: e8cc 313e 014a cb3f dae1 093f 7f28 063e
00000170: dde1 fc3a 87fa 163f 10a0 0f3f 3e20 e5bd
00000180: 4d77 25be c8f1 a73e b0e6 ea3d b7b6 e13b
00000190: 2ff4 833e e87e 053f 76d5 69be a283 a23e
000001a0: b051 7d3d 0506 853f 4c07 133f 92df 363d
000001b0: 12b4 ad3e 60dd 8bbf 4da0 5dbd b41b e6be
000001c0: 82b1 ef3e 8d4a 383f 65dd a7be 492c 40be
000001d0: 6f2a 1a3e acc4 1639 da8c 24be dea6 b0be
000001e0: ec63 82be c7e4 893f 79f1 fe3d e75e 313e
000001f0: 7bf0 473e 7aa5 7d3f c99a 1cbe 16a6 9a3e
00000200: 5a53 ef3d d27b 103f 3066 a13e 9ab4 e43e
00000210: 949a 03bf 2e9d 8f3f 1315 353f 1d1b e93e
00000220: 1037 71bc 9c71 b23f 34e3 933e 82a8 ae3d
00000230: bce5 383e 5abd 653e 57c8 0c3e 1298 96bd
00000240: 6391 34be 7667 e83f 678e 063f 5712 ff3d
00000250: bcbe 64bf 3d81 413e 15e1 f23d e3c3 3dbe
00000260: 4f6e 0d3f 83a6 cdbe cf01 0dbe 0b4a b7be
00000270: 4d08 82be f174 943e 4d91 ab3e 5132 b93e
00000280: 0fb5 05bf db3a 803e 14e0 fc3e 9314 dabd
00000290: eda2 04bf af51 d93e 2fa2 183f 9bb6 5cbe
000002a0: 4faf c4bd a318 273c cc79 9b3e 980b 673d
000002b0: bdad 23be ea3a cabe 36b5 e23c 6481 413d
000002c0: 0c17 d5be f991 d43f d6dc 363f ab05 c63e
000002d0: 7a71 573e ce34 ac3f 71c0 b13e ed28 273e
000002e0: f6b7 793f 4e1e 93bf bf7b e3be 63ed 38be
000002f0: 0474 35bf 918a a4bf 41a5 e7be 2ef3 c0bd
00000300: e5db 953e 76fa 113f f8c7 7fbe 0f56 693e
00000310: 8bd3 cdbe 3987 7b3f 4cd2 bf3e 0165 053e
00000320: 5ae8 0e3f 7b47 523e 8f72 093d 76aa 40be
00000330: 3307 47be c2d3 26bf 684e 113e e036 70be
00000340: e1fe a63d 11d0 6e3f 81ba 19be 05c0 683e
00000350: ed35 62be c642 33bf 9612 333e a5df 40be
00000360: 7161 8dbe 6fda 5abf 1dba c0be 6dc6 c3be
00000370: f642 a33e 8779 503f 2282 023e eeef 7b3e
00000380: 75e8 c2be 5d1d 083f de97 39be d373 f8bd
00000390: 260b 21bf 5e9e c2bf 5939 80be 85b5 c2bd
000003a0: 191a 8b3f 6ef2 4abe 3b6a d7be ae25 233e
000003b0: 821e a6bd 1732 5e3f a2b3 0a3e 31c5 bb3e
000003c0: b880 a43e e7cd 9c3f fe33 f23e 63a6 c23e
000003d0: 7881 3ebe ef5c 163d e938 d5bd 3725 743e
000003e0: e247 6a3d 7e30 21bf 6c86 f2bd 702c 8dbe
000003f0: 5415 c93d a0e9 8d3f 5ed5 80bd 6f3e 863e

l1.bias f4 [400]
-0.4297208 -0.39809433 -0.27790013 -0.07955996 -0.038046926 -0.6465072 0.02035427 -0.000661129
0.1683189 0.34177616 -0.52402717 0.048248652 0.16608562 -0.28258014 -0.19395475 -0.20412882
0.12882966 -0.51934433 0.11583372 0.017922094 -0.58275497 -0.3789593 0.090140246 -0.07178528
0.07278365 -0.39615166 0.122807644 0.12864842 0.16351204 -0.7084433 0.24541663 -0.30521253
-0.5009887 -0.02191367 0.27125263 0.28144664 0.23138843 -0.3407839 0.18593945 -0.53681403
0.047395326 -0.3341959 0.03294176 -0.008566044 0.01289848 0.38488442 0.07343714 -0.15481408
0.038392685 0.18367733 -0.57200366 -0.8509281 -0.45713603 -0.78029925 0.045758996 0.07008348
-0.02452082 -0.01706617 -0.18403417 -0.529469 -0.079320416 -0.6205364 -0.6970466 -0.48880818
0.034998607 0.17430568 0.09331173 -0.6680577 0.27373725 0.21211423 0.054946255 0.2324095
-0.68513244 -0.27066866 -0.39418805 0.061809074 -0.7008812 0.202249 -0.5982927 -0.09056848
-0.67704695 -0.7040006 -0.25667715 -0.44720888 -0.3715944 -0.5884795 -0.10875377 -0.3961747
-0.41571 -0.43871033 -0.14119558 -0.52146286 -0.28453052 -0.54430753 -0.53038615 -0.073025875
-0.30724454 -0.5049229 -0.4298292 -0.017636547 -0.11052082 0.11334118 0.22004052 -0.16959718
0.09626176 -0.3438404 0.13370119 0.09954524 0.16472404 0.013685983 -0.04468861 0.07172868
-0.45211563 -0.47583503 0.07042263 0.113216765 -0.6264633 -0.4845261 0.035573803 0.083440304
-0.8029212 -0.060912862 0.19843134 -0.00606892 -0.26477376 -0.21041892 -0.1743293 0.18805185
-0.1619586 0.12295581 -0.26869923 -0.3855434 -0.6033666 0.09943086 0.32695594 0.26515195
-0.5052622 -0.49317768 -0.12798536 -0.00032879954 -0.22598942 0.13250712 0.3098567 0.1625095
-0.34684414 0.06692117 -0.3384021 0.18191466 -0.21974218 -0.7612024 -0.4361436 0.17441848
0.16046274 -0.53290284 -0.50636 0.13592423 0.16180976 -0.4465523 -0.32091975 -0.41658148
-0.45782638 0.12988384 0.104307905 -0.09462187 -0.00068835035 -0.21415162 -0.36997834 0.10918044
-0.42695695 0.27093297 0.27529073 0.11568938 0.0004926035 -0.010628002 -0.69951004 0.038266942
-0.027909832 0.20449655 -0.06740435 0.08335986 0.21442808 -0.66374975 -0.057646085 0.028664727
-0.3867447 -0.36990663 -0.014859966 0.032209437 0.1791707 0.21893024 -0.45196098 0.24794462
-0.08926326 -0.067041345 -0.20623203 -0.006507601 -0.02665569 0.12713435 -0.6716774 0.06574877
0.2564552 -0.321466 -0.5031877 -0.6407039 -0.4434886 0.00016438252 -0.60775447 0.3328907
-0.3462023 0.030486137 -0.022645192 -0.2581107 -0.5516574 -0.3632857 -0.55097073 -0.03723116
0.1843296 0.17605276 -0.3434138 0.17054033 0.09878537 0.08469766 -0.038405497 -0.014242406
0.058382183 -0.6213344 0.35266593 0.2850512 0.032604124 0.21386012 0.011215062 0.034611054
0.15714718 -0.5472207 -0.19842121 0.05987418 0.109890066 -0.3732453 0.07981118 0.047005195
-0.00035122293 0.071363546 0.31291643 -0.5163339 -0.30032316 -0.77276325 -0.06612414 -0.3963104
0.15083756 -0.38976374 -0.3052091 -0.35117608 -0.08017323 -0.17677903 -0.2825121 -0.09159995
00000000: 5d04 dcbe 05d3 cbbe ed48 8ebe 55f0 a2bd
00000010: 18d7 1bbd 7f81 25bf ffbd a63c 9e4f 2dba
00000020: ca5b 2c3e 49fd ae3e a526 06bf 61a0 453d
00000030: 5912 2a3e 58ae 90be 139c 46be 2507 51be
00000040: eceb 033e c0f3 04bf 3b3a ed3d 5bd1 923c
00000050: 6e2f 15bf f406 c2be 739b b83d 2904 93bd
00000060: 980f 953d 64d4 cabe 9382 fb3d 69bc 033e
00000070: b36f 273e 8a5c 35bf 7f4e 7b3e d144 9cbe
00000080: cc40 00bf 4c84 b3bc a0e1 8a3e c619 903e
00000090: 17f1 6c3e 3a7b aebe e966 3e3e a56c 09bf
000000a0: 9a21 423d ba1b abbe f0ed 063d 9858 0cbc
000000b0: 2554 533c 920f c53e 3666 963d 9587 1ebe
000000c0: a641 1d3d e915 3c3e d56e 12bf 6dd6 59bf
000000d0: bc0d eabe b1c1 47bf c96d 3b3d ed87 8f3d
000000e0: e3df c8bc 5ace 8bbc 7473 3cbe 488b 07bf
000000f0: be72 a2bd 79db 1ebf a571 32bf 1145 fabe
00000100: b35a 0f3d 307d 323e 381a bf3d d405 2bbf
00000110: 4a27 8c3e 7934 593e 530f 613d c2fc 6d3e
00000120: d764 2fbf 1595 8abe 04d3 c9be 832b 7d3d
00000130: f36c 33bf 5d1a 4f3e b629 19bf f87b b9bd
00000140: f352 2dbf 6239 34bf 306b 83be 90f8 e4be
00000150: 9f41 bebe 98a6 16bf 4cba debd 69d7 cabe
00000160: f1d7 d4be a49e e0be 9395 10be 977e 05bf
00000170: fcad 91be bd57 0bbf 63c7 07bf 978e 95bd
00000180: 284f 9dbe a142 01bf 9312 dcbe 857a 90bc
00000190: bd58 e2bd 6c1f e83d 4d52 613e e2aa 2dbe
000001a0: e324 c53d d90b b0be f7e8 083e 60de cb3d
000001b0: 6bad 283e 2c3b 603c 670b 37bd 7ce6 923d
000001c0: b37b e7be a6a0 f3be bd39 903d 31de e73d
000001d0: e65f 20bf ce13 f8be d6b5 113d c0e2 aa3d
000001e0: 3e8c 4dbf c47f 79bd 9631 4b3e cadd c6bb
000001f0: 6d90 87be 0f78 57be 6183 32be aa90 403e
00000200: 7ad8 25be 41d0 fb3d f292 89be f265 c5be
00000210: 3c76 1abf 68a2 cb3d c566 a73e ffc1 873e
00000220: dd58 01bf c981 fcbe 980e 03be ba62 acb9
00000230: c569 67be f2af 073e 8aa5 9e3e e468 263e
00000240: 8e95 b1be f70d 893d 0a43 adbe d647 3a3e
00000250: 1804 61be 29de 42bf 374e dfbe c29a 323e
00000260: 5850 243e 526c 08bf cfa0 01bf b92f 0b3e
00000270: 75b1 253e 81a2 e4be 984f a4be 2b4a d5be
00000280: 3868 eabe 4500 053e 629f d53d 1cc9 c1bd
00000290: 6972 34ba 904a 5bbe cd6d bdbe ff99 df3d
000002a0: 1a9a dabe bab7 8a3e e8f2 8c3e 8eee ec3d
000002b0: 1022 013a 1221 2ebc 1713 33bf ccbd 1c3d
000002c0: 29a3 e4bc 8b67 513e 4b0b 8abd 93b8 aa3d
000002d0: 0993 5b3e 81eb 29bf 4d1e 6cbd 4ad2 ea3c
000002e0: 6703 c6be 6764 bdbe 3777 73bc 0bee 033d
000002f0: 8678 373e 402f 603e 6e67 e7be 32e5 7d3e
00000300: a8cf b6bd f94c 89bd 7d2e 53be b73d d5bb
00000310: 095d dabc 822f 023e 0df3 2bbf 4ba7 863d
00000320: 194e 833e 3197 a4be e9d0 00bf 2c05 24bf
00000330: f010 e3be 195e 2c39 cc95 1bbf a670 aa3e
00000340: 6e41 b1be 10be f93c 6982 b9bc 1627 84be
00000350: 6b39 0dbf 9500 babe 6b0c 0dbf b37f 18bd
00000360: e6c0 3c3e 2d47 343e efd3 afbe 20a2 2e3e
00000370: fc4f ca3d f775 ad3d 154f 1dbd fb58 69bc
00000380: 2822 6f3d c50f 1fbf a190 b43e 3bf2 913e
00000390: e78b 053d 26fe 5a3e 61bf 373c 52c4 0d3d
000003a0: 31eb 203e a816 0cbf ee2e 4bbe a13e 753d
000003b0: 0b0e e13d 021a bfbe 0b74 a33d 8588 403d
000003c0: 5824 b8b9 0d27 923d 9536 a03e 752e 04bf
000003d0: f5c3 99be d0d3 45bf 186c 87bd 32e9 cabe
000003e0: 2975 1a3e 1d8f c7be 5e44 9cbe 5acd b3be
000003f0: dd31 a4bd 9005 35be 6da5 90be c198 bbbd

l2.weight f4 [300, 400]
0.021805622 0.014965558 0.0037207305 0.01947071 0.015971195 -0.037149474 -0.034546044 0.004764566
0.013827302 -0.016013166 -0.045139287 0.028835626 -0.039483562 -0.0009060947 -0.029685164 0.017255906
0.024186598 -0.0015995391 -0.016333893 -0.012685387 0.0019333428 0.018016744 0.02796775 -0.006566178
0.027964264 0.0029834157 -0.042170644 -0.008936205 -0.05341781 -0.0225289 0.0064057144 0.030284554
0.0032961427 0.010850143 0.021596357 -0.020875845 0.0006069908 -0.04049369 -0.041762833 -0.030392876
0.026794527 0.033566277 0.00083746354 0.040544648 0.011395384 -0.0028940793 -0.07599012 -0.028274823
0.0067385794 0.004174115 0.024115298 -0.0013916194 0.000882359 0.012239419 -0.040557437 -0.049534425
-0.013241603 -0.04325468 0.0071765054 0.006876084 0.018103035 0.052832887 0.0064578764 0.00886656
0.0042118332 -0.03155184 0.009529255 0.003443461 -0.036875386 -0.04925857 0.055300638 -0.035345595
-0.018512618 0.031998437 -0.01923694 -0.065665126 0.0047052642 -0.043976855 -0.031176776 -0.0020568732
0.04497556 -0.029158823 -0.020057686 0.0021327324 -0.009294703 -0.019498473 -0.021855742 -0.016756631
-0.02287575 0.021858605 -0.024878852 0.010575462 0.049729303 0.0107149705 -0.046884958 -0.02631907
0.005839605 -0.009916433 -0.0030244545 -0.03269496 -0.0020220366 -0.013635589 -0.0040090675 0.033255823
-0.015693232 -0.021944297 -0.052686617 -0.038039718 0.027937565 0.010521285 -0.021147659 -0.010023784
-0.01699719 -0.04041226 -0.015565226 0.033491872 0.0049814656 -0.04866628 -0.007606294 0.030588673
-0.028752279 0.0012221885 -0.06638876 -0.046564166 -0.01812368 0.02206534 -0.010698083 -0.029089121
-0.043697286 0.042169333 0.048655335 0.009053243 0.04215749 0.036400523 0.00045352857 -0.034471177
-0.030918619 0.016997274 -0.0071407366 0.004156683 -0.012116425 0.03737375 0.0047965315 -0.0012587665
-0.010168139 0.020580737 -0.017716631 0.019327553 0.003852971 -0.031111224 0.0042601936 -0.028543161
-0.0029475412 0.006978894 0.037757277 -0.008625169 0.0066099297 0.00773599 -0.029219922 0.073494285
-0.003405359 0.0021680898 -0.047928926 0.048175793 -0.036672857 0.02398908 -0.018058943 0.009167183
-0.04923755 -0.017375464 -0.021972097 -0.02139831 -0.029709911 -0.024474801 -0.024291407 0.014200109
0.018786104 0.0045759585 -0.030067021 0.0462826 0.035652854 0.03801992 0.019563463 -0.077326596
0.022381939 -0.011669029 -0.03589014 -0.04060662 -0.034501098 -0.04397795 0.026622761 0.015485553
-0.00845768 0.01883218 0.0013542551 0.02231251 -0.020647807 -0.067210376 -0.04527762 0.005671737
-0.058484074 -0.03508404 -0.048615664 -0.04279859 -0.046780415 -0.047642052 -0.0037540905 -0.05331657
-0.042205244 -0.052430432 0.018996278 0.02765211 -0.022535078 0.015714005 -0.03936968 -0.05474583
0.016163185 -0.036892038 0.041457843 0.0005770468 -0.00965061 -0.063784175 0.028167203 -0.013551527
-0.018214315 -0.03531315 -0.0144637395 -0.06195599 -0.044916335 -0.048082333 -0.08487643 0.010330243
-0.008367904 0.018351164 -0.04244541 -0.0015738595 -0.004258781 -0.0663615 0.013816586 -0.05801331
-0.01587564 -0.011216817 -0.033902865 -0.04764761 -0.047461078 -0.02945794 -0.0064293672 -0.037939563
-0.031345226 0.004209511 0.04378703 0.0498111 0.019136533 0.018800307 -0.026614683 0.015511129
00000000: b4a1 b23c 1a32 753c 80d7 733b 0a81 9f3c
00000010: 06d6 823c 0c2a 18bd 2780 0dbd 1420 9c3b
00000020: e88b 623c 0b2e 83bc f9e3 38bd b138 ec3c
00000030: 84b9 21bd fc86 6dba 4d2e f3bc 425c 8d3c
00000040: f922 c63c a0a7 d1ba a8ce 85bc 5fd6 4fbc
00000050: 3868 fd3a da97 933c 9f1c e53c 1829 d7bb
00000060: 5015 e53c 6985 433b 20bb 2cbd 2969 12bc
00000070: a2cc 5abd 878e b8bc 07e7 d13b 5017 f83c
00000080: 1904 583b ccc4 313c d8ea b03c d203 abbc
00000090: 771e 1f3a b6dc 25bd 810f 2bbd 7bfa f8bc
000000a0: 3280 db3c cb7c 093d 3a89 5b3a 2512 263d
000000b0: b4b3 3a3c 98aa 3dbb b5a0 9bbd 9aa0 e7bc
000000c0: 4dcf dc3b 04c7 883b 728d c53c 0067 b6ba
000000d0: 1c4e 673a d887 483c 8e1f 26bd 9ce4 4abd
000000e0: 4ff3 58bc d22b 31bd e428 eb3b c650 e13b
000000f0: d14c 943c 4c67 583d 989c d33b 0c45 113c
00000100: 6b03 8a3b 813c 01bd 9820 1c3c b0ab 613b
00000110: a50a 17bd 5bc3 49bd ec82 623d 8bc6 10bd
00000120: c6a7 97bc cb10 033d ca96 9dbc 707b 86bd
00000130: 9e2e 9a3b 1321 34bd 7066 ffbc 9bcc 06bb
00000140: 4b38 383d 7cde eebc 0450 a4bc 50c5 0b3b
00000150: cf48 18bc 43bb 9fbc d00a b3bc 3445 89bc
00000160: ed65 bbbc d110 b33c bcce cbbc b444 2d3c
00000170: f4b0 4b3d d88d 2f3c 710a 40bd 179b d7bc
00000180: 285a bf3b 8978 22bc ed35 46bb 26eb 05bd
00000190: 2584 04bb ce67 5fbc 7f5e 83bb 4237 083d
000001a0: 188f 80bc 87c4 b3bc eccd 57bd 89cf 1bbd
000001b0: 52dd e43c 7861 2c3c db3d adbc cc3a 24bc
000001c0: b13d 8bbc 5387 25bd 4a05 7fbc c62e 093d
000001d0: 903b a33b 4b56 47bd 383e f9bb 1995 fa3c
000001e0: e689 ebbc d731 a03a d5f6 87bd 11ba 3ebd
000001f0: 1d78 94bc 5fc2 b43c 0347 2fbc 4f4c eebc
00000200: edfb 32bd c0b9 2c3d d14a 473d 0e54 143c
00000210: 55ad 2c3d b718 153d 93c7 ed39 a631 0dbd
00000220: 0b49 fdbc de3d 8b3c d7fc e9bb c934 883b
00000230: f883 46bc 3815 193d 392c 9d3b 32fd a4ba
00000240: 4498 26bc ef98 a83c 7822 91bc d154 9e3c
00000250: 2082 7c3b f7dc febc 1899 8b3b 59d3 e9bc
00000260: 892b 41bb 35af e43b 60a7 1a3d 9550 0dbc
00000270: 1c98 d83b 307e fd3b 9e5e efbc 2c84 963d
00000280: 722c 5fbb 8316 0e3b 1f51 44bd fb53 453d
00000290: 4736 16bd bf84 c43c 59f0 93bc f431 163c
000002a0: 50ad 49bd fd56 8ebc d4fe b3bc 824b afbc
000002b0: 3362 f3bc 617f c8bc c6fe c6bc 93a7 683c
000002c0: 51e5 993c ecf1 953b 1d4f f6bc d392 3d3d
000002d0: ba08 123d c7ba 1b3d 8e43 a03c 685d 9ebd
000002e0: 545a b73c 742f 3fbc 8a01 13bd 2153 26bd
000002f0: 0651 0dbd 3922 34bd fa17 da3c 1eb7 7d3c
00000300: 1592 0abc f245 9a3c 4381 b13a bac8 b63c
00000310: 9725 a9bc 98a5 89bd 0775 39bd fad9 b93b
00000320: ff8c 6fbd 48b4 0fbd 3821 47bd 934d 2fbd
00000330: d29c 3fbd 5024 43bd 3007 76bb 7a62 5abd
00000340: 68df 2cbd 4bc1 56bd 159e 9b3c ae86 e23c
00000350: 7c9b b8bc a8ba 803c 1a42 21bd 2a3d 60bd
00000360: a868 843c 1b1c 17bd b3cf 293d f544 173a
00000370: 981d 1ebc 47a1 82bd e8be e63c 3907 5ebc
00000380: 3036 95bc 86a4 10bd 52f9 6cbc 90c5 7dbd
00000390: 31fa 37bd fbf1 44bd b2d3 adbd 2e40 293c
000003a0: 8919 09bc 2e55 963c 3ddb 2dbd f649 ceba
000003b0: 3f8d 8bbb 8ae8 87bd f65e 623c 5d9f 6dbd
000003c0: a10d 82bc bec6 37bc bbdd 0abd 242a 43bd
000003d0: 8c66 42bd c751 f1bc 71ad d2bb 8466 1bbd
000003e0: da63 00bd f0ef 893b 075a 333d b906 4c3d
000003f0: 38c4 9c3c 1a03 9a3c 0907 dabc 6422 7e3c

l2.bias f4 [300]
-0.0075233765 -0.2843039 0.004009895 -0.010324609 0.017771127 -0.022191575 0.0059199072 -0.012149721
-0.05401504 0.03946991 -0.1245352 -0.037910733 -0.039875634 -0.012304663 -0.0020120125 -0.011438049
-0.10631955 -0.040847078 -0.059836604 0.008116694 -0.086302705 -0.006044431 -0.10032238 -0.011405628
-0.05589036 0.014522737 -0.05654826 -0.0886497 -0.11224967 -0.045179572 -0.048006877 -0.027790554
-0.08563789 0.016017737 -0.06772721 -0.029111035 -0.0013376266 0.031012954 0.022796737 0.040623326
-0.025651464 -0.06784302 -9.370946e-05 -0.016336204 -0.059842683 0.013914341 0.02878397 -0.07240432
-0.0012557704 -0.068719245 0.037137438 -0.0156026995 -0.07698003 -0.02609965 -0.03338072 0.018754724
0.008024509 0.028951917 -0.063982144 -0.060207672 0.02656098 -0.04602277 -0.099989034 -0.0804194
-0.03402396 -0.049658213 -0.047479823 -0.09198766 0.01676517 -0.042555258 -0.034295894 -0.094178714
-0.050193403 -0.100958124 -0.05796738 -0.0963508 0.015744884 0.023209998 -0.0047726915 -0.02348654
-0.031885546 0.028254466 -0.08971964 -0.11761404 -0.049499378 0.06336 0.01497854 -0.006977707
-0.05773312 -0.026184356 0.009735035 -0.06894044 0.03836454 -0.027335892 -0.07052821 -0.05050438
-0.01417891 -0.06461727 -0.099218585 -0.030009508 0.033632465 -0.00204602 -0.1320843 -0.02985171
-0.08481798 -0.034980644 -0.053255897 -0.020515464 -0.052843682 -0.0147308875 -0.04205224 -0.01765641
-0.048249852 0.033222523 -0.015774503 0.036885932 -0.010205289 0.023584303 -0.03252741 -0.076113105
-0.05730787 -0.052836746 -0.0058245976 -0.059347544 -0.028759617 0.072805986 -0.03781291 0.011097647
-0.039806593 -0.06164921 -0.035817012 -0.097877756 -0.06632524 -0.10519725 0.007219981 0.015121217
-0.03445385 -0.079681136 -0.033282034 0.023210311 -0.057152316 0.020976197 -0.02643652 -0.033908166
-0.050603352 0.08011603 -0.07544667 -0.008912111 -0.03532641 -0.055967152 -0.012281601 -0.10868618
-0.1005666 0.021115445 -0.04652483 -9.999795e-06 -0.0006463761 0.0009450165 -0.013800336 -0.02903496
-0.019200755 -0.05671093 0.010732326 -0.013117594 -0.033847645 -0.0066408506 -0.019072466 -0.07400364
-0.03972021 -0.0024199893 0.052851696 -0.06827311 -0.06588197 -0.011352429 -0.06724198 -0.05205588
0.0014191166 -0.061482124 -0.048113983 0.014805959 -0.03497918 -0.014184345 0.02897557 -0.013880753
-0.025767712 -0.04195292 -0.11461149 -0.0446515 0.018680718 -0.029544022 -0.012911323 -0.034536973
0.012800335 -0.0038539642 -0.10517642 0.009641784 -0.007139436 -0.10435298 -0.07411054 -0.076520965
-0.018998878 0.022725433 0.011801615 0.0136599885 -0.06291097 -0.052788973 0.02781564 -0.038497377
-0.041136943 0.03817906 -0.04276952 0.015021202 -0.04099909 0.056952596 0.022774711 -0.004532772
-0.0914389 -0.0054551107 -0.07059056 0.019773906 -0.09267119 -0.042429812 0.010307498 -0.022539519
-0.06892407 0.0026522116 -0.030558286 -0.0010974206 -0.027615635 -0.008181418 -0.073461354 -0.0028456887
-0.021287492 0.0367436 0.024060613 -0.07624456 0.02367227 0.009962753 -0.06566115 -0.008140675
-0.008049249 -0.0100913085 -0.07081693 -0.06996539 -0.049043905 -0.06450897 0.014615982 -0.015982388
-0.042925615 -0.06960061 -0.07837389 -0.0065853572 -0.038026214 -0.06737456 -0.021382075 -0.07528647
00000000: a886 f6bb 4890 91be 7065 833b 8c28 29bc
00000010: c194 913c 1bcb b5bc c8fb c13b a00f 47bc
00000020: e03e 5dbd 33ab 213d 500c ffbd 4948 1bbd
00000030: a254 23bd 7f99 49bc f8db 03bb a866 3bbc
00000040: 10be d9bd 444f 27bd 3a17 75bd e2fb 043c
00000050: 79bf b0bd 5d10 c6bb d275 cdbd acde 3abc
00000060: 4aed 64bd c6f0 6d3c 269f 67bd f98d b5bd
00000070: 28e3 e5bd 370e 39bd dca2 44bd 04a9 e3bc
00000080: eb62 afbd a137 833c 90b4 8abd 447a eebc
00000090: 4d53 afba e10e fe3c 39c0 ba3c a564 263d
000000a0: 0523 d2bc 48f1 8abd e285 c4b8 81d3 85bc
000000b0: 9a1d 75bd faf8 633c 5ccc eb3c b748 94bd
000000c0: aa98 a4ba adbc 8cbd 6d1d 183d 77a2 7fbc
000000d0: b5a7 9dbd efce d5bc 39ba 08bd 82a3 993c
000000e0: 3b79 033c 922c ed3c 1209 83bd 529c 76bd
000000f0: 6a96 d93c 5f82 3cbd 0dc7 ccbd edb2 a4bd
00000100: b55c 0bbd 6966 4bbd 347a 42bd 0764 bcbd
00000110: 1c57 893c 6c4e 2ebd da79 0cbd c5e0 c0bd
00000120: 9997 4dbd 22c3 cebd 346f 6dbd 9153 c5bd
00000130: 6afb 803c e522 be3c 3d64 9cbb d866 c0bc
00000140: 6b9a 02bd e975 e73c eebe b7bd a1df f0bd
00000150: dcbf 4abd e3c2 813d 8d68 753c 40a5 e4bb
00000160: 9079 6cbd 9380 d6bc b27f 1f3c a530 8dbd
00000170: 2324 1d3d 85ef dfbc 1871 90bd aedd 4ebd
00000180: a94e 68bc 0f56 84bd 1d33 cbbd 80d6 f5bc
00000190: 32c2 093d 8516 06bb 1b41 07be 938b f4bc
000001a0: 0db5 adbd dd47 0fbd db22 5abd 0c10 a8bc
000001b0: 9e72 58bd d259 71bc f83e 2cbd 2da4 90bc
000001c0: a3a1 45bd 5714 083d 8839 81bc b415 173d
000001d0: 1634 27bc de33 c13c 763b 05bd 30e1 9bbd
000001e0: a8bb 6abd 586b 58bd 44dc bebb 6916 73bd
000001f0: 4a99 ebbc 4e1b 953d b6e1 1abd e8d2 353c
00000200: 3d0c 23bd e283 7cbd dcb4 12bd 2274 c8bd
00000210: 87d5 87bd a871 d7bd 9795 ec3b fbbe 773c
00000220: 7b1f 0dbd dd2f a3bd be52 08bd 8d23 be3c
00000230: 8c18 6abd 46d6 ab3c 6791 d8bc 4ae3 0abd
00000240: 7645 4fbd e013 a43d c983 9abd 1a04 12bc
00000250: 6db2 10bd d03d 65bd c538 49bc dc96 debd
00000260: ddf5 cdbd 4cfa ac3c d290 3ebd cbc4 27b7
00000270: 9171 29ba fcba 773a ce1a 62bc b9da edbc
00000280: e74a 9dbc b849 68bd a3d6 2f3c 2deb 56bc
00000290: d4a3 0abd 7e9b d9bb dc3d 9cbc 388f 97bd
000002a0: a9b1 22bd af98 1ebb 057b 583d c6d2 8bbd
000002b0: 20ed 86bd 8aff 39bc 2ab6 89bd 8c38 55bd
000002c0: a701 ba3a aed4 7bbd 2b13 45bd b194 723c
000002d0: 5446 0fbd 7465 68bc 2d5e ed3c 196c 63bc
000002e0: cf16 d3bc d3d6 2bbd 6eb9 eabd 7ee4 36bd
000002f0: 4e08 993c 4e06 f2bc 048a 53bc a476 0dbd
00000300: 7fb8 513c ca92 7cbb bc66 d7bd 93f8 1d3c
00000310: eef1 e9bb 04b7 d5bd 44c7 97bd 06b7 9cbd
00000320: 89a3 9bbc b02a ba3c 905b 413c 25ce 5f3c
00000330: 77d7 80bd 4039 58bd a0dd e33c 6daf 1dbd
00000340: 367f 28bd a561 1c3d 182f 2fbd 7d1b 763c
00000350: a9ee 27bd 2047 693d 0892 ba3c a687 94bb
00000360: 5144 bbbd c9c0 b2bb c991 90bd e3fc a13c
00000370: 65ca bdbd e2ca 2dbd c8e0 283c cca4 b8bc
00000380: 1028 8dbd bad0 2d3b 5f55 fabc 53d7 8fba
00000390: 2f3a e2bc 5b0b 06bc e872 96bd bc7e 3abb
000003a0: 1b63 aebc 7580 163d c31a c53c 1c26 9cbd
000003b0: 59ec c13c d13a 233c 5a79 86bd 7760 05bc
000003c0: ffe0 03bc 0456 25bc 7708 91bd 044a 8fbd
000003d0: 43e2 48bd 471d 84bd df77 6f3c 7fed 82bc
000003e0: c5d2 2fbd c48a 8ebd 7d82 a0bd fbc9 d7bb
000003f0: 60c1 1bbd acfb 89bd 7629 afbc cb2f 9abd

l3.weight f4 [1, 300]
-0.01161176 0.7152735 0.026707819 0.038535178 0.010252153 -0.0021167013 -0.004877294 -0.0067561045
0.009019099 0.024626143 -0.04053941 0.035393074 -0.05258926 -0.0011162178 0.006386908 -0.02843008
-0.40408394 -0.07354621 0.014150083 -0.0048390436 -0.07341832 0.025219442 -0.0023143394 0.0008868794
-0.038676076 0.02540413 -0.04817625 -0.0620698 -0.063363336 -0.08102456 0.0031249765 0.048437852
0.2061 0.005475975 -0.0013794922 0.02676548 0.01578359 0.04660162 0.021599595 0.038277883
0.0021220471 -0.07167681 0.012104386 -0.07497162 0.02351355 0.01407487 0.041699678 -0.07399717
0.03584615 0.027411815 -0.18355405 0.0037646624 -0.06787827 -6.0925784e-05 0.0005940717 0.02506731
-0.0045657116 0.016903918 -0.06308526 0.047218453 0.022194441 0.049869906 -0.08037384 -0.05911175
-0.071013264 0.028356833 0.031116873 -0.05285028 0.02445271 0.01255503 0.012585212 -0.061935943
0.028302146 -0.063386925 0.02279728 -0.059712887 -0.0059342734 0.039884813 0.032404326 0.030269751
-0.009734639 -0.003694244 -0.06639366 -0.08051904 0.005938345 0.2173366 0.025975514 0.007393923
-0.0014160062 0.025815597 0.20444782 0.024865935 0.004794711 -0.009095997 -0.07051799 -0.002803282
0.010749539 0.003365141 -0.056029707 -0.0086049205 0.012322204 0.006515945 -0.11149221 0.01028447
0.4390742 0.0027269078 -0.01813315 -0.0025273152 0.0068174265 -0.009112925 -0.037123505 -0.086725764
0.0050677345 0.043227095 0.031836417 0.0050921547 -0.019696757 0.03610692 -0.086699 -0.058662605
0.011098538 0.0068563307 -0.02388051 0.011956082 0.023786068 0.24072662 -0.039451156 0.0060101775
0.028521044 -0.07347721 -0.00524739 -0.06289804 -0.05175813 -0.13567583 -0.004547342 -0.013118001
-0.06521287 0.017308984 -0.08600074 -0.003765243 -0.056012556 0.03594112 0.040163152 -0.05625764
0.0050244853 0.23814705 -0.02853263 0.0016947953 -0.0031602923 0.038370937 -0.0023060092 -0.07741496
0.22102493 0.012831655 0.011939399 0.027475977 0.0077256053 0.021091606 0.022895547 -0.06924434
0.009512228 -0.031315483 0.002228884 -0.027013658 -0.0010869837 0.023809932 -0.06980406 0.005625434
0.02365839 0.00015044573 -0.26514053 0.021502603 -0.029568274 0.0038333542 0.017822752 -0.020123638
-0.007144029 -0.0856739 0.011565336 0.16077133 0.03374511 0.008143589 0.044702217 -0.07181967
-0.016912768 -0.07108457 -0.07292397 -0.0671747 0.017060049 0.031312253 -0.07710316 0.02618486
0.012369611 -0.28429338 -0.0707797 -0.0029566572 0.0068537286 -0.07766325 -0.06695299 -0.010122634
0.039854847 0.008615721 0.042846374 0.018788194 2.8433713e-05 0.0442522 -0.00533208 -0.012211532
-0.049989775 0.00318609 -0.0040115053 -0.009253479 0.017411923 0.110076346 -0.005794555 0.026594212
-0.050769895 0.011345614 0.015041602 0.018282708 -0.07370937 0.044762406 0.0010336334 0.013584093
0.017227657 -0.021399526 -0.02734282 -0.003729308 -0.07811654 0.022948425 -0.03257456 0.030276561
-0.02379716 0.026592081 0.007338142 -0.022687158 -0.00094056566 -0.01747446 0.06969522 -0.006191168
0.00959632 -0.033965316 0.01730318 0.014474504 -0.034564212 -0.022136202 0.0022783203 -0.07689303
-0.018343477 -0.061073996 -0.05616389 -0.003927472 0.00252776 -0.045144502 -0.0059111877 -0.0022652647
00000000: 403f 3ebc 2a1c 373f 5bca da3c 10d7 1d3d
00000010: a5f8 273c 5bb8 0abb b5d1 9fbb 5062 ddbb
00000020: d8c4 133c c4bc c93c a70c 26bd 54f8 103d
00000030: d667 57bd 0e4e 92ba 4449 d13b 33e6 e8bc
00000040: 17e4 cebe 659f 96bd c0d5 673c d790 9ebb
00000050: 585c 96bd 0199 ce3c 2cac 17bb 787d 683a
00000060: ce6a 1ebd 521c d03c 7654 45bd e73c 7ebd
00000070: a3c4 81bd 34f0 a5bd 68cc 4c3b c566 463d
00000080: e10b 533e cf6f b33b 14d0 b4ba 4843 db3c
00000090: 964c 813c 57e1 3e3d a2f1 b03c 45c9 1c3d
000000a0: 0b12 0b3b 4bcb 92bd 7a51 463c b98a 99bd
000000b0: 7d9f c03c 499a 663c 48cd 2a3d d48b 97bd
000000c0: 6ad3 123d be8e e03c 98f5 3bbe 8eb8 763b
000000d0: c303 8bbd 908a 7fb8 7abb 1b3a f659 cd3c
000000e0: f79b 95bb 167a 8a3c d832 81bd 2368 413d
000000f0: 1ed1 b53c 6344 4c3d 0a9b a4bd 2a1f 72bd
00000100: 676f 91bd 974c e83c d0e8 fe3c 8979 58bd
00000110: 0d51 c83c 9db3 4d3c 3432 4e3c 8bb0 7dbd
00000120: e7d9 e73c 01d1 81bd 5dc1 ba3c 8095 74bd
00000130: 4b74 c2bb 425e 233d 66ba 043d 45f8 f73c
00000140: 097e 1fbc 211b 72bb 66f9 87bd 2be7 a4bd
00000150: 7396 c23b 7c8d 5e3e 9aca d43c b948 f23b
00000160: 4999 b9ba 3b7b d33c c55a 513e a5b3 cb3c
00000170: f31c 9d3b 6007 15bc bc6b 90bd 45b7 37bb
00000180: d61e 303c b389 5c3b 687f 65bd a7fb 0cbc
00000190: 12e3 493c b583 d53b 0756 e4bd 3280 283c
000001a0: 55ce e03e ecb5 323b f98b 94bc 50a1 25bb
000001b0: b864 df3b 614e 15bc d10e 18bd 479d b1bd
000001c0: 3d0f a63b e50e 313d e766 023d 17dc a63b
000001d0: 185b a1bc dae4 133d 3f8f b1bd 3348 70bd
000001e0: a4d6 353c 12ab e03b 0fa1 c3bc 71e3 433c
000001f0: 00db c23c 0a81 763e 8997 21bd 06f1 c43b
00000200: f7a4 e93c 387b 96bd 4cf2 abbb b0d0 80bd
00000210: 5500 54bd 9bee 0abe df01 95bb e2ec 56bc
00000220: 538e 85bd 92cb 8d3c 2821 b0bd 4cc2 76bb
00000230: 6c6d 65bd ff36 133d 1e82 243d 696e 66bd
00000240: 70a4 a43b d2dc 733e 43bd e9bc e523 de3a
00000250: e81c 4fbb d82a 1d3d 6a20 17bb bc8b 9ebd
00000260: 5c54 623e dd3b 523c 789d 433c 4d15 e13c
00000270: 1327 fd3b 4ec8 ac3c 718f bb3c facf 8dbd
00000280: 2dd9 1b3c aa44 00bd 7812 123b bf4b ddbc
00000290: 1f79 8eba 0c0d c33c 6ef5 8ebd 9055 b83b
000002a0: 3dcf c13c f8c0 1d39 80c0 87be 3a26 b03c
000002b0: 2a39 f2bc 0339 7b3b 0501 923c 54da a4bc
000002c0: 7518 eabb cc75 afbd 897c 3d3c 3da1 243e
000002d0: 5038 0a3d b06c 053c ac19 373d 3116 93bd
000002e0: a58c 8abc c994 91bd 2a59 95bd e492 89bd
000002f0: 84c1 8b3c 4741 003d 43e8 9dbd a281 d63c
00000300: e9a9 4a3c e78e 91be f3f4 90bd 7ac4 41bb
00000310: 3e95 e03b e90d 9fbd a61e 89bd 67d9 25bc
00000320: d63e 233d f428 0d3c ae7f 2f3d b3e9 993c
00000330: ef84 ee37 cb41 353d bbb8 aebb e112 48bc
00000340: 14c2 4cbd b8cd 503b f272 83bb e79b 17bc
00000350: 73a3 8e3c b56f e13d 40e0 bdbb 1bdc d93c
00000360: 18f4 4fbd f4e2 393c 0d71 763c 9ec5 953c
00000370: f0f4 96bd c958 373d fb7a 873a d18f 5e3c
00000380: 0421 8d3c 0f4e afbc 0dfe dfbc 6867 74bb
00000390: 91fb 9fbd 56fe bb3c e76c 05bd 8d06 f83c
000003a0: 43f2 c2bc a3d7 d93c cc74 f03b 6bda b9bc
000003b0: 4b90 76ba 9926 8fbc 5ebc 8e3d 48df cabb
000003c0: e239 1d3c 371f 0bbd 66bf 8d3c 7826 6d3c
000003d0: 3493 0dbd fb56 b5bc df4f 153b 187a 9dbd
000003e0: 0f45 96bc ba28 7abd 1b0c 66bd 06b2 80bb
000003f0: c7a8 253b 71e9 38bd a3b2 c1bb d674 14bb
