InvertedPendulum/InvertedPendulum-v4_actor_finalized_06.pth (torch, 493438 bytes, 5 tensors)

l1.weight f4 [400, 4]
000000 1b db f5 3e bd a4 ed 3d be 4d 3f bd 76 58 27 3e
       0.48018727 0.11603687 -0.046705 0.16342339
000010 87 df 6b 3e 0f 5e 56 bb d3 2a 88 3e c8 fc b6 3e
       0.23034488 -0.0032709872 0.26595172 0.35739732
000020 1a 6b f1 be 69 47 9c 3f c9 c7 4b 3e ae 2f 1c 3e
       -0.47152025 1.2209293 0.1990043 0.15252563
000030 f4 c8 af 3e 92 7c 18 bf c3 fe c1 bc 94 39 1c 3e
       0.34333003 -0.5956508 -0.02368105 0.1525634
000040 80 f3 a8 3d 9e 17 2c 3d e4 0e 5d 3d 65 96 a0 3c
       0.08249569 0.04201471 0.05396928 0.019602964
000050 dd 97 f0 3e c4 8f 9c be b9 92 53 be e8 81 9f 3e
       0.46990862 -0.30578434 -0.20661439 0.31153798
000060 b4 70 26 3e e1 2f 5a 3f 1c cd 58 be 97 a1 fb bd
       0.1625393 0.8522931 -0.21171993 -0.1228668
000070 6a d2 f9 bd 66 8b 97 be 0f ba 7b 3e 18 51 0c 3d
       -0.121983364 -0.2959854 0.24582694 0.034257025
000080 ac cc f2 3e 6c 41 67 bf 22 7f a5 be 5e cc 80 be
       0.47421777 -0.903342 -0.32323557 -0.2515592
000090 7b 16 28 3f 4c ea 77 3f b9 8b 39 3e 6f cc b2 bd
       0.656593 0.96841884 0.18119706 -0.08730399
0000a0 e5 16 3f bf 32 9f 48 3f 13 08 2e 3d da 75 f9 3e
       -0.7464431 0.7836791 0.04248817 0.48722726
0000b0 c6 35 a9 be 0a 87 d1 3f 6e 97 1c 3f ee ac cc 3e
       -0.33048838 1.6369336 0.61168563 0.39975685
0000c0 d5 f3 fe 3d d8 8e ce 3f 1f fb 30 be 44 c0 9d 3e
       0.12448851 1.6137342 -0.17283295 0.3081075
0000d0 00 f4 80 be 85 a8 ea be ce 8c 71 be bb b6 d4 bd
       -0.25186157 -0.45831695 -0.23588869 -0.103864156
0000e0 32 78 5f be c8 73 13 bf bc d4 93 3e 13 99 2b be
       -0.21823195 -0.57598543 0.2887324 -0.16757612
0000f0 6a 05 c2 be e1 d3 e4 be cc 57 2e bf ba 17 90 be
       -0.37894756 -0.446929 -0.6810272 -0.28143102
000100 26 6b dc be a3 55 b4 3f df c2 5b 3e e6 2c 1a 3e
       -0.43050498 1.4088634 0.21461056 0.1505619
000110 ec 64 c3 be 56 05 70 bf 1c 0f 9e be 22 5f 0f be
       -0.38162935 -0.9375814 -0.30870903 -0.14001134
000120 07 ac 26 be 90 5d 02 40 49 23 fe 3e 51 50 a4 3e
       -0.1627656 2.0369606 0.49636295 0.32092527
000130 79 c1 84 be 2b 63 19 3f 2e 4a 98 3e 53 f7 da 3d
       -0.25928858 0.59916943 0.29744095 0.106917046
000140 d5 06 2e bd db 1e c1 bc 73 80 4e be bd c6 1e 3e
       -0.042486984 -0.023574283 -0.20166187 0.155055
000150 60 a7 26 3e 30 9b 89 3d 04 cf 6b 3e 98 51 23 3e
       0.16274786 0.06719053 0.23028189 0.15949094
000160 c0 66 19 3e 83 20 cb 3f 96 b3 0b 3f 4e 25 06 3e
       0.14980602 1.5869297 0.545709 0.13100168
000170 79 54 9c 3c 05 54 11 3f c7 dc 0e 3f d3 37 db bd
       0.019083248 0.5676883 0.5580563 -0.10704007
000180 d7 7d 37 be 54 df ac 3e 86 70 d9 3d 92 01 af 3a
       -0.17919098 0.33764136 0.10617165 0.0013351908
000190 19 ee 6b 3e cc 78 08 3f 5a e4 70 be c0 2e a7 3e
       0.23040046 0.5330932 -0.23524609 0.32652855
0001a0 7d fe 80 3d ac d4 85 3f 21 2b 0c 3f 33 19 3d 3d
       0.0629854 1.0455527 0.5475331 0.04616661
0001b0 e3 40 91 3e 14 c1 83 bf 36 86 ee bc 30 05 f7 be
       0.28369817 -1.0293298 -0.029116731 -0.48246145
0001c0 08 2e e7 3e 8c f4 35 3f f1 69 a6 be 83 84 41 be
       0.45152307 0.71076274 -0.32502702 -0.18898205
0001d0 23 8d 05 3e da 1f 5d 3c 3e b0 2a be f3 33 af be
       0.1304212 0.013496364 -0.16668794 -0.34219322
0001e0 c6 cd 85 be db 72 87 3f ff fc 03 3e 13 0d 17 3e
       -0.26133555 1.0581926 0.12889479 0.14751081
0001f0 1c 75 22 3e 54 63 80 3f 0f 29 26 be 96 d7 a2 3e
       0.15864986 1.0030313 -0.162266 0.31805104
000200 5f e5 ee 3d a6 9f 10 3f db f9 9f 3e c3 1c e6 3e
       0.11664843 0.56493604 0.31245312 0.44943818
000210 3f 26 08 bf 9e eb 8b 3f 32 6c 32 3f 52 91 e9 3e
       -0.5318336 1.093128 0.6969634 0.45618683
000220 b5 66 67 bd 40 09 b2 3f ff 46 86 3e 59 e9 fb 3d
       -0.056494433 1.3909073 0.2622604 0.12300367
000230 cf 40 38 3e 46 88 5b 3e d4 f0 24 3e c8 4f b6 bd
       0.17993473 0.21438703 0.16107494 -0.08901936
000240 08 57 46 be c5 f8 e4 3f c7 a5 05 3f af 44 03 3e
       -0.19369137 1.7888418 0.5220608 0.1281917
000250 1a f5 61 bf 40 45 3a 3e b1 f7 ea 3d c1 2e 26 be
       -0.8826462 0.1819048 0.11473025 -0.16228773
000260 65 31 0d 3f 56 13 bb be bb ab 16 be 10 22 b8 be
       0.55153495 -0.3653819 -0.14713947 -0.35963488
000270 4d 08 82 be f1 74 94 3e 4d 91 ab 3e 51 32 b9 3e
       -0.25396958 0.2899547 0.33509293 0.361712
000280 ae d2 04 bf 1f 46 84 3e d2 76 ff 3e a3 40 cb bd
       -0.5188397 0.25834748 0.4989534 -0.09924438
000290 5d 3a f0 be 1b 34 e6 3e 70 41 15 3f f6 26 7c be
       -0.46919528 0.44961628 0.58302975 -0.24624237
0002a0 45 23 b5 bd 5b 5d a4 3c 80 d7 95 3e 31 52 79 3d
       -0.08844618 0.020064047 0.29265976 0.0608694
0002b0 bc b2 2d be 29 74 d1 be 27 ef 52 3c 4d 1a e9 3c
       -0.16962713 -0.40908936 0.012874401 0.028454924
0002c0 ad 48 dc be 24 aa ca 3f da af 34 3f 0f 6c cd 3e
       -0.43024197 1.5833173 0.7058083 0.40121505
0002d0 db de 46 3e 65 66 a7 3f 03 7d b3 3e 2c df 1f 3e
       0.1942095 1.3078123 0.35056314 0.15612477
0002e0 16 60 7b 3f 5a 3f 90 bf 91 f6 db be da b3 2f be
       0.9819349 -1.1269333 -0.42961553 -0.17158452
0002f0 82 86 35 bf f6 4b a1 bf 89 4b e6 be 01 71 de bd
       -0.7090837 -1.2601306 -0.44979504 -0.108613975
000300 f5 de 8f 3e a4 d5 06 3f 4f 8a 79 be 14 7b 7e 3e
       0.2809979 0.5266974 -0.24369167 0.24851638
000310 5f 5d d9 be a0 37 80 3f 00 98 b1 3e f6 cf 22 3e
       -0.4245405 1.0016975 0.3468628 0.15899643
000320 48 b2 0d 3f e4 7b 57 3e cd 75 0d 3d f6 07 42 be
       0.5535016 0.21043354 0.03453617 -0.1894835
000330 16 92 50 be ce cf 23 bf cb 2a 0c 3e af a2 6c be
       -0.20368227 -0.6398896 0.13688199 -0.23108934
000340 f4 10 07 3e 32 c1 6c 3f fd 8b 08 be 19 9e 69 3e
       0.13190061 0.9248229 -0.13334651 0.22814216
000350 a0 ee 6d be 90 61 30 bf 8b c5 2c 3e c6 5d 3c be
       -0.2323556 -0.6889887 0.16872232 -0.18395147
000360 9c 14 8c be 65 85 57 bf c3 e3 c5 be d0 6b c2 be
       -0.27359474 -0.8418792 -0.3865033 -0.3797288
000370 4b 31 a1 3e f2 0f 4e 3f 4d c5 66 3e 91 9d 2f 3e
       0.3148292 0.8049308 0.22536202 0.1714995
000380 91 85 cb be b1 92 f9 3e 7b bc 4d be 67 23 e8 bd
       -0.3975034 0.4874473 -0.20091431 -0.113348775
000390 c0 ca 1d bf 9c ba bf bf 1e f3 80 be c7 e5 de bd
       -0.61637497 -1.4978824 -0.25185484 -0.1088367
0003a0 46 de 86 3f b5 83 62 be ed c0 dd be 23 0e 16 3e
       1.0536582 -0.22120555 -0.43311253 0.1465383
0003b0 db b6 b7 bd 35 e1 5d 3f fa a6 fc 3d 3c f8 c1 3e
       -0.08970424 0.86671764 0.12336536 0.378847
0003c0 1a 52 a4 3e 30 e5 9d 3f 66 fb f1 3e c7 7a c3 3e
       0.3209389 1.2335567 0.47262114 0.3817961
0003d0 6c 1a 3f be 49 93 19 3d db 9d d7 bd 33 b6 75 3e
       -0.18662423 0.037493978 -0.105281554 0.23995285
0003e0 3e 50 4c 3d e8 90 1d bf 5e 69 ff bd fa 29 8b be
       0.049881212 -0.61549234 -0.12471269 -0.27180463
0003f0 3a fb e7 3d 06 0a 8e 3f fd fd 80 bd cc 96 88 3e
       0.113272145 1.1096809 -0.062984444 0.2667755

l1.bias f4 [400]
000000 5d 04 dc be 08 df cb be 97 9f 89 be a8 5b a8 bd
       -0.4297208 -0.39818597 -0.2687957 -0.08220607
000010 18 d7 1b bd 8d b3 25 bf a6 75 86 3c 04 7e 9a 3b
       -0.038046926 -0.647271 0.016413521 0.0047147293
000020 7c 61 30 3e 26 be a8 3e 1d df 02 bf 28 10 3a 3d
       0.17224687 0.32957572 -0.51121694 0.045425564
000030 11 b4 30 3e 43 2b 89 be 80 c9 42 be 7c fa 44 be
       0.1725619 -0.2679082 -0.19022179 -0.19236177
000040 75 32 0c 3e 6f 4a 00 bf 17 0d e0 3d 93 6f 00 3d
       0.13691123 -0.50113577 0.10939997 0.031356405
000050 25 de 0f bf f4 06 c2 be e6 d8 bb 3d 18 34 9c bd
       -0.5619834 -0.3789593 0.091722295 -0.076271236
000060 b5 73 a3 3d a9 51 c6 be e9 49 fa 3d 11 9d 0c 3e
       0.07981054 -0.38734177 0.122211285 0.13731791
000070 90 90 27 3e d1 0a 35 bf 9f 38 7f 3e f0 ec 94 be
       0.1636374 -0.7071963 0.24923943 -0.2908702
000080 88 59 ff be 30 2d 86 bc 34 d4 86 3e 31 03 8b 3e
       -0.49872994 -0.016378969 0.26333773 0.27150872
000090 44 07 6c 3e ad ce b4 be ec d0 27 3e a5 6c 09 bf
       0.23049647 -0.3531393 0.16388291 -0.53681403
0000a0 db 38 15 3d 8d 56 a4 be df ea 22 3d 97 76 98 3a
       0.036431175 -0.32097283 0.03977477 0.0011632022
0000b0 34 0c 84 3c 81 88 c4 3e 74 e2 9a 3d 66 71 1c be
       0.0161191 0.38385394 0.07562724 -0.15277633
0000c0 95 09 19 3d de 62 3d 3e 5b 9a 10 bf ea 81 59 bf
       0.037362654 0.18494746 -0.5648553 -0.8496386
0000d0 eb 37 eb be fb ae 47 bf a9 d6 32 3d 49 f9 77 3d
       -0.459411 -0.78001374 0.043661747 0.06054047
0000e0 77 cf 05 bb 01 bc 45 bd c2 09 36 be 43 d0 04 bf
       -0.0020417848 -0.048274998 -0.1777716 -0.5188028
0000f0 23 be a1 bd 43 a6 1e bf 79 75 32 bf 63 3a f8 be
       -0.07897594 -0.61972445 -0.697105 -0.48482046
000100 26 f3 e5 3c 14 31 34 3e 1c b8 b9 3d c1 af 2b bf
       0.028070044 0.17596847 0.09068319 -0.67065054
000110 06 48 88 3e ed 5a 4a 3e f4 13 67 3d a2 ea 46 3e
       0.2661745 0.19761248 0.056415513 0.19425443
000120 7a 00 30 bf 15 bd 85 be 04 d3 c9 be 3c d7 91 3d
       -0.6875073 -0.2612082 -0.39418805 0.07121131
000130 40 a2 33 bf be 27 54 3e ef cd 1a bf bf a8 d1 bd
       -0.7016945 0.20718285 -0.6047048 -0.10237264
000140 06 6e 2c bf 23 85 31 bf d9 7b 86 be 90 f8 e4 be
       -0.6735538 -0.69343776 -0.26266363 -0.44720888
000150 9f 41 be be 61 14 15 bf 5c b6 00 be 16 55 d4 be
       -0.3715944 -0.5823422 -0.12569565 -0.41471165
000160 f1 d7 d4 be d0 4a ec be 18 60 f2 bd 39 91 03 bf
       -0.41571 -0.46150827 -0.11834735 -0.5139347
000170 8d bc 93 be 31 28 0d bf fa f5 07 bf 4b 2e 8e bd
       -0.2885479 -0.5513945 -0.53109705 -0.069424234
000180 32 b4 9d be 43 86 01 bf 93 12 dc be 04 99 63 bc
       -0.3080154 -0.5059549 -0.4298292 -0.013891462
000190 13 dc ae bd 49 73 03 3e 3c bd 6a 3e bc a0 33 be
       -0.085380696 0.12836947 0.2292375 -0.17541784
0001a0 ff 80 cd 3d 58 4e a6 be 08 92 09 3e 8a 79 04 3e
       0.1003437 -0.32481647 0.13434613 0.12936988
0001b0 8a 0b 32 3e 7a ba a9 3c 91 6f 01 bd 78 f9 81 3d
       0.17387214 0.020718802 -0.03160054 0.063464105
0001c0 67 b8 e4 be a6 a0 f3 be 3a a3 a2 3d de 2d dc 3d
       -0.44671938 -0.47583503 0.07941289 0.10750936
0001d0 a0 78 1f bf 7f be f9 be c6 86 2c 3d 79 90 b4 3d
       -0.62293434 -0.4877815 0.042120717 0.088166185
0001e0 3e 8c 4d bf a8 7b 39 bd 2d 9b 48 3e 01 8b 31 bc
       -0.8029212 -0.045283943 0.19590445 -0.010836364
0001f0 69 de 88 be 51 22 53 be 12 7c 32 be 29 08 4c 3e
       -0.26732185 -0.2061856 -0.17430142 0.19924988
000200 36 51 32 be 5d f1 d6 3d f2 92 89 be 46 d8 bc be
       -0.17413792 0.10495255 -0.26869923 -0.36883754
000210 d4 05 1b bf 72 8c c2 3d fe c8 a9 3e 49 04 83 3e
       -0.6055577 0.09499444 0.33161157 0.25589207
000220 ca 2e 01 bf af 3c f9 be 25 9d 13 be 21 44 6d bb
       -0.5046202 -0.4867911 -0.14415415 -0.0036203938
000230 01 2d 61 be 32 67 07 3e 65 bb 9d 3e be 52 32 3e
       -0.21989824 0.1322296 0.30807033 0.17414376
000240 8e 95 b1 be 70 c3 82 3d c6 2b ab be d8 e2 4e 3e
       -0.34684414 0.06384933 -0.33431834 0.20203722
000250 18 04 61 be 37 18 42 bf 7a e7 d4 be 94 9b 2d 3e
       -0.21974218 -0.758182 -0.41582853 0.1695388
000260 9a 9f 09 3e 52 6c 08 bf 4b f9 00 bf 97 15 13 3e
       0.1343979 -0.53290284 -0.5038039 0.14363705
000270 3a e5 10 3e 1a 47 e1 be 89 ab a5 be 2b 4a d5 be
       0.14149943 -0.4399956 -0.32357433 -0.41658148
000280 73 ff e4 be 21 4e ee 3d cf 77 c4 3d 2a 30 a7 bd
       -0.44726142 0.11635996 0.09593164 -0.081634834
000290 03 a3 72 bb b2 9c 44 be a5 45 c5 be c8 06 d4 3d
       -0.0037023432 -0.192004 -0.38529697 0.10352856
0002a0 1a 9a da be 32 72 8d 3e 1e 84 91 3e 24 fc ff 3d
       -0.42695695 0.27626187 0.2842111 0.12499264
0002b0 e4 de 1f bc fd 50 99 bc 88 36 33 bf 0a e7 2b 3d
       -0.009757731 -0.018715376 -0.70005083 0.041968383
0002c0 ff 0b a5 bb 49 c0 36 3e 1a ec 6b bd 40 1f a5 3d
       -0.0050368304 0.17846788 -0.05759821 0.08062601
0002d0 fc c3 60 3e 70 85 28 bf cf dd 81 bc d0 d1 3e 3d
       0.21949762 -0.6582861 -0.015852837 0.04658681
0002e0 67 03 c6 be bd e3 c1 be f6 2c 63 3c 35 37 25 3d
       -0.3867447 -0.37869063 0.0138657 0.040335853
0002f0 b4 ef 36 3e 38 75 54 3e 6e 67 e7 be 3c 74 7c 3e
       0.17864877 0.2074784 -0.45196098 0.24653715
000300 78 dc b8 bd 66 01 87 bd 5c b2 41 be 5e 49 f1 bb
       -0.09026426 -0.065920636 -0.18915695 -0.0073634824
000310 80 6f 9f 3b 40 8f 18 3e 48 14 2c bf 35 52 86 3d
       0.0048655868 0.14898396 -0.67218447 0.065586485
000320 c7 64 89 3e 38 20 9d be 78 c2 00 bf c3 de 24 bf
       0.268347 -0.30688643 -0.50296736 -0.6440241
000330 fe 29 eb be 33 90 9d bb 5c 27 17 bf fe fc b1 3e
       -0.45930475 -0.0048084497 -0.5904443 0.3476333
000340 4a 5a b0 be 9d 66 4f 3d 4f 9d bb bc 65 78 81 be
       -0.34443885 0.05063497 -0.022902159 -0.25287166
000350 62 f2 0a bf 23 9c b6 be 51 2f 0a bf 89 77 78 bb
       -0.54276097 -0.35665998 -0.5397845 -0.0037913045
000360 88 22 45 3e c7 c8 1c 3e 63 57 b0 be 23 7d 3a 3e
       0.19251454 0.15310965 -0.3444167 0.18211798
000370 80 5c a2 3d 76 28 c9 3d ad 86 93 bd 23 19 94 3b
       0.07927799 0.098221704 -0.07203422 0.004519598
000380 6b 45 8c 3d 2c 2e 1f bf 21 42 b5 3e a5 7a 89 3e
       0.06849178 -0.6217983 0.35402015 0.26851383
000390 bf d8 f6 3c b0 be 50 3e 70 f1 0e 3d 2a 5d 28 3d
       0.03013265 0.20385242 0.03489822 0.041104473
0003a0 6c 4f 0e 3e a5 9c 0a bf 35 0e 37 be e2 bc 80 3d
       0.13897485 -0.5414527 -0.17876513 0.062860265
0003b0 7a ce f9 3d d3 22 b8 be e4 11 92 3d e5 f0 56 3d
       0.121975854 -0.3596407 0.071323186 0.05247583
0003c0 e2 e6 91 bb a7 eb a4 3d a9 6d 9b 3e 73 c9 04 bf
       -0.004452572 0.080527596 0.30357102 -0.5186989
0003d0 39 ca 90 be cb fe 45 bf d6 dc 9f bd c5 dc d0 be
       -0.28279284 -0.7734191 -0.07805793 -0.40793434
0003e0 46 37 22 3e 97 02 c6 be 5e 44 9c be 5a cd b3 be
       0.15841398 -0.3867385 -0.3052091 -0.35117608
0003f0 8a 69 9f bd 90 05 35 be 2c 84 8a be c1 98 bb bd
       -0.07783802 -0.17677903 -0.27053964 -0.09159995

l2.weight f4 [300, 400]
000000 b4 a1 b2 3c 1a 32 75 3c 80 d7 73 3b 0a 81 9f 3c
       0.021805622 0.014965558 0.0037207305 0.01947071
000010 06 d6 82 3c 0c 2a 18 bd 27 80 0d bd 14 20 9c 3b
       0.015971195 -0.037149474 -0.034546044 0.004764566
000020 e8 8b 62 3c 0b 2e 83 bc f9 e3 38 bd b1 38 ec 3c
       0.013827302 -0.016013166 -0.045139287 0.028835626
000030 84 b9 21 bd fc 86 6d ba 4d 2e f3 bc 42 5c 8d 3c
       -0.039483562 -0.0009060947 -0.029685164 0.017255906
000040 f9 22 c6 3c a0 a7 d1 ba a8 ce 85 bc 5f d6 4f bc
       0.024186598 -0.0015995391 -0.016333893 -0.012685387
000050 38 68 fd 3a da 97 93 3c 9f 1c e5 3c 18 29 d7 bb
       0.0019333428 0.018016744 0.02796775 -0.006566178
000060 50 15 e5 3c 69 85 43 3b 20 bb 2c bd 29 69 12 bc
       0.027964264 0.0029834157 -0.042170644 -0.008936205
000070 a2 cc 5a bd 87 8e b8 bc 07 e7 d1 3b 50 17 f8 3c
       -0.05341781 -0.0225289 0.0064057144 0.030284554
000080 19 04 58 3b cc c4 31 3c d8 ea b0 3c d2 03 ab bc
       0.0032961427 0.010850143 0.021596357 -0.020875845
000090 77 1e 1f 3a b6 dc 25 bd 81 0f 2b bd 7b fa f8 bc
       0.0006069908 -0.04049369 -0.041762833 -0.030392876
0000a0 32 80 db 3c cb 7c 09 3d 3a 89 5b 3a 25 12 26 3d
       0.026794527 0.033566277 0.00083746354 0.040544648
0000b0 b4 b3 3a 3c 98 aa 3d bb b5 a0 9b bd 9a a0 e7 bc
       0.011395384 -0.0028940793 -0.07599012 -0.028274823
0000c0 4d cf dc 3b 04 c7 88 3b 72 8d c5 3c 00 67 b6 ba
       0.0067385794 0.004174115 0.024115298 -0.0013916194
0000d0 1c 4e 67 3a d8 87 48 3c 8e 1f 26 bd 9c e4 4a bd
       0.000882359 0.012239419 -0.040557437 -0.049534425
0000e0 4f f3 58 bc d2 2b 31 bd e4 28 eb 3b c6 50 e1 3b
       -0.013241603 -0.04325468 0.0071765054 0.006876084
0000f0 d1 4c 94 3c 4c 67 58 3d 98 9c d3 3b 0c 45 11 3c
       0.018103035 0.052832887 0.0064578764 0.00886656
000100 6b 03 8a 3b 81 3c 01 bd 98 20 1c 3c b0 ab 61 3b
       0.0042118332 -0.03155184 0.009529255 0.003443461
000110 a5 0a 17 bd 5b c3 49 bd ec 82 62 3d 8b c6 10 bd
       -0.036875386 -0.04925857 0.055300638 -0.035345595
000120 c6 a7 97 bc cb 10 03 3d ca 96 9d bc 70 7b 86 bd
       -0.018512618 0.031998437 -0.01923694 -0.065665126
000130 9e 2e 9a 3b 13 21 34 bd 70 66 ff bc 9b cc 06 bb
       0.0047052642 -0.043976855 -0.031176776 -0.0020568732
000140 4b 38 38 3d 7c de ee bc 04 50 a4 bc 50 c5 0b 3b
       0.04497556 -0.029158823 -0.020057686 0.0021327324
000150 cf 48 18 bc 43 bb 9f bc d0 0a b3 bc 34 45 89 bc
       -0.009294703 -0.019498473 -0.021855742 -0.016756631
000160 ed 65 bb bc d1 10 b3 3c bc ce cb bc b4 44 2d 3c
       -0.02287575 0.021858605 -0.024878852 0.010575462
000170 f4 b0 4b 3d d8 8d 2f 3c 71 0a 40 bd 17 9b d7 bc
       0.049729303 0.0107149705 -0.046884958 -0.02631907
000180 28 5a bf 3b 89 78 22 bc ed 35 46 bb 26 eb 05 bd
       0.005839605 -0.009916433 -0.0030244545 -0.03269496
000190 25 84 04 bb ce 67 5f bc 7f 5e 83 bb 42 37 08 3d
       -0.0020220366 -0.013635589 -0.0040090675 0.033255823
0001a0 18 8f 80 bc 87 c4 b3 bc ec cd 57 bd 89 cf 1b bd
       -0.015693232 -0.021944297 -0.052686617 -0.038039718
0001b0 52 dd e4 3c 78 61 2c 3c db 3d ad bc cc 3a 24 bc
       0.027937565 0.010521285 -0.021147659 -0.010023784
0001c0 b1 3d 8b bc 53 87 25 bd 4a 05 7f bc c6 2e 09 3d
       -0.01699719 -0.04041226 -0.015565226 0.033491872
0001d0 90 3b a3 3b 4b 56 47 bd 38 3e f9 bb 19 95 fa 3c
       0.0049814656 -0.04866628 -0.007606294 0.030588673
0001e0 e6 89 eb bc d7 31 a0 3a d5 f6 87 bd 11 ba 3e bd
       -0.028752279 0.0012221885 -0.06638876 -0.046564166
0001f0 1d 78 94 bc 5f c2 b4 3c 03 47 2f bc 4f 4c ee bc
       -0.01812368 0.02206534 -0.010698083 -0.029089121
000200 ed fb 32 bd c0 b9 2c 3d d1 4a 47 3d 0e 54 14 3c
       -0.043697286 0.042169333 0.048655335 0.009053243
000210 55 ad 2c 3d b7 18 15 3d 93 c7 ed 39 a6 31 0d bd
       0.04215749 0.036400523 0.00045352857 -0.034471177
000220 0b 49 fd bc de 3d 8b 3c d7 fc e9 bb c9 34 88 3b
       -0.030918619 0.016997274 -0.0071407366 0.004156683
000230 f8 83 46 bc 38 15 19 3d 39 2c 9d 3b 32 fd a4 ba
       -0.012116425 0.03737375 0.0047965315 -0.0012587665
000240 44 98 26 bc ef 98 a8 3c 78 22 91 bc d1 54 9e 3c
       -0.010168139 0.020580737 -0.017716631 0.019327553
000250 20 82 7c 3b f7 dc fe bc 18 99 8b 3b 59 d3 e9 bc
       0.003852971 -0.031111224 0.0042601936 -0.028543161
000260 89 2b 41 bb 35 af e4 3b 60 a7 1a 3d 95 50 0d bc
       -0.0029475412 0.006978894 0.037757277 -0.008625169
000270 1c 98 d8 3b 30 7e fd 3b 9e 5e ef bc 2c 84 96 3d
       0.0066099297 0.00773599 -0.029219922 0.073494285
000280 72 2c 5f bb 83 16 0e 3b 1f 51 44 bd fb 53 45 3d
       -0.003405359 0.0021680898 -0.047928926 0.048175793
000290 47 36 16 bd bf 84 c4 3c 59 f0 93 bc f4 31 16 3c
       -0.036672857 0.02398908 -0.018058943 0.009167183
0002a0 50 ad 49 bd fd 56 8e bc d4 fe b3 bc 82 4b af bc
       -0.04923755 -0.017375464 -0.021972097 -0.02139831
0002b0 33 62 f3 bc 61 7f c8 bc c6 fe c6 bc 93 a7 68 3c
       -0.029709911 -0.024474801 -0.024291407 0.014200109
0002c0 51 e5 99 3c ec f1 95 3b 1d 4f f6 bc d3 92 3d 3d
       0.018786104 0.0045759585 -0.030067021 0.0462826
0002d0 ba 08 12 3d c7 ba 1b 3d 8e 43 a0 3c 68 5d 9e bd
       0.035652854 0.03801992 0.019563463 -0.077326596
0002e0 54 5a b7 3c 74 2f 3f bc 8a 01 13 bd 21 53 26 bd
       0.022381939 -0.011669029 -0.03589014 -0.04060662
0002f0 06 51 0d bd 39 22 34 bd fa 17 da 3c 1e b7 7d 3c
       -0.034501098 -0.04397795 0.026622761 0.015485553
000300 15 92 0a bc f2 45 9a 3c 43 81 b1 3a ba c8 b6 3c
       -0.00845768 0.01883218 0.0013542551 0.02231251
000310 97 25 a9 bc 98 a5 89 bd 07 75 39 bd fa d9 b9 3b
       -0.020647807 -0.067210376 -0.04527762 0.005671737
000320 ff 8c 6f bd 48 b4 0f bd 38 21 47 bd 93 4d 2f bd
       -0.058484074 -0.03508404 -0.048615664 -0.04279859
000330 d2 9c 3f bd 50 24 43 bd 30 07 76 bb 7a 62 5a bd
       -0.046780415 -0.047642052 -0.0037540905 -0.05331657
000340 68 df 2c bd 4b c1 56 bd 15 9e 9b 3c ae 86 e2 3c
       -0.042205244 -0.052430432 0.018996278 0.02765211
000350 7c 9b b8 bc a8 ba 80 3c 1a 42 21 bd 2a 3d 60 bd
       -0.022535078 0.015714005 -0.03936968 -0.05474583
000360 a8 68 84 3c 1b 1c 17 bd b3 cf 29 3d f5 44 17 3a
       0.016163185 -0.036892038 0.041457843 0.0005770468
000370 98 1d 1e bc 47 a1 82 bd e8 be e6 3c 39 07 5e bc
       -0.00965061 -0.063784175 0.028167203 -0.013551527
000380 30 36 95 bc 86 a4 10 bd 52 f9 6c bc 90 c5 7d bd
       -0.018214315 -0.03531315 -0.0144637395 -0.06195599
000390 31 fa 37 bd fb f1 44 bd b2 d3 ad bd 2e 40 29 3c
       -0.044916335 -0.048082333 -0.08487643 0.010330243
0003a0 89 19 09 bc 2e 55 96 3c 3d db 2d bd f6 49 ce ba
       -0.008367904 0.018351164 -0.04244541 -0.0015738595
0003b0 3f 8d 8b bb 8a e8 87 bd f6 5e 62 3c 5d 9f 6d bd
       -0.004258781 -0.0663615 0.013816586 -0.05801331
0003c0 a1 0d 82 bc be c6 37 bc bb dd 0a bd 24 2a 43 bd
       -0.01587564 -0.011216817 -0.033902865 -0.04764761
0003d0 8c 66 42 bd c7 51 f1 bc 71 ad d2 bb 84 66 1b bd
       -0.047461078 -0.02945794 -0.0064293672 -0.037939563
0003e0 da 63 00 bd f0 ef 89 3b 07 5a 33 3d b9 06 4c 3d
       -0.031345226 0.004209511 0.04378703 0.0498111
0003f0 38 c4 9c 3c 1a 03 9a 3c 09 07 da bc 64 22 7e 3c
       0.019136533 0.018800307 -0.026614683 0.015511129

l2.bias f4 [300]
000000 a8 86 f6 bb 70 01 8c be 70 65 83 3b 8c 28 29 bc
       -0.0075233765 -0.27344847 0.004009895 -0.010324609
000010 c1 94 91 3c 1b cb b5 bc c8 fb c1 3b a0 0f 47 bc
       0.017771127 -0.022191575 0.0059199072 -0.012149721
000020 e0 3e 5d bd 33 ab 21 3d 9c 5c f3 bd 49 48 1b bd
       -0.05401504 0.03946991 -0.11882898 -0.037910733
000030 a2 54 23 bd 7f 99 49 bc f8 db 03 bb a8 66 3b bc
       -0.039875634 -0.012304663 -0.0020120125 -0.011438049
000040 9b 1b b4 bd 44 4f 27 bd 3a 17 75 bd e2 fb 04 3c
       -0.08794328 -0.040847078 -0.059836604 0.008116694
000050 79 bf b0 bd 5d 10 c6 bb d2 75 cd bd ac de 3a bc
       -0.086302705 -0.006044431 -0.10032238 -0.011405628
000060 4a ed 64 bd c6 f0 6d 3c 26 9f 67 bd f9 8d b5 bd
       -0.05589036 0.014522737 -0.05654826 -0.0886497
000070 28 e3 e5 bd 37 0e 39 bd dc a2 44 bd 04 a9 e3 bc
       -0.11224967 -0.045179572 -0.048006877 -0.027790554
000080 62 5a 9c bd a1 37 83 3c 90 b4 8a bd 44 7a ee bc
       -0.07634427 0.016017737 -0.06772721 -0.029111035
000090 4d 53 af ba e1 0e fe 3c 39 c0 ba 3c a5 64 26 3d
       -0.0013376266 0.031012954 0.022796737 0.040623326
0000a0 05 23 d2 bc 48 f1 8a bd e2 85 c4 b8 81 d3 85 bc
       -0.025651464 -0.06784302 -9.370946e-05 -0.016336204
0000b0 9a 1d 75 bd fa f8 63 3c 5c cc eb 3c b7 48 94 bd
       -0.059842683 0.013914341 0.02878397 -0.07240432
0000c0 aa 98 a4 ba ad bc 8c bd 56 dc 23 3d 77 a2 7f bc
       -0.0012557704 -0.068719245 0.04000505 -0.0156026995
0000d0 b5 a7 9d bd ef ce d5 bc 4e a5 08 bd 82 a3 99 3c
       -0.07698003 -0.02609965 -0.03336077 0.018754724
0000e0 3b 79 03 3c 92 2c ed 3c 12 09 83 bd 52 9c 76 bd
       0.008024509 0.028951917 -0.063982144 -0.060207672
0000f0 6a 96 d9 3c 5f 82 3c bd 0d c7 cc bd ed b2 a4 bd
       0.02656098 -0.04602277 -0.099989034 -0.0804194
000100 b5 5c 0b bd 69 66 4b bd 34 7a 42 bd 07 64 bc bd
       -0.03402396 -0.049658213 -0.047479823 -0.09198766
000110 1c 57 89 3c 6c 4e 2e bd da 79 0c bd c5 e0 c0 bd
       0.01676517 -0.042555258 -0.034295894 -0.094178714
000120 99 97 4d bd 22 c3 ce bd 34 6f 6d bd 91 53 c5 bd
       -0.050193403 -0.100958124 -0.05796738 -0.0963508
000130 6a fb 80 3c e5 22 be 3c 3d 64 9c bb d8 66 c0 bc
       0.015744884 0.023209998 -0.0047726915 -0.02348654
000140 6b 9a 02 bd e9 75 e7 3c ee be b7 bd a1 df f0 bd
       -0.031885546 0.028254466 -0.08971964 -0.11761404
000150 dc bf 4a bd 5b 2c 81 3d 8d 68 75 3c 40 a5 e4 bb
       -0.049499378 0.06307288 0.01497854 -0.006977707
000160 90 79 6c bd 93 80 d6 bc 74 a8 37 3c a5 30 8d bd
       -0.05773312 -0.026184356 0.011209596 -0.06894044
000170 23 24 1d 3d 85 ef df bc 18 71 90 bd ae dd 4e bd
       0.03836454 -0.027335892 -0.07052821 -0.05050438
000180 a9 4e 68 bc 0f 56 84 bd 1d 33 cb bd 80 d6 f5 bc
       -0.01417891 -0.06461727 -0.099218585 -0.030009508
000190 32 c2 09 3d 85 16 06 bb 1b 41 07 be 93 8b f4 bc
       0.033632465 -0.00204602 -0.1320843 -0.02985171
0001a0 ef 29 a7 bd dd 47 0f bd db 22 5a bd 0c 10 a8 bc
       -0.08162295 -0.034980644 -0.053255897 -0.020515464
0001b0 9e 72 58 bd d2 59 71 bc f8 3e 2c bd 2d a4 90 bc
       -0.052843682 -0.0147308875 -0.04205224 -0.01765641
0001c0 a3 a1 45 bd 57 14 08 3d 88 39 81 bc b4 15 17 3d
       -0.048249852 0.033222523 -0.015774503 0.036885932
0001d0 16 34 27 bc de 33 c1 3c 76 3b 05 bd 30 e1 9b bd
       -0.010205289 0.023584303 -0.03252741 -0.076113105
0001e0 a8 bb 6a bd 58 6b 58 bd 44 dc be bb 69 16 73 bd
       -0.05730787 -0.052836746 -0.0058245976 -0.059347544
0001f0 4a 99 eb bc 4b 42 8e 3d b6 e1 1a bd e8 d2 35 3c
       -0.028759617 0.06946238 -0.03781291 0.011097647
000200 3d 0c 23 bd e2 83 7c bd dc b4 12 bd 22 74 c8 bd
       -0.039806593 -0.06164921 -0.035817012 -0.097877756
000210 87 d5 87 bd 06 6f d7 bd 97 95 ec 3b fb be 77 3c
       -0.06632524 -0.10519223 0.007219981 0.015121217
000220 7b 1f 0d bd dd 2f a3 bd be 52 08 bd 8d 23 be 3c
       -0.03445385 -0.079681136 -0.033282034 0.023210311
000230 8c 18 6a bd 46 d6 ab 3c 67 91 d8 bc 4a e3 0a bd
       -0.057152316 0.020976197 -0.02643652 -0.033908166
000240 76 45 4f bd 55 56 b4 3d c9 83 9a bd 1a 04 12 bc
       -0.050603352 0.08805529 -0.07544667 -0.008912111
000250 6d b2 10 bd d0 3d 65 bd c5 38 49 bc dc 96 de bd
       -0.03532641 -0.055967152 -0.012281601 -0.10868618
000260 ee f9 da bd 4c fa ac 3c d2 90 3e bd cb c4 27 b7
       -0.106922016 0.021115445 -0.04652483 -9.999795e-06
000270 91 71 29 ba fc ba 77 3a ce 1a 62 bc b9 da ed bc
       -0.0006463761 0.0009450165 -0.013800336 -0.02903496
000280 e7 4a 9d bc b8 49 68 bd a3 d6 2f 3c 2d eb 56 bc
       -0.019200755 -0.05671093 0.010732326 -0.013117594
000290 d4 a3 0a bd 7e 9b d9 bb dc 3d 9c bc 38 8f 97 bd
       -0.033847645 -0.0066408506 -0.019072466 -0.07400364
0002a0 a9 b1 22 bd af 98 1e bb cc f8 48 3d c6 d2 8b bd
       -0.03972021 -0.0024199893 0.049065396 -0.06827311
0002b0 20 ed 86 bd d5 03 3a bc 2a b6 89 bd 8c 38 55 bd
       -0.06588197 -0.011353453 -0.06724198 -0.05205588
0002c0 a7 01 ba 3a ae d4 7b bd 2b 13 45 bd 65 fa d4 3c
       0.0014191166 -0.061482124 -0.048113983 0.025998304
0002d0 54 46 0f bd 74 65 68 bc 2d 5e ed 3c 19 6c 63 bc
       -0.03497918 -0.014184345 0.02897557 -0.013880753
0002e0 cf 16 d3 bc d3 d6 2b bd 6e b9 ea bd 7e e4 36 bd
       -0.025767712 -0.04195292 -0.11461149 -0.0446515
0002f0 4e 08 99 3c 4e 06 f2 bc 04 8a 53 bc a4 76 0d bd
       0.018680718 -0.029544022 -0.012911323 -0.034536973
000300 7f b8 51 3c e0 15 97 bb bc 66 d7 bd 93 f8 1d 3c
       0.012800335 -0.004610762 -0.10517642 0.009641784
000310 ee f1 e9 bb 04 b7 d5 bd 44 c7 97 bd 06 b7 9c bd
       -0.007139436 -0.10435298 -0.07411054 -0.076520965
000320 89 a3 9b bc b0 2a ba 3c 90 5b 41 3c 25 ce 5f 3c
       -0.018998878 0.022725433 0.011801615 0.0136599885
000330 77 d7 80 bd 40 39 58 bd a0 dd e3 3c 6d af 1d bd
       -0.06291097 -0.052788973 0.02781564 -0.038497377
000340 36 7f 28 bd a5 61 1c 3d 18 2f 2f bd 7d 1b 76 3c
       -0.041136943 0.03817906 -0.04276952 0.015021202
000350 a9 ee 27 bd a3 ee 66 3d 08 92 ba 3c a6 87 94 bb
       -0.04099909 0.056379925 0.022774711 -0.004532772
000360 51 44 bb bd c9 c0 b2 bb c9 91 90 bd e3 fc a1 3c
       -0.0914389 -0.0054551107 -0.07059056 0.019773906
000370 65 ca bd bd e2 ca 2d bd c8 e0 28 3c cc a4 b8 bc
       -0.09267119 -0.042429812 0.010307498 -0.022539519
000380 10 28 8d bd ba d0 2d 3b 5f 55 fa bc 53 d7 8f ba
       -0.06892407 0.0026522116 -0.030558286 -0.0010974206
000390 2f 3a e2 bc 5b 0b 06 bc e8 72 96 bd bc 7e 3a bb
       -0.027615635 -0.008181418 -0.073461354 -0.0028456887
0003a0 1b 63 ae bc 75 80 16 3d c3 1a c5 3c 1c 26 9c bd
       -0.021287492 0.0367436 0.024060613 -0.07624456
0003b0 59 ec c1 3c 69 c0 2a 3d 44 2e 7c bd 77 60 05 bc
       0.02367227 0.041687403 -0.06156756 -0.008140675
0003c0 ff e0 03 bc 04 56 25 bc 77 08 91 bd 04 4a 8f bd
       -0.008049249 -0.0100913085 -0.07081693 -0.06996539
0003d0 43 e2 48 bd 47 1d 84 bd df 77 6f 3c 7f ed 82 bc
       -0.049043905 -0.06450897 0.014615982 -0.015982388
0003e0 c5 d2 2f bd c4 8a 8e bd 7d 82 a0 bd fb c9 d7 bb
       -0.042925615 -0.06960061 -0.07837389 -0.0065853572
0003f0 60 c1 1b bd ac fb 89 bd 76 29 af bc cb 2f 9a bd
       -0.038026214 -0.06737456 -0.021382075 -0.07528647

l3.weight f4 [1, 300]
000000 40 3f 3e bc 13 23 35 3f 5b ca da 3c 10 d7 1d 3d
       -0.01161176 0.70756644 0.026707819 0.038535178
000010 a5 f8 27 3c 5b b8 0a bb b5 d1 9f bb 50 62 dd bb
       0.010252153 -0.0021167013 -0.004877294 -0.0067561045
000020 d8 c4 13 3c c4 bc c9 3c b9 35 ee bd 54 f8 10 3d
       0.009019099 0.024626143 -0.116313405 0.035393074
000030 d6 67 57 bd 0e 4e 92 ba 44 49 d1 3b 33 e6 e8 bc
       -0.05258926 -0.0011162178 0.006386908 -0.02843008
000040 b6 a4 b9 be 65 9f 96 bd c0 d5 67 3c d7 90 9e bb
       -0.36258477 -0.07354621 0.014150083 -0.0048390436
000050 58 5c 96 bd 01 99 ce 3c 2c ac 17 bb 78 7d 68 3a
       -0.07341832 0.025219442 -0.0023143394 0.0008868794
000060 ce 6a 1e bd 52 1c d0 3c 76 54 45 bd e7 3c 7e bd
       -0.038676076 0.02540413 -0.04817625 -0.0620698
000070 a3 c4 81 bd 34 f0 a5 bd 68 cc 4c 3b c5 66 46 3d
       -0.063363336 -0.08102456 0.0031249765 0.048437852
000080 63 f0 51 3e cf 6f b3 3b 14 d0 b4 ba 48 43 db 3c
       0.20501857 0.005475975 -0.0013794922 0.02676548
000090 96 4c 81 3c 57 e1 3e 3d a2 f1 b0 3c 45 c9 1c 3d
       0.01578359 0.04660162 0.021599595 0.038277883
0000a0 0b 12 0b 3b 4b cb 92 bd 7a 51 46 3c b9 8a 99 bd
       0.0021220471 -0.07167681 0.012104386 -0.07497162
0000b0 7d 9f c0 3c 49 9a 66 3c 48 cd 2a 3d d4 8b 97 bd
       0.02351355 0.01407487 0.041699678 -0.07399717
0000c0 6a d3 12 3d be 8e e0 3c 29 c8 2c be 8e b8 76 3b
       0.03584615 0.027411815 -0.1687323 0.0037646624
0000d0 c3 03 8b bd 90 8a 7f b8 74 16 1b 3a f6 59 cd 3c
       -0.06787827 -6.0925784e-05 0.00059161265 0.02506731
0000e0 f7 9b 95 bb 16 7a 8a 3c d8 32 81 bd 23 68 41 3d
       -0.0045657116 0.016903918 -0.06308526 0.047218453
0000f0 1e d1 b5 3c 63 44 4c 3d 0a 9b a4 bd 2a 1f 72 bd
       0.022194441 0.049869906 -0.08037384 -0.05911175
000100 67 6f 91 bd 97 4c e8 3c d0 e8 fe 3c 89 79 58 bd
       -0.071013264 0.028356833 0.031116873 -0.05285028
000110 0d 51 c8 3c 9d b3 4d 3c 34 32 4e 3c 8b b0 7d bd
       0.02445271 0.01255503 0.012585212 -0.061935943
000120 e7 d9 e7 3c 01 d1 81 bd 5d c1 ba 3c 80 95 74 bd
       0.028302146 -0.063386925 0.02279728 -0.059712887
000130 4b 74 c2 bb 42 5e 23 3d 66 ba 04 3d 45 f8 f7 3c
       -0.0059342734 0.039884813 0.032404326 0.030269751
000140 09 7e 1f bc 21 1b 72 bb 66 f9 87 bd 2b e7 a4 bd
       -0.009734639 -0.003694244 -0.06639366 -0.08051904
000150 73 96 c2 3b b8 7a 5e 3e 9a ca d4 3c b9 48 f2 3b
       0.005938345 0.21726501 0.025975514 0.007393923
000160 49 99 b9 ba 3b 7b d3 3c b2 1f 55 3e a5 b3 cb 3c
       -0.0014160062 0.025815597 0.20812872 0.024865935
000170 f3 1c 9d 3b 60 07 15 bc bc 6b 90 bd 45 b7 37 bb
       0.004794711 -0.009095997 -0.07051799 -0.002803282
000180 d6 1e 30 3c b3 89 5c 3b 68 7f 65 bd a7 fb 0c bc
       0.010749539 0.003365141 -0.056029707 -0.0086049205
000190 12 e3 49 3c b5 83 d5 3b 07 56 e4 bd 32 80 28 3c
       0.012322204 0.006515945 -0.11149221 0.01028447
0001a0 f1 d9 f7 3e ec b5 32 3b f9 8b 94 bc 50 a1 25 bb
       0.48408464 0.0027269078 -0.01813315 -0.0025273152
0001b0 b8 64 df 3b 61 4e 15 bc d1 0e 18 bd 47 9d b1 bd
       0.0068174265 -0.009112925 -0.037123505 -0.086725764
0001c0 3d 0f a6 3b e5 0e 31 3d e7 66 02 3d 17 dc a6 3b
       0.0050677345 0.043227095 0.031836417 0.0050921547
0001d0 18 5b a1 bc da e4 13 3d 3f 8f b1 bd 33 48 70 bd
       -0.019696757 0.03610692 -0.086699 -0.058662605
0001e0 a4 d6 35 3c 12 ab e0 3b 0f a1 c3 bc 71 e3 43 3c
       0.011098538 0.0068563307 -0.02388051 0.011956082
0001f0 00 db c2 3c 76 9c 73 3e 89 97 21 bd 06 f1 c4 3b
       0.023786068 0.23790154 -0.039451156 0.0060101775
000200 f7 a4 e9 3c 38 7b 96 bd 4c f2 ab bb b0 d0 80 bd
       0.028521044 -0.07347721 -0.00524739 -0.06289804
000210 55 00 54 bd 9b ee 0a be df 01 95 bb e2 ec 56 bc
       -0.05175813 -0.13567583 -0.004547342 -0.013118001
000220 53 8e 85 bd 92 cb 8d 3c 28 21 b0 bd 4c c2 76 bb
       -0.06521287 0.017308984 -0.08600074 -0.003765243
000230 6c 6d 65 bd ff 36 13 3d 1e 82 24 3d 69 6e 66 bd
       -0.056012556 0.03594112 0.040163152 -0.05625764
000240 70 a4 a4 3b 0a fc 74 3e 43 bd e9 bc e5 23 de 3a
       0.0050244853 0.2392427 -0.02853263 0.0016947953
000250 e8 1c 4f bb d8 2a 1d 3d 6a 20 17 bb bc 8b 9e bd
       -0.0031602923 0.038370937 -0.0023060092 -0.07741496
000260 0f 7b 57 3e dd 3b 52 3c 78 9d 43 3c 4d 15 e1 3c
       0.21043037 0.012831655 0.011939399 0.027475977
000270 13 27 fd 3b 4e c8 ac 3c 71 8f bb 3c fa cf 8d bd
       0.0077256053 0.021091606 0.022895547 -0.06924434
000280 2d d9 1b 3c aa 44 00 bd 78 12 12 3b bf 4b dd bc
       0.009512228 -0.031315483 0.002228884 -0.027013658
000290 1f 79 8e ba 0c 0d c3 3c 6e f5 8e bd 90 55 b8 3b
       -0.0010869837 0.023809932 -0.06980406 0.005625434
0002a0 3d cf c1 3c f8 c0 1d 39 6a ff 89 be 3a 26 b0 3c
       0.02365839 0.00015044573 -0.26952678 0.021502603
0002b0 2a 39 f2 bc 0f 35 7b 3b 05 01 92 3c 54 da a4 bc
       -0.029568274 0.0038331186 0.017822752 -0.020123638
0002c0 75 18 ea bb cc 75 af bd 89 7c 3d 3c 9b 5a 21 3e
       -0.007144029 -0.0856739 0.011565336 0.1575722
0002d0 50 38 0a 3d b0 6c 05 3c ac 19 37 3d 31 16 93 bd
       0.03374511 0.008143589 0.044702217 -0.07181967
0002e0 a5 8c 8a bc c9 94 91 bd 2a 59 95 bd e4 92 89 bd
       -0.016912768 -0.07108457 -0.07292397 -0.0671747
0002f0 84 c1 8b 3c 47 41 00 3d 43 e8 9d bd a2 81 d6 3c
       0.017060049 0.031312253 -0.07710316 0.02618486
000300 e9 a9 4a 3c e2 41 97 be f3 f4 90 bd 7a c4 41 bb
       0.012369611 -0.29542452 -0.0707797 -0.0029566572
000310 3e 95 e0 3b e9 0d 9f bd a6 1e 89 bd 67 d9 25 bc
       0.0068537286 -0.07766325 -0.06695299 -0.010122634
000320 d6 3e 23 3d f4 28 0d 3c ae 7f 2f 3d b3 e9 99 3c
       0.039854847 0.008615721 0.042846374 0.018788194
000330 ef 84 ee 37 cb 41 35 3d bb b8 ae bb e1 12 48 bc
       2.8433713e-05 0.0442522 -0.00533208 -0.012211532
000340 14 c2 4c bd b8 cd 50 3b f2 72 83 bb e7 9b 17 bc
       -0.049989775 0.00318609 -0.0040115053 -0.009253479
000350 73 a3 8e 3c 58 6a 06 3e 40 e0 bd bb 1b dc d9 3c
       0.017411923 0.13126504 -0.005794555 0.026594212
000360 18 f4 4f bd f4 e2 39 3c 0d 71 76 3c 9e c5 95 3c
       -0.050769895 0.011345614 0.015041602 0.018282708
000370 f0 f4 96 bd c9 58 37 3d fb 7a 87 3a d1 8f 5e 3c
       -0.07370937 0.044762406 0.0010336334 0.013584093
000380 04 21 8d 3c 0f 4e af bc 0d fe df bc 68 67 74 bb
       0.017227657 -0.021399526 -0.02734282 -0.003729308
000390 91 fb 9f bd 56 fe bb 3c e7 6c 05 bd 8d 06 f8 3c
       -0.07811654 0.022948425 -0.03257456 0.030276561
0003a0 43 f2 c2 bc a3 d7 d9 3c cc 74 f0 3b 6b da b9 bc
       -0.02379716 0.026592081 0.007338142 -0.022687158
0003b0 4b 90 76 ba 72 99 68 3c d5 99 92 3d 48 df ca bb
       -0.00094056566 0.01419674 0.071582474 -0.006191168
0003c0 e2 39 1d 3c 37 1f 0b bd 66 bf 8d 3c 78 26 6d 3c
       0.00959632 -0.033965316 0.01730318 0.014474504
0003d0 34 93 0d bd fb 56 b5 bc df 4f 15 3b 18 7a 9d bd
       -0.034564212 -0.022136202 0.0022783203 -0.07689303
0003e0 0f 45 96 bc ba 28 7a bd 1b 0c 66 bd 06 b2 80 bb
       -0.018343477 -0.061073996 -0.05616389 -0.003927472
0003f0 c7 a8 25 3b 71 e9 38 bd a3 b2 c1 bb d6 74 14 bb
       0.00252776 -0.045144502 -0.0059111877 -0.0022652647
