InvertedPendulum/InvertedPendulum-v4_actor_finalized_08.pth (torch, 493438 bytes, 5 tensors)

l1.weight f4 [400, 4]
000000 1b db f5 3e bd a4 ed 3d be 4d 3f bd 76 58 27 3e
       0.48018727 0.11603687 -0.046705 0.16342339
000010 71 0e 75 3e 99 ee 71 bc 96 f1 8c 3e 40 50 b2 3e
       0.2393129 -0.014766359 0.27528065 0.3482685
000020 2d 89 ec be 43 40 9a 3f 15 c4 70 3e c4 dc d0 3d
       -0.46198407 1.2050861 0.235123 0.10198358
000030 aa f0 f1 3e 2c 53 14 bf 38 03 40 3b 07 97 4c 3e
       0.47253925 -0.5793941 0.0029298794 0.19979487
000040 80 f3 a8 3d 9e 17 2c 3d e4 0e 5d 3d 65 96 a0 3c
       0.08249569 0.04201471 0.05396928 0.019602964
000050 46 bf f3 3e 04 40 a0 be 8f a0 46 be 0d 28 99 3e
       0.47606868 -0.3129884 -0.19397186 0.2991337
000060 65 8c 36 3e 96 ec 60 3f cb 7e 5b be ee 52 2a be
       0.17826994 0.87861 -0.21435086 -0.16633198
000070 7f 7d ff bd e6 12 8d be 1e e0 8a 3e fc 13 41 3d
       -0.12475108 -0.2755348 0.27124113 0.0471382
000080 7f e8 09 3f 63 3c 76 bf d8 e0 ac be 89 b1 70 be
       0.53870386 -0.9618589 -0.33765292 -0.23505224
000090 2f 2b 21 3f c5 13 77 3f 23 39 fd 3d 8a 95 3c bd
       0.6295652 0.9651454 0.123644136 -0.04604105
0000a0 61 65 39 bf b2 10 44 3f c4 b4 a1 3d 54 3d d7 3e
       -0.72420317 0.76587975 0.078958064 0.42038977
0000b0 46 78 9b be 4e 02 dc 3f 34 59 1f 3f 7e 1d d0 3e
       -0.303652 1.7188203 0.6224549 0.406475
0000c0 e7 b0 1e 3e 6a 74 d6 3f ac 46 25 be 0e 0f 8f 3e
       0.1549717 1.6754277 -0.1614024 0.27941173
0000d0 bc 56 87 be ff 9a f7 be aa 3c 49 be a1 9a 24 be
       -0.2643336 -0.4836044 -0.19652048 -0.16074611
0000e0 0c 8c 87 be 5a e4 21 bf d2 71 b8 3e a0 5a 1a be
       -0.26474035 -0.6323906 0.36024338 -0.15073633
0000f0 8a 6b ce be 38 e4 c7 be a9 ed 25 bf b1 50 91 be
       -0.4031642 -0.39041305 -0.64815766 -0.28381875
000100 f3 90 d3 be 5c d9 b9 3f a0 13 64 3e a6 f4 13 3e
       -0.41321525 1.4519458 0.22273111 0.14448795
000110 b3 25 c5 be 07 9b 71 bf 67 46 9c be 8c 76 29 be
       -0.38505325 -0.9437718 -0.30522463 -0.16549128
000120 67 12 10 be 43 3d 07 40 57 82 01 3f d8 2c be 3e
       -0.1406952 2.113114 0.5058951 0.37143588
000130 cc 9a 84 be 09 57 28 3f 32 24 9c 3e 39 0e e7 3d
       -0.2589935 0.65757805 0.30496365 0.1128201
000140 a2 dc a2 bc 82 c5 31 bd 87 da 34 be 22 7c 0b 3e
       -0.019880597 -0.04340125 -0.17661487 0.13621572
000150 60 a7 26 3e 30 9b 89 3d 04 cf 6b 3e 98 51 23 3e
       0.16274786 0.06719053 0.23028189 0.15949094
000160 d9 94 55 3e 7e 24 ce 3f b1 2d 07 3f 74 c8 05 3e
       0.20857562 1.6104887 0.52804095 0.13064748
000170 e7 91 43 bc 27 4d 17 3f b4 f9 10 3f 80 c8 02 be
       -0.011936641 0.591021 0.56631017 -0.12771797
000180 ab 9e 1c be f9 21 a7 3e 85 c6 de 3d c2 cb 25 3c
       -0.15294902 0.32643107 0.10877708 0.01011938
000190 d0 3e 95 3e 29 9f 10 3f 42 2c 57 be b8 78 9b 3e
       0.29149485 0.5649286 -0.21012977 0.3036554
0001a0 01 87 62 3d bb de 83 3f 65 be 18 3f 5a 18 45 3d
       0.05530453 1.0302347 0.5966552 0.048118927
0001b0 16 aa d7 3e a9 e7 8f bf 9e 70 e0 bd 7b 26 ce be
       0.42121953 -1.1242572 -0.1095898 -0.40263733
0001c0 7e 51 eb 3e af 4d 3b 3f f5 2e ab be 0d c4 40 be
       0.4596061 0.7316541 -0.33434263 -0.18824787
0001d0 f4 6a 27 3e a8 94 24 bc 02 23 1e be ce 1c b3 be
       0.16349393 -0.010045208 -0.15443042 -0.34982914
0001e0 8e dc 7e be e6 13 8b 3f 4d 80 fc 3d 70 46 26 3e
       -0.24888822 1.0865448 0.12329159 0.16237807
0001f0 6c 69 55 3e dc f0 87 3f 01 8d 16 be d1 4d 97 3e
       0.20840997 1.062038 -0.14702226 0.29551557
000200 d5 d9 f4 3d a3 0b 10 3f 87 31 ad 3e 8b 04 d9 3e
       0.11955611 0.56267756 0.3382685 0.4238628
000210 94 4e 05 bf 2d 5c 93 3f e6 35 34 3f b8 87 eb 3e
       -0.52073026 1.1512505 0.7039474 0.46001983
000220 74 fe 6b bb 5d 09 b5 3f d0 c1 91 3e 73 52 b8 3d
       -0.003600982 1.4143482 0.2846818 0.09000101
000230 29 a9 40 3e bb 83 59 3e 76 d8 08 3e 95 15 8e bd
       0.1881453 0.21241657 0.13363823 -0.0693771
000240 d5 2b 34 be 08 59 e7 3f fe 9e 05 3f 36 49 0a 3e
       -0.17594846 1.8074045 0.5219573 0.1350449
000250 e8 bb 65 bf c7 fb 08 3e cf 65 15 3e 81 ba 46 be
       -0.8973985 0.13377295 0.14589618 -0.19407083
000260 81 22 14 3f 99 86 d9 be be 9f 39 be 25 41 ae be
       0.5786515 -0.42485502 -0.18127343 -0.34034076
000270 4d 08 82 be f1 74 94 3e 4d 91 ab 3e 51 32 b9 3e
       -0.25396958 0.2899547 0.33509293 0.361712
000280 66 d4 06 bf 9f ea 62 3e 49 80 00 3f 90 56 d9 bd
       -0.52667844 0.22159813 0.5019575 -0.106122136
000290 bf 64 0c bf 39 ff d7 3e 2b 8a 1c 3f 07 8a 46 be
       -0.54841226 0.42186907 0.6114833 -0.19388591
0002a0 43 fe cf bd 56 04 1f 3c ff c1 9a 3e 2b 98 82 3d
       -0.101559184 0.009705624 0.30226132 0.0637668
0002b0 4c 36 1f be 6f 6c c2 be 25 82 e4 3c f7 9b 64 3d
       -0.15548056 -0.37973353 0.027894089 0.055812802
0002c0 f3 f5 d6 be 9b e1 d5 3f 93 3b 36 3f bc b8 cf 3e
       -0.4198452 1.6709474 0.71184653 0.4057063
0002d0 50 28 64 3e 49 5c ac 3f 42 8f c0 3e e8 96 35 3e
       0.22281003 1.3465663 0.37609297 0.17733347
0002e0 82 bf 77 3f f5 e3 95 bf 5f 94 eb be 7a a1 3f be
       0.9677659 -1.1710192 -0.46011636 -0.18713942
0002f0 34 44 35 bf 59 aa a4 bf 04 7d ea be 4e cb c7 bd
       -0.70807195 -1.2864486 -0.45798504 -0.09755574
000300 1b ab a0 3e b6 26 1b 3f e5 60 7a be 13 33 50 3e
       0.31380543 0.60605943 -0.24451025 0.20331983
000310 36 0e c8 be 52 17 80 3f 18 42 c3 3e 0e d7 04 3e
       -0.39073342 1.0007117 0.38136363 0.12972662
000320 fe d1 13 3f 23 99 41 3e c8 69 37 3d ab d2 4b be
       0.577423 0.18906073 0.044778615 -0.19904582
000330 25 79 53 be b7 00 2b bf 1e ed 17 3e 3f 7a 79 be
       -0.20651682 -0.66797966 0.14836547 -0.2436304
000340 6b 14 01 3d d6 e6 6c 3f 15 d5 0e be 9b 5d 41 3e
       0.031513613 0.9253973 -0.13948472 0.18883364
000350 35 71 79 be 92 fc 37 bf 60 7b 39 3e e3 6a 4b be
       -0.24359591 -0.71869767 0.1811347 -0.19864993
000360 18 7b 91 be 6e 1a 5e bf 5a b2 c4 be fe 44 bf be
       -0.28414226 -0.8675908 -0.3841732 -0.37357324
000370 a9 ea c9 3e 31 84 51 3f f0 d5 c1 3d 58 b9 8f 3e
       0.39436844 0.81842333 0.094646335 0.28071094
000380 71 37 c2 be df 8a 12 3f f4 a4 17 be c5 85 0e be
       -0.37932923 0.5724315 -0.14809018 -0.13918217
000390 54 1f 24 bf cf 12 c5 bf aa 69 7d be c0 20 dc bd
       -0.641103 -1.5396365 -0.24747339 -0.10748434
0003a0 e9 01 89 3f b5 27 5e be 44 4d e0 be 68 d0 29 3e
       1.0703708 -0.21694835 -0.4380895 0.16583407
0003b0 47 5d 9a bd 63 a2 5f 3f 2d c9 22 3e ca fc af 3e
       -0.075373225 0.8735716 0.15897055 0.3437255
0003c0 0c fa b1 3e 9b 2a 9e 3f 95 63 eb 3e 91 bc c8 3e
       0.34761083 1.2356752 0.45974413 0.39206365
0003d0 e3 7d 3e be b9 86 16 3d 92 49 d5 bd 37 53 74 3e
       -0.1860271 0.036749575 -0.10414423 0.23859869
0003e0 db d1 63 3d fd dc 24 bf 55 be e3 bd be 1e 91 be
       0.055620056 -0.643997 -0.11120287 -0.28343767
0003f0 e2 0b d7 3d f5 40 8d 3f c6 60 1f bd 68 b0 74 3e
       0.10500313 1.1035448 -0.03891065 0.23895419

l1.bias f4 [400]
000000 5d 04 dc be 08 3c d3 be 7c 26 91 be f7 b5 aa bd
       -0.4297208 -0.41256738 -0.28349674 -0.08335488
000010 18 d7 1b bd 15 36 2a bf 0d 2e 31 3b 41 39 c9 39
       -0.038046926 -0.6648877 0.0027035505 0.00038380365
000020 21 9b 2c 3e ee f7 b6 3e 2a aa 0c bf 92 42 74 3d
       0.16856052 0.3573603 -0.5494715 0.0596338
000030 51 9e 2c 3e f5 33 98 be d3 82 4c be c9 f7 51 be
       0.16857268 -0.2972714 -0.1997178 -0.20504679
000040 02 0b fa 3d 85 9a 02 bf e0 5f 04 3e a4 de b0 3c
       0.12209131 -0.5101703 0.12927198 0.021590538
000050 ef 31 15 bf f4 06 c2 be 48 2f a3 3d 3a 46 9d bd
       -0.5827932 -0.3789593 0.079680026 -0.0767941
000060 69 1f 8b 3d 36 a1 d1 be 01 ee f5 3d 78 d9 e7 3d
       0.067931004 -0.40943307 0.12008286 0.11320776
000070 85 e3 29 3e ff b9 35 bf 0f 97 7b 3e 2f 65 9b be
       0.16590698 -0.7098693 0.24569343 -0.30350634
000080 45 3f 05 bf ed 0f 44 bc fc d4 8b 3e 91 0f 92 3e
       -0.52049667 -0.011966688 0.27310932 0.285275
000090 5c e6 78 3e 7d 3d aa be 7c b9 46 3e a5 6c 09 bf
       0.24306625 -0.33250037 0.19406694 -0.53681403
0000a0 59 3a 61 3d 23 45 af be 65 6e 0e 3d aa 95 a6 39
       0.054987285 -0.34232435 0.03477325 0.00031773496
0000b0 30 fb a8 3c 94 a0 c5 3e 3a 7b 70 3d 71 18 18 be
       0.020627588 0.38599074 0.058711268 -0.14853074
0000c0 a9 09 09 3d c3 fa 35 3e be f5 10 bf 62 c7 58 bf
       0.03345648 0.17771439 -0.5662497 -0.84679234
0000d0 69 ad fa be 14 4f 46 bf ff 73 52 3d fd 1b 9a 3d
       -0.48960426 -0.77464414 0.051380154 0.075248696
0000e0 64 9a 3a bd 5f 86 49 bb 62 66 27 be 56 5f 0d bf
       -0.045557395 -0.0030750257 -0.1634765 -0.55223596
0000f0 ad c4 af bd e3 d7 1e bf 10 d9 31 bf 78 e1 02 bf
       -0.08582435 -0.62048167 -0.69471836 -0.5112529
000100 9a 0c 70 3d 32 e6 32 3e d2 22 b7 3d 6e be 2a bf
       0.058605768 0.17470625 0.08942188 -0.6669682
000110 5b d5 8d 3e ea c7 5f 3e 0c 27 ba 3c 1c 1b 6e 3e
       0.2770184 0.21853605 0.022723697 0.23252529
000120 26 1b 2f bf 9c 3f 94 be 04 d3 c9 be 18 3c 6a 3d
       -0.684008 -0.2895478 -0.39418805 0.057186216
000130 50 ea 35 bf cc cd 4c 3e a9 5a 20 bf 6c a6 83 bd
       -0.7106066 0.2000038 -0.62638336 -0.06428227
000140 86 1a 2e bf 66 85 3c bf 40 65 66 be 90 f8 e4 be
       -0.6800922 -0.7364105 -0.22499561 -0.44720888
000150 9f 41 be be a3 a8 18 bf fa f4 e0 bd c9 9d cc be
       -0.3715944 -0.5963232 -0.109842256 -0.3996413
000160 f1 d7 d4 be 9e 81 c5 be 57 3a 18 be c6 1f 05 bf
       -0.41571 -0.38575453 -0.14866005 -0.5200161
000170 af 59 91 be de 45 0c bf f9 ac 08 bf 60 01 77 bd
       -0.28388736 -0.5479411 -0.53388935 -0.060304046
000180 42 b4 9b be d4 9c 04 bf 93 12 dc be 4e 45 9c 3b
       -0.30410963 -0.518018 -0.4298292 0.004769004
000190 5c 89 d3 bd 84 70 db 3d aa 6e 5b 3e 1f 55 1b be
       -0.103289336 0.1071482 0.21428934 -0.1516919
0001a0 af 6e a3 3d 61 58 ba be 59 69 0d 3e a1 48 ce 3d
       0.079800956 -0.36395553 0.13809718 0.100724466
0001b0 64 8e 22 3e 98 ac bc ba c7 e0 26 bd ea ac 71 3d
       0.1587463 -0.0014394699 -0.040741708 0.059002794
0001c0 f4 f1 dc be a6 a0 f3 be e5 9e 82 3d 1c 79 f3 3d
       -0.43153346 -0.47583503 0.06377963 0.11888334
0001d0 68 e3 26 bf fc 65 f6 be dc 6e af 3c c8 1e 9f 3d
       -0.65190744 -0.48124683 0.021415167 0.07769543
0001e0 3e 8c 4d bf 3d ff 74 bd f9 57 4d 3e 64 54 cc ba
       -0.8029212 -0.059813727 0.2005309 -0.0015589115
0001f0 52 10 8c be 77 f5 62 be 30 d4 35 be 50 72 38 3e
       -0.273562 -0.2216395 -0.17756724 0.18012357
000200 cc 00 0c be 2a c9 e1 3d f2 92 89 be 0c 92 c8 be
       -0.13672179 0.11024697 -0.26869923 -0.39173925
000210 a8 5f 1a bf e3 e9 b2 3d e8 65 a7 3e 30 20 89 3e
       -0.6030221 0.087360166 0.32694936 0.2678237
000220 cd 69 06 bf f5 61 03 bf 17 bd e8 bd b8 8a 38 3d
       -0.5250519 -0.51321346 -0.11364191 0.045054168
000230 60 a1 6b be e4 4b 05 3e 0b 0d 9d 3e 8b d2 22 3e
       -0.23010778 0.13017231 0.30674013 0.15900628
000240 8e 95 b1 be f2 d5 8d 3d 8a a2 ae be e4 0a 35 3e
       -0.34684414 0.069255725 -0.34108382 0.17679936
000250 18 04 61 be 17 c3 42 bf 5f 94 e9 be a2 27 42 3e
       -0.21974218 -0.76078933 -0.4562101 0.18960431
000260 e3 61 29 3e 52 6c 08 bf 2d da 04 bf 87 66 0a 3e
       0.16541247 -0.53290284 -0.5189541 0.13515674
000270 18 55 1f 3e 6c 96 e3 be e8 e9 a6 be 2b 4a d5 be
       0.15559804 -0.444507 -0.3260033 -0.41658148
000280 6f 65 f4 be 72 46 12 3e 33 88 dc 3d f4 28 cc bd
       -0.47733638 0.14284685 0.107681654 -0.09968749
000290 8f 6b e5 bb 82 ed 6c be 2d de c3 be bc 35 f5 3d
       -0.0070013474 -0.23137477 -0.38255444 0.1197314
0002a0 1a 9a da be 26 2c 88 3e e3 2b 8a 3e 4f b1 da 3d
       -0.42695695 0.26596183 0.26986608 0.1067835
0002b0 09 24 84 ba 67 e0 a0 3b 9d 4a 38 bf 1f a9 54 3d
       -0.001008154 0.0049095633 -0.7198885 0.0519191
0002c0 2d ea 01 bd 18 c9 5f 3e 74 e2 83 bd ae 0b 9e 3d
       -0.031717468 0.21854055 -0.06439677 0.077170715
0002d0 b7 08 62 3e 7d 6a 32 bf 17 9c 88 bd 0e 19 cd 3c
       0.22073637 -0.6969374 -0.06670397 0.025036361
0002e0 67 03 c6 be 21 99 b9 be ca 32 99 bc 9e 8c cc 3c
       -0.3867447 -0.3624964 -0.018700976 0.024969395
0002f0 a7 ad 34 3e 94 67 6a 3e 6e 67 e7 be f7 86 83 3e
       0.17644368 0.22891074 -0.45196098 0.25688908
000300 93 e8 ab bd 8e 53 52 bd 91 0e 63 be 18 09 d7 ba
       -0.083939694 -0.051349215 -0.22173525 -0.0016405908
000310 e9 44 d7 bc 37 d8 03 3e 7b 47 2c bf 8b e8 ad 3d
       -0.026277976 0.12875448 -0.6729657 0.0849162
000320 98 5f 7b 3e db 49 9d be 7a 84 06 bf a3 be 23 bf
       0.24548185 -0.3072041 -0.52545893 -0.63962764
000330 ae 32 e6 be b0 b0 08 bb e4 80 19 bf 5a ba a5 3e
       -0.4496054 -0.0020857267 -0.59962296 0.32368737
000340 e5 0c b6 be 41 cd 07 3c ca ce 6d ba 75 d9 81 be
       -0.35556713 0.008288682 -0.00090716465 -0.2536122
000350 b9 a2 13 bf 7a ca bf be 3e 5a 14 bf e0 97 6a bd
       -0.5767017 -0.37459165 -0.579502 -0.057273746
000360 1c f9 39 3e 6a f0 30 3e 51 74 b0 be 41 72 26 3e
       0.18161434 0.1727921 -0.34463742 0.16254522
000370 51 b4 b8 3d 76 cc 82 3d 7c c3 86 bc 34 06 a5 bc
       0.090187676 0.06386654 -0.016450636 -0.02014456
000380 81 45 88 3d 85 d0 1e bf fb 8e b3 3e 9f c7 92 3e
       0.06653882 -0.62036926 0.35070023 0.28667924
000390 3a 58 2c 3d d0 0c 65 3e 34 bc ab bb 8f b9 02 3d
       0.042076327 0.22368169 -0.0052409414 0.031915244
0003a0 11 5d 2a 3e bc a3 0a bf d9 13 3a be dd a7 2e 3d
       0.16637065 -0.5415609 -0.18171634 0.042640556
0003b0 bf f1 d0 3d c2 ea c1 be 10 1f b3 3d d1 11 3e 3d
       0.102023594 -0.37874418 0.08746159 0.04640371
0003c0 01 1f 1a 3c 5a bc 99 3d c2 4b a2 3e 9a fc 07 bf
       0.009406806 0.07506628 0.31698424 -0.53119814
0003d0 e4 d3 95 be 2b b9 45 bf 12 59 67 bd 53 1e d3 be
       -0.29263222 -0.7723567 -0.05648143 -0.41234073
0003e0 b5 7e 10 3e e9 1a c5 be 5e 44 9c be 5a cd b3 be
       0.14110835 -0.38497093 -0.3052091 -0.35117608
0003f0 b5 7d b1 bd 90 05 35 be 24 81 92 be c1 98 bb bd
       -0.08666555 -0.17677903 -0.2861415 -0.09159995

l2.weight f4 [300, 400]
000000 b4 a1 b2 3c 1a 32 75 3c 80 d7 73 3b 0a 81 9f 3c
       0.021805622 0.014965558 0.0037207305 0.01947071
000010 06 d6 82 3c 0c 2a 18 bd 27 80 0d bd 14 20 9c 3b
       0.015971195 -0.037149474 -0.034546044 0.004764566
000020 e8 8b 62 3c 0b 2e 83 bc f9 e3 38 bd b1 38 ec 3c
       0.013827302 -0.016013166 -0.045139287 0.028835626
000030 84 b9 21 bd fc 86 6d ba 4d 2e f3 bc 42 5c 8d 3c
       -0.039483562 -0.0009060947 -0.029685164 0.017255906
000040 f9 22 c6 3c a0 a7 d1 ba a8 ce 85 bc 5f d6 4f bc
       0.024186598 -0.0015995391 -0.016333893 -0.012685387
000050 38 68 fd 3a da 97 93 3c 9f 1c e5 3c 18 29 d7 bb
       0.0019333428 0.018016744 0.02796775 -0.006566178
000060 50 15 e5 3c 69 85 43 3b 20 bb 2c bd 29 69 12 bc
       0.027964264 0.0029834157 -0.042170644 -0.008936205
000070 a2 cc 5a bd 87 8e b8 bc 07 e7 d1 3b 50 17 f8 3c
       -0.05341781 -0.0225289 0.0064057144 0.030284554
000080 19 04 58 3b cc c4 31 3c d8 ea b0 3c d2 03 ab bc
       0.0032961427 0.010850143 0.021596357 -0.020875845
000090 77 1e 1f 3a b6 dc 25 bd 81 0f 2b bd 7b fa f8 bc
       0.0006069908 -0.04049369 -0.041762833 -0.030392876
0000a0 32 80 db 3c cb 7c 09 3d 3a 89 5b 3a 25 12 26 3d
       0.026794527 0.033566277 0.00083746354 0.040544648
0000b0 b4 b3 3a 3c 98 aa 3d bb b5 a0 9b bd 9a a0 e7 bc
       0.011395384 -0.0028940793 -0.07599012 -0.028274823
0000c0 4d cf dc 3b 04 c7 88 3b 72 8d c5 3c 00 67 b6 ba
       0.0067385794 0.004174115 0.024115298 -0.0013916194
0000d0 1c 4e 67 3a d8 87 48 3c 8e 1f 26 bd 9c e4 4a bd
       0.000882359 0.012239419 -0.040557437 -0.049534425
0000e0 4f f3 58 bc d2 2b 31 bd e4 28 eb 3b c6 50 e1 3b
       -0.013241603 -0.04325468 0.0071765054 0.006876084
0000f0 d1 4c 94 3c 4c 67 58 3d 98 9c d3 3b 0c 45 11 3c
       0.018103035 0.052832887 0.0064578764 0.00886656
000100 6b 03 8a 3b 81 3c 01 bd 98 20 1c 3c b0 ab 61 3b
       0.0042118332 -0.03155184 0.009529255 0.003443461
000110 a5 0a 17 bd 5b c3 49 bd ec 82 62 3d 8b c6 10 bd
       -0.036875386 -0.04925857 0.055300638 -0.035345595
000120 c6 a7 97 bc cb 10 03 3d ca 96 9d bc 70 7b 86 bd
       -0.018512618 0.031998437 -0.01923694 -0.065665126
000130 9e 2e 9a 3b 13 21 34 bd 70 66 ff bc 9b cc 06 bb
       0.0047052642 -0.043976855 -0.031176776 -0.0020568732
000140 4b 38 38 3d 7c de ee bc 04 50 a4 bc 50 c5 0b 3b
       0.04497556 -0.029158823 -0.020057686 0.0021327324
000150 cf 48 18 bc 43 bb 9f bc d0 0a b3 bc 34 45 89 bc
       -0.009294703 -0.019498473 -0.021855742 -0.016756631
000160 ed 65 bb bc d1 10 b3 3c bc ce cb bc b4 44 2d 3c
       -0.02287575 0.021858605 -0.024878852 0.010575462
000170 f4 b0 4b 3d d8 8d 2f 3c 71 0a 40 bd 17 9b d7 bc
       0.049729303 0.0107149705 -0.046884958 -0.02631907
000180 28 5a bf 3b 89 78 22 bc ed 35 46 bb 26 eb 05 bd
       0.005839605 -0.009916433 -0.0030244545 -0.03269496
000190 25 84 04 bb ce 67 5f bc 7f 5e 83 bb 42 37 08 3d
       -0.0020220366 -0.013635589 -0.0040090675 0.033255823
0001a0 18 8f 80 bc 87 c4 b3 bc ec cd 57 bd 89 cf 1b bd
       -0.015693232 -0.021944297 -0.052686617 -0.038039718
0001b0 52 dd e4 3c 78 61 2c 3c db 3d ad bc cc 3a 24 bc
       0.027937565 0.010521285 -0.021147659 -0.010023784
0001c0 b1 3d 8b bc 53 87 25 bd 4a 05 7f bc c6 2e 09 3d
       -0.01699719 -0.04041226 -0.015565226 0.033491872
0001d0 90 3b a3 3b 4b 56 47 bd 38 3e f9 bb 19 95 fa 3c
       0.0049814656 -0.04866628 -0.007606294 0.030588673
0001e0 e6 89 eb bc d7 31 a0 3a d5 f6 87 bd 11 ba 3e bd
       -0.028752279 0.0012221885 -0.06638876 -0.046564166
0001f0 1d 78 94 bc 5f c2 b4 3c 03 47 2f bc 4f 4c ee bc
       -0.01812368 0.02206534 -0.010698083 -0.029089121
000200 ed fb 32 bd c0 b9 2c 3d d1 4a 47 3d 0e 54 14 3c
       -0.043697286 0.042169333 0.048655335 0.009053243
000210 55 ad 2c 3d b7 18 15 3d 93 c7 ed 39 a6 31 0d bd
       0.04215749 0.036400523 0.00045352857 -0.034471177
000220 0b 49 fd bc de 3d 8b 3c d7 fc e9 bb c9 34 88 3b
       -0.030918619 0.016997274 -0.0071407366 0.004156683
000230 f8 83 46 bc 38 15 19 3d 39 2c 9d 3b 32 fd a4 ba
       -0.012116425 0.03737375 0.0047965315 -0.0012587665
000240 44 98 26 bc ef 98 a8 3c 78 22 91 bc d1 54 9e 3c
       -0.010168139 0.020580737 -0.017716631 0.019327553
000250 20 82 7c 3b f7 dc fe bc 18 99 8b 3b 59 d3 e9 bc
       0.003852971 -0.031111224 0.0042601936 -0.028543161
000260 89 2b 41 bb 35 af e4 3b 60 a7 1a 3d 95 50 0d bc
       -0.0029475412 0.006978894 0.037757277 -0.008625169
000270 1c 98 d8 3b 30 7e fd 3b 9e 5e ef bc 2c 84 96 3d
       0.0066099297 0.00773599 -0.029219922 0.073494285
000280 72 2c 5f bb 83 16 0e 3b 1f 51 44 bd fb 53 45 3d
       -0.003405359 0.0021680898 -0.047928926 0.048175793
000290 47 36 16 bd bf 84 c4 3c 59 f0 93 bc f4 31 16 3c
       -0.036672857 0.02398908 -0.018058943 0.009167183
0002a0 50 ad 49 bd fd 56 8e bc d4 fe b3 bc 82 4b af bc
       -0.04923755 -0.017375464 -0.021972097 -0.02139831
0002b0 33 62 f3 bc 61 7f c8 bc c6 fe c6 bc 93 a7 68 3c
       -0.029709911 -0.024474801 -0.024291407 0.014200109
0002c0 51 e5 99 3c ec f1 95 3b 1d 4f f6 bc d3 92 3d 3d
       0.018786104 0.0045759585 -0.030067021 0.0462826
0002d0 ba 08 12 3d c7 ba 1b 3d 8e 43 a0 3c 68 5d 9e bd
       0.035652854 0.03801992 0.019563463 -0.077326596
0002e0 54 5a b7 3c 74 2f 3f bc 8a 01 13 bd 21 53 26 bd
       0.022381939 -0.011669029 -0.03589014 -0.04060662
0002f0 06 51 0d bd 39 22 34 bd fa 17 da 3c 1e b7 7d 3c
       -0.034501098 -0.04397795 0.026622761 0.015485553
000300 15 92 0a bc f2 45 9a 3c 43 81 b1 3a ba c8 b6 3c
       -0.00845768 0.01883218 0.0013542551 0.02231251
000310 97 25 a9 bc 98 a5 89 bd 07 75 39 bd fa d9 b9 3b
       -0.020647807 -0.067210376 -0.04527762 0.005671737
000320 ff 8c 6f bd 48 b4 0f bd 38 21 47 bd 93 4d 2f bd
       -0.058484074 -0.03508404 -0.048615664 -0.04279859
000330 d2 9c 3f bd 50 24 43 bd 30 07 76 bb 7a 62 5a bd
       -0.046780415 -0.047642052 -0.0037540905 -0.05331657
000340 68 df 2c bd 4b c1 56 bd 15 9e 9b 3c ae 86 e2 3c
       -0.042205244 -0.052430432 0.018996278 0.02765211
000350 7c 9b b8 bc a8 ba 80 3c 1a 42 21 bd 2a 3d 60 bd
       -0.022535078 0.015714005 -0.03936968 -0.05474583
000360 a8 68 84 3c 1b 1c 17 bd b3 cf 29 3d f5 44 17 3a
       0.016163185 -0.036892038 0.041457843 0.0005770468
000370 98 1d 1e bc 47 a1 82 bd e8 be e6 3c 39 07 5e bc
       -0.00965061 -0.063784175 0.028167203 -0.013551527
000380 30 36 95 bc 86 a4 10 bd 52 f9 6c bc 90 c5 7d bd
       -0.018214315 -0.03531315 -0.0144637395 -0.06195599
000390 31 fa 37 bd fb f1 44 bd b2 d3 ad bd 2e 40 29 3c
       -0.044916335 -0.048082333 -0.08487643 0.010330243
0003a0 89 19 09 bc 2e 55 96 3c 3d db 2d bd f6 49 ce ba
       -0.008367904 0.018351164 -0.04244541 -0.0015738595
0003b0 3f 8d 8b bb 8a e8 87 bd f6 5e 62 3c 5d 9f 6d bd
       -0.004258781 -0.0663615 0.013816586 -0.05801331
0003c0 a1 0d 82 bc be c6 37 bc bb dd 0a bd 24 2a 43 bd
       -0.01587564 -0.011216817 -0.033902865 -0.04764761
0003d0 8c 66 42 bd c7 51 f1 bc 71 ad d2 bb 84 66 1b bd
       -0.047461078 -0.02945794 -0.0064293672 -0.037939563
0003e0 da 63 00 bd f0 ef 89 3b 07 5a 33 3d b9 06 4c 3d
       -0.031345226 0.004209511 0.04378703 0.0498111
0003f0 38 c4 9c 3c 1a 03 9a 3c 09 07 da bc 64 22 7e 3c
       0.019136533 0.018800307 -0.026614683 0.015511129

l2.bias f4 [300]
000000 a8 86 f6 bb a6 23 96 be 70 65 83 3b 8c 28 29 bc
       -0.0075233765 -0.29324073 0.004009895 -0.010324609
000010 c1 94 91 3c 1b cb b5 bc c8 fb c1 3b e4 6f 54 bd
       0.017771127 -0.022191575 0.0059199072 -0.05186452
000020 e0 3e 5d bd 33 ab 21 3d 01 ef 01 be 49 48 1b bd
       -0.05401504 0.03946991 -0.12688829 -0.037910733
000030 a2 54 23 bd 7f 99 49 bc f8 db 03 bb a8 66 3b bc
       -0.039875634 -0.012304663 -0.0020120125 -0.011438049
000040 bc 29 f0 bd 44 4f 27 bd 3a 17 75 bd e2 fb 04 3c
       -0.1172671 -0.040847078 -0.059836604 0.008116694
000050 79 bf b0 bd 5d 10 c6 bb d2 75 cd bd ac de 3a bc
       -0.086302705 -0.006044431 -0.10032238 -0.011405628
000060 4a ed 64 bd c6 f0 6d 3c 26 9f 67 bd f9 8d b5 bd
       -0.05589036 0.014522737 -0.05654826 -0.0886497
000070 28 e3 e5 bd 37 0e 39 bd dc a2 44 bd 04 a9 e3 bc
       -0.11224967 -0.045179572 -0.048006877 -0.027790554
000080 dc 97 dd bd 1c 7f 64 bb 90 b4 8a bd 44 7a ee bc
       -0.108199805 -0.0034865802 -0.06772721 -0.029111035
000090 4d 53 af ba e1 0e fe 3c 39 c0 ba 3c a5 64 26 3d
       -0.0013376266 0.031012954 0.022796737 0.040623326
0000a0 05 23 d2 bc 48 f1 8a bd e2 85 c4 b8 81 d3 85 bc
       -0.025651464 -0.06784302 -9.370946e-05 -0.016336204
0000b0 9a 1d 75 bd fa f8 63 3c 5c cc eb 3c b7 48 94 bd
       -0.059842683 0.013914341 0.02878397 -0.07240432
0000c0 aa 98 a4 ba ad bc 8c bd 8c 8c 1b 3d 77 a2 7f bc
       -0.0012557704 -0.068719245 0.037975833 -0.0156026995
0000d0 b5 a7 9d bd ef ce d5 bc 39 ba 08 bd 82 a3 99 3c
       -0.07698003 -0.02609965 -0.03338072 0.018754724
0000e0 3b 79 03 3c 92 2c ed 3c 12 09 83 bd 52 9c 76 bd
       0.008024509 0.028951917 -0.063982144 -0.060207672
0000f0 6a 96 d9 3c 5f 82 3c bd 0d c7 cc bd ed b2 a4 bd
       0.02656098 -0.04602277 -0.099989034 -0.0804194
000100 b5 5c 0b bd 69 66 4b bd 34 7a 42 bd 07 64 bc bd
       -0.03402396 -0.049658213 -0.047479823 -0.09198766
000110 1c 57 89 3c 6c 4e 2e bd da 79 0c bd c5 e0 c0 bd
       0.01676517 -0.042555258 -0.034295894 -0.094178714
000120 99 97 4d bd 22 c3 ce bd 34 6f 6d bd 91 53 c5 bd
       -0.050193403 -0.100958124 -0.05796738 -0.0963508
000130 6a fb 80 3c e5 22 be 3c 3d 64 9c bb d8 66 c0 bc
       0.015744884 0.023209998 -0.0047726915 -0.02348654
000140 6b 9a 02 bd e9 75 e7 3c ee be b7 bd a1 df f0 bd
       -0.031885546 0.028254466 -0.08971964 -0.11761404
000150 dc bf 4a bd 9e a1 87 3d 8d 68 75 3c 40 a5 e4 bb
       -0.049499378 0.06622623 0.01497854 -0.006977707
000160 90 79 6c bd 93 80 d6 bc 7d 73 94 3b a5 30 8d bd
       -0.05773312 -0.026184356 0.004530369 -0.06894044
000170 23 24 1d 3d 85 ef df bc 18 71 90 bd ae dd 4e bd
       0.03836454 -0.027335892 -0.07052821 -0.05050438
000180 a9 4e 68 bc 0f 56 84 bd 1d 33 cb bd 80 d6 f5 bc
       -0.01417891 -0.06461727 -0.099218585 -0.030009508
000190 32 c2 09 3d 85 16 06 bb b8 43 07 be 93 8b f4 bc
       0.033632465 -0.00204602 -0.13209426 -0.02985171
0001a0 bf 86 cb bd dd 47 0f bd db 22 5a bd 0c 10 a8 bc
       -0.0993781 -0.034980644 -0.053255897 -0.020515464
0001b0 9e 72 58 bd d2 59 71 bc f8 3e 2c bd 2d a4 90 bc
       -0.052843682 -0.0147308875 -0.04205224 -0.01765641
0001c0 a3 a1 45 bd 57 14 08 3d 88 39 81 bc b4 15 17 3d
       -0.048249852 0.033222523 -0.015774503 0.036885932
0001d0 16 34 27 bc de 33 c1 3c 76 3b 05 bd 30 e1 9b bd
       -0.010205289 0.023584303 -0.03252741 -0.076113105
0001e0 a8 bb 6a bd 58 6b 58 bd 44 dc be bb 69 16 73 bd
       -0.05730787 -0.052836746 -0.0058245976 -0.059347544
0001f0 4a 99 eb bc 24 b8 99 3d b6 e1 1a bd e8 d2 35 3c
       -0.028759617 0.07505825 -0.03781291 0.011097647
000200 3d 0c 23 bd e2 83 7c bd dc b4 12 bd 22 74 c8 bd
       -0.039806593 -0.06164921 -0.035817012 -0.097877756
000210 87 d5 87 bd 87 99 d7 bd 97 95 ec 3b fb be 77 3c
       -0.06632524 -0.1052733 0.007219981 0.015121217
000220 7b 1f 0d bd dd 2f a3 bd be 52 08 bd 8d 23 be 3c
       -0.03445385 -0.079681136 -0.033282034 0.023210311
000230 8c 18 6a bd 46 d6 ab 3c 67 91 d8 bc 4a e3 0a bd
       -0.057152316 0.020976197 -0.02643652 -0.033908166
000240 76 45 4f bd a5 c1 a4 3d c9 83 9a bd 1a 04 12 bc
       -0.050603352 0.08044747 -0.07544667 -0.008912111
000250 6d b2 10 bd d0 3d 65 bd c5 38 49 bc dc 96 de bd
       -0.03532641 -0.055967152 -0.012281601 -0.10868618
000260 69 4b c4 bd 4c fa ac 3c d2 90 3e bd cb c4 27 b7
       -0.09584696 0.021115445 -0.04652483 -9.999795e-06
000270 91 71 29 ba fc ba 77 3a ce 1a 62 bc b9 da ed bc
       -0.0006463761 0.0009450165 -0.013800336 -0.02903496
000280 e7 4a 9d bc b8 49 68 bd a3 d6 2f 3c 2d eb 56 bc
       -0.019200755 -0.05671093 0.010732326 -0.013117594
000290 d4 a3 0a bd 7e 9b d9 bb dc 3d 9c bc 38 8f 97 bd
       -0.033847645 -0.0066408506 -0.019072466 -0.07400364
0002a0 a9 b1 22 bd af 98 1e bb 42 4c 64 3d c6 d2 8b bd
       -0.03972021 -0.0024199893 0.055736788 -0.06827311
0002b0 20 ed 86 bd 10 fd 39 bc 2a b6 89 bd 8c 38 55 bd
       -0.06588197 -0.011351839 -0.06724198 -0.05205588
0002c0 a7 01 ba 3a ae d4 7b bd 2b 13 45 bd 62 8b cf 3c
       0.0014191166 -0.061482124 -0.048113983 0.025335018
0002d0 54 46 0f bd 74 65 68 bc 2d 5e ed 3c 19 6c 63 bc
       -0.03497918 -0.014184345 0.02897557 -0.013880753
0002e0 cf 16 d3 bc d3 d6 2b bd 6e b9 ea bd 7e e4 36 bd
       -0.025767712 -0.04195292 -0.11461149 -0.0446515
0002f0 4e 08 99 3c 4e 06 f2 bc 04 8a 53 bc a4 76 0d bd
       0.018680718 -0.029544022 -0.012911323 -0.034536973
000300 7f b8 51 3c 0d d4 0a bc bc 66 d7 bd 93 f8 1d 3c
       0.012800335 -0.008473408 -0.10517642 0.009641784
000310 ee f1 e9 bb 04 b7 d5 bd 44 c7 97 bd 06 b7 9c bd
       -0.007139436 -0.10435298 -0.07411054 -0.076520965
000320 89 a3 9b bc b0 2a ba 3c 90 5b 41 3c 25 ce 5f 3c
       -0.018998878 0.022725433 0.011801615 0.0136599885
000330 77 d7 80 bd 40 39 58 bd a0 dd e3 3c 6d af 1d bd
       -0.06291097 -0.052788973 0.02781564 -0.038497377
000340 36 7f 28 bd a5 61 1c 3d 18 2f 2f bd 7d 1b 76 3c
       -0.041136943 0.03817906 -0.04276952 0.015021202
000350 a9 ee 27 bd fe 5f 54 3d 08 92 ba 3c a6 87 94 bb
       -0.04099909 0.051849358 0.022774711 -0.004532772
000360 51 44 bb bd c9 c0 b2 bb c9 91 90 bd e3 fc a1 3c
       -0.0914389 -0.0054551107 -0.07059056 0.019773906
000370 65 ca bd bd e2 ca 2d bd c8 e0 28 3c cc a4 b8 bc
       -0.09267119 -0.042429812 0.010307498 -0.022539519
000380 10 28 8d bd ba d0 2d 3b 5f 55 fa bc 53 d7 8f ba
       -0.06892407 0.0026522116 -0.030558286 -0.0010974206
000390 2f 3a e2 bc 5b 0b 06 bc e8 72 96 bd bc 7e 3a bb
       -0.027615635 -0.008181418 -0.073461354 -0.0028456887
0003a0 1b 63 ae bc 75 80 16 3d c3 1a c5 3c 1c 26 9c bd
       -0.021287492 0.0367436 0.024060613 -0.07624456
0003b0 59 ec c1 3c d1 3a 23 3c 1c 9b 9f bd 77 60 05 bc
       0.02367227 0.009962753 -0.07793257 -0.008140675
0003c0 ff e0 03 bc 04 56 25 bc 77 08 91 bd 04 4a 8f bd
       -0.008049249 -0.0100913085 -0.07081693 -0.06996539
0003d0 43 e2 48 bd 47 1d 84 bd df 77 6f 3c 7f ed 82 bc
       -0.049043905 -0.06450897 0.014615982 -0.015982388
0003e0 c5 d2 2f bd c4 8a 8e bd 7d 82 a0 bd fb c9 d7 bb
       -0.042925615 -0.06960061 -0.07837389 -0.0065853572
0003f0 60 c1 1b bd ac fb 89 bd 76 29 af bc cb 2f 9a bd
       -0.038026214 -0.06737456 -0.021382075 -0.07528647

l3.weight f4 [1, 300]
000000 40 3f 3e bc ba ab 3c 3f 5b ca da 3c 10 d7 1d 3d
       -0.01161176 0.73699534 0.026707819 0.038535178
000010 a5 f8 27 3c 5b b8 0a bb b5 d1 9f bb 42 16 0f 3d
       0.010252153 -0.0021167013 -0.004877294 0.034933336
000020 d8 c4 13 3c c4 bc c9 3c a6 21 25 bd 54 f8 10 3d
       0.009019099 0.024626143 -0.040315293 0.035393074
000030 d6 67 57 bd 0e 4e 92 ba 44 49 d1 3b 33 e6 e8 bc
       -0.05258926 -0.0011162178 0.006386908 -0.02843008
000040 ba 74 e7 be 65 9f 96 bd c0 d5 67 3c d7 90 9e bb
       -0.45206243 -0.07354621 0.014150083 -0.0048390436
000050 58 5c 96 bd 01 99 ce 3c 2c ac 17 bb 78 7d 68 3a
       -0.07341832 0.025219442 -0.0023143394 0.0008868794
000060 ce 6a 1e bd 52 1c d0 3c 76 54 45 bd e7 3c 7e bd
       -0.038676076 0.02540413 -0.04817625 -0.0620698
000070 a3 c4 81 bd 34 f0 a5 bd 68 cc 4c 3b c5 66 46 3d
       -0.063363336 -0.08102456 0.0031249765 0.048437852
000080 90 0a 71 3e b2 21 43 3c 14 d0 b4 ba 48 43 db 3c
       0.23539186 0.011909889 -0.0013794922 0.02676548
000090 96 4c 81 3c 57 e1 3e 3d a2 f1 b0 3c 45 c9 1c 3d
       0.01578359 0.04660162 0.021599595 0.038277883
0000a0 0b 12 0b 3b 4b cb 92 bd 7a 51 46 3c b9 8a 99 bd
       0.0021220471 -0.07167681 0.012104386 -0.07497162
0000b0 7d 9f c0 3c 49 9a 66 3c 48 cd 2a 3d d4 8b 97 bd
       0.02351355 0.01407487 0.041699678 -0.07399717
0000c0 6a d3 12 3d be 8e e0 3c 13 3d 3e be 8e b8 76 3b
       0.03584615 0.027411815 -0.18577985 0.0037646624
0000d0 c3 03 8b bd 90 8a 7f b8 7a bb 1b 3a f6 59 cd 3c
       -0.06787827 -6.0925784e-05 0.0005940717 0.02506731
0000e0 f7 9b 95 bb 16 7a 8a 3c d8 32 81 bd 23 68 41 3d
       -0.0045657116 0.016903918 -0.06308526 0.047218453
0000f0 1e d1 b5 3c 63 44 4c 3d 0a 9b a4 bd 2a 1f 72 bd
       0.022194441 0.049869906 -0.08037384 -0.05911175
000100 67 6f 91 bd 97 4c e8 3c d0 e8 fe 3c 89 79 58 bd
       -0.071013264 0.028356833 0.031116873 -0.05285028
000110 0d 51 c8 3c 9d b3 4d 3c 34 32 4e 3c 8b b0 7d bd
       0.02445271 0.01255503 0.012585212 -0.061935943
000120 e7 d9 e7 3c 01 d1 81 bd 5d c1 ba 3c 80 95 74 bd
       0.028302146 -0.063386925 0.02279728 -0.059712887
000130 4b 74 c2 bb 42 5e 23 3d 66 ba 04 3d 45 f8 f7 3c
       -0.0059342734 0.039884813 0.032404326 0.030269751
000140 09 7e 1f bc 21 1b 72 bb 66 f9 87 bd 2b e7 a4 bd
       -0.009734639 -0.003694244 -0.06639366 -0.08051904
000150 73 96 c2 3b c9 21 5a 3e 9a ca d4 3c b9 48 f2 3b
       0.005938345 0.2130195 0.025975514 0.007393923
000160 49 99 b9 ba 3b 7b d3 3c 5e 01 4d 3e a5 b3 cb 3c
       -0.0014160062 0.025815597 0.20020053 0.024865935
000170 f3 1c 9d 3b 60 07 15 bc bc 6b 90 bd 45 b7 37 bb
       0.004794711 -0.009095997 -0.07051799 -0.002803282
000180 d6 1e 30 3c b3 89 5c 3b 68 7f 65 bd a7 fb 0c bc
       0.010749539 0.003365141 -0.056029707 -0.0086049205
000190 12 e3 49 3c b5 83 d5 3b f3 54 e4 bd 32 80 28 3c
       0.012322204 0.006515945 -0.11149015 0.01028447
0001a0 d4 62 ed 3e ec b5 32 3b f9 8b 94 bc 50 a1 25 bb
       0.46364462 0.0027269078 -0.01813315 -0.0025273152
0001b0 b8 64 df 3b 61 4e 15 bc d1 0e 18 bd 47 9d b1 bd
       0.0068174265 -0.009112925 -0.037123505 -0.086725764
0001c0 3d 0f a6 3b e5 0e 31 3d e7 66 02 3d 17 dc a6 3b
       0.0050677345 0.043227095 0.031836417 0.0050921547
0001d0 18 5b a1 bc da e4 13 3d 3f 8f b1 bd 33 48 70 bd
       -0.019696757 0.03610692 -0.086699 -0.058662605
0001e0 a4 d6 35 3c 12 ab e0 3b 0f a1 c3 bc 71 e3 43 3c
       0.011098538 0.0068563307 -0.02388051 0.011956082
0001f0 00 db c2 3c 90 8b 75 3e 89 97 21 bd 06 f1 c4 3b
       0.023786068 0.2397902 -0.039451156 0.0060101775
000200 f7 a4 e9 3c 38 7b 96 bd 4c f2 ab bb b0 d0 80 bd
       0.028521044 -0.07347721 -0.00524739 -0.06289804
000210 55 00 54 bd 21 ee 0a be df 01 95 bb e2 ec 56 bc
       -0.05175813 -0.13567401 -0.004547342 -0.013118001
000220 53 8e 85 bd 92 cb 8d 3c 28 21 b0 bd 4c c2 76 bb
       -0.06521287 0.017308984 -0.08600074 -0.003765243
000230 6c 6d 65 bd ff 36 13 3d 1e 82 24 3d 69 6e 66 bd
       -0.056012556 0.03594112 0.040163152 -0.05625764
000240 70 a4 a4 3b 62 fb 73 3e 43 bd e9 bc e5 23 de 3a
       0.0050244853 0.23826364 -0.02853263 0.0016947953
000250 e8 1c 4f bb d8 2a 1d 3d 6a 20 17 bb bc 8b 9e bd
       -0.0031602923 0.038370937 -0.0023060092 -0.07741496
000260 c6 5d 67 3e dd 3b 52 3c 78 9d 43 3c 4d 15 e1 3c
       0.22594365 0.012831655 0.011939399 0.027475977
000270 13 27 fd 3b 4e c8 ac 3c 71 8f bb 3c fa cf 8d bd
       0.0077256053 0.021091606 0.022895547 -0.06924434
000280 2d d9 1b 3c aa 44 00 bd 78 12 12 3b bf 4b dd bc
       0.009512228 -0.031315483 0.002228884 -0.027013658
000290 1f 79 8e ba 0c 0d c3 3c 6e f5 8e bd 90 55 b8 3b
       -0.0010869837 0.023809932 -0.06980406 0.005625434
0002a0 3d cf c1 3c f8 c0 1d 39 66 84 84 be 3a 26 b0 3c
       0.02365839 0.00015044573 -0.25882262 0.021502603
0002b0 2a 39 f2 bc 91 3b 7b 3b 05 01 92 3c 54 da a4 bc
       -0.029568274 0.0038335065 0.017822752 -0.020123638
0002c0 75 18 ea bb cc 75 af bd 89 7c 3d 3c 7f 6d 3a 3e
       -0.007144029 -0.0856739 0.011565336 0.18205832
0002d0 50 38 0a 3d b0 6c 05 3c ac 19 37 3d 31 16 93 bd
       0.03374511 0.008143589 0.044702217 -0.07181967
0002e0 a5 8c 8a bc c9 94 91 bd 2a 59 95 bd e4 92 89 bd
       -0.016912768 -0.07108457 -0.07292397 -0.0671747
0002f0 84 c1 8b 3c 47 41 00 3d 43 e8 9d bd a2 81 d6 3c
       0.017060049 0.031312253 -0.07710316 0.02618486
000300 e9 a9 4a 3c b6 27 95 be f3 f4 90 bd 7a c4 41 bb
       0.012369611 -0.2913186 -0.0707797 -0.0029566572
000310 3e 95 e0 3b e9 0d 9f bd a6 1e 89 bd 67 d9 25 bc
       0.0068537286 -0.07766325 -0.06695299 -0.010122634
000320 d6 3e 23 3d f4 28 0d 3c ae 7f 2f 3d b3 e9 99 3c
       0.039854847 0.008615721 0.042846374 0.018788194
000330 ef 84 ee 37 cb 41 35 3d bb b8 ae bb e1 12 48 bc
       2.8433713e-05 0.0442522 -0.00533208 -0.012211532
000340 14 c2 4c bd b8 cd 50 3b f2 72 83 bb e7 9b 17 bc
       -0.049989775 0.00318609 -0.0040115053 -0.009253479
000350 73 a3 8e 3c de 04 be 3d 40 e0 bd bb 1b dc d9 3c
       0.017411923 0.09278272 -0.005794555 0.026594212
000360 18 f4 4f bd f4 e2 39 3c 0d 71 76 3c 9e c5 95 3c
       -0.050769895 0.011345614 0.015041602 0.018282708
000370 f0 f4 96 bd c9 58 37 3d fb 7a 87 3a d1 8f 5e 3c
       -0.07370937 0.044762406 0.0010336334 0.013584093
000380 04 21 8d 3c 0f 4e af bc 0d fe df bc 68 67 74 bb
       0.017227657 -0.021399526 -0.02734282 -0.003729308
000390 91 fb 9f bd 56 fe bb 3c e7 6c 05 bd 8d 06 f8 3c
       -0.07811654 0.022948425 -0.03257456 0.030276561
0003a0 43 f2 c2 bc a3 d7 d9 3c cc 74 f0 3b 6b da b9 bc
       -0.02379716 0.026592081 0.007338142 -0.022687158
0003b0 4b 90 76 ba 99 26 8f bc 77 c4 95 3d 48 df ca bb
       -0.00094056566 -0.01747446 0.07312863 -0.006191168
0003c0 e2 39 1d 3c 37 1f 0b bd 66 bf 8d 3c 78 26 6d 3c
       0.00959632 -0.033965316 0.01730318 0.014474504
0003d0 34 93 0d bd fb 56 b5 bc df 4f 15 3b 18 7a 9d bd
       -0.034564212 -0.022136202 0.0022783203 -0.07689303
0003e0 0f 45 96 bc ba 28 7a bd 1b 0c 66 bd 06 b2 80 bb
       -0.018343477 -0.061073996 -0.05616389 -0.003927472
0003f0 c7 a8 25 3b 71 e9 38 bd a3 b2 c1 bb d6 74 14 bb
       0.00252776 -0.045144502 -0.0059111877 -0.0022652647
