InvertedPendulum/InvertedPendulum-v4_actor_finalized_05.pth (torch, 493438 bytes, 5 tensors)

l1.weight f4 [400, 4]
0.48018727 0.11603687 -0.046705 0.16342339 0.24085416 -0.0030775222 0.2677913 0.35535246
-0.49996135 1.2395357 0.18199523 0.16676159 0.23884289 -0.5355362 -0.021060752 0.110028714
0.08249569 0.04201471 0.05396928 0.019602964 0.47161993 -0.30212903 -0.2104274 0.3156007
0.16939561 0.74456525 -0.19663966 -0.11756775 -0.11963183 -0.2767892 0.23236418 0.029149726
0.46071976 -0.8729149 -0.31389272 -0.26290575 0.6927867 0.9849577 0.20474407 -0.09184376
-0.77642924 0.86041725 0.048245877 0.4897115 -0.3406502 1.5239358 0.6015129 0.3997476
0.1019409 1.560897 -0.17856577 0.3276283 -0.2519532 -0.34708542 -0.23708989 -0.12578116
-0.19848059 -0.5546223 0.22887734 -0.18305491 -0.36983272 -0.49156678 -0.70280665 -0.26264396
-0.42929643 1.3926045 0.21895997 0.15738764 -0.36788496 -0.9391952 -0.294671 -0.13987872
-0.15734515 1.899292 0.47433063 0.34386507 -0.27979833 0.5439227 0.28050664 0.08785663
-0.04058932 -0.025239706 -0.19888917 0.15357007 0.16274786 0.06719053 0.23028189 0.15949094
0.11887912 1.6116769 0.50544024 0.15393645 0.044177864 0.5113705 0.55021495 -0.09174719
-0.19250622 0.33708623 0.103415385 -0.0010800682 0.20519477 0.4903285 -0.24827212 0.32837376
0.082928576 1.0239708 0.51305425 0.0603906 0.26527637 -0.9691124 -0.008375793 -0.4848823
0.4720578 0.677842 -0.30565718 -0.1883358 0.14371648 0.018922431 -0.16768646 -0.3396766
-0.2660209 1.0600715 0.12985954 0.16753231 0.12758175 0.9421697 -0.177928 0.3043201
0.12395286 0.5553322 0.3122107 0.44958726 -0.53528863 1.0269959 0.69485307 0.46824592
-0.07374274 1.3685023 0.24790762 0.15176977 0.16983052 0.16504699 0.14443725 -0.08265652
-0.19857119 1.7411567 0.53050953 0.12466007 -0.8864651 0.21676445 0.060533162 -0.14102115
0.54868734 -0.3430795 -0.17849256 -0.33151808 -0.25396958 0.2899547 0.33509293 0.361712
-0.5156394 0.26496357 0.4918424 -0.071511455 -0.41025513 0.47991216 0.5750645 -0.29430455
-0.07657276 0.020969449 0.2880273 0.058630474 -0.18086126 -0.39990833 -0.001786767 0.029594397
-0.44159305 1.445329 0.7013169 0.4078878 0.17585905 1.2442285 0.34023628 0.15166438
0.9443718 -1.1124336 -0.4198959 -0.172857 -0.7236843 -1.2351968 -0.44458663 -0.12200155
0.26603776 0.5330842 -0.2542819 0.23995377 -0.43380323 0.9783005 0.3530739 0.14955227
0.5519505 0.21230829 0.033423055 -0.18839301 -0.1905791 -0.63574755 0.13635288 -0.22913495
0.1369522 0.9085503 -0.122478515 0.21415259 -0.21934783 -0.68543786 0.16811888 -0.18189016
-0.28034803 -0.84142214 -0.39261577 -0.37283236 0.29101178 0.8243573 0.2339831 0.16623561
-0.39347085 0.43896154 -0.2170533 -0.10611463 -0.619765 -1.4694064 -0.25421676 -0.10688554
0.9993793 -0.17459501 -0.44189686 0.14017572 -0.094069615 0.8547705 0.12907042 0.36898977
0.31580788 1.2391609 0.4657191 0.39214462 -0.18649939 0.037325565 -0.105030686 0.23962317
0.055135574 -0.6119251 -0.12580535 -0.2697569 0.11937809 1.0971687 -0.05179067 0.25333193
00000000: 1bdb f53e bda4 ed3d be4d 3fbd 7658 273e
00000010: 79a2 763e 41b0 49bb f11b 893e c2f0 b53e
00000020: effa ffbe 1ba9 9e3f f55c 3a3e 8dc3 2a3e
00000030: 3b93 743e e718 09bf 9987 acbc bc56 e13d
00000040: 80f3 a83d 9e17 2c3d e40e 5d3d 6596 a03c
00000050: 2b78 f13e a8b0 9abe 487a 57be 6a96 a13e
00000060: 0b76 2d3e d49b 3e3f e85b 49be 5cc7 f0bd
00000070: 8801 f5bd 50b7 8dbe e0f0 6d3e 68cb ee3c
00000080: 76e3 eb3e 5a77 5fbf 8cb6 a0be 959b 86be
00000090: 785a 313f 3026 7c3f 6ea8 513e 9518 bcbd
000000a0: 11c4 46bf 4e44 5c3f 789d 453d 77bb fa3e
000000b0: b469 aebe 5410 c33f c0fc 193f b8ab cc3e
000000c0: 64c6 d03d 79cb c73f f2d9 36be e6be a73e
000000d0: 0300 81be 2eb5 b1be b1c7 72be c7cc 00be
000000e0: 7f3e 4bbe bafb 0dbf d25e 6a3e bf72 3bbe
000000f0: b75a bdbe a4ae fbbe 23eb 33bf 4579 86be
00000100: becc dbbe dd40 b23f 0b37 603e 3a2a 213e
00000110: 6b5b bcbe 196f 70bf 1edf 96be 5e3c 0fbe
00000120: 161f 21be 001c f33f 77db f23e 150f b03e
00000130: ba41 8fbe 853e 0b3f 919e 8f3e 2dee b33d
00000140: fd40 26bd 80c3 cebc 9aa9 4bbe 7941 1d3e
00000150: 60a7 263e 309b 893d 04cf 6b3e 9851 233e
00000160: e576 f33d 6e4b ce3f 8864 013f 84a1 1d3e
00000170: d9f3 343d 2de9 023f e3da 0c3f f3e5 bbbd
00000180: 5a20 45be 9196 ac3e 72cb d33d 1391 8dba
00000190: 941e 523e 560c fb3e 0c3b 7ebe 9b20 a83e
000001a0: 75d6 a93d 7a11 833f 8657 033f 225c 773d
000001b0: 4ed2 873e c017 78bf 9f3a 09bc 7e42 f8be
000001c0: 8fb1 f13e 0e87 2d3f 197f 9cbe 1adb 40be
000001d0: 6a2a 133e 3703 9b3c 00b6 2bbe 17ea adbe
000001e0: e433 88be 6cb0 873f e6f9 043e 978d 2b3e
000001f0: caa4 023e 0932 713f c232 36be d8cf 9b3e
00000200: ffda fd3d 402a 0e3f 15da 9f3e 4d30 e63e
00000210: ad08 09bf 9a74 833f e4e1 313f eebd ef3e
00000220: 6f06 97bd 152b af3f 7fdb 7d3e 8969 1b3e
00000230: 0de8 2d3e 1402 293e 5ce7 133e d247 a9bd
00000240: 3f56 4bbe 39de de3f 79cf 073f c74d ff3d
00000250: 60ef 62bf 80f7 5d3e 9ff1 773d d967 10be
00000260: c676 0c3f 1ea8 afbe c1c6 36be bdbc a9be
00000270: 4d08 82be f174 943e 4d91 ab3e 5132 b93e
00000280: f200 04bf 4ea9 873e c4d2 fb3e 9974 92bd
00000290: f60c d2be 0cb7 f53e 6d37 133f 16af 96be
000002a0: 2ed2 9cbd 1fc8 ab3c 5078 933e 8226 703d
000002b0: b233 39be c9c0 ccbe f431 eaba f36f f23c
000002c0: 7c18 e2be 8a00 b93f 8189 333f abd6 d03e
000002d0: 6514 343e e142 9f3f 7333 ae3e e84d 1b3e
000002e0: 5ac2 713f 3964 8ebf 98fc d6be 6d01 31be
000002f0: 6043 39bf ee1a 9ebf dca0 e3be f3db f9bd
00000300: 1a36 883e 3578 083f 3d31 82be 71b6 753e
00000310: 751b debe e771 7a3f 1ac6 b43e 3b24 193e
00000320: a14c 0d3f 5867 593e 9de6 083d 19ea 40be
00000330: 2b27 43be 5ac0 22bf 17a0 0b3e 5aa2 6abe
00000340: 333d 0c3e c196 683f 04d6 fabd d14a 5b3e
00000350: b89c 60be db78 2fbf 5b27 2c3e 6a41 3abe
00000360: c789 8fbe 7167 57bf ef04 c9be e2e3 bebe
00000370: 7fff 943e 1409 533f 4499 6f3e ab39 2a3e
00000380: 0375 c9be 91bf e03e 3843 5ebe a152 d9bd
00000390: eba8 1ebf 8215 bcbf b328 82be cee6 dabd
000003a0: 52d7 7f3f 09c9 32be 4e40 e2be 398a 0f3e
000003b0: 92a7 c0bd 3dd2 5a3f 092b 043e 3aec bc3e
000003c0: 92b1 a13e d39c 9e3f bc72 ee3e 2ec7 c83e
000003d0: b2f9 3ebe b1e2 183d 541a d7bd c75f 753e
000003e0: d7d5 613d 20a7 1cbf 1ed3 00be 941d 8abe
000003f0: 807c f43d 0670 8c3f 7422 54bd b9b4 813e

l1.bias f4 [400]
-0.4297208 -0.39695588 -0.25746205 -0.1006358 -0.038046926 -0.6416317 0.01687687 0.007910995
0.14507495 0.31577072 -0.48512435 0.055306524 0.18786709 -0.2459909 -0.17190714 -0.17842862
0.13318987 -0.49947128 0.10514286 0.05041142 -0.5636793 -0.3789593 0.107266255 -0.0849305
0.089825384 -0.38299483 0.13122919 0.13293117 0.15841123 -0.70924526 0.24810137 -0.30232355
-0.49851075 -0.004971091 0.2579524 0.2769257 0.22805731 -0.35769522 0.1385512 -0.53681403
0.032170758 -0.29319543 0.04862628 0.01689428 0.031145206 0.38519436 0.06763507 -0.14556491
0.048825644 0.19619986 -0.5654003 -0.851185 -0.47157228 -0.7815423 0.039669923 0.071412705
0.01694095 -0.064155504 -0.17795452 -0.52615845 -0.054713443 -0.61989844 -0.69841623 -0.49577412
0.019937601 0.1670689 0.09996224 -0.6711371 0.26181424 0.18821463 0.041855775 0.15056974
-0.68946594 -0.25233075 -0.39418805 0.0799742 -0.6861563 0.20884953 -0.59544694 -0.09170703
-0.6792045 -0.7057842 -0.26824412 -0.44720888 -0.3715944 -0.5768909 -0.13125247 -0.41314963
-0.41571 -0.47790304 -0.12187756 -0.51436156 -0.30390656 -0.5454123 -0.53125787 -0.06207776
-0.2874225 -0.5079069 -0.4298292 -0.018257385 -0.08191308 0.13868138 0.23913881 -0.17969698
0.10072335 -0.30531523 0.13673215 0.15567593 0.18724132 0.027697627 -0.01752596 0.03973592
-0.44812277 -0.47583503 0.088871546 0.097125374 -0.63181275 -0.46284658 0.045951083 0.08227266
-0.8029212 -0.04962199 0.1970026 0.005362282 -0.2644533 -0.18685462 -0.1729354 0.21122664
-0.15523386 0.10360236 -0.26869923 -0.34730724 -0.6076644 0.10835139 0.34480396 0.25680366
-0.5003877 -0.49448022 -0.15955304 -0.012673878 -0.19326939 0.12452357 0.31526396 0.17563279
-0.34684414 0.05832481 -0.32261884 0.19553174 -0.21974218 -0.759386 -0.38803953 0.16409026
0.12897737 -0.53290284 -0.5035065 0.14548908 0.13297883 -0.44127193 -0.3193374 -0.41658148
-0.45592374 0.08949855 0.08926103 -0.06790136 0.0120214205 -0.18188794 -0.38211352 0.104489766
-0.42695695 0.26702103 0.2929857 0.13349304 -0.0044475347 -0.01717339 -0.68405604 0.052690856
0.014267406 0.14844199 -0.037355285 0.09477043 0.22822139 -0.6684296 0.0038963452 0.0568951
-0.3867447 -0.38105965 0.025747478 0.046791196 0.17047302 0.19708762 -0.45196098 0.23650241
-0.09057822 -0.08213215 -0.18475018 -0.0049001044 0.021819841 0.15244225 -0.67017215 0.07639023
0.28097582 -0.30034736 -0.50933254 -0.64448565 -0.43270636 0.005480092 -0.5960906 0.36106336
-0.3434218 0.06144648 -0.02055706 -0.24641018 -0.55708915 -0.35504702 -0.552966 -0.008427633
0.19387387 0.1592762 -0.35330433 0.19395228 0.08791404 0.11178665 -0.08688129 0.013622788
0.047199562 -0.6225187 0.36268255 0.26246226 0.017745603 0.19459794 0.034892228 0.04724039
0.13814229 -0.542029 -0.19488053 0.04501472 0.13132606 -0.3680637 0.059991915 0.04471516
-0.0013780937 0.09011328 0.30284226 -0.5290908 -0.30595782 -0.7767054 -0.04073161 -0.38644233
0.14287211 -0.38628572 -0.3052091 -0.35117608 -0.05569649 -0.17677903 -0.25926003 -0.09159995
00000000: 5d04 dcbe cd3d cbbe 11d2 83be 241a cebd
00000010: 18d7 1bbd fa41 24bf 5d41 8a3c 1e9d 013c
00000020: 878e 143e b3ac a13e 3862 f8be 1889 623d
00000030: 3b60 403e 0ae5 7bbe 6d08 30be feb5 36be
00000040: ed62 083e b3ba ffbe 2455 d73d 357c 4e3d
00000050: 494d 10bf f406 c2be 69ae db3d 0bf0 adbd
00000060: 5ff6 b73d e617 c4be f260 063e 1c1f 083e
00000070: 8e36 223e 1991 35bf 490e 7e3e 27ca 9abe
00000080: cd3c ffbe 89e4 a2bb 5612 843e 35c9 8d3e
00000090: db87 693e d423 b7be 5ee0 0d3e a56c 09bf
000000a0: 7cc5 033d b61d 96be 5a2c 473d e065 8a3c
000000b0: 3b24 ff3c 3238 c53e 4184 8a3d f80e 15be
000000c0: 66fd 473d 9ee8 483e 13be 10bf 43e7 59bf
000000d0: ec71 f1be 2813 48bf ee7c 223d d340 923d
000000e0: bfc7 8a3c f663 83bd b639 36be 52b2 06bf
000000f0: 341b 60bd aab1 1ebf 68cb 32bf 1bd6 fdbe
00000100: 2e54 a33c 1c14 2b3e 01b9 cc3d a4cf 2bbf
00000110: 840c 863e 56bb 403e f670 2b3d f42e 1a3e
00000120: d780 30bf 7f31 81be 04d3 c9be 83c9 a33d
00000130: f0a7 2fbf a7dc 553e 366f 18bf e5d0 bbbd
00000140: 59e0 2dbf 46ae 34bf 4b57 89be 90f8 e4be
00000150: 9f41 bebe 1faf 13bf 0c67 06be 5988 d3be
00000160: f1d7 d4be b5af f4be f19a f9bd 33ad 03bf
00000170: a499 9bbe 24a0 0bbf 8400 08bf 4045 7ebd
00000180: 0b29 93be 3006 02bf 9312 dcbe 8390 95bc
00000190: 0bc2 a7bd 7e02 0e3e cee0 743e 7c02 38be
000001a0: 0b48 ce3d 4752 9cbe 8303 0c3e 8369 1f3e
000001b0: 30bc 3f3e 22e6 e23c 9a92 8fbc 22c2 223d
000001c0: 5970 e5be a6a0 f3be 4902 b63d abe9 c63d
000001d0: 7bbe 21bf 3afa ecbe 3437 3c3d 927e a83d
000001e0: 3e8c 4dbf 6e40 4bbd 0dbb 493e 15b6 af3b
000001f0: 6c66 87be d156 3fbe fa15 31be cc4b 583e
00000200: a0f5 1ebe 792d d43d f292 89be 41d2 b1be
00000210: e58f 1bbf 55e7 dd3d 258a b03e c57b 833e
00000220: 6919 00bf 832c fdbe df61 23be 19a6 4fbc
00000230: 69e8 45be 3706 ff3d 476a a13e 15d9 333e
00000240: 8e95 b1be ffe5 6e3d 4c2e a5be 7939 483e
00000250: 1804 61be 1f67 42bf 1ead c6be 4707 283e
00000260: a512 043e 526c 08bf cde5 00bf 17fb 143e
00000270: 9a2b 083e 65ee e1be 3180 a3be 2b4a d5be
00000280: d66e e9be 044b b73d 7dce b63d de0f 8bbd
00000290: 7ef5 443c d540 3abe 62a4 c3be bbfe d53d
000002a0: 1a9a dabe fbb6 883e 3902 963e 66b2 083e
000002b0: a0bc 91bb 36af 8cbc 4c1e 2fbf 5ed2 573d
000002c0: d7c1 693c 2d01 183e db01 19bd 0017 c23d
000002d0: deb2 693e 341e 2bbf d359 7f3b d60a 693d
000002e0: 6703 c6be 401a c3be 60ec d23c 20a8 3f3d
000002f0: 7b90 2e3e 56d1 493e 6e67 e7be b02d 723e
00000300: 1381 b9bd e734 a8bd 272f 3dbe 0e91 a0bb
00000310: 86bf b23c d219 1c3e 6790 2bbf 7b72 9c3d
00000320: 10dc 8f3e 21c7 99be 9e63 02bf 03fd 24bf
00000330: b08b ddbe 5892 b33b 6599 18bf 4cdd b83e
00000340: fbd4 afbe 4eaf 7b3d 4867 a8bc f352 7cbe
00000350: 659d 0ebf b9c8 b5be 2e8f 0dbf 0e14 0abc
00000360: df86 463e 4d19 233e 4ee4 b4be 6d9b 463e
00000370: 470c b43d 66f0 e43d d1ee b1bd 1d32 5f3c
00000380: 5454 413d 635d 1fbf 87b1 b93e 7461 863e
00000390: 3a5f 913c af44 473e 27eb 0e3d 247f 413d
000003a0: 2c75 0d3e 6ac2 0abf c38e 47be 5b61 383d
000003b0: 577a 063e d872 bcbe 15ba 753d 3e27 373d
000003c0: 27a1 b4ba 508d b83d 240e 9b3e 7f72 07bf
000003d0: 81a6 9cbe 2ad6 46bf 30d6 26bd c5db c5be
000003e0: 114d 123e 3ec7 c5be 5e44 9cbe 5acd b3be
000003f0: 0122 64bd 9005 35be bbbd 84be c198 bbbd

l2.weight f4 [300, 400]
0.021805622 0.014965558 0.0037207305 0.01947071 0.015971195 -0.037149474 -0.034546044 0.004764566
0.013827302 -0.016013166 -0.045139287 0.028835626 -0.039483562 -0.0009060947 -0.029685164 0.017255906
0.024186598 -0.0015995391 -0.016333893 -0.012685387 0.0019333428 0.018016744 0.02796775 -0.006566178
0.027964264 0.0029834157 -0.042170644 -0.008936205 -0.05341781 -0.0225289 0.0064057144 0.030284554
0.0032961427 0.010850143 0.021596357 -0.020875845 0.0006069908 -0.04049369 -0.041762833 -0.030392876
0.026794527 0.033566277 0.00083746354 0.040544648 0.011395384 -0.0028940793 -0.07599012 -0.028274823
0.0067385794 0.004174115 0.024115298 -0.0013916194 0.000882359 0.012239419 -0.040557437 -0.049534425
-0.013241603 -0.04325468 0.0071765054 0.006876084 0.018103035 0.052832887 0.0064578764 0.00886656
0.0042118332 -0.03155184 0.009529255 0.003443461 -0.036875386 -0.04925857 0.055300638 -0.035345595
-0.018512618 0.031998437 -0.01923694 -0.065665126 0.0047052642 -0.043976855 -0.031176776 -0.0020568732
0.04497556 -0.029158823 -0.020057686 0.0021327324 -0.009294703 -0.019498473 -0.021855742 -0.016756631
-0.02287575 0.021858605 -0.024878852 0.010575462 0.049729303 0.0107149705 -0.046884958 -0.02631907
0.005839605 -0.009916433 -0.0030244545 -0.03269496 -0.0020220366 -0.013635589 -0.0040090675 0.033255823
-0.015693232 -0.021944297 -0.052686617 -0.038039718 0.027937565 0.010521285 -0.021147659 -0.010023784
-0.01699719 -0.04041226 -0.015565226 0.033491872 0.0049814656 -0.04866628 -0.007606294 0.030588673
-0.028752279 0.0012221885 -0.06638876 -0.046564166 -0.01812368 0.02206534 -0.010698083 -0.029089121
-0.043697286 0.042169333 0.048655335 0.009053243 0.04215749 0.036400523 0.00045352857 -0.034471177
-0.030918619 0.016997274 -0.0071407366 0.004156683 -0.012116425 0.03737375 0.0047965315 -0.0012587665
-0.010168139 0.020580737 -0.017716631 0.019327553 0.003852971 -0.031111224 0.0042601936 -0.028543161
-0.0029475412 0.006978894 0.037757277 -0.008625169 0.0066099297 0.00773599 -0.029219922 0.073494285
-0.003405359 0.0021680898 -0.047928926 0.048175793 -0.036672857 0.02398908 -0.018058943 0.009167183
-0.04923755 -0.017375464 -0.021972097 -0.02139831 -0.029709911 -0.024474801 -0.024291407 0.014200109
0.018786104 0.0045759585 -0.030067021 0.0462826 0.035652854 0.03801992 0.019563463 -0.077326596
0.022381939 -0.011669029 -0.03589014 -0.04060662 -0.034501098 -0.04397795 0.026622761 0.015485553
-0.00845768 0.01883218 0.0013542551 0.02231251 -0.020647807 -0.067210376 -0.04527762 0.005671737
-0.058484074 -0.03508404 -0.048615664 -0.04279859 -0.046780415 -0.047642052 -0.0037540905 -0.05331657
-0.042205244 -0.052430432 0.018996278 0.02765211 -0.022535078 0.015714005 -0.03936968 -0.05474583
0.016163185 -0.036892038 0.041457843 0.0005770468 -0.00965061 -0.063784175 0.028167203 -0.013551527
-0.018214315 -0.03531315 -0.0144637395 -0.06195599 -0.044916335 -0.048082333 -0.08487643 0.010330243
-0.008367904 0.018351164 -0.04244541 -0.0015738595 -0.004258781 -0.0663615 0.013816586 -0.05801331
-0.01587564 -0.011216817 -0.033902865 -0.04764761 -0.047461078 -0.02945794 -0.0064293672 -0.037939563
-0.031345226 0.004209511 0.04378703 0.0498111 0.019136533 0.018800307 -0.026614683 0.015511129
00000000: b4a1 b23c 1a32 753c 80d7 733b 0a81 9f3c
00000010: 06d6 823c 0c2a 18bd 2780 0dbd 1420 9c3b
00000020: e88b 623c 0b2e 83bc f9e3 38bd b138 ec3c
00000030: 84b9 21bd fc86 6dba 4d2e f3bc 425c 8d3c
00000040: f922 c63c a0a7 d1ba a8ce 85bc 5fd6 4fbc
00000050: 3868 fd3a da97 933c 9f1c e53c 1829 d7bb
00000060: 5015 e53c 6985 433b 20bb 2cbd 2969 12bc
00000070: a2cc 5abd 878e b8bc 07e7 d13b 5017 f83c
00000080: 1904 583b ccc4 313c d8ea b03c d203 abbc
00000090: 771e 1f3a b6dc 25bd 810f 2bbd 7bfa f8bc
000000a0: 3280 db3c cb7c 093d 3a89 5b3a 2512 263d
000000b0: b4b3 3a3c 98aa 3dbb b5a0 9bbd 9aa0 e7bc
000000c0: 4dcf dc3b 04c7 883b 728d c53c 0067 b6ba
000000d0: 1c4e 673a d887 483c 8e1f 26bd 9ce4 4abd
000000e0: 4ff3 58bc d22b 31bd e428 eb3b c650 e13b
000000f0: d14c 943c 4c67 583d 989c d33b 0c45 113c
00000100: 6b03 8a3b 813c 01bd 9820 1c3c b0ab 613b
00000110: a50a 17bd 5bc3 49bd ec82 623d 8bc6 10bd
00000120: c6a7 97bc cb10 033d ca96 9dbc 707b 86bd
00000130: 9e2e 9a3b 1321 34bd 7066 ffbc 9bcc 06bb
00000140: 4b38 383d 7cde eebc 0450 a4bc 50c5 0b3b
00000150: cf48 18bc 43bb 9fbc d00a b3bc 3445 89bc
00000160: ed65 bbbc d110 b33c bcce cbbc b444 2d3c
00000170: f4b0 4b3d d88d 2f3c 710a 40bd 179b d7bc
00000180: 285a bf3b 8978 22bc ed35 46bb 26eb 05bd
00000190: 2584 04bb ce67 5fbc 7f5e 83bb 4237 083d
000001a0: 188f 80bc 87c4 b3bc eccd 57bd 89cf 1bbd
000001b0: 52dd e43c 7861 2c3c db3d adbc cc3a 24bc
000001c0: b13d 8bbc 5387 25bd 4a05 7fbc c62e 093d
000001d0: 903b a33b 4b56 47bd 383e f9bb 1995 fa3c
000001e0: e689 ebbc d731 a03a d5f6 87bd 11ba 3ebd
000001f0: 1d78 94bc 5fc2 b43c 0347 2fbc 4f4c eebc
00000200: edfb 32bd c0b9 2c3d d14a 473d 0e54 143c
00000210: 55ad 2c3d b718 153d 93c7 ed39 a631 0dbd
00000220: 0b49 fdbc de3d 8b3c d7fc e9bb c934 883b
00000230: f883 46bc 3815 193d 392c 9d3b 32fd a4ba
00000240: 4498 26bc ef98 a83c 7822 91bc d154 9e3c
00000250: 2082 7c3b f7dc febc 1899 8b3b 59d3 e9bc
00000260: 892b 41bb 35af e43b 60a7 1a3d 9550 0dbc
00000270: 1c98 d83b 307e fd3b 9e5e efbc 2c84 963d
00000280: 722c 5fbb 8316 0e3b 1f51 44bd fb53 453d
00000290: 4736 16bd bf84 c43c 59f0 93bc f431 163c
000002a0: 50ad 49bd fd56 8ebc d4fe b3bc 824b afbc
000002b0: 3362 f3bc 617f c8bc c6fe c6bc 93a7 683c
000002c0: 51e5 993c ecf1 953b 1d4f f6bc d392 3d3d
000002d0: ba08 123d c7ba 1b3d 8e43 a03c 685d 9ebd
000002e0: 545a b73c 742f 3fbc 8a01 13bd 2153 26bd
000002f0: 0651 0dbd 3922 34bd fa17 da3c 1eb7 7d3c
00000300: 1592 0abc f245 9a3c 4381 b13a bac8 b63c
00000310: 9725 a9bc 98a5 89bd 0775 39bd fad9 b93b
00000320: ff8c 6fbd 48b4 0fbd 3821 47bd 934d 2fbd
00000330: d29c 3fbd 5024 43bd 3007 76bb 7a62 5abd
00000340: 68df 2cbd 4bc1 56bd 159e 9b3c ae86 e23c
00000350: 7c9b b8bc a8ba 803c 1a42 21bd 2a3d 60bd
00000360: a868 843c 1b1c 17bd b3cf 293d f544 173a
00000370: 981d 1ebc 47a1 82bd e8be e63c 3907 5ebc
00000380: 3036 95bc 86a4 10bd 52f9 6cbc 90c5 7dbd
00000390: 31fa 37bd fbf1 44bd b2d3 adbd 2e40 293c
000003a0: 8919 09bc 2e55 963c 3ddb 2dbd f649 ceba
000003b0: 3f8d 8bbb 8ae8 87bd f65e 623c 5d9f 6dbd
000003c0: a10d 82bc bec6 37bc bbdd 0abd 242a 43bd
000003d0: 8c66 42bd c751 f1bc 71ad d2bb 8466 1bbd
000003e0: da63 00bd f0ef 893b 075a 333d b906 4c3d
000003f0: 38c4 9c3c 1a03 9a3c 0907 dabc 6422 7e3c

l2.bias f4 [300]
-0.0075233765 -0.2644866 0.004009895 -0.010324609 0.017771127 -0.022191575 0.0059199072 -0.012149721
-0.05401504 0.03946991 -0.11881387 -0.037910733 -0.039875634 -0.012304663 -0.0020120125 -0.011438049
-0.07650714 -0.040847078 -0.059836604 0.008116694 -0.086302705 -0.006044431 -0.10032238 -0.011405628
-0.05589036 0.014522737 -0.05654826 -0.0886497 -0.11224967 -0.045179572 -0.048006877 -0.027790554
-0.07688756 0.016017737 -0.06772721 -0.029111035 -0.0013376266 0.031012954 0.022796737 0.040623326
-0.025651464 -0.06784302 -9.370946e-05 -0.016336204 -0.059842683 0.013914341 0.02878397 -0.07240432
-0.0012557704 -0.068719245 0.042047143 -0.0156026995 -0.07698003 -0.02609965 -0.02157954 0.018754724
0.008024509 0.028951917 -0.063982144 -0.060207672 0.02656098 -0.04602277 -0.08526465 -0.0804194
-0.03402396 -0.049658213 -0.047479823 -0.09198766 0.01676517 -0.042555258 -0.034295894 -0.094178714
-0.050193403 -0.100958124 -0.05796738 -0.0963508 0.015744884 0.023209998 -0.0047726915 -0.02348654
-0.031885546 0.028254466 -0.08971964 -0.11761404 -0.049499378 0.065939546 0.01497854 -0.006977707
-0.05773312 -0.026184356 0.014410941 -0.06894044 0.03836454 -0.027335892 -0.07052821 -0.05050438
-0.01417891 -0.06461727 -0.099218585 -0.030009508 0.033632465 -0.00204602 -0.11736252 -0.02985171
-0.08051529 -0.034980644 -0.053255897 -0.020515464 -0.052843682 -0.0147308875 -0.04205224 -0.01765641
-0.048249852 0.033222523 -0.015774503 0.036885932 -0.010205289 0.023584303 -0.03252741 -0.076113105
-0.05730787 -0.052836746 -0.0058245976 -0.059347544 -0.028759617 0.06932194 -0.03781291 0.011097647
-0.039806593 -0.06164921 -0.035817012 -0.097877756 -0.06632524 -0.10516686 0.007219981 0.015121217
-0.03445385 -0.079681136 -0.033282034 0.023210311 -0.057152316 0.020976197 -0.02643652 -0.033908166
-0.050603352 0.09078572 -0.07544667 -0.008912111 -0.03532641 -0.055967152 -0.012281601 -0.10868618
-0.109591074 0.021115445 -0.04652483 -9.999795e-06 -0.0006463761 0.0009450165 -0.013800336 -0.02903496
-0.019200755 -0.05671093 0.010732326 -0.013117594 -0.033847645 -0.0066408506 -0.019072466 -0.07400364
-0.03972021 -0.0024199893 0.048486482 -0.06827311 -0.06588197 -0.011354301 -0.06724198 -0.05205588
0.0014191166 -0.061482124 -0.048113983 0.026731323 -0.03497918 -0.014184345 0.02897557 -0.013880753
-0.025767712 -0.04195292 -0.11461149 -0.0446515 0.018680718 -0.029544022 -0.012911323 -0.034536973
0.012800335 0.0033477705 -0.10517642 0.009641784 -0.0071377307 -0.10435298 -0.07411054 -0.076520965
-0.018998878 0.022725433 0.011801615 0.0136599885 -0.06291097 -0.052788973 0.02781564 -0.038497377
-0.041136943 0.03817906 -0.04276952 0.015021202 -0.04099909 0.05650564 0.022774711 -0.004532772
-0.0914389 -0.0054551107 -0.07059056 0.019773906 -0.09267119 -0.042429812 0.010307498 -0.022539519
-0.06892407 0.0026522116 -0.030558286 -0.0010974206 -0.027615635 -0.008181418 -0.073461354 -0.0028456887
-0.021287492 0.0367436 0.030229328 -0.07624456 0.02367227 0.041687403 -0.06760308 -0.008140675
-0.008049249 -0.0100913085 -0.07081693 -0.06996539 -0.049043905 -0.06450897 0.014615982 -0.015982388
-0.042925615 -0.06960061 -0.07837389 -0.0065853572 -0.038026214 -0.06737456 -0.021382075 -0.07528647
00000000: a886 f6bb ca6a 87be 7065 833b 8c28 29bc
00000010: c194 913c 1bcb b5bc c8fb c13b a00f 47bc
00000020: e03e 5dbd 33ab 213d b054 f3bd 4948 1bbd
00000030: a254 23bd 7f99 49bc f8db 03bb a866 3bbc
00000040: c7af 9cbd 444f 27bd 3a17 75bd e2fb 043c
00000050: 79bf b0bd 5d10 c6bb d275 cdbd acde 3abc
00000060: 4aed 64bd c6f0 6d3c 269f 67bd f98d b5bd
00000070: 28e3 e5bd 370e 39bd dca2 44bd 04a9 e3bc
00000080: 3a77 9dbd a137 833c 90b4 8abd 447a eebc
00000090: 4d53 afba e10e fe3c 39c0 ba3c a564 263d
000000a0: 0523 d2bc 48f1 8abd e285 c4b8 81d3 85bc
000000b0: 9a1d 75bd faf8 633c 5ccc eb3c b748 94bd
000000c0: aa98 a4ba adbc 8cbd a039 2c3d 77a2 7fbc
000000d0: b5a7 9dbd efce d5bc 93c7 b0bc 82a3 993c
000000e0: 3b79 033c 922c ed3c 1209 83bd 529c 76bd
000000f0: 6a96 d93c 5f82 3cbd 3c9f aebd edb2 a4bd
00000100: b55c 0bbd 6966 4bbd 347a 42bd 0764 bcbd
00000110: 1c57 893c 6c4e 2ebd da79 0cbd c5e0 c0bd
00000120: 9997 4dbd 22c3 cebd 346f 6dbd 9153 c5bd
00000130: 6afb 803c e522 be3c 3d64 9cbb d866 c0bc
00000140: 6b9a 02bd e975 e73c eebe b7bd a1df f0bd
00000150: dcbf 4abd 500b 873d 8d68 753c 40a5 e4bb
00000160: 9079 6cbd 9380 d6bc de1b 6c3c a530 8dbd
00000170: 2324 1d3d 85ef dfbc 1871 90bd aedd 4ebd
00000180: a94e 68bc 0f56 84bd 1d33 cbbd 80d6 f5bc
00000190: 32c2 093d 8516 06bb c35b f0bd 938b f4bc
000001a0: 33e5 a4bd dd47 0fbd db22 5abd 0c10 a8bc
000001b0: 9e72 58bd d259 71bc f83e 2cbd 2da4 90bc
000001c0: a3a1 45bd 5714 083d 8839 81bc b415 173d
000001d0: 1634 27bc de33 c13c 763b 05bd 30e1 9bbd
000001e0: a8bb 6abd 586b 58bd 44dc bebb 6916 73bd
000001f0: 4a99 ebbc a9f8 8d3d b6e1 1abd e8d2 353c
00000200: 3d0c 23bd e283 7cbd dcb4 12bd 2274 c8bd
00000210: 87d5 87bd b961 d7bd 9795 ec3b fbbe 773c
00000220: 7b1f 0dbd dd2f a3bd be52 08bd 8d23 be3c
00000230: 8c18 6abd 46d6 ab3c 6791 d8bc 4ae3 0abd
00000240: 7645 4fbd dded b93d c983 9abd 1a04 12bc
00000250: 6db2 10bd d03d 65bd c538 49bc dc96 debd
00000260: 4971 e0bd 4cfa ac3c d290 3ebd cbc4 27b7
00000270: 9171 29ba fcba 773a ce1a 62bc b9da edbc
00000280: e74a 9dbc b849 68bd a3d6 2f3c 2deb 56bc
00000290: d4a3 0abd 7e9b d9bb dc3d 9cbc 388f 97bd
000002a0: a9b1 22bd af98 1ebb c399 463d c6d2 8bbd
000002b0: 20ed 86bd 6407 3abc 2ab6 89bd 8c38 55bd
000002c0: a701 ba3a aed4 7bbd 2b13 45bd a6fb da3c
000002d0: 5446 0fbd 7465 68bc 2d5e ed3c 196c 63bc
000002e0: cf16 d3bc d3d6 2bbd 6eb9 eabd 7ee4 36bd
000002f0: 4e08 993c 4e06 f2bc 048a 53bc a476 0dbd
00000300: 7fb8 513c 4566 5b3b bc66 d7bd 93f8 1d3c
00000310: a0e3 e9bb 04b7 d5bd 44c7 97bd 06b7 9cbd
00000320: 89a3 9bbc b02a ba3c 905b 413c 25ce 5f3c
00000330: 77d7 80bd 4039 58bd a0dd e33c 6daf 1dbd
00000340: 367f 28bd a561 1c3d 182f 2fbd 7d1b 763c
00000350: a9ee 27bd 7572 673d 0892 ba3c a687 94bb
00000360: 5144 bbbd c9c0 b2bb c991 90bd e3fc a13c
00000370: 65ca bdbd e2ca 2dbd c8e0 283c cca4 b8bc
00000380: 1028 8dbd bad0 2d3b 5f55 fabc 53d7 8fba
00000390: 2f3a e2bc 5b0b 06bc e872 96bd bc7e 3abb
000003a0: 1b63 aebc 7580 163d 7fa3 f73c 1c26 9cbd
000003b0: 59ec c13c 69c0 2a3d 7c73 8abd 7760 05bc
000003c0: ffe0 03bc 0456 25bc 7708 91bd 044a 8fbd
000003d0: 43e2 48bd 471d 84bd df77 6f3c 7fed 82bc
000003e0: c5d2 2fbd c48a 8ebd 7d82 a0bd fbc9 d7bb
000003f0: 60c1 1bbd acfb 89bd 7629 afbc cb2f 9abd

l3.weight f4 [1, 300]
-0.01161176 0.69843745 0.026707819 0.038535178 0.010252153 -0.0021167013 -0.004877294 -0.0067561045
0.009019099 0.024626143 -0.11631393 0.035393074 -0.05258926 -0.0011162178 0.006386908 -0.02843008
-0.29837394 -0.07354621 0.014150083 -0.0048390436 -0.07341832 0.025219442 -0.0023143394 0.0008868794
-0.038676076 0.02540413 -0.04817625 -0.0620698 -0.063363336 -0.08102456 0.0031249765 0.048437852
0.19986948 0.005475975 -0.0013794922 0.02676548 0.01578359 0.04660162 0.021599595 0.038277883
0.0021220471 -0.07167681 0.012104386 -0.07497162 0.02351355 0.01407487 0.041699678 -0.07399717
0.03584615 0.027411815 -0.16877711 0.0037646624 -0.06787827 -6.0925784e-05 -0.0008642513 0.02506731
-0.0045657116 0.016903918 -0.06308526 0.047218453 0.022194441 0.049869906 -0.13197814 -0.05911175
-0.071013264 0.028356833 0.031116873 -0.05285028 0.02445271 0.01255503 0.012585212 -0.061935943
0.028302146 -0.063386925 0.02279728 -0.059712887 -0.0059342734 0.039884813 0.032404326 0.030269751
-0.009734639 -0.003694244 -0.06639366 -0.08051904 0.005938345 0.23209333 0.025975514 0.007393923
-0.0014160062 0.025815597 0.20877388 0.024865935 0.004794711 -0.009095997 -0.07051799 -0.002803282
0.010749539 0.003365141 -0.056029707 -0.0086049205 0.012322204 0.006515945 -0.1353043 0.01028447
0.47195596 0.0027269078 -0.01813315 -0.0025273152 0.0068174265 -0.009112925 -0.037123505 -0.086725764
0.0050677345 0.043227095 0.031836417 0.0050921547 -0.019696757 0.03610692 -0.086699 -0.058662605
0.011098538 0.0068563307 -0.02388051 0.011956082 0.023786068 0.2483558 -0.039451156 0.0060101775
0.028521044 -0.07347721 -0.00524739 -0.06289804 -0.05175813 -0.13567662 -0.004547342 -0.013118001
-0.06521287 0.017308984 -0.08600074 -0.003765243 -0.056012556 0.03594112 0.040163152 -0.05625764
0.0050244853 0.24010943 -0.02853263 0.0016947953 -0.0031602923 0.038370937 -0.0023060092 -0.07741496
0.20245823 0.012831655 0.011939399 0.027475977 0.0077256053 0.021091606 0.022895547 -0.06924434
0.009512228 -0.031315483 0.002228884 -0.027013658 -0.0010869837 0.023809932 -0.06980406 0.005625434
0.02365839 0.00015044573 -0.27020282 0.021502603 -0.029568274 0.0038329044 0.017822752 -0.020123638
-0.007144029 -0.0856739 0.011565336 0.14307186 0.03374511 0.008143589 0.044702217 -0.07181967
-0.016912768 -0.07108457 -0.07292397 -0.0671747 0.017060049 0.031312253 -0.07710316 0.02618486
0.012369611 -0.30905032 -0.0707797 -0.0029566572 0.0068543213 -0.07766325 -0.06695299 -0.010122634
0.039854847 0.008615721 0.042846374 0.018788194 2.8433713e-05 0.0442522 -0.00533208 -0.012211532
-0.049989775 0.00318609 -0.0040115053 -0.009253479 0.017411923 0.14487341 -0.005794555 0.026594212
-0.050769895 0.011345614 0.015041602 0.018282708 -0.07370937 0.044762406 0.0010336334 0.013584093
0.017227657 -0.021399526 -0.02734282 -0.003729308 -0.07811654 0.022948425 -0.03257456 0.030276561
-0.02379716 0.026592081 0.0073399814 -0.022687158 -0.00094056566 0.01419674 0.09715797 -0.006191168
0.00959632 -0.033965316 0.01730318 0.014474504 -0.034564212 -0.022136202 0.0022783203 -0.07689303
-0.018343477 -0.061073996 -0.05616389 -0.003927472 0.00252776 -0.045144502 -0.0059111877 -0.0022652647
00000000: 403f 3ebc cccc 323f 5bca da3c 10d7 1d3d
00000010: a5f8 273c 5bb8 0abb b5d1 9fbb 5062 ddbb
00000020: d8c4 133c c4bc c93c ff35 eebd 54f8 103d
00000030: d667 57bd 0e4e 92ba 4449 d13b 33e6 e8bc
00000040: 78c4 98be 659f 96bd c0d5 673c d790 9ebb
00000050: 585c 96bd 0199 ce3c 2cac 17bb 787d 683a
00000060: ce6a 1ebd 521c d03c 7654 45bd e73c 7ebd
00000070: a3c4 81bd 34f0 a5bd 68cc 4c3b c566 463d
00000080: 96aa 4c3e cf6f b33b 14d0 b4ba 4843 db3c
00000090: 964c 813c 57e1 3e3d a2f1 b03c 45c9 1c3d
000000a0: 0b12 0b3b 4bcb 92bd 7a51 463c b98a 99bd
000000b0: 7d9f c03c 499a 663c 48cd 2a3d d48b 97bd
000000c0: 6ad3 123d be8e e03c e8d3 2cbe 8eb8 763b
000000d0: c303 8bbd 908a 7fb8 ec8e 62ba f659 cd3c
000000e0: f79b 95bb 167a 8a3c d832 81bd 2368 413d
000000f0: 1ed1 b53c 6344 4c3d 4725 07be 2a1f 72bd
00000100: 676f 91bd 974c e83c d0e8 fe3c 8979 58bd
00000110: 0d51 c83c 9db3 4d3c 3432 4e3c 8bb0 7dbd
00000120: e7d9 e73c 01d1 81bd 5dc1 ba3c 8095 74bd
00000130: 4b74 c2bb 425e 233d 66ba 043d 45f8 f73c
00000140: 097e 1fbc 211b 72bb 66f9 87bd 2be7 a4bd
00000150: 7396 c23b e0a9 6d3e 9aca d43c b948 f23b
00000160: 4999 b9ba 3b7b d33c d2c8 553e a5b3 cb3c
00000170: f31c 9d3b 6007 15bc bc6b 90bd 45b7 37bb
00000180: d61e 303c b389 5c3b 687f 65bd a7fb 0cbc
00000190: 12e3 493c b583 d53b 368d 0abe 3280 283c
000001a0: 36a4 f13e ecb5 323b f98b 94bc 50a1 25bb
000001b0: b864 df3b 614e 15bc d10e 18bd 479d b1bd
000001c0: 3d0f a63b e50e 313d e766 023d 17dc a63b
000001d0: 185b a1bc dae4 133d 3f8f b1bd 3348 70bd
000001e0: a4d6 353c 12ab e03b 0fa1 c3bc 71e3 433c
000001f0: 00db c23c fc50 7e3e 8997 21bd 06f1 c43b
00000200: f7a4 e93c 387b 96bd 4cf2 abbb b0d0 80bd
00000210: 5500 54bd d0ee 0abe df01 95bb e2ec 56bc
00000220: 538e 85bd 92cb 8d3c 2821 b0bd 4cc2 76bb
00000230: 6c6d 65bd ff36 133d 1e82 243d 696e 66bd
00000240: 70a4 a43b 3fdf 753e 43bd e9bc e523 de3a
00000250: e81c 4fbb d82a 1d3d 6a20 17bb bc8b 9ebd
00000260: 3651 4f3e dd3b 523c 789d 433c 4d15 e13c
00000270: 1327 fd3b 4ec8 ac3c 718f bb3c facf 8dbd
00000280: 2dd9 1b3c aa44 00bd 7812 123b bf4b ddbc
00000290: 1f79 8eba 0c0d c33c 6ef5 8ebd 9055 b83b
000002a0: 3dcf c13c f8c0 1d39 0658 8abe 3a26 b03c
000002b0: 2a39 f2bc 7731 7b3b 0501 923c 54da a4bc
000002c0: 7518 eabb cc75 afbd 897c 3d3c 6e81 123e
000002d0: 5038 0a3d b06c 053c ac19 373d 3116 93bd
000002e0: a58c 8abc c994 91bd 2a59 95bd e492 89bd
000002f0: 84c1 8b3c 4741 003d 43e8 9dbd a281 d63c
00000300: e9a9 4a3c d83b 9ebe f3f4 90bd 7ac4 41bb
00000310: 379a e03b e90d 9fbd a61e 89bd 67d9 25bc
00000320: d63e 233d f428 0d3c ae7f 2f3d b3e9 993c
00000330: ef84 ee37 cb41 353d bbb8 aebb e112 48bc
00000340: 14c2 4cbd b8cd 503b f272 83bb e79b 17bc
00000350: 73a3 8e3c b259 143e 40e0 bdbb 1bdc d93c
00000360: 18f4 4fbd f4e2 393c 0d71 763c 9ec5 953c
00000370: f0f4 96bd c958 373d fb7a 873a d18f 5e3c
00000380: 0421 8d3c 0f4e afbc 0dfe dfbc 6867 74bb
00000390: 91fb 9fbd 56fe bb3c e76c 05bd 8d06 f83c
000003a0: 43f2 c2bc a3d7 d93c 3a84 f03b 6bda b9bc
000003b0: 4b90 76ba 7299 683c c2fa c63d 48df cabb
000003c0: e239 1d3c 371f 0bbd 66bf 8d3c 7826 6d3c
000003d0: 3493 0dbd fb56 b5bc df4f 153b 187a 9dbd
000003e0: 0f45 96bc ba28 7abd 1b0c 66bd 06b2 80bb
000003f0: c7a8 253b 71e9 38bd a3b2 c1bb d674 14bb
