InvertedPendulum/InvertedPendulum-v4_actor_finalized_01.pth (torch, 493438 bytes, 5 tensors)

l1.weight f4 [400, 4]
00000000: 1bdb f53e bda4 ed3d be4d 3fbd 7658 273e
00000010: 58a2 793e db2e b83b e9ea 853e 3212 b93e
00000020: 974a d5be fc40 9d3f 58e1 053e fee3 6c3e
00000030: 72c8 0a3e 308a e3be fa1c 0cbd 663a 833d
00000040: 80f3 a83d 9e17 2c3d e40e 5d3d 6596 a03c
00000050: 3744 f13e b14e 92be f058 5dbe f843 a53e
00000060: 2884 2f3e 0a95 043f b300 4dbe 28b6 d8bd
00000070: 318a 1dbe f214 79be 7737 303e b758 9d3b
00000080: 4e73 cc3e fe4e 5cbf cd2c bdbe cd90 6abe
00000090: 2166 ff3e a37a 6a3f f823 df3d fc08 4dbd
000000a0: 3205 23bf 19ac 5d3f 932b da3d 05fe e43e
000000b0: 85e4 c9be 7cd4 9d3f 2306 043f b990 d83e
000000c0: e3dd 0fbd 83fc bc3f f53e 70be ee04 a13e
000000d0: 114a 00be 694f a93b ce53 50be f403 25be
000000e0: 53fa 69bc 92f2 dabe 9434 683e d90c 4dbe
000000f0: fccf c1be c460 e1be 8d08 2abf af26 68be
00000100: 8fa8 e6be 9c28 a13f eac1 4e3e c7f0 313e
00000110: fd6e aebe dd74 68bf 0b52 82be 71e0 87bd
00000120: e536 f3bd 0917 bd3f d881 f83e 1e41 bb3e
00000130: 2f34 b2be d3ac f33e d5b0 803e 44ea 7f3d
00000140: ab51 82bd 7525 06bd 1830 57be f2fb 223e
00000150: 60a7 263e 309b 893d 04cf 6b3e 9851 233e
00000160: 21a8 eb3c 74c7 b93f 0687 c83e 8800 8f3e
00000170: ef9a cd3d fb99 d33e 63e9 053f 3d59 91bd
00000180: f337 76be 4db0 993e 2991 bf3d aaab bcbc
00000190: 1158 d93d 8fd9 053f 51da 8bbe b773 8d3e
000001a0: 6a75 413d d0b3 8d3f 98ec dd3e 03a0 c83d
000001b0: a7df 293e fd68 6cbf 62eb 00bd 93f2 fabe
000001c0: 2bd1 bf3e a418 1c3f fc84 aebe 2831 37be
000001d0: 104f d13d dae4 bd3c 9d36 39be 0adc a9be
000001e0: a9f4 96be 66da 7f3f 6092 e63d 5af6 423e
000001f0: 65b8 b83d 2401 6d3f f61b 28be cfab 7d3e
00000200: 32f5 d73d 7eba 0c3f 8054 903e cec9 f43e
00000210: 22b9 1cbf cfef 583f 62dc 223f 1f14 f23e
00000220: 866f 2bbe 5485 a03f 5cbe 843e 6dbf f33d
00000230: 06f5 d73d 7f14 8d3d 9e6e d53d 3984 b6bd
00000240: ad53 4abe 1a2b ce3f cfbd 0d3f fb92 183e
00000250: 0651 49bf a12a d93b c62d a73d e2ad 2cbe
00000260: eba5 233f d91f b5be 462a 12be 7748 80be
00000270: 4d08 82be f174 943e 4d91 ab3e 5132 b93e
00000280: 9546 01bf e61d 203e 3a6a fc3e 77c7 59bd
00000290: a2e6 2bbe c09a 233f 3992 0b3f d2c6 d0be
000002a0: 5600 d2bd 032e 3f3d 046a 813e 53fc ac3d
000002b0: 505e 5abe 3c97 b6be ea06 8cbc 2c37 9d3b
000002c0: 1972 f4be 27aa 8e3f 237a 353f a7d1 ba3e
000002d0: c5b1 103e 0a65 923f f58d a43e 92c3 183e
000002e0: 40cb 653f 8552 81bf 4ed0 abbe 70db 0bbe
000002f0: 2c01 2fbf ef5f 85bf 4789 ddbe c6ed ecbd
00000300: 137d 863e 44ff 063f b042 90be 7067 573e
00000310: 01c2 fbbe 017c 6d3f 649c c33e 9565 db3d
00000320: d2f6 0c3f dd2f 573e a4fd dc3c 3da0 3abe
00000330: d7f4 56be 44df 21bf ddee 003e b2c9 61be
00000340: cb20 623e 1397 583f 5df9 08be cc7d 6f3e
00000350: b104 75be b163 2fbf 6924 233e 117a 33be
00000360: c4c1 88be fb8b 40bf a1e0 b8be 99fc bebe
00000370: 1362 073e 3858 3f3f 004a 733e 28bf 093e
00000380: 0b86 ccbe b08e ae3e 139a 71be e14f f5bd
00000390: 11ac 0ebf 701e aabf 7fa1 83be c465 46bd
000003a0: 4853 653f 459d 83bc a598 cdbe 345f ca3d
000003b0: c90f 0cbe ec4a 573f e655 ef3d c478 c13e
000003c0: 079c 483e f6a0 9c3f 0876 c83e a880 dd3e
000003d0: ea26 4bbe 7fbf df3c 7e83 edbd 10c6 813e
000003e0: 053a 43ba f6e5 1ebf 9674 07be 804f 8bbe
000003f0: 8039 1a3e d93a 893f 54f2 94bd 7418 8b3e
0.48018727 0.11603687 -0.046705 0.16342339 0.24378335 0.00562082 0.26155785 0.36146694
-0.4165847 1.2285457 0.13074243 0.23133847 0.13553026 -0.44441366 -0.03420732 0.06407623
0.08249569 0.04201471 0.05396928 0.019602964 0.47122356 -0.28575662 -0.21615958 0.3227842
0.17140257 0.51789916 -0.20019798 -0.105816185 -0.15384747 -0.24324396 0.17208658 0.0048018354
0.3993172 -0.8605803 -0.36948243 -0.229068 0.49882606 0.9159338 0.10895532 -0.050057396
-0.636798 0.86590725 0.106528424 0.44725052 -0.3943216 1.233047 0.51571864 0.42297915
-0.035123717 1.476456 -0.23461516 0.31449074 -0.12528254 0.005166937 -0.20344469 -0.16114789
-0.014280873 -0.4276319 0.22676307 -0.20024432 -0.37853992 -0.4401914 -0.664193 -0.22671007
-0.45050475 1.2590518 0.2019116 0.17377006 -0.34069052 -0.9080332 -0.2545322 -0.06634606
-0.11875705 1.4772655 0.48536563 0.36573118 -0.34805438 0.47592792 0.25134912 0.062479272
-0.06363233 -0.032750566 -0.2101444 0.15916422 0.16274786 0.06719053 0.23028189 0.15949094
0.028766694 1.4513993 0.39165515 0.27930093 0.10039317 0.41328415 0.52309245 -0.07097099
-0.2404478 0.3001732 0.09353859 -0.023031075 0.106125005 0.52285093 -0.27315 0.27627346
0.047231115 1.10705 0.4334457 0.09796145 0.16589223 -0.923477 -0.03147448 -0.49013194
0.3746427 0.609751 -0.34085834 -0.17889845 0.10220158 0.023180414 -0.1808724 -0.3317569
-0.29483536 0.99942625 0.112583876 0.19039288 0.090195455 0.92579865 -0.16416916 0.24772571
0.10544814 0.54972064 0.28189468 0.47810215 -0.6121999 0.8474092 0.6361753 0.47280976
-0.16741762 1.2540689 0.25926483 0.11901746 0.105447814 0.06888675 0.10421489 -0.08911938
-0.19758482 1.6106904 0.5536775 0.14899819 -0.78639257 0.006627396 0.081630275 -0.16863206
0.63925046 -0.3537586 -0.14273939 -0.25055286 -0.25396958 0.2899547 0.33509293 0.361712
-0.50498325 0.15636405 0.49299794 -0.05316874 -0.16787198 0.63908005 0.54519993 -0.40776688
-0.1025397 0.04667474 0.25276196 0.084465645 -0.2132504 -0.35662258 -0.01709314 0.0047978368
-0.477433 1.1145676 0.7088949 0.36488077 0.14130314 1.1437085 0.32139555 0.14918354
0.8976326 -1.0103308 -0.3355736 -0.13657928 -0.68361163 -1.0419902 -0.43268797 -0.11568789
0.262673 0.52733254 -0.2817588 0.21035552 -0.4917145 0.9276734 0.38205254 0.107127346
0.5506412 0.21014352 0.026976414 -0.18225189 -0.20991836 -0.632313 0.12591119 -0.22049597
0.22082822 0.8460552 -0.13376375 0.23387831 -0.23927571 -0.6851149 0.15931858 -0.17527033
-0.2671033 -0.75213593 -0.36108878 -0.37302092 0.13221006 0.74743986 0.23758698 0.13451827
-0.39946017 0.34093237 -0.23593931 -0.11978126 -0.557313 -1.3290539 -0.2570915 -0.048436895
0.895802 -0.016066203 -0.4015552 0.0988144 -0.13677897 0.84098697 0.11686306 0.3778745
0.1959077 1.2236621 0.3915255 0.4326222 -0.19839063 0.027312992 -0.11597346 0.25346422
-0.0007447305 -0.6206964 -0.13228068 -0.2720909 0.15060997 1.0721084 -0.07272783 0.27167094

l1.bias f4 [400]
00000000: 5d04 dcbe 3a5b c7be 3823 87be 2a78 96bd
00000010: 18d7 1bbd 8c1e 22bf f116 4d3d 9e62 7b3d
00000020: c33f 483e b0d8 c73e edcb 17bf b2fd f43d
00000030: 2825 693e a259 38be f21e f6bd 2977 69be
00000040: a508 213e c2b9 05bf 02a1 043e e49f ad3d
00000050: 780a 0ebf f406 c2be 532d f33b d7b1 95bc
00000060: 312b fb3d 1b1c c4be 6c0a d13d 40e8 153e
00000070: df37 513e 6558 32bf 4ace 803e 3aeb a8be
00000080: f359 f2be 25d1 c93c 780e 8f3e a81b a43e
00000090: 854d 593e b70d ecbe 6708 b33d a56c 09bf
000000a0: 39b5 e6bb a997 86be b1f4 b23d 281c f93c
000000b0: 06b6 a43d 7c9e ce3e 682d 393d 4aa6 80be
000000c0: 64f3 013d a9de 483e 56d1 0cbf 62e9 56bf
000000d0: c2eb e9be 5365 44bf 2c08 503c 9b72 623d
000000e0: 7dc1 6a3d 1a95 3fbe d8f9 81be 3215 04bf
000000f0: d219 21bc 9e68 1cbf f63e 2cbf 7de2 f5be
00000100: 785a 923d 6d7e 283e ad4d f63d e631 27bf
00000110: 1853 5c3e 59fe 3b3e e26d 01be eae5 073e
00000120: 6195 2bbf 79f9 79be 04d3 c9be 7a4c ba3d
00000130: 7775 2abf ab37 613e 3ac6 14bf d411 14be
00000140: 5a9c 1fbf 2640 30bf 158d 9bbe 90f8 e4be
00000150: 9f41 bebe d5ff 12bf 6115 41be ef54 d2be
00000160: f1d7 d4be 14e5 eebe 3ade d8bd 2c02 00bf
00000170: 6985 b6be 9761 07bf c8b1 efbe d8ee 41bc
00000180: ad73 b0be 409c fdbe 9312 dcbe 160e 60be
00000190: 9841 7cbd 8eae 483e 512f 8f3e 18e7 3bbe
000001a0: 9868 c23d 3866 9fbe 8718 433e fef9 433e
000001b0: 97ac 703e a255 a6bd 1528 1e3b ae52 053c
000001c0: 4e36 ecbe a6a0 f3be f802 c63d 6034 8e3d
000001d0: cfbd 1abf db7c f7be bf1f 94bd b568 1d3d
000001e0: 3b8c 4dbf 478f 7f3c 1183 503e 6344 623c
000001f0: fa00 78be 4b0e 22be f11c 2cbe 8122 803e
00000200: c98f 44be cfb1 513d f292 89be a915 adbe
00000210: 9392 16bf 2571 fd3d dddb cb3e 3997 8a3e
00000220: b32c efbe 056e f4be afcb 77be e730 12ba
00000230: 2d37 45be f746 db3d f16e bc3e 0a59 313e
00000240: 8e95 b1be f23e 4d3c 6934 7abe ee46 573e
00000250: 1804 61be 0efa 3ebf fd13 06bf 49f1 3f3e
00000260: 5170 bf3d 526c 08bf c7e3 ebbe 2b31 0c3e
00000270: 9f10 a83d cdbe d8be 6d64 98be 2b4a d5be
00000280: 822a e5be 1871 813d 6482 403d cb7b eebb
00000290: 406f 773d f053 49be 50ab bcbe e983 333e
000002a0: 1a9a dabe 1923 ad3e e8e5 a03e 8fbe 1b3e
000002b0: 7a98 33bd 89d0 86bc 6f07 2bbf 12d2 de3d
000002c0: 88c4 11bb 2e79 a83d a979 3dbd d744 283c
000002d0: f7da 8d3e a347 25bf b75a d43b 917c f13d
000002e0: 6703 c6be 6fe0 ffbe 9567 06bb 994b 463d
000002f0: 38aa 423e 9bfc 223e 6e67 e7be 2b9c 8d3e
00000300: 0b7b ffbd 47ec 12bd 6d84 47be ac88 89bd
00000310: 4123 5fbb 65f2 543e 2cb8 25bf 9a4a f93d
00000320: aaf3 a23e 2583 81be 4cce fcbe b9f8 1fbf
00000330: 066c bfbe f352 5c3d dee5 1ebf 649b d23e
00000340: 29c1 b3be 6e43 003e d50c 62bc 3398 dabe
00000350: bc6d 09bf cc5a c0be f549 09bf 28c2 fe3c
00000360: aeee 563e 7317 103e 30fc b1be a401 6a3e
00000370: 493f 903c 6daf 373e 8ca8 e6bd e25a ed3a
00000380: 4266 8c3c 59b6 1abf 10f0 d33e ccae 7c3e
00000390: 1667 ba3c 2e33 843e bec1 bf3d 1ea6 b5bd
000003a0: 8d15 2b3e b708 06bf c626 0cbe 11a3 853d
000003b0: 8fa5 0f3e 0aac b6be 1850 ca3c c649 e3bc
000003c0: 62bf d43c 6f94 a63d 07b0 a13e 6e0d 03bf
000003d0: 6038 89be b5f6 3fbf 764f 18bd 4491 a7be
000003e0: 21de f23d d0fc c2be 5e44 9cbe 5acd b3be
000003f0: aa87 3bbc 9005 35be e565 39be c198 bbbd
-0.4297208 -0.38936788 -0.26394057 -0.07347138 -0.038046926 -0.6332786 0.050070707 0.061373346
0.19555573 0.39032507 -0.5929554 0.11962451 0.2276808 -0.18002942 -0.12017621 -0.22799362
0.15725954 -0.5223657 0.12952045 0.08477762 -0.55484724 -0.3789593 0.0074211746 -0.018273277
0.122640975 -0.38302693 0.10207066 0.14639378 0.2043147 -0.6966613 0.25157386 -0.32991964
-0.4733425 0.02463586 0.27940726 0.3205235 0.21220978 -0.46104214 0.08741837 -0.53681403
-0.0070406464 -0.26287583 0.087380774 0.030408934 0.08042531 0.4035529 0.04520932 -0.25126868
0.031726256 0.19616188 -0.5500692 -0.83949864 -0.4568768 -0.7671711 0.012697261 0.055285078
0.05731343 -0.18709221 -0.25385928 -0.5159484 -0.009832816 -0.61097133 -0.6728357 -0.4802436
0.07146162 0.16454478 0.12026534 -0.65310514 0.21516073 0.18358745 -0.12639573 0.13271299
-0.6702481 -0.24411573 -0.39418805 0.09096618 -0.6658549 0.21993892 -0.5811497 -0.14459926
-0.6234795 -0.6884788 -0.30381075 -0.44720888 -0.3715944 -0.5742162 -0.18855812 -0.41080424
-0.41571 -0.46659148 -0.10589261 -0.50003314 -0.3564866 -0.52883285 -0.46815324 -0.01183673
-0.34463254 -0.49533272 -0.4298292 -0.21880373 -0.061585993 0.19597837 0.27965787 -0.18349874
0.09492606 -0.31132674 0.19052325 0.19138333 0.23503338 -0.08121802 0.0024132777 0.008137388
-0.4613518 -0.47583503 0.09668535 0.069435835 -0.60445875 -0.48337445 -0.072326176 0.038429935
-0.802921 0.015598125 0.20362498 0.01381025 -0.24219123 -0.15825765 -0.16807915 0.25026324
-0.19195475 0.051194962 -0.26869923 -0.33805588 -0.58817405 0.12375096 0.3981618 0.270685
-0.4671379 -0.47740188 -0.24198793 -0.0005576745 -0.19259329 0.10706895 0.36803392 0.17319122
-0.34684414 0.012527214 -0.24434055 0.21023151 -0.21974218 -0.74600303 -0.5237425 0.18744387
0.093475945 -0.53290284 -0.46072218 0.13690631 0.08206295 -0.4233307 -0.2976412 -0.41658148
-0.44758993 0.06320399 0.04699935 -0.007277941 0.06040883 -0.19660926 -0.3684945 0.17530788
-0.42695695 0.3381584 0.31425405 0.15209411 -0.043846585 -0.01645686 -0.6680822 0.108799115
-0.0022242386 0.08226238 -0.046258602 0.010270319 0.2770612 -0.64562434 0.0064805406 0.11791337
-0.3867447 -0.49975917 -0.0020508517 0.04841194 0.19010246 0.15916674 -0.45196098 0.2765821
-0.124746405 -0.035869863 -0.1948411 -0.06715521 -0.0034048113 0.20795591 -0.6473415 0.12172432
0.31826526 -0.25295368 -0.49376142 -0.62488896 -0.37387103 0.053790044 -0.620695 0.4113418
-0.35108307 0.12525722 -0.013797005 -0.42694244 -0.53683066 -0.37569273 -0.53628474 0.03109844
0.20989487 0.14071445 -0.34762716 0.22852188 0.017608302 0.17938013 -0.112626165 0.001810875
0.017138604 -0.6043449 0.4139409 0.24676055 0.022754233 0.25820297 0.09363125 -0.08869575
0.1670744 -0.5235705 -0.13686666 0.06525243 0.14028 -0.3567813 0.024696395 -0.027745139
0.025970165 0.0813378 0.3157961 -0.5119237 -0.26800823 -0.7498582 -0.037185155 -0.32728016
0.11858774 -0.38083506 -0.3052091 -0.35117608 -0.011445919 -0.17677903 -0.18105276 -0.09159995

l2.weight f4 [300, 400]
00000000: b4a1 b23c 1a32 753c 80d7 733b 0a81 9f3c
00000010: 06d6 823c 0c2a 18bd 2780 0dbd 1420 9c3b
00000020: e88b 623c 0b2e 83bc f9e3 38bd b138 ec3c
00000030: 84b9 21bd fc86 6dba 4d2e f3bc 425c 8d3c
00000040: f922 c63c a0a7 d1ba a8ce 85bc 5fd6 4fbc
00000050: 3868 fd3a da97 933c 9f1c e53c 1829 d7bb
00000060: 5015 e53c 6985 433b 20bb 2cbd 2969 12bc
00000070: a2cc 5abd 878e b8bc 07e7 d13b 5017 f83c
00000080: 1904 583b ccc4 313c d8ea b03c d203 abbc
00000090: 771e 1f3a b6dc 25bd 810f 2bbd 7bfa f8bc
000000a0: 3280 db3c cb7c 093d 3a89 5b3a 2512 263d
000000b0: b4b3 3a3c 98aa 3dbb b5a0 9bbd 9aa0 e7bc
000000c0: 4dcf dc3b 04c7 883b 728d c53c 0067 b6ba
000000d0: 1c4e 673a d887 483c 8e1f 26bd 9ce4 4abd
000000e0: 4ff3 58bc d22b 31bd e428 eb3b c650 e13b
000000f0: d14c 943c 4c67 583d 989c d33b 0c45 113c
00000100: 6b03 8a3b 813c 01bd 9820 1c3c b0ab 613b
00000110: a50a 17bd 5bc3 49bd ec82 623d 8bc6 10bd
00000120: c6a7 97bc cb10 033d ca96 9dbc 707b 86bd
00000130: 9e2e 9a3b 1321 34bd 7066 ffbc 9bcc 06bb
00000140: 4b38 383d 7cde eebc 0450 a4bc 50c5 0b3b
00000150: cf48 18bc 43bb 9fbc d00a b3bc 3445 89bc
00000160: ed65 bbbc d110 b33c bcce cbbc b444 2d3c
00000170: f4b0 4b3d d88d 2f3c 710a 40bd 179b d7bc
00000180: 285a bf3b 8978 22bc ed35 46bb 26eb 05bd
00000190: 2584 04bb ce67 5fbc 7f5e 83bb 4237 083d
000001a0: 188f 80bc 87c4 b3bc eccd 57bd 89cf 1bbd
000001b0: 52dd e43c 7861 2c3c db3d adbc cc3a 24bc
000001c0: b13d 8bbc 5387 25bd 4a05 7fbc c62e 093d
000001d0: 903b a33b 4b56 47bd 383e f9bb 1995 fa3c
000001e0: e689 ebbc d731 a03a d5f6 87bd 11ba 3ebd
000001f0: 1d78 94bc 5fc2 b43c 0347 2fbc 4f4c eebc
00000200: edfb 32bd c0b9 2c3d d14a 473d 0e54 143c
00000210: 55ad 2c3d b718 153d 93c7 ed39 a631 0dbd
00000220: 0b49 fdbc de3d 8b3c d7fc e9bb c934 883b
00000230: f883 46bc 3815 193d 392c 9d3b 32fd a4ba
00000240: 4498 26bc ef98 a83c 7822 91bc d154 9e3c
00000250: 2082 7c3b f7dc febc 1899 8b3b 59d3 e9bc
00000260: 892b 41bb 35af e43b 60a7 1a3d 9550 0dbc
00000270: 1c98 d83b 307e fd3b 9e5e efbc 2c84 963d
00000280: 722c 5fbb 8316 0e3b 1f51 44bd fb53 453d
00000290: 4736 16bd bf84 c43c 59f0 93bc f431 163c
000002a0: 50ad 49bd fd56 8ebc d4fe b3bc 824b afbc
000002b0: 3362 f3bc 617f c8bc c6fe c6bc 93a7 683c
000002c0: 51e5 993c ecf1 953b 1d4f f6bc d392 3d3d
000002d0: ba08 123d c7ba 1b3d 8e43 a03c 685d 9ebd
000002e0: 545a b73c 742f 3fbc 8a01 13bd 2153 26bd
000002f0: 0651 0dbd 3922 34bd fa17 da3c 1eb7 7d3c
00000300: 1592 0abc f245 9a3c 4381 b13a bac8 b63c
00000310: 9725 a9bc 98a5 89bd 0775 39bd fad9 b93b
00000320: ff8c 6fbd 48b4 0fbd 3821 47bd 934d 2fbd
00000330: d29c 3fbd 5024 43bd 3007 76bb 7a62 5abd
00000340: 68df 2cbd 4bc1 56bd 159e 9b3c ae86 e23c
00000350: 7c9b b8bc a8ba 803c 1a42 21bd 2a3d 60bd
00000360: a868 843c 1b1c 17bd b3cf 293d f544 173a
00000370: 981d 1ebc 47a1 82bd e8be e63c 3907 5ebc
00000380: 3036 95bc 86a4 10bd 52f9 6cbc 90c5 7dbd
00000390: 31fa 37bd fbf1 44bd b2d3 adbd 2e40 293c
000003a0: 8919 09bc 2e55 963c 3ddb 2dbd f649 ceba
000003b0: 3f8d 8bbb 8ae8 87bd f65e 623c 5d9f 6dbd
000003c0: a10d 82bc bec6 37bc bbdd 0abd 242a 43bd
000003d0: 8c66 42bd c751 f1bc 71ad d2bb 8466 1bbd
000003e0: da63 00bd f0ef 893b 075a 333d b906 4c3d
000003f0: 38c4 9c3c 1a03 9a3c 0907 dabc 6422 7e3c
0.021805622 0.014965558 0.0037207305 0.01947071 0.015971195 -0.037149474 -0.034546044 0.004764566
0.013827302 -0.016013166 -0.045139287 0.028835626 -0.039483562 -0.0009060947 -0.029685164 0.017255906
0.024186598 -0.0015995391 -0.016333893 -0.012685387 0.0019333428 0.018016744 0.02796775 -0.006566178
0.027964264 0.0029834157 -0.042170644 -0.008936205 -0.05341781 -0.0225289 0.0064057144 0.030284554
0.0032961427 0.010850143 0.021596357 -0.020875845 0.0006069908 -0.04049369 -0.041762833 -0.030392876
0.026794527 0.033566277 0.00083746354 0.040544648 0.011395384 -0.0028940793 -0.07599012 -0.028274823
0.0067385794 0.004174115 0.024115298 -0.0013916194 0.000882359 0.012239419 -0.040557437 -0.049534425
-0.013241603 -0.04325468 0.0071765054 0.006876084 0.018103035 0.052832887 0.0064578764 0.00886656
0.0042118332 -0.03155184 0.009529255 0.003443461 -0.036875386 -0.04925857 0.055300638 -0.035345595
-0.018512618 0.031998437 -0.01923694 -0.065665126 0.0047052642 -0.043976855 -0.031176776 -0.0020568732
0.04497556 -0.029158823 -0.020057686 0.0021327324 -0.009294703 -0.019498473 -0.021855742 -0.016756631
-0.02287575 0.021858605 -0.024878852 0.010575462 0.049729303 0.0107149705 -0.046884958 -0.02631907
0.005839605 -0.009916433 -0.0030244545 -0.03269496 -0.0020220366 -0.013635589 -0.0040090675 0.033255823
-0.015693232 -0.021944297 -0.052686617 -0.038039718 0.027937565 0.010521285 -0.021147659 -0.010023784
-0.01699719 -0.04041226 -0.015565226 0.033491872 0.0049814656 -0.04866628 -0.007606294 0.030588673
-0.028752279 0.0012221885 -0.06638876 -0.046564166 -0.01812368 0.02206534 -0.010698083 -0.029089121
-0.043697286 0.042169333 0.048655335 0.009053243 0.04215749 0.036400523 0.00045352857 -0.034471177
-0.030918619 0.016997274 -0.0071407366 0.004156683 -0.012116425 0.03737375 0.0047965315 -0.0012587665
-0.010168139 0.020580737 -0.017716631 0.019327553 0.003852971 -0.031111224 0.0042601936 -0.028543161
-0.0029475412 0.006978894 0.037757277 -0.008625169 0.0066099297 0.00773599 -0.029219922 0.073494285
-0.003405359 0.0021680898 -0.047928926 0.048175793 -0.036672857 0.02398908 -0.018058943 0.009167183
-0.04923755 -0.017375464 -0.021972097 -0.02139831 -0.029709911 -0.024474801 -0.024291407 0.014200109
0.018786104 0.0045759585 -0.030067021 0.0462826 0.035652854 0.03801992 0.019563463 -0.077326596
0.022381939 -0.011669029 -0.03589014 -0.04060662 -0.034501098 -0.04397795 0.026622761 0.015485553
-0.00845768 0.01883218 0.0013542551 0.02231251 -0.020647807 -0.067210376 -0.04527762 0.005671737
-0.058484074 -0.03508404 -0.048615664 -0.04279859 -0.046780415 -0.047642052 -0.0037540905 -0.05331657
-0.042205244 -0.052430432 0.018996278 0.02765211 -0.022535078 0.015714005 -0.03936968 -0.05474583
0.016163185 -0.036892038 0.041457843 0.0005770468 -0.00965061 -0.063784175 0.028167203 -0.013551527
-0.018214315 -0.03531315 -0.0144637395 -0.06195599 -0.044916335 -0.048082333 -0.08487643 0.010330243
-0.008367904 0.018351164 -0.04244541 -0.0015738595 -0.004258781 -0.0663615 0.013816586 -0.05801331
-0.01587564 -0.011216817 -0.033902865 -0.04764761 -0.047461078 -0.02945794 -0.0064293672 -0.037939563
-0.031345226 0.004209511 0.04378703 0.0498111 0.019136533 0.018800307 -0.026614683 0.015511129

l2.bias f4 [300]
00000000: a886 f6bb bd43 5ebe 7065 833b 8c28 29bc
00000010: c194 913c 1bcb b5bc c8fb c13b a00f 47bc
00000020: e03e 5dbd 33ab 213d 4c51 f3bd 4948 1bbd
00000030: a254 23bd 7f99 49bc f8db 03bb a866 3bbc
00000040: 91fc 63bc 444f 27bd 3a17 75bd e2fb 043c
00000050: 79bf b0bd 5d10 c6bb 8287 b7bd acde 3abc
00000060: 4aed 64bd c6f0 6d3c 269f 67bd f98d b5bd
00000070: 28e3 e5bd 370e 39bd dca2 44bd 06a5 e3bc
00000080: 0de3 90bd a137 833c 90b4 8abd 447a eebc
00000090: 4d53 afba e10e fe3c 39c0 ba3c a564 263d
000000a0: 0523 d2bc 48f1 8abd e285 c4b8 81d3 85bc
000000b0: 9a1d 75bd faf8 633c 5ccc eb3c b748 94bd
000000c0: aa98 a4ba adbc 8cbd 6244 98bb 77a2 7fbc
000000d0: b5a7 9dbd efce d5bc 93c7 b0bc 82a3 993c
000000e0: 3b79 033c 922c ed3c 1209 83bd 6e02 ffbc
000000f0: 6a96 d93c 5f82 3cbd 3c9f aebd edb2 a4bd
00000100: b55c 0bbd 27da 36bc 347a 42bd 0764 bcbd
00000110: 1c57 893c 3bb8 33bc da79 0cbd c5e0 c0bd
00000120: 9997 4dbd 22c3 cebd 346f 6dbd 9153 c5bd
00000130: 6afb 803c e522 be3c 3d64 9cbb d866 c0bc
00000140: 6b9a 02bd e975 e73c eebe b7bd a1df f0bd
00000150: dcbf 4abd ebfa 963d 8d68 753c 40a5 e4bb
00000160: 9079 6cbd 9380 d6bc 9085 743d a530 8dbd
00000170: 2324 1d3d 85ef dfbc 1871 90bd aedd 4ebd
00000180: a94e 68bc 0f56 84bd 1d33 cbbd 80d6 f5bc
00000190: 32c2 093d 8516 06bb c35b f0bd 938b f4bc
000001a0: 9680 91bd dd47 0fbd db22 5abd 0c10 a8bc
000001b0: 9e72 58bd d259 71bc f83e 2cbd 2da4 90bc
000001c0: a3a1 45bd 5714 083d 8839 81bc b415 173d
000001d0: 1634 27bc de33 c13c 763b 05bd 30e1 9bbd
000001e0: a8bb 6abd 586b 58bd 44dc bebb 6916 73bd
000001f0: 4a99 ebbc e294 9e3d b6e1 1abd e8d2 353c
00000200: 3d0c 23bd e283 7cbd dcb4 12bd 2274 c8bd
00000210: 87d5 87bd e85b d7bd 9795 ec3b fbbe 773c
00000220: 7b1f 0dbd dd2f a3bd be52 08bd 8d23 be3c
00000230: 8c18 6abd 46d6 ab3c 6791 d8bc 4ae3 0abd
00000240: 7645 4fbd 2450 093e c983 9abd 1a04 12bc
00000250: 6db2 10bd d03d 65bd c538 49bc dc96 debd
00000260: e348 abbd 4cfa ac3c d290 3ebd cbc4 27b7
00000270: 9171 29ba fcba 773a ce1a 62bc b9da edbc
00000280: e74a 9dbc b849 68bd a3d6 2f3c 2deb 56bc
00000290: d4a3 0abd 7e9b d9bb dc3d 9cbc 388f 97bd
000002a0: a9b1 22bd af98 1ebb c186 1a3d c6d2 8bbd
000002b0: 650a 0cbd 6407 3abc 2ab6 89bd 8c38 55bd
000002c0: a701 ba3a aed4 7bbd 2b13 45bd d8e3 273d
000002d0: 5446 0fbd 7465 68bc 2d5e ed3c 196c 63bc
000002e0: 044b b93b d3d6 2bbd 6eb9 eabd 7ee4 36bd
000002f0: 4e08 993c 4e06 f2bc 048a 53bc a476 0dbd
00000300: 7fb8 513c 491f 553d bc66 d7bd 93f8 1d3c
00000310: 79e5 b53c 04b7 d5bd 44c7 97bd 06b7 9cbd
00000320: 89a3 9bbc b02a ba3c 905b 413c 25ce 5f3c
00000330: 77d7 80bd 4039 58bd a0dd e33c 6daf 1dbd
00000340: 367f 28bd a561 1c3d 182f 2fbd 7d1b 763c
00000350: a9ee 27bd 17be a33d 0892 ba3c a687 94bb
00000360: 5144 bbbd c9c0 b2bb c991 90bd e3fc a13c
00000370: 65ca bdbd e2ca 2dbd c8e0 283c cca4 b8bc
00000380: 1028 8dbd bad0 2d3b 5f55 fabc 53d7 8fba
00000390: 2f3a e2bc 5b0b 06bc e872 96bd bc7e 3abb
000003a0: 1b63 aebc 7580 163d 7fa3 f73c ba56 3abd
000003b0: 59ec c13c 69c0 2a3d 39c7 81bd 7760 05bc
000003c0: ffe0 03bc 0456 25bc 7708 91bd 044a 8fbd
000003d0: 43e2 48bd 471d 84bd df77 6f3c 7fed 82bc
000003e0: c5d2 2fbd c48a 8ebd 7d82 a0bd fbc9 d7bb
000003f0: 60c1 1bbd acfb 89bd 7629 afbc cb2f 9abd
-0.0075233765 -0.21705528 0.004009895 -0.010324609 0.017771127 -0.022191575 0.0059199072 -0.012149721
-0.05401504 0.03946991 -0.118807405 -0.037910733 -0.039875634 -0.012304663 -0.0020120125 -0.011438049
-0.013915197 -0.040847078 -0.059836604 0.008116694 -0.086302705 -0.006044431 -0.08961393 -0.011405628
-0.05589036 0.014522737 -0.05654826 -0.0886497 -0.11224967 -0.045179572 -0.048006877 -0.02778865
-0.070745565 0.016017737 -0.06772721 -0.029111035 -0.0013376266 0.031012954 0.022796737 0.040623326
-0.025651464 -0.06784302 -9.370946e-05 -0.016336204 -0.059842683 0.013914341 0.02878397 -0.07240432
-0.0012557704 -0.068719245 -0.0046468237 -0.0156026995 -0.07698003 -0.02609965 -0.02157954 0.018754724
0.008024509 0.028951917 -0.063982144 -0.031129088 0.02656098 -0.04602277 -0.08526465 -0.0804194
-0.03402396 -0.01116041 -0.047479823 -0.09198766 0.01676517 -0.010969217 -0.034295894 -0.094178714
-0.050193403 -0.100958124 -0.05796738 -0.0963508 0.015744884 0.023209998 -0.0047726915 -0.02348654
-0.031885546 0.028254466 -0.08971964 -0.11761404 -0.049499378 0.073720776 0.01497854 -0.006977707
-0.05773312 -0.026184356 0.059697688 -0.06894044 0.03836454 -0.027335892 -0.07052821 -0.05050438
-0.01417891 -0.06461727 -0.099218585 -0.030009508 0.033632465 -0.00204602 -0.11736252 -0.02985171
-0.07104604 -0.034980644 -0.053255897 -0.020515464 -0.052843682 -0.0147308875 -0.04205224 -0.01765641
-0.048249852 0.033222523 -0.015774503 0.036885932 -0.010205289 0.023584303 -0.03252741 -0.076113105
-0.05730787 -0.052836746 -0.0058245976 -0.059347544 -0.028759617 0.07743241 -0.03781291 0.011097647
-0.039806593 -0.06164921 -0.035817012 -0.097877756 -0.06632524 -0.105155766 0.007219981 0.015121217
-0.03445385 -0.079681136 -0.033282034 0.023210311 -0.057152316 0.020976197 -0.02643652 -0.033908166
-0.050603352 0.13409477 -0.07544667 -0.008912111 -0.03532641 -0.055967152 -0.012281601 -0.10868618
-0.083635114 0.021115445 -0.04652483 -9.999795e-06 -0.0006463761 0.0009450165 -0.013800336 -0.02903496
-0.019200755 -0.05671093 0.010732326 -0.013117594 -0.033847645 -0.0066408506 -0.019072466 -0.07400364
-0.03972021 -0.0024199893 0.037726168 -0.06827311 -0.0341896 -0.011354301 -0.06724198 -0.05205588
0.0014191166 -0.061482124 -0.048113983 0.040988773 -0.03497918 -0.014184345 0.02897557 -0.013880753
0.0056546945 -0.04195292 -0.11461149 -0.0446515 0.018680718 -0.029544022 -0.012911323 -0.034536973
0.012800335 0.05203179 -0.10517642 0.009641784 0.022204148 -0.10435298 -0.07411054 -0.076520965
-0.018998878 0.022725433 0.011801615 0.0136599885 -0.06291097 -0.052788973 0.02781564 -0.038497377
-0.041136943 0.03817906 -0.04276952 0.015021202 -0.04099909 0.07995241 0.022774711 -0.004532772
-0.0914389 -0.0054551107 -0.07059056 0.019773906 -0.09267119 -0.042429812 0.010307498 -0.022539519
-0.06892407 0.0026522116 -0.030558286 -0.0010974206 -0.027615635 -0.008181418 -0.073461354 -0.0028456887
-0.021287492 0.0367436 0.030229328 -0.045492865 0.02367227 0.041687403 -0.06336827 -0.008140675
-0.008049249 -0.0100913085 -0.07081693 -0.06996539 -0.049043905 -0.06450897 0.014615982 -0.015982388
-0.042925615 -0.06960061 -0.07837389 -0.0065853572 -0.038026214 -0.06737456 -0.021382075 -0.07528647

l3.weight f4 [1, 300]
00000000: 403f 3ebc 0067 233f 5bca da3c 10d7 1d3d
00000010: a5f8 273c 5bb8 0abb b5d1 9fbb 5062 ddbb
00000020: d8c4 133c c4bc c93c ff35 eebd 54f8 103d
00000030: d667 57bd 0e4e 92ba 4449 d13b 33e6 e8bc
00000040: 73ba e7bb 659f 96bd c0d5 673c d790 9ebb
00000050: 585c 96bd 0199 ce3c 088b f3bb 787d 683a
00000060: ce6a 1ebd 521c d03c 7654 45bd e73c 7ebd
00000070: a3c4 81bd 34f0 a5bd 68cc 4c3b d366 463d
00000080: d234 393e cf6f b33b 14d0 b4ba 4843 db3c
00000090: 964c 813c 57e1 3e3d a2f1 b03c 45c9 1c3d
000000a0: 0b12 0b3b 4bcb 92bd 7a51 463c b98a 99bd
000000b0: 7d9f c03c 499a 663c 48cd 2a3d d48b 97bd
000000c0: 6ad3 123d be8e e03c a354 b8bd 8eb8 763b
000000d0: c303 8bbd 908a 7fb8 ec8e 62ba f659 cd3c
000000e0: f79b 95bb 167a 8a3c d832 81bd af41 96bb
000000f0: 1ed1 b53c 6344 4c3d 4725 07be 2a1f 72bd
00000100: 676f 91bd a6f4 90bb d0e8 fe3c 8979 58bd
00000110: 0d51 c83c ee0c 1e3d 3432 4e3c 8bb0 7dbd
00000120: e7d9 e73c 01d1 81bd 5dc1 ba3c 8095 74bd
00000130: 4b74 c2bb 425e 233d 66ba 043d 45f8 f73c
00000140: 097e 1fbc 211b 72bb 66f9 87bd 2be7 a4bd
00000150: 7396 c23b 8387 3c3e 9aca d43c b948 f23b
00000160: 4999 b9ba 3b7b d33c c815 273e a5b3 cb3c
00000170: f31c 9d3b 6007 15bc bc6b 90bd 45b7 37bb
00000180: d61e 303c b389 5c3b 687f 65bd a7fb 0cbc
00000190: 12e3 493c b583 d53b 368d 0abe 3280 283c
000001a0: 89b8 e03e ecb5 323b f98b 94bc 50a1 25bb
000001b0: b864 df3b 614e 15bc d10e 18bd 479d b1bd
000001c0: 3d0f a63b e50e 313d e766 023d 17dc a63b
000001d0: 185b a1bc dae4 133d 3f8f b1bd 3348 70bd
000001e0: a4d6 353c 12ab e03b 0fa1 c3bc 71e3 433c
000001f0: 00db c23c ff2b 513e 8997 21bd 06f1 c43b
00000200: f7a4 e93c 387b 96bd 4cf2 abbb b0d0 80bd
00000210: 5500 54bd d0ee 0abe df01 95bb e2ec 56bc
00000220: 538e 85bd 92cb 8d3c 2821 b0bd 4cc2 76bb
00000230: 6c6d 65bd ff36 133d 1e82 243d 696e 66bd
00000240: 70a4 a43b 8ecf 423e 43bd e9bc e523 de3a
00000250: e81c 4fbb d82a 1d3d 6a20 17bb bc8b 9ebd
00000260: ebbc 113e dd3b 523c 789d 433c 4d15 e13c
00000270: 1327 fd3b 4ec8 ac3c 718f bb3c facf 8dbd
00000280: 2dd9 1b3c aa44 00bd 7812 123b bf4b ddbc
00000290: 1f79 8eba 0c0d c33c 6ef5 8ebd 9055 b83b
000002a0: 3dcf c13c f8c0 1d39 fc1b 90be 3a26 b03c
000002b0: c096 0c3b 7731 7b3b 0501 923c 54da a4bc
000002c0: 7518 eabb cc75 afbd 897c 3d3c de33 b43d
000002d0: 5038 0a3d b06c 053c ac19 373d 3116 93bd
000002e0: 8b54 a63b c994 91bd 2a59 95bd e492 89bd
000002f0: 84c1 8b3c 4741 003d 43e8 9dbd a281 d63c
00000300: e9a9 4a3c d012 a1be f3f4 90bd 7ac4 41bb
00000310: dbf0 8b3c e90d 9fbd a61e 89bd 67d9 25bc
00000320: d63e 233d f428 0d3c ae7f 2f3d b3e9 993c
00000330: ef84 ee37 cb41 353d bbb8 aebb e112 48bc
00000340: 14c2 4cbd b8cd 503b f272 83bb e79b 17bc
00000350: 73a3 8e3c 1e27 f93d 40e0 bdbb 1bdc d93c
00000360: 18f4 4fbd f4e2 393c 0d71 763c 9ec5 953c
00000370: f0f4 96bd c958 373d fb7a 873a d18f 5e3c
00000380: 0421 8d3c 0f4e afbc 0dfe dfbc 6867 74bb
00000390: 91fb 9fbd 56fe bb3c e76c 05bd 8d06 f83c
000003a0: 43f2 c2bc a3d7 d93c 3a84 f03b b5f5 bdbc
000003b0: 4b90 76ba 7299 683c 0ec6 e73d 48df cabb
000003c0: e239 1d3c 371f 0bbd 66bf 8d3c 7826 6d3c
000003d0: 3493 0dbd fb56 b5bc df4f 153b 187a 9dbd
000003e0: 0f45 96bc ba28 7abd 1b0c 66bd 06b2 80bb
000003f0: c7a8 253b 71e9 38bd a3b2 c1bb d674 14bb
-0.01161176 0.6382904 0.026707819 0.038535178 0.010252153 -0.0021167013 -0.004877294 -0.0067561045
0.009019099 0.024626143 -0.11631393 0.035393074 -0.05258926 -0.0011162178 0.006386908 -0.02843008
-0.007071787 -0.07354621 0.014150083 -0.0048390436 -0.07341832 0.025219442 -0.0074323453 0.0008868794
-0.038676076 0.02540413 -0.04817625 -0.0620698 -0.063363336 -0.08102456 0.0031249765 0.048437905
0.18086556 0.005475975 -0.0013794922 0.02676548 0.01578359 0.04660162 0.021599595 0.038277883
0.0021220471 -0.07167681 0.012104386 -0.07497162 0.02351355 0.01407487 0.041699678 -0.07399717
0.03584615 0.027411815 -0.09000518 0.0037646624 -0.06787827 -6.0925784e-05 -0.0008642513 0.02506731
-0.0045657116 0.016903918 -0.06308526 -0.004585467 0.022194441 0.049869906 -0.13197814 -0.05911175
-0.071013264 -0.0044236956 0.031116873 -0.05285028 0.02445271 0.03858655 0.012585212 -0.061935943
0.028302146 -0.063386925 0.02279728 -0.059712887 -0.0059342734 0.039884813 0.032404326 0.030269751
-0.009734639 -0.003694244 -0.06639366 -0.08051904 0.005938345 0.18411069 0.025975514 0.007393923
-0.0014160062 0.025815597 0.16316903 0.024865935 0.004794711 -0.009095997 -0.07051799 -0.002803282
0.010749539 0.003365141 -0.056029707 -0.0086049205 0.012322204 0.006515945 -0.1353043 0.01028447
0.4389079 0.0027269078 -0.01813315 -0.0025273152 0.0068174265 -0.009112925 -0.037123505 -0.086725764
0.0050677345 0.043227095 0.031836417 0.0050921547 -0.019696757 0.03610692 -0.086699 -0.058662605
0.011098538 0.0068563307 -0.02388051 0.011956082 0.023786068 0.2042694 -0.039451156 0.0060101775
0.028521044 -0.07347721 -0.00524739 -0.06289804 -0.05175813 -0.13567662 -0.004547342 -0.013118001
-0.06521287 0.017308984 -0.08600074 -0.003765243 -0.056012556 0.03594112 0.040163152 -0.05625764
0.0050244853 0.19024488 -0.02853263 0.0016947953 -0.0031602923 0.038370937 -0.0023060092 -0.07741496
0.14232223 0.012831655 0.011939399 0.027475977 0.0077256053 0.021091606 0.022895547 -0.06924434
0.009512228 -0.031315483 0.002228884 -0.027013658 -0.0010869837 0.023809932 -0.06980406 0.005625434
0.02365839 0.00015044573 -0.2814635 0.021502603 0.0021452159 0.0038329044 0.017822752 -0.020123638
-0.007144029 -0.0856739 0.011565336 0.087989554 0.03374511 0.008143589 0.044702217 -0.07181967
0.0050759963 -0.07108457 -0.07292397 -0.0671747 0.017060049 0.031312253 -0.07710316 0.02618486
0.012369611 -0.31459665 -0.0707797 -0.0029566572 0.017082622 -0.07766325 -0.06695299 -0.010122634
0.039854847 0.008615721 0.042846374 0.018788194 2.8433713e-05 0.0442522 -0.00533208 -0.012211532
-0.049989775 0.00318609 -0.0040115053 -0.009253479 0.017411923 0.12165664 -0.005794555 0.026594212
-0.050769895 0.011345614 0.015041602 0.018282708 -0.07370937 0.044762406 0.0010336334 0.013584093
0.017227657 -0.021399526 -0.02734282 -0.003729308 -0.07811654 0.022948425 -0.03257456 0.030276561
-0.02379716 0.026592081 0.0073399814 -0.023188451 -0.00094056566 0.01419674 0.11317073 -0.006191168
0.00959632 -0.033965316 0.01730318 0.014474504 -0.034564212 -0.022136202 0.0022783203 -0.07689303
-0.018343477 -0.061073996 -0.05616389 -0.003927472 0.00252776 -0.045144502 -0.0059111877 -0.0022652647
