BipedalWalker/BipedalWalker-v3_actor_finalized_00.pth (torch, 528992 bytes, 6 tensors)

l1.weight f4 [400, 24]
00000000: 151a 723e 955f 803e 057d 22be ffd0 2540
00000010: ef7a f1bd c5a0 123d 9284 c23d 0189 20be
00000020: 4428 1fbe 4478 543d fc32 18bc 1810 863f
00000030: 6905 163c 8faa f7bc fe99 b03e c4b4 863e
00000040: e991 a73e 1bb0 903e 0121 043e 54c4 503e
00000050: efe3 243e fe6f b13e f023 873d f9d7 29be
00000060: a5c5 723f ff51 34bc 5a24 a3bf 46f0 9a3e
00000070: 9cee 1f3f 005a 06be bb07 ab3e 4af9 80bc
00000080: 48f0 b33c 0802 c23e 92d4 1a3e 8e87 63be
00000090: 6720 5c3d 452a 0fbd ba72 28be 2539 11be
000000a0: eb70 373e 8b83 873e 85b6 9b3e b961 93bc
000000b0: 0fd7 583e 366a 3a3e 1ab4 1e3e e629 77bd
000000c0: c403 c73e 82ba be3f 92d3 dc3d 7bf8 923e
000000d0: 40db bebd 6e15 2d3c 41aa bfbe 353c 6d3e
000000e0: 8e3d a73e 37a0 413e 6535 eebc 3e51 8d3e
000000f0: b6c8 b1bd 16ef 4abe ffe6 9ebd 3c82 00be
00000100: 1aa4 e03c d079 bbbd c36b 513e f103 083e
00000110: a6b8 61bd 8564 583e 7ae5 143d e851 1ebd
00000120: f3c9 bc3e 98d8 de3c c73d 153f 9f1b 5fbe
00000130: eae9 93be 7ed2 583e 6242 7e3e e257 35be
00000140: a148 4f3e 1ffd c43e 66ff 873d 8298 48be
00000150: e06e 94be 950a d1be ae13 a5be 1717 933d
00000160: 582d 4a3d 07ff 993d cc74 96be 2d96 97be
00000170: 6043 cfbc e211 8dbc 5bb0 17be 7b7d ea3b
00000180: f089 bf3f 6c89 d43f ae3b 6dbf 7e97 133d
00000190: f8a5 c23e 1254 f2bb 4223 ea3d 39f8 92bd
000001a0: 6752 263b ebc0 053f e06f d83d e13f cc3e
000001b0: 71ce ccbb 1a73 153d 2f29 103e a6c7 dc3d
000001c0: a607 f33d ece6 4d3e 33de 1e3d 0c52 863e
000001d0: 1ffc a73e 792e 8c3e b06a e43d 5316 79be
000001e0: e29e 033f aa35 b2be 7a44 3cbf 550b f03e
000001f0: 8ad3 e33e cf4c 963e 580c aa3e acb0 9ebb
00000200: caad 4dbf 7860 6dbf 3f1e 2ebe 20c2 56be
00000210: d8a9 70bc c388 143e 997a a3be 830f 33be
00000220: ca6c 97be 669c 6ebe 0939 babe 36b3 9cbe
00000230: 36d4 49be d7cb 26bc c16f 91be d0db 82bd
00000240: e7e9 613e 1762 f6bc a636 c5be 76d2 f33c
00000250: c791 943e 3e8c 653c 5f32 81be e6ba 393e
00000260: 229d a1bc f47f 073e efcd 993d bab8 64be
00000270: cfef e3be 35a9 463e 41eb 95be ad0f 83bc
00000280: 4746 42be 87e1 86bd 7426 2bbe 7ac5 a5be
00000290: e736 a9bd 326b 1dbe f407 88be d8fd f2bd
000002a0: ffd5 c43d 19fb 3d3f 7e2d 3ebf aa69 48bf
000002b0: 8855 8c3d e784 453e 3850 fa3d eaa9 6cbd
000002c0: 99b9 4bbe 5f03 b03e d1dd 12be 9e5d a2be
000002d0: 73b2 1e3f df54 ce3d 15d5 46be b27b 1b3e
000002e0: a798 44be dc88 5d3d bd2c 32bd 849b 7fbe
000002f0: 4de6 0f3e ab28 b0bd e540 ca3d 02e9 5dbe
00000300: 8cbc ae3e c489 bd3e 0040 78bf 74c6 4dbe
00000310: b229 0dbf 036e 393d 9f09 0cbf ae89 bfbc
00000320: 30df 153b e353 9abe f893 613e ee94 d43e
00000330: d253 f0be 21fe f7bd 6667 583e 0721 913e
00000340: d1b1 623e ffa4 a93e 4dcb 44bc 0c33 cebb
00000350: d182 093d 2e20 d83d dd18 bf3e 85ed 83bc
00000360: deb3 733f 2988 7e3f f93a 5ec0 4c2a f2be
00000370: ffc6 163e f1b3 aa3d cbe6 2bbe b31e e13b
00000380: 0247 d53d a46a 8a3d 7014 cdbc 6178 9b3e
00000390: 7fd5 1d3e 41c5 7abd fe25 4b3e 3bf4 673e
000003a0: dfcd da3c 27e7 793d 5568 fdbd 59b5 a3bd
000003b0: 9c0a 1bbe ee3c dbbc e886 093e 0c5f 913e
000003c0: 04df 75bd 21cc e13d 1241 a0bd 4e5c 11c0
000003d0: aa3f 1d3f cc07 85bd c42b 0dbe 4f98 84bd
000003e0: 7d78 61bf f4a1 7b3d 8cd2 60bd aeec 2dbe
000003f0: 6e3c 863e c62e 533d f406 4cbe 5f80 1f3d
0.23642762 0.25072923 -0.15868004 2.590881 -0.11791026 0.035797853 0.09497942 -0.15677263
-0.15542704 0.051872507 -0.009289499 1.0473661 0.009156563 -0.030232696 0.34492487 0.26309788
0.32728508 0.28259358 0.12903215 0.20387393 0.16102575 0.34655756 0.065986514 -0.16586293
0.9483283 -0.0110058775 -1.2745469 0.3026144 0.62473464 -0.1312027 0.33404335 -0.01574387
0.021965161 0.37892175 0.15120152 -0.22219679 0.05374184 -0.03495242 -0.16450015 -0.14181955
0.17914169 0.26467547 0.3041269 -0.017990934 0.21175788 0.18204579 0.15498391 -0.06034269
0.3887006 1.4900668 0.10782541 0.287052 -0.09319162 0.010564191 -0.3743458 0.23167498
0.3266415 0.18908773 -0.029078195 0.27601045 -0.08680861 -0.19817767 -0.07758903 -0.1254968
0.027422 -0.09154093 0.20451264 0.13282754 -0.055107735 0.21132095 0.03635166 -0.03865233
0.36872825 0.02720289 0.5829739 -0.2178788 -0.288894 0.21174046 0.2483001 -0.17709306
0.2024255 0.38474366 0.0664051 -0.19589427 -0.2899084 -0.40828386 -0.32241577 0.071821384
0.04935965 0.07519346 -0.29385984 -0.29606763 -0.025300682 -0.017220441 -0.14813368 0.0071560717
1.496397 1.6604438 -0.9266919 0.036033146 0.3801725 -0.007395276 0.11432506 -0.07176251
0.0025378705 0.52247494 0.105682135 0.39892486 -0.0062501957 0.036486723 0.1407821 0.107802674
0.11866693 0.20107621 0.038786124 0.26234472 0.3280954 0.27379206 0.111531615 -0.24324922
0.5141431 -0.34806567 -0.73541987 0.46883646 0.4449733 0.29355475 0.33212543 -0.0048428383
-0.80343306 -0.92725325 -0.17003725 -0.2097249 -0.014688931 0.14505295 -0.31929472 -0.17486386
-0.29575187 -0.23301849 -0.3637164 -0.30605477 -0.19709858 -0.010180435 -0.28405574 -0.06389582
0.22061883 -0.03007607 -0.38518256 0.029763442 0.2901747 0.014010487 -0.25233743 0.18137702
-0.019728247 0.13232404 0.07509982 -0.22336093 -0.44518897 0.19400485 -0.29281047 -0.015998686
-0.18972121 -0.06585985 -0.16713887 -0.32377225 -0.08262425 -0.15372923 -0.26568568 -0.11864823
0.09611129 0.7421127 -0.74288166 -0.7828623 0.06852251 0.1928898 0.12222332 -0.05777923
-0.19895019 0.34377572 -0.14342429 -0.3171205 0.6199104 0.100747816 -0.19417222 0.15183905
-0.19198857 0.054085597 -0.043499697 -0.24961668 0.14052697 -0.08601507 0.09875659 -0.21670917
0.34128225 0.3701917 -0.96972656 -0.20095235 -0.55141747 0.04527093 -0.5470218 -0.02338108
0.0022868626 -0.30142125 0.22029102 0.41519874 -0.4693895 -0.12109018 0.21133193 0.2834551
0.22138144 0.33133695 -0.012011361 -0.0062927064 0.033572022 0.10553013 0.37323657 -0.01610447
0.9519633 0.99426514 -3.4723494 -0.47297895 0.14724348 0.08335102 -0.1678726 0.0068701147
0.10413934 0.06758621 -0.02503416 0.3036528 0.15413474 -0.061223272 0.19838712 0.2265176
0.026709495 0.06101146 -0.123734154 -0.07993574 -0.15140766 -0.026762452 0.13430369 0.28392828
-0.060027137 0.110252626 -0.07824911 -2.2712588 0.6142527 -0.06495628 -0.13786227 -0.06474363
-0.88074476 0.061433747 -0.054888293 -0.16984817 0.2621798 0.05155828 -0.19924527 0.038940784

l1.bias f4 [400]
00000000: 8ea3 6fbe 78da 4fbe 9392 97be 4dd5 78be
00000010: d039 333c c898 d33b 3f68 24bb 4817 14bc
00000020: 619a 1e3d 1164 ab3e 87fa 75bd e15e 4a3e
00000030: e357 f1bd e9c9 7e3e b984 083d 5440 8cbe
00000040: be48 853e 2644 f63e 0323 c8be 856c 34be
00000050: 8ada 703e 1fd0 333e eda5 9d39 1f63 14be
00000060: 8301 77bd 5268 22bd 43e0 803e 4ee5 793e
00000070: 9100 9e3c 68ed dcbb c2fa 953e bb53 11be
00000080: 55c0 49be bc09 afbe 3f58 c63e b35c 71be
00000090: 9e55 9abd 9a27 ac3e fc36 98bc 92b9 13bd
000000a0: 02be a23b a7e0 a63d 0c20 8fbe 954c 21bc
000000b0: fc1c 9c3d f17c 333e c70a bcbe f6e5 66bc
000000c0: a8d0 2cbe f8fa a6bd 5656 4f3e d137 c2bd
000000d0: e2f5 7bbe 5d33 3fbc f16e 40be 8c6c 95be
000000e0: f891 8f3e 4dae bcbe 7932 083e b656 05be
000000f0: 7289 5f3d 9c4c a8bc 9a7b ddbd ecf0 013d
00000100: a729 123e 680a 2dbd e7e7 fb3c b3f4 29bd
00000110: 978c 2fbe 4ef3 dabc 6dd4 153e a05b 453d
00000120: 192d 743d 242f 4abd c998 173d fbe0 d43c
00000130: 7c9c f9be a7ed 5d3e 57c8 60be 2191 60be
00000140: 98a7 fe3c 9abe f6bd 6e4d 003e 1da6 8d3d
00000150: f124 843d a1c6 34be e7bd 81be 9f49 ebbe
00000160: 70c1 493e a403 f13d 82f2 4ebe d881 203e
00000170: ab21 7abe 39b2 eebd 6217 5ebd c031 19be
00000180: 4c79 9dbd ab4f 583e d5dc 2bbe 3a73 3cbe
00000190: 2c16 a8bd 2322 84bc 658e efbd 551b 0c3d
000001a0: d69b e23d aa2e 31be c63d fb3d b604 81be
000001b0: 609d 3f3e cf16 1bbe 5f1f f5bd 8337 a33e
000001c0: f8e0 a8be 987d 56be 8f5f d43d ee9f 39be
000001d0: 99d3 e03e cfca 43be 9158 adbd 6f36 4d3e
000001e0: dc9e 7ebc 7edf 933b c286 9d3d 8655 d4bd
000001f0: 1513 ac3d acfc f7bc 5c1d 76bd 271d b9bd
00000200: c06f 3a3e 2ed2 6bbd 4a8a 8c3e 2a36 9a3e
00000210: d251 3abd fb7f 35bb a5b5 d53d ad7e 02be
00000220: 5a19 d13d f367 3abe 3fd3 cabd 0061 f53d
00000230: a073 90bc 521a 13be 0443 2d3e 45d9 243e
00000240: be50 5b3e 6103 783e 7a7c 4dbd 9ab2 6abc
00000250: 2d6a bfbd fdab 213e a502 74be 7d8e bbbe
00000260: 5464 583e 4f52 87bc 573a 193e 49e1 293e
00000270: 9b7f a1bd 11a9 79bd 404b 3cbe 877e 613d
00000280: 8936 413e b7d5 e43d ffd4 123e d005 253c
00000290: 5999 d83d 7878 a23e 3315 633e 41dd 95be
000002a0: 65a9 6b3d ddba d1bd 1575 2abe ad20 08bf
000002b0: abd4 64be 7de4 9f3e 85e1 2fbc 792e 613e
000002c0: d5e4 2b3e 2b8d 4e3e ae45 95bd 7827 d6bd
000002d0: 0a27 84bd 8bbc 123e bbd2 0ebe a2cb 50be
000002e0: 1897 843e 513f 91be 4675 73be b26c 1ebe
000002f0: 1119 a33e a318 a8bd 119e a83e c666 6cbd
00000300: 79d3 813d c255 fdbd 293a a8be 9243 df3d
00000310: faaf 36be 35d5 053e 57aa 0bbe 5505 2f3e
00000320: d092 80bd 508d 153e 6c2b ae3d ac40 843e
00000330: 1458 c53d 0677 aebd 6961 a6be 15c3 a6bc
00000340: 0932 fa3d f57b 193e 8680 863d 2986 9fbe
00000350: 8932 06be 7f92 c43c d24f c63e 3c15 1fbe
00000360: f15f 12be 072d 36be 9ff6 cdbd 33ea a1be
00000370: 5e5f 05be 924d 663d fec7 3e3e 7dee fabd
00000380: 91f5 f73d 9428 72bc 3ba0 713d d216 be3d
00000390: 37e2 ff3d 4f30 b43c 94fa 0a3e 31ef 36be
000003a0: d3d8 2fbe 03c8 933d 8490 8e3e d4bf c83e
000003b0: 367d 2abc 4e99 903e d8e4 643e 1fa9 c6bd
000003c0: df1b 8c3d c48c 3a3d 0e08 7c3e de95 783d
000003d0: a971 523d 00f9 66bd 9f03 6fbc 12d5 92bd
000003e0: aa20 afbc 9224 95bd ffd9 b93d 7304 36bc
000003f0: 9f35 c1bd cac2 2a3e 81bc 79be e42a 32be
-0.23402235 -0.20298183 -0.29604015 -0.24300118 0.010939077 0.006457422 -0.002508655 -0.009038754
0.038721446 0.33474782 -0.060053375 0.19762756 -0.11784341 0.2488171 0.0333297 -0.27392828
0.2603206 0.48098868 -0.39089212 -0.17619522 0.23520866 0.1755986 0.00030068998 -0.14490937
-0.060304176 -0.03965027 0.25171098 0.24403879 0.01928738 -0.006742168 0.29292876 -0.14192097
-0.19702275 -0.34187114 0.387392 -0.23570518 -0.075358614 0.33623964 -0.018580906 -0.036065646
0.0049664984 0.08148318 -0.27954137 -0.009844919 0.07622716 0.1752813 -0.36726972 -0.014092913
-0.16876471 -0.08153337 0.20247778 -0.094833024 -0.24605516 -0.011669961 -0.18792321 -0.29184377
0.28041053 -0.3685173 0.13300504 -0.13021359 0.054574437 -0.020544343 -0.10814591 0.0317239
0.14273702 -0.042246252 0.030750228 -0.04149313 -0.17143475 -0.026727345 0.14631815 0.048183084
0.05961332 -0.049361363 0.03701094 0.025986185 -0.487522 0.21672688 -0.21951424 -0.21930362
0.031085774 -0.12048073 0.12529537 0.06916449 0.064523585 -0.17653896 -0.25340196 -0.45954606
0.19702697 0.117682725 -0.20209697 0.15674531 -0.24426906 -0.11655087 -0.05422152 -0.14960384
-0.07689151 0.21124141 -0.1678346 -0.1840333 -0.08207354 -0.016129559 -0.116970815 0.034205753
0.110648796 -0.17302957 0.12267642 -0.25198907 0.18712378 -0.1514542 -0.11968874 0.3187829
-0.32984138 -0.20946348 0.10369789 -0.18127415 0.43911436 -0.19120334 -0.08464158 0.20040296
-0.015540805 0.0045127263 0.07691719 -0.10367875 0.08402077 -0.03027185 -0.060086593 -0.090387635
0.18206692 -0.05757349 0.27449256 0.3011945 -0.045488186 -0.002769469 0.104350366 -0.12743635
0.102099136 -0.18203716 -0.09903573 0.11981392 -0.01763326 -0.14365509 0.16920096 0.16098507
0.2141752 0.24220039 -0.05016754 -0.0143248085 -0.09346423 0.15788265 -0.23829134 -0.36632147
0.21132022 -0.01651874 0.14963661 0.16589846 -0.07885667 -0.06095225 -0.1838808 0.055052307
0.1886846 0.11173575 0.14339064 0.010072187 0.10576124 0.31732535 0.22176056 -0.29270366
0.057534594 -0.102407195 -0.16646226 -0.5317486 -0.22346751 0.3122901 -0.01073492 0.21990384
0.16786511 0.20171039 -0.07288681 -0.10456747 -0.064527586 0.14329736 -0.13947575 -0.2039018
0.25896525 -0.2836862 -0.23775205 -0.15471151 0.31855062 -0.08207824 0.32933095 -0.0577152
0.06339163 -0.12369873 -0.32856873 0.1090156 -0.17840567 0.13069613 -0.13639198 0.17091878
-0.06278002 0.14604688 0.08504376 0.2583059 0.0963594 -0.08518796 -0.32496193 -0.020356694
0.12216575 0.14988692 0.06567483 -0.31157044 -0.13105215 0.023995636 0.38732773 -0.15535444
-0.14294411 -0.17790614 -0.10056805 -0.31623992 -0.13024661 0.05622632 0.18630978 -0.12252519
0.12107385 -0.014780182 0.0589907 0.092816964 0.12494319 0.021995692 0.1357215 -0.17864682
-0.17172556 0.072158836 0.27844632 0.39208853 -0.010405829 0.28241962 0.22352922 -0.09700226
0.068412535 0.0455444 0.24612448 0.0606898 0.051377926 -0.05638981 -0.014588266 -0.07169546
-0.02137788 -0.07282366 0.090747826 -0.011109459 -0.094340555 0.16675869 -0.24388315 -0.17399174

l2.weight f4 [300, 400]
00000000: 15c2 1abf 9731 51be f927 2d3f bdfc 33be
00000010: c288 43bf f6e3 be3e 25b4 4bbd c359 6f3e
00000020: a33c 37be 4c4d 40bf d66b 103d a7dd e1be
00000030: 1fe1 793e 2489 93be 4a77 85be 71ec 01bf
00000040: eb05 843e ec7e 50be 038d e43d d65c 843e
00000050: 6ed9 66bd 4d80 7d3c 54f3 b03e bc41 e93d
00000060: 8157 aabe d703 a33e fe9f 6a3c 2b8f 493e
00000070: 4d70 c03e ad07 1cbf bf6d f6bd 5c90 2ebf
00000080: 7386 fd3d 4153 f43e 01db 63be 133f 9d3e
00000090: 2bde b03d f99d c63e 111c 1fbe d84c bc3e
000000a0: dffc 15bf 497a 0bbf ef4c 823e 00cd a2be
000000b0: 5f24 883d 238d c33d 7259 663e 2400 b7bd
000000c0: 0b53 e63e 7e6c 12be d038 bb3d e26a acbd
000000d0: 64f5 b73e 9e20 143e cd29 cebe d553 bdbc
000000e0: a785 733e ed52 0ebb 8f2b 2ebe 53ea c3bc
000000f0: ffd3 563d 0671 41be 2f81 85be e564 fabe
00000100: 906e 573c b1d8 ee3e 814d 143f 5cde 7ebd
00000110: 3e63 2fbf 439d 94bc 3ee7 06bf 70a3 723e
00000120: 0736 65be ea1c 20be 4b78 d13c 1cb0 173e
00000130: 6244 6ebd bfae 0dbe 44f5 273f d240 80be
00000140: 5715 bdbd 94bf 3ebf f3a0 eb3b 1b42 e9bd
00000150: cea1 28be e6b6 8d3e 840b 7f3e f872 be3e
00000160: 7529 113c f4d0 b6bc 0087 34be 182a 8fbc
00000170: a764 ad3d 0e85 2b3e 5600 363e 7490 ea3d
00000180: 1568 afbe 85bf 00bf b576 fbbd 98ea b63e
00000190: 4009 e6bd 53ce d0bd c976 e4be 0f23 dbbd
000001a0: 2e1a 963e d0db 813d 91e9 c6bb 036d 923d
000001b0: 0628 813e 67fd 033e c3ca 633e 7d0e b63e
000001c0: f94f c93e f7e5 e63d d9cc c3be 10b7 d53e
000001d0: aa25 7fbd 09eb d8bc 347c bdbc 52cd 00be
000001e0: 00a7 dcbe 7421 15bf f91a 863e 5940 6cbf
000001f0: 66b4 3cbf 0d60 bf3e 611a 883d 33ed 89be
00000200: 9d7b ee3d be83 bdbd 270b 58be 0e64 29be
00000210: 068c 18bf d574 99be 5979 4c3e 1e4d 6a3e
00000220: 88bc 23bf 60ad 80be 8311 b73e 643c e1be
00000230: 786f 26be e7e9 d3bc 9adc f53d 3d18 9dbe
00000240: b631 463e 2a6a 09bf 39c2 8c3e 9e0e c0be
00000250: b1ec 343e 07df c93d 0f1f a0be 2086 dc3e
00000260: 9e09 82bd 2f40 e0bd ee11 49bf 23ab 87bd
00000270: 5e89 6d3d 38ad 783c 44b4 4fbe 08c6 64bd
00000280: f626 7fbe 9007 36bd 6bc1 99be cc9a d3bd
00000290: d12d 3ebf d96c 12bd ab3f c0be 9ce0 0e3b
000002a0: 14c6 fd3e 43c0 603e 9b6b b03e e7a3 a93e
000002b0: a249 2cbe 6d9f 1abf 9774 363e 713f 4cbf
000002c0: 9db5 863e ace7 33bd 395b 06bf 47b2 acbe
000002d0: e41b 29be f163 9cbe 9695 5b3d 1611 3d3e
000002e0: 0bb1 69be aae4 683d deba 493e 6b74 733d
000002f0: d872 6e3e 5e01 d93e 8cf3 24be e489 ebbe
00000300: 26cf a4bd a7fb a93d ce80 f83d c1e1 d4be
00000310: 1155 10be 5a27 b13d 32cd 6fbf 7dff bdbd
00000320: 877c 96bc a0e6 2cbd 8de4 193d b833 1a3e
00000330: a94e a93d e14d a6be a869 9ebe 4030 7cbd
00000340: f2e9 333e a44b adbd 5e18 ab3d 606d 9ebe
00000350: 1ac0 e43b a16e dfbe ace9 a2be 7c79 303d
00000360: 5ddd 8ebe 3c1e 113e 2937 fa3d 197e 223f
00000370: d54e b93e e01f 573e d758 5f3d adab 953e
00000380: b97e b93d 5510 e8bd 0f03 52bd b6ee 853e
00000390: 2d18 2e3e 949b 443c 6bfc 8a3c eaa9 0f3e
000003a0: 8ba4 94be 65ae fb3d ef00 fbbe 12bf c2be
000003b0: b4e8 7bbf 7925 69be 9b75 5fbe 4cc1 a43e
000003c0: 09fe 8f3e f3cb 48be fb25 7e3e 058e 7a3e
000003d0: b4cd eabd 27ee 39be 7798 223d 5cd9 993d
000003e0: a3c8 21bd f723 4ebf a88c aa3d f570 89be
000003f0: e44c a53e 9f8d 8d3d a95d 213f 112a cb3e
-0.60452396 -0.20429073 0.6763912 -0.17576881 -0.7638055 0.37283295 -0.049732346 0.23374085
-0.17894225 -0.75117946 0.03525909 -0.4411442 0.24402283 -0.28815567 -0.26067573 -0.50751406
0.25785765 -0.20360917 0.11159708 0.25852078 -0.0563597 0.015472484 0.34560645 0.11389491
-0.33269885 0.31838867 0.014320372 0.1968352 0.3758568 -0.6094921 -0.12032651 -0.68189025
0.1237916 0.47719768 -0.22251512 0.30712184 0.08636125 0.387924 -0.1553805 0.36777377
-0.58588976 -0.5448347 0.2544932 -0.31797028 0.06647562 0.09548404 0.22495058 -0.08935574
0.44985232 -0.14299199 0.091416955 -0.08418824 0.35929406 0.14465567 -0.40266266 -0.023111263
0.23781453 -0.0021716908 -0.17008804 -0.023915445 0.05244827 -0.18890771 -0.26075122 -0.489051
0.013148919 0.46649697 0.5793076 -0.062223777 -0.68510807 -0.018141394 -0.526966 0.23695159
-0.22383891 -0.1563603 0.025570055 0.14813274 -0.058170684 -0.13836192 0.6560862 -0.25049454
-0.09232586 -0.74511075 0.0071908175 -0.11389562 -0.16467974 0.27678603 0.24906737 0.3719709
0.008859982 -0.022316433 -0.17629623 -0.017476127 0.084664635 0.16749975 0.17773566 0.114533335
-0.34259096 -0.50292236 -0.12278501 0.35725856 -0.11232233 -0.10195603 -0.44621876 -0.10700046
0.2931685 0.06340754 -0.0060703238 0.071496986 0.25225848 0.12889634 0.22245316 0.3555793
0.39318827 0.11274331 -0.38242224 0.41741228 -0.06229178 -0.026479261 -0.023130514 -0.12578323
-0.4309616 -0.5825417 0.26192454 -0.92285687 -0.73712766 0.37377968 0.066456564 -0.2693878
0.11644671 -0.092536435 -0.21098004 -0.16542074 -0.5958866 -0.29971948 0.19968165 0.2288098
-0.6395955 -0.25132275 0.35755548 -0.43991387 -0.1625346 -0.02586837 0.12004967 -0.30682555
0.193549 -0.5367762 0.2749193 -0.37511152 0.17668416 0.09856992 -0.31273696 0.4307108
-0.063494906 -0.10949742 -0.78542984 -0.066244386 0.05799233 0.015178017 -0.2028361 -0.05585292
-0.24917206 -0.044440806 -0.3003038 -0.103322595 -0.7428866 -0.035748336 -0.37548575 0.0021801358
0.49565184 0.21948342 0.34457096 0.3313286 -0.16824964 -0.60399514 0.17817913 -0.79784304
0.26310435 -0.04392211 -0.52482945 -0.33729765 -0.16514546 -0.30545 0.053609453 0.18463549
-0.22821443 0.056858696 0.1970019 0.059437197 0.23285997 0.42383856 -0.16108531 -0.4600364
-0.08047323 0.08299952 0.121339425 -0.41578487 -0.1409495 0.08650084 -0.9367248 -0.09277246
-0.018369926 -0.04221213 0.03757148 0.15058792 0.08266956 -0.32481292 -0.30939984 -0.061569452
0.17569712 -0.08461693 0.08354257 -0.30942822 0.006980908 -0.4363909 -0.31818902 0.043084607
-0.27903262 0.1417169 0.12217552 0.6347366 0.36192957 0.21008253 0.054528084 0.2923254
0.090573736 -0.1133124 -0.05127245 0.26158684 0.1700141 0.011999983 0.016966065 0.14029661
-0.29031786 0.122891225 -0.4902415 -0.380364 -0.9840195 -0.22768201 -0.21822207 0.32178724
0.281235 -0.1960905 0.24819176 0.24468239 -0.11465016 -0.18157254 0.039696183 0.07512161
-0.039497983 -0.8052363 0.08327609 -0.26843992 0.32285225 0.06911778 0.6303354 0.39680532

l2.bias f4 [300]
00000000: 0da5 353e e75a ccbe fcc3 c93c 3a6a 77be
00000010: 171e 83be c329 403d f074 803e 5d39 11be
00000020: 52fb a43c e689 ab3e d1a4 a6bd 81e8 6ebe
00000030: 48a0 a03d 797d 7abe 0305 eb3d 749c f83d
00000040: 9ab6 7a3c ac43 943c 70a0 5cbd 7bf3 2b3e
00000050: 60f5 2dbd a002 9abe 0b94 ce3e 9d07 ba3c
00000060: 2e44 25be fee6 b13e 8651 653d a04c 853d
00000070: b459 9ebc 953c 65bb c197 cfbd 8107 1dbe
00000080: 34ad 55bd 2c54 34bd 2f1f c0be 6f24 603e
00000090: 6d9c ea3c 4051 bbbd dcea 84be 294e ea3b
000000a0: 6af6 6bbd d35f 39be 42d9 1c3e ed8d 78be
000000b0: b85a 71bc da35 86bd 7545 ddbe 81ea d8bd
000000c0: a628 df3c f020 8ebe d8c9 3b3d 5325 633e
000000d0: c8d0 483e 42e2 043e da54 973c c235 4e3e
000000e0: ca5a 5cbc e180 0cbd 1f04 22be a457 56bd
000000f0: 5ab5 c73c b7df 253c 6fc6 d9bd cad2 b53d
00000100: 43d0 44be 792f 99bd 5cc3 9dbe 833d aabe
00000110: 32c4 8c3c aaa9 b93e acf7 94bc 0a09 f63e
00000120: 6954 9f3e 8cd9 6abe e904 a73e d0c0 453c
00000130: 3abc d23d b416 5bbd 5452 013c d696 213e
00000140: 0152 1dbe 75ab 78be b338 313e b6be 84be
00000150: 81f3 83be 10eb 433c 9017 f7bd cf40 a7be
00000160: 0b9a e5be ffcd 65bd b4ec 5a3e 90d5 293e
00000170: 99e1 61bd f381 c13d b664 6f3e 0a11 63bd
00000180: 5271 043e d389 ed3d 8d33 813a efe7 a5bd
00000190: 4d23 5e3d cdde 853d 6dcf fcbb 7a20 eb3d
000001a0: 6d63 193d e17a e8be 7f87 50be 4851 a83e
000001b0: 0cde 17be f322 dfbd ca2f 423d 2e62 0fbd
000001c0: ac39 d83d cc0a d43d a36c e5bc 4bc0 eabd
000001d0: 5458 e3bd 0f16 a8be 943e 7dbd 2239 afbd
000001e0: 5a01 a03d 54fd 603e 5e5d 83bd 0481 31be
000001f0: 87e3 b63e 1703 c23d 4901 18be 164d 47be
00000200: b023 9a3b e7dc 58bd 69fb 203d 3afc 49bd
00000210: 7d4b cebd d53b c73e 0e57 d0be f8d6 d7bd
00000220: 0428 6d3c 29ca 3a3c bd84 19bd 64cf 113e
00000230: 587e 443e cdcc 253d 7263 793d 9e0a 753e
00000240: 9a73 5bbe d3b0 4bbd 6896 e2bd 1fd5 6f3e
00000250: 4861 793e 6a6a efbc bef6 68be 2665 ea3c
00000260: 9556 8b3e 5c3e 773e b00d 42be ae1e e0bd
00000270: 1d55 bc3d f586 9d3e 0383 803d fbd9 2e3d
00000280: 8e3e df3b b477 29be c0c3 92bd 21f6 823e
00000290: 777d 6abd 3dd9 a23c 284f 963e d3cb 76bd
000002a0: 3889 a93e 2347 3dbe 659e edbd b3db 16bd
000002b0: 3306 99bd dda4 073c ff4b 093e dcea bf3d
000002c0: d2b7 bbbe 0617 d33d 9aac 383e 7f82 f1bc
000002d0: e7a6 833e 878f aa3c 765d 02be cd16 893e
000002e0: 9307 37be 7590 9a3e df5c 5fbe 2882 9cbd
000002f0: d6f8 be3c b2f7 1e3e 305f 513d af1f c83e
00000300: 4075 a13e 96e8 86be 49e1 9dbe 5d08 363b
00000310: f889 a9be f4fa c93d 9766 64be 645e c1bd
00000320: 13bd a83b d440 803e 7958 1dbc 98c7 f03d
00000330: 6ef3 50be bfdc 923e ff12 b03e 5189 493e
00000340: b8a3 b13e ee69 0dbe 3c45 9fbe 267b 3d3e
00000350: 2270 c2bd 2842 aa3d 1fed c2be 31c9 0fbe
00000360: e6f7 083d 8877 aa3d 41c6 95be ce84 8e3e
00000370: e2be 6dbd dfe6 29bd f2b4 ba3e f4b1 c5bc
00000380: fde9 113e 296f 2abd 6a83 36be 735a 9dbe
00000390: eafa 9b3e 1762 983d a2d1 58be ee2a f43d
000003a0: 15be e9bc 59d8 743c 3c62 a93b 6f61 4ebe
000003b0: 95aa 6d3e 31bf 92bc f235 1cbd 9e4f b8be
000003c0: c55c c1be 7b2f 49bd ad3c 983e fde4 67be
000003d0: 9515 373e ec0b 1dbd 4f8a 7d3e d46e 35bd
000003e0: 4f3b e6be c482 173d 347b 87be 7958 35be
000003f0: b8bd b9be dce7 1a3e 8d74 4dbe 674d 943c
0.17738743 -0.39913103 0.024629585 -0.24161616 -0.25608894 0.046914827 0.25089216 -0.14182039
0.02013937 0.33503646 -0.08136905 -0.2333088 0.07843071 -0.24461927 0.11475565 0.12139216
0.015302325 0.018098675 -0.053863943 0.16792099 -0.042470336 -0.30080128 0.40347323 0.022708708
-0.1613929 0.34746546 0.05598595 0.06508756 -0.019329883 -0.0034978737 -0.10136367 -0.15334894
-0.052167132 -0.044025585 -0.3752379 0.21888898 0.028639043 -0.091463566 -0.25960433 0.0071504307
-0.057608046 -0.1810296 0.15317252 -0.2427289 -0.014731102 -0.0655324 -0.43217054 -0.10591603
0.027241062 -0.27759504 0.04584679 0.22182207 0.19610894 0.12976936 0.018473078 0.20137694
-0.01344938 -0.034302596 -0.15821885 -0.052329674 0.024378467 0.010124139 -0.10633551 0.088780954
-0.1922007 -0.07479758 -0.3081311 -0.33250055 0.017183397 0.36262256 -0.018184505 0.4805377
0.31119087 -0.2293455 0.32620934 0.012069896 0.102898076 -0.05348845 0.007893164 0.15780196
-0.15363313 -0.24284156 0.17306785 -0.2592675 -0.25771716 0.011957899 -0.12065041 -0.32666633
-0.44844088 -0.056104656 0.21379358 0.16585374 -0.055146787 0.09448614 0.23378262 -0.05543617
0.12933853 0.115985535 0.0009857282 -0.081008784 0.054232884 0.065366365 -0.007715157 0.11480804
0.037448335 -0.4540625 -0.20364188 0.32874513 -0.14830798 -0.10895338 0.047408856 -0.03500574
0.10557875 0.10353622 -0.028005904 -0.11462458 -0.11100832 -0.3282933 -0.061827257 -0.08555819
0.07812758 0.21971637 -0.06414293 -0.17334372 0.35720465 0.094732456 -0.1484424 -0.19463
0.0047039613 -0.052945044 0.039302263 -0.049312808 -0.10072992 0.38912836 -0.40691417 -0.10539049
0.0144748725 0.011400738 -0.037480105 0.1423927 0.19188821 0.040478516 0.060885854 0.23929831
-0.21430817 -0.04972918 -0.11063844 0.23421143 0.24353516 -0.029225547 -0.22750375 0.028612684
0.27214494 0.24144882 -0.18950534 -0.10943352 0.091959216 0.30767027 0.062749885 0.04268835
0.006812877 -0.1654957 -0.071662426 0.25578406 -0.05724856 0.019878978 0.29357266 -0.060252976
0.33112502 -0.18484168 -0.11602477 -0.036830615 -0.074718855 0.008279053 0.13407896 0.09370968
-0.3666368 0.10307126 0.18034592 -0.02948117 0.25713274 0.020820392 -0.12730965 0.26775208
-0.17873983 0.30188337 -0.21812771 -0.07642013 0.023312014 0.15524176 0.05111617 0.39086673
0.31534767 -0.26349324 -0.3083594 0.002777598 -0.33113074 0.09862319 -0.2230476 -0.09441832
0.0051494925 0.2504946 -0.009603613 0.117568195 -0.20405361 0.2868404 0.34389493 0.19681288
0.3469522 -0.1380994 -0.3110751 0.18504009 -0.09494044 0.083133996 -0.38071534 -0.14041592
0.03343954 0.0832358 -0.29252818 0.27835697 -0.05804337 -0.04147994 0.36466175 -0.024132706
0.14249416 -0.041609917 -0.17823568 -0.3073307 0.3046487 0.07440584 -0.21173719 0.11922251
-0.028533021 0.014944159 0.005169181 -0.20154355 0.23209603 -0.017913433 -0.038137384 -0.35998243
-0.3776609 -0.049117547 0.29733792 -0.22645946 0.17879327 -0.038341448 0.24759792 -0.044295147
-0.44967124 0.036989942 -0.26461184 -0.17709531 -0.36277556 0.1512751 -0.20063992 0.018103315

l3.weight f4 [4, 300]
00000000: 97fe 913e 5b65 bebf b628 84be e04a 4bbf
00000010: e545 6c3d a8cc 7cbd d889 d63e b8ea a13e
00000020: 70c1 cbbe f1c9 cc3f dbfd 2ebf 5a10 01be
00000030: 0132 8cbf 9e44 d23e 1637 833f e836 a43e
00000040: 229b 39ba ac8e f0bf 4a11 b83c 76f0 27be
00000050: 52f3 90bd 7174 a4bf f27c 273e 010d 4abd
00000060: 4fc3 98be 0371 dc3f f5ff bd3f 7b51 063f
00000070: be80 993f 0f32 063d 78c2 2bbd 3b4c 1fbf
00000080: 81eb 26be 3418 8b3d 260d f1bd 5fad fcbe
00000090: d4e1 0dbe 8d0b f1bd 4dc6 6c3f eec6 66bc
000000a0: c7f4 ef3c f289 05c0 8d4f 01bf 0318 c23f
000000b0: ab91 59ba 0f24 7ebd 862b d6bb 36d9 f4be
000000c0: 0d8c 80bc 5613 84be d9cc 473e 52d5 e2bd
000000d0: 778f 1ec0 69e5 803e 6075 2cbf 5298 4b3f
000000e0: 5933 e8be b25e 283e c0a9 29bf 2ab6 5e3d
000000f0: efd5 a23d 3352 2fbf 2d7d aebf 7eb4 a63f
00000100: 9994 eebd a0d5 5b3e 9540 f43e 3315 eabd
00000110: 17c4 03bd 90d5 e83f 65cc 04bc 9100 2dbf
00000120: 08ab 61be dcf3 833e 3ecb da3e 1680 4abb
00000130: d1b1 913e 583b c6bd 88ad 88be 2a94 a1be
00000140: 6065 913d e606 50be cb1c 59bf dca0 613e
00000150: 248f 043f eae9 193e 2e87 e0be 9e19 cc3e
00000160: 48d8 ad3f 9ea9 623d 4357 c53e c55b 4ebf
00000170: 85d8 c13c ba35 60bf 175e 07bf 5596 24bd
00000180: 3a9e afbe 728a 6b3e 1083 063c 4f93 fd3d
00000190: 91dd 43bd 4e78 1b3f 89d8 1e3d 15f2 f43d
000001a0: 1d00 7f3e 808f 703e c1e1 3fbd 5df1 6f3d
000001b0: e473 163f 145c 4c3f cf9d 62be 5041 f13c
000001c0: e076 a93e d2a4 2640 c468 37bf c5e0 093f
000001d0: 499d 243f 9b9d 8bbe 19d2 b23e 0bcb 363f
000001e0: a7ad 1cbd 8bc0 203f 63f1 86bf 7689 35bf
000001f0: 90aa b03e d626 843e d045 163f 7298 2bbf
00000200: 4f5e 993f 8ebf c93f 98a0 96bf 38ce 70be
00000210: 848e 3ebe 7df8 d0bf fd26 3b3f bd46 93bf
00000220: f24f 2a3d 2efb e7ba 1d51 14bd 2a8b e83e
00000230: 6a21 7fbe 81ee f5bd cdcd 2cbe 99c0 423f
00000240: b7cf 0f3e 10ad b3be b118 cfbe 861b 133f
00000250: c276 2d3d 3b4b bf3f aea2 3a3f 57a3 0f3c
00000260: 1010 d23f e20e 8fbe 4a0c bebd 71c4 aebe
00000270: 3f43 723f 31c3 e83e 70d6 053f 22f5 a83e
00000280: 0e3e 0dbd 367e 05bf c892 ddbe c8fb 3b3f
00000290: bbb0 f0bb 971e 17be c367 b93e de84 3fbe
000002a0: a3bd 103f ee03 90bd 7e0a 913f 187d 633e
000002b0: 3baa 40be c43d 5c3c 10bd 3fc0 263f 233f
000002c0: f53c 6a3f 7bca 883c cbe0 1e3e 3d36 a0bc
000002d0: 2559 623f dbf2 90bf 4755 c8be b741 c3bf
000002e0: c59e 91bf 11ff acbf 35e4 033f 5a30 e2bf
000002f0: 8d08 853e 60f4 8b3e dc6e 59bf 4549 ce3e
00000300: eaca f4be af5d 87bf 4de6 82bf 4d7c 983f
00000310: 24ce 903f 7f43 163f 8ef1 66bd 047e 9fbf
00000320: 0542 ba3c 0e35 0e3f 9832 a9bd 823b 53bf
00000330: 78b4 0e3f a780 f23e 9c74 debe e7c4 4640
00000340: e73b f9bd caf0 dabe 06b2 bcbe d005 583f
00000350: 2fec b23e 6501 c23f b055 87bf ced8 eebd
00000360: 86f7 51bf 973e 16bf 6d20 ad3f 907e 8c3f
00000370: 0600 333d 29af af3d c09b f43f 3f76 4f3c
00000380: 5b11 01be dbaa da3d 3c18 d43e 6205 e93e
00000390: 6d8a 5c40 0a20 97bf 633c 013f f770 a4bd
000003a0: d22e 71bf 2f37 75bc c6c7 923c e586 813e
000003b0: c13c a0bf 52ee c3be ecea b3bc b3ed 213f
000003c0: 6c1c 12bf b2c0 5dbd dc27 883f c910 8c3f
000003d0: cc74 443e a6e4 02bd 888d ee3e 777c 15bd
000003e0: 75ae 04be 7432 ecbe 0469 653f 8f59 433e
000003f0: d379 c53e 4c90 2540 190f 4dbe aa93 853e
0.2851455 -1.4874681 -0.2581231 -0.79411125 0.057683844 -0.061718613 0.4190204 0.3162439
-0.3979602 1.5999128 -0.683561 -0.12603894 -1.095276 0.41067976 1.0251186 0.3207314
-0.00070803065 -1.879354 0.022469182 -0.16400322 -0.0707766 -1.2848035 0.16356257 -0.049328808
-0.2983651 1.7221988 1.4843737 0.5246808 1.1992414 0.032762583 -0.041933507 -0.62225693
-0.16300775 0.06791726 -0.11770086 -0.49351022 -0.13855678 -0.11769781 0.9249008 -0.0140855145
0.029291524 -2.0865445 -0.5051201 1.5163578 -0.0008299599 -0.062046107 -0.00653595 -0.4782197
-0.015691781 -0.25796002 0.19511737 -0.11075844 -2.4775064 0.25175026 -0.673666 0.795293
-0.45351675 0.16442373 -0.6627464 0.054372944 0.07950961 -0.684848 -1.3631951 1.3023832
-0.116494365 0.2146821 0.47705522 -0.11429825 -0.032169428 1.8190174 -0.008105372 -0.6757899
-0.220379 0.25771987 0.42733186 -0.00308991 0.28455976 -0.09679288 -0.26694894 -0.31558353
0.07099414 -0.20315132 -0.8480956 0.22034019 0.51780915 0.15030637 -0.43853134 0.39863294
1.3581629 0.05533754 0.38543138 -0.8060878 0.023662815 -0.8758198 -0.52877945 -0.04018243
-0.34300405 0.23002031 0.008209959 0.123816125 -0.047818724 0.60730445 0.038780723 0.11960236
0.24902387 0.23492241 -0.046846155 0.05857979 0.58770585 0.79828 -0.22130512 0.029450089
0.33098507 2.6038098 -0.71644235 0.53858596 0.643025 -0.2726868 0.34925917 0.7140357
-0.038251545 0.627938 -1.0542415 -0.70912874 0.3450513 0.2581088 0.58700275 -0.6702949
1.1981906 1.5761583 -1.1767759 -0.23516166 -0.18609053 -1.6325833 0.73106366 -1.1505963
0.041580148 -0.0017698759 -0.03621017 0.45418674 -0.2491509 -0.12008382 -0.16875382 0.7607513
0.1404408 -0.35092974 -0.40448526 0.5746387 0.042349584 1.4944834 0.7290448 0.008766971
1.6411152 -0.27941042 -0.09279688 -0.34134248 0.9463386 0.4546142 0.5228033 0.32999521
-0.034483008 -0.5214571 -0.43276048 0.7343106 -0.0073452867 -0.14757763 0.36211976 -0.18703029
0.5653936 -0.070319995 1.1331327 0.22215688 -0.18814938 0.01344246 -2.9959145 0.6376823
0.91499263 0.016698113 0.15515439 -0.019557113 0.88417274 -1.1324114 -0.3912756 -1.525443
-1.1376578 -1.351534 0.5152009 -1.7671006 0.25983086 0.2733488 -0.84934783 0.40290275
-0.4781106 -1.0575465 -1.0226532 1.1912934 1.1312909 0.5869674 -0.05638271 -1.2460332
0.022736559 0.55549705 -0.08261603 -0.82512677 0.55744123 0.4736378 -0.4344834 3.105768
-0.121696286 -0.42761832 -0.3685457 0.8438387 0.3494582 1.5156676 -1.0573025 -0.11662446
-0.82018316 -0.58689255 1.352552 1.0976124 0.043701194 0.08578331 1.9110031 0.012662469
-0.12604277 0.10677119 0.4142474 0.4551192 3.4459488 -1.1806653 0.5048277 -0.08029359
-0.9421207 -0.01496677 0.017917525 0.2529823 -1.2518541 -0.3826776 -0.021962605 0.63253325
-0.5707462 -0.054138847 1.0637164 1.0942622 0.1918518 -0.031956337 0.46592355 -0.036495652
-0.12957175 -0.46132243 0.89613366 0.19077133 0.38569507 2.5869322 -0.2002529 0.2608922

l3.bias f4 [4]
00000000: c5f5 023e 6c0a 883e 0d99 8bbe daa8 8c3e
0.12789066 0.2657045 -0.27265206 0.27472574
