BipedalWalker/BipedalWalker-v3_actor_finalized_07.pth (torch, 528992 bytes, 6 tensors)

l1.weight f4 [400, 24]
0.23900831 0.26179197 -0.16013195 2.5814483 -0.11797396 0.038635682 0.10290183 -0.14950551
-0.15269932 0.046154417 -0.012420245 1.0560086 -0.00097061426 -0.028568855 0.34397855 0.26209053
0.32622147 0.28140086 0.12758939 0.20217319 0.15879044 0.34384692 0.064647175 -0.16689216
0.9433915 0.009706571 -1.2744975 0.28801334 0.625581 -0.1293114 0.33327243 -0.01785775
0.022789594 0.3805777 0.15136491 -0.22359727 0.054007452 -0.041131742 -0.16459036 -0.1419686
0.17907438 0.2647798 0.3045356 -0.017169492 0.2129585 0.18343037 0.15563105 -0.059317313
0.38903886 1.4804872 0.1075265 0.30318344 -0.09687741 0.006854367 -0.37131086 0.23146884
0.32886305 0.18879406 -0.030005736 0.27271315 -0.082503885 -0.20206304 -0.08100671 -0.12891166
0.024061745 -0.09486529 0.2012328 0.1294578 -0.058559675 0.20808405 0.032953512 -0.04205967
0.36870328 0.0024145606 0.57943434 -0.22560379 -0.2939184 0.2172323 0.2534869 -0.16977729
0.19258967 0.38152552 0.06306932 -0.19741751 -0.2900654 -0.4191639 -0.32489708 0.06917714
0.04658255 0.07237111 -0.29673576 -0.29904652 -0.028358955 -0.02023744 -0.15067679 0.005048931
1.4914923 1.6786419 -0.92439765 0.03592644 0.3830285 -0.0053046993 0.116914496 -0.0772416
-0.0014831065 0.5226759 0.09997328 0.39692736 -0.008070107 0.03978769 0.14143024 0.10833527
0.119301714 0.20180854 0.039729454 0.26357272 0.3297153 0.27561483 0.11274925 -0.24202041
0.50832826 -0.35512388 -0.71098083 0.47380564 0.44903415 0.2923824 0.35645524 -0.012239608
-0.80162376 -0.9263506 -0.18108262 -0.21116894 -0.003806052 0.14667223 -0.31631312 -0.17190474
-0.2928092 -0.2300722 -0.36074814 -0.30305293 -0.19406253 -0.0071048294 -0.2810599 -0.060872
0.22215277 -0.03246295 -0.37777475 0.009583229 0.29753095 0.009238576 -0.25772595 0.19293423
-0.021534814 0.13674888 0.084152296 -0.23232558 -0.44875962 0.20487596 -0.28503504 -0.008196597
-0.18188007 -0.0580502 -0.15935954 -0.316078 -0.07507917 -0.14618362 -0.25788578 -0.11044258
0.09343633 0.7343716 -0.73831296 -0.79661846 0.07316634 0.18860304 0.12253219 -0.07566307
-0.20299993 0.34747985 -0.14126767 -0.32452205 0.6234665 0.10237232 -0.1898876 0.15613674
-0.18759504 0.058559395 -0.038806893 -0.2448118 0.14541322 -0.08107524 0.10246194 -0.21259873
0.3330191 0.36775362 -0.9683716 -0.20790987 -0.5494201 0.04141911 -0.54766357 -0.022084394
0.002744969 -0.30070543 0.22084154 0.41930482 -0.47184163 -0.11754544 0.21244612 0.2846117
0.22250132 0.3323793 -0.01097777 -0.00523119 0.034535207 0.10615238 0.37421033 -0.015937554
0.9341835 0.984969 -3.4912174 -0.48681033 0.14418165 0.07564271 -0.16086547 0.00891763
0.0906366 0.080362566 -0.031898316 0.30575508 0.15538643 -0.069899105 0.19268267 0.22084409
0.02102318 0.05529144 -0.12945607 -0.08565474 -0.15714495 -0.032399923 0.12919694 0.27811942
-0.05468301 0.11259579 -0.07653188 -2.2627363 0.61281854 -0.063198745 -0.13846831 -0.06968527
-0.88800305 0.062474065 -0.052572493 -0.17501801 0.255083 0.050281122 -0.20007016 0.038194325
00000000: 98be 743e 9909 863e a1f9 23be 7336 2540
00000010: 559c f1bd 7340 1e3d 32be d23d f917 19be
00000020: 365d 1cbe 6a0c 3d3d 497e 4bbc 4a2b 873f
00000030: d270 7eba 3b09 eabc f51d b03e bb30 863e
00000040: 8006 a73e c613 903e cba6 023e 7d06 4f3e
00000050: f699 223e b40c b03e bd65 843d c7e5 2abe
00000060: 1b82 713f 4f08 1f3c bc22 a3bf 7c76 933e
00000070: 1426 203f 356a 04be afa2 aa3e 6b4a 92bc
00000080: 3eb1 ba3c 15db c23e 67ff 1a3e aff6 64be
00000090: eb36 5d3d c279 28bd 608a 28be 3760 11be
000000a0: 465f 373e 3891 873e 17ec 9b3e 09a7 8cbc
000000b0: cb11 5a3e 2cd5 3b3e bf5d 1f3e b6f6 72bd
000000c0: 1a30 c73e 9b80 bd3f db36 dc3d dc3a 9b3e
000000d0: aa67 c6bd 999a e03b 751c bebe 2b06 6d3e
000000e0: bd60 a83e 3b53 413e 97ce f5bc 0fa1 8b3e
000000f0: ccf7 a8bd 9de9 4ebe d9e6 a5bd 6b01 04be
00000100: 231d c53c bc48 c2bd f90f 4e3e 9690 043e
00000110: 45dc 6fbd fc13 553e 43fa 063d c346 2cbd
00000120: adc6 bc3e 9b3d 1e3b cf55 143f ae04 67be
00000130: 797c 96be 2572 5e3e 09c9 813e 19da 2dbe
00000140: 3a36 453e 5057 c33e 7d2a 813d d127 4abe
00000150: 7483 94be a79c d6be e958 a6be bfac 8d3d
00000160: 58cd 3e3d 4e37 943d c0ed 97be a01c 99be
00000170: 0a51 e8bc fdc8 a5bc 044b 1abe 8171 a53b
00000180: 38e9 be3f bddd d63f 53a5 6cbf 9a27 133d
00000190: 501c c43e 0bd3 adbb de70 ef3d d830 9ebd
000001a0: cc64 c2ba 16ce 053f cbbe cc3d 103a cb3e
000001b0: 7b38 04bc 6bf8 223d 17d3 103e e2de dd3d
000001c0: 7554 f43d e6a6 4e3e 5abb 223d 01f3 863e
000001d0: 72d0 a83e 631d 8d3e 14e9 e63d 33d4 77be
000001e0: cd21 023f ccd2 b5be d702 36bf a796 f23e
000001f0: cee7 e53e 25b3 953e 4d81 b63e a388 48bc
00000200: 3737 4dbf 5025 6dbf b96d 39be ac3c 58be
00000210: f56e 79bb 3f31 163e cbf3 a1be cc07 30be
00000220: 16eb 95be 0c98 6bbe fbb3 b8be c129 9bbe
00000230: 54b8 46be a1cf e8bb 15e7 8fbe eb54 79bd
00000240: 047c 633e dff7 04bd b16b c1be fa02 1d3c
00000250: fa55 983e 655d 173c a8f4 83be 8d90 453e
00000260: c769 b0bc e607 0c3e 0a58 ac3d c2e6 6dbe
00000270: d2c3 e5be 01cb 513e 1df0 91be 054b 06bc
00000280: c53e 3abe 0cc6 6dbd 262f 23be fad4 a1be
00000290: 1cc3 99bd 29b1 15be 9b09 84be b82f e2bd
000002a0: 8c5b bf3d c7ff 3b3f 1402 3dbf 30ef 4bbf
000002b0: 3cd8 953d 2821 413e 28f2 fa3d 3df5 9abd
000002c0: 37df 4fbe e1e8 b13e 79a8 10be c127 a6be
000002d0: 809b 1f3f 94a8 d13d e571 42be 4fe2 1f3e
000002e0: ea18 40be fadb 6f3d faf3 1ebd f2af 7abe
000002f0: 34e7 143e c70a a6bd 91d7 d13d 7bb3 59be
00000300: 7b81 aa3e 344a bc3e 34e7 77bf 53e6 54be
00000310: cca6 0cbf 16a7 293d ae33 0cbf 55ea b4bc
00000320: f0e4 333b 10f6 99be 4924 623e 1faf d63e
00000330: 3a95 f1be aabb f0bd 7a8b 593e a0b8 913e
00000340: 63d7 633e 9f2d aa3e 1bdc 33bc 676a abbb
00000350: ca74 0d3d 6b66 d93d 7f98 bf3e 798f 82bc
00000360: a626 6f3f ee26 7c3f 1b70 5fc0 343f f9be
00000370: 5ba4 133e 91ea 9a3d ebb9 24be 401b 123c
00000380: af9f b93d 2195 a43d cfa7 02bd ee8b 9c3e
00000390: 9f1d 1f3e 4327 8fbd 9b4e 453e f424 623e
000003a0: ce38 ac3c 4779 623d 2290 04be c16b afbd
000003b0: 9bea 20be c8b5 04bd 344c 043e ab65 8e3e
000003c0: 4bfb 5fbd 9f98 e63d bfbc 9cbd acd0 10c0
000003d0: ade1 1c3f 586e 81bd a3ca 0dbe 27b7 8ebd
000003e0: 2b54 63bf cee4 7f3d 4156 57bd ec37 33be
000003f0: 3d9a 823e 94f3 4d3d 31df 4cbe a771 1c3d

l1.bias f4 [400]
-0.2350419 -0.20195611 -0.2994485 -0.24505858 0.012170346 0.009438412 0.005679808 -0.004915527
0.03896043 0.32896468 -0.06092362 0.1985493 -0.11487404 0.24974391 0.028137837 -0.27360415
0.25049663 0.47514144 -0.3908674 -0.17276794 0.23262484 0.1782902 -6.197982e-05 -0.14820112
-0.06032104 -0.037399083 0.24987075 0.24520956 0.020047406 -0.008859963 0.28926545 -0.13581407
-0.19614601 -0.340532 0.38720435 -0.23590411 -0.077875055 0.33240524 -0.017540129 -0.03828691
0.008108883 0.08122311 -0.27990538 -0.01147797 0.07770235 0.17543553 -0.37344503 -0.013296327
-0.16861464 -0.0791253 0.20092568 -0.09262376 -0.24679409 -0.0115191825 -0.18351287 -0.28869647
0.28086215 -0.37037703 0.13280573 -0.13117042 0.056340482 -0.028527351 -0.10948306 0.030190926
0.14336258 -0.04482098 0.03075826 -0.042072482 -0.1664674 -0.02523401 0.14789334 0.050682552
0.0669274 -0.05684534 0.03970854 0.02988572 -0.4880513 0.2124356 -0.21921515 -0.21026096
0.03038979 -0.11325762 0.11961224 0.06768741 0.062002048 -0.17541748 -0.25463647 -0.46373376
0.19496565 0.12013706 -0.20373908 0.15608983 -0.25393862 -0.10888048 -0.048142314 -0.15566657
-0.08291261 0.21279426 -0.16780423 -0.18574342 -0.08424309 -0.017281238 -0.11746789 0.03550179
0.11244265 -0.17701101 0.123102605 -0.25748503 0.1898111 -0.15024859 -0.11568996 0.31180176
-0.32682553 -0.21062241 0.10425387 -0.1788081 0.4421406 -0.19380373 -0.0875146 0.20383967
-0.01719989 0.0067360452 0.07571519 -0.10540567 0.08395774 -0.031038608 -0.058662463 -0.09280515
0.18225528 -0.05123441 0.27597603 0.30106008 -0.04672933 -0.003153537 0.103821196 -0.117505446
0.10222556 -0.18159084 -0.10128572 0.11827985 -0.015749583 -0.14270304 0.16677023 0.16083357
0.221413 0.23897167 -0.0497611 -0.020430071 -0.09893449 0.15561715 -0.23770452 -0.36387047
0.21730302 -0.019613685 0.15057069 0.16581154 -0.08185126 -0.0671185 -0.18359923 0.05597662
0.19022273 0.11019075 0.14617895 0.009570518 0.103087746 0.31841084 0.22720508 -0.3013455
0.06736147 -0.10428469 -0.1660599 -0.5330184 -0.22679101 0.30792043 -0.01405041 0.22186045
0.16815798 0.2012273 -0.07350805 -0.107435316 -0.06260443 0.14377275 -0.1517922 -0.20725484
0.2568303 -0.28306043 -0.23741561 -0.15702745 0.31896833 -0.08044568 0.3288484 -0.059052683
0.06411649 -0.12593843 -0.32961565 0.11036792 -0.18023956 0.1308743 -0.13583072 0.17116225
-0.06336646 0.14463009 0.08193714 0.26068562 0.097418085 -0.09112367 -0.32350373 -0.022642061
0.121997446 0.14869992 0.06156313 -0.30453077 -0.13031468 0.02408234 0.3895989 -0.15040205
-0.14540543 -0.18061857 -0.102020845 -0.317787 -0.132087 0.056654613 0.18361486 -0.12742013
0.12124583 -0.0068754326 0.058925036 0.089644074 0.12139625 0.020142192 0.14490381 -0.18103161
-0.17340812 0.070274696 0.28037223 0.38567346 -0.012736375 0.28100285 0.22553986 -0.092407405
0.07181085 0.04412773 0.24312502 0.05791754 0.05094952 -0.06002432 -0.015521358 -0.07427259
-0.020240515 -0.072228014 0.0903037 -0.012207939 -0.09380212 0.1657911 -0.2427336 -0.17162676
00000000: d3ae 70be 95cd 4ebe 5051 99be a3f0 7abe
00000010: 2266 473c 92a3 1a3c af1d ba3b 6e12 a1bb
00000020: f994 1f3d 0f6e a83e 0c8b 79bd 8250 4b3e
00000030: 1543 ebbd debc 7f3e 5281 e63c d815 8cbe
00000040: 1841 803e bd45 f33e c61f c8be 14ea 30be
00000050: 3535 6e3e b591 363e 2afb 81b8 09c2 17be
00000060: 3213 77bd c82f 19bd 1ede 7f3e 3718 7b3e
00000070: 753a a43c 6129 11bc 9a1a 943e d812 0bbe
00000080: 80da 48be 365a aebe a63f c63e d990 71be
00000090: f57c 9fbd 0531 aa3e 51b0 8fbc bcd2 1cbd
000000a0: 1fdb 043c 4d58 a63d c24f 8fbe 180e 3cbc
000000b0: 6922 9f3d 5fa5 333e 3034 bfbe d6d8 59bc
000000c0: 51a9 2cbe 720c a2bd 76bf 4d3e 87b1 bdbd
000000d0: 97b7 7cbe f4ba 3cbc ccea 3bbe 06d0 93be
000000e0: 2acd 8f3e 0fa2 bdbe 3afe 073e 8a51 06be
000000f0: 47c5 663d 31b2 e9bc a838 e0bd f652 f73c
00000100: a4cd 123e 3496 37bd bff8 fb3c 3254 2cbd
00000110: 6e76 2abe 8eb7 cebc 5a71 173e 8298 4f3d
00000120: 3c11 893d a9d6 68bd 6ca5 223d e6d2 f43c
00000130: dce1 f9be b888 593e f079 60be a64e 57be
00000140: 02f4 f83c 9cf3 e7bd 43f7 f43d b29f 8a3d
00000150: dcf5 7d3d a4a0 33be b65f 82be 836e edbe
00000160: 13a5 473e 6b0a f63d faa0 50be 03d6 1f3e
00000170: 3e04 82be bbfc debd e030 45bd 0f67 1fbe
00000180: 16ce a9bd bde6 593e dfd4 2bbe 8633 3ebe
00000190: a487 acbd 6291 8dbc 0193 f0bd 536a 113d
000001a0: 5548 e63d 6042 35be 381d fc3d 14d5 83be
000001b0: d75d 423e c4da 19be dcee ecbd 7ba4 9f3e
000001c0: ad55 a7be 67ad 57be 0e83 d53d 7819 37be
000001d0: 4160 e23e 7c74 46be db3a b3bd 59bb 503e
000001e0: c9e6 8cbc 0bba dc3b 9110 9b3d eede d7bd
000001f0: 09f2 ab3d ae44 febc 0d48 70bd a010 bebd
00000200: 21a1 3a3e 2cdb 51bd bb4c 8d3e 8c24 9a3e
00000210: 4167 3fbd 92ab 4ebb 35a0 d43d b2a6 f0bd
00000220: a25b d13d f3f2 39be e36e cfbd b53c f23d
00000230: 4505 81bc bf20 12be d1c5 2a3e 8eb1 243e
00000240: 17ba 623e fdb4 743e 4cd2 4bbd f75c a7bc
00000250: 2a9e cabd 1a5a 1f3e d068 73be 3b4d babe
00000260: af84 5e3e e1ac a0bc 342f 1a3e 80ca 293e
00000270: a2a1 a7bd 6d75 89bd 7001 3cbe be47 653d
00000280: bfc9 423e b0ab e13d efaf 153e a9cd 1c3c
00000290: ab1f d33d bf06 a33e 73a8 683e f549 9abe
000002a0: cff4 893d 3693 d5bd 9b0b 2abe e573 08bf
000002b0: e73b 68be bfa7 9d3e b133 66bc 632f 633e
000002c0: 9b31 2c3e 880e 4e3e 638b 96bd 0c07 dcbd
000002d0: c036 80bd 2a39 133e 6a6f 1bbe 9d3a 54be
000002e0: 437f 833e 4ced 90be 141d 73be cecb 20be
000002f0: d14f a33e b4c0 a4bd d15e a83e 3ae1 71bd
00000300: 824f 833d 01f6 00be 62c3 a8be 9308 e23d
00000310: b890 38be ea03 063e 3517 0bbe 2845 2f3e
00000320: 46c6 81bd e919 143e a9ce a73d 9678 853e
00000330: 2283 c73d 0c9f babd 48a2 a5be d87b b9bc
00000340: ccd9 f93d cb44 183e 9f29 7c3d 75eb 9bbe
00000350: 3671 05be 5448 c53c 8279 c73e ff02 1abe
00000360: 29e5 14be 13f4 38be 4ef0 d0bd fab4 a2be
00000370: d141 07be ab0e 683d 8905 3c3e 6c7a 02be
00000380: bc4f f83d 4f4b e1bb 615b 713d 5097 b73d
00000390: 999e f83d 3d01 a53c aa61 143e 5a60 39be
000003a0: e691 31be 2eec 8f3d f38c 8f3e fe76 c53e
000003b0: 3bac 50bc 9bdf 8f3e ecf3 663e 1840 bdbd
000003c0: 9111 933d 47bf 343d c4f5 783e f13a 6d3d
000003d0: 72b0 503d 10dc 75bd 4b4d 7ebc 3a1c 98bd
000003e0: 70cf a5bc 48ec 93bd 25f1 b83d cf03 48bc
000003f0: 531b c0bd 24c5 293e 288f 78be edbe 2fbe

l2.weight f4 [300, 400]
-0.5993612 -0.23252663 0.6830374 -0.18470289 -0.7706909 0.36966828 -0.0614318 0.23734607
-0.17738761 -0.7561722 0.02626915 -0.42764172 0.24252468 -0.26720154 -0.26447916 -0.5086807
0.26035336 -0.20704742 0.11409225 0.24946287 -0.0572647 0.025127098 0.33993235 0.121588595
-0.33957642 0.3355691 0.011738632 0.2092657 0.3887679 -0.6225986 -0.11866731 -0.68189025
0.12433709 0.47139168 -0.21675485 0.31395227 0.08323695 0.38228774 -0.15176272 0.3876779
-0.5818546 -0.5575214 0.25769082 -0.33085588 0.066331446 0.10251534 0.22487064 -0.095619395
0.4425902 -0.13846831 0.101448156 -0.071874306 0.34851533 0.13875028 -0.40266266 -0.017426832
0.23162335 -0.014734983 -0.17917147 -0.027522244 0.05638786 -0.18402492 -0.27504975 -0.4884647
0.0035691496 0.46783268 0.58376163 -0.08687862 -0.6862427 -0.018083168 -0.54748404 0.23555046
-0.22782257 -0.14803618 0.026890514 0.13258605 -0.05442581 -0.13982183 0.6649515 -0.2597393
-0.08837339 -0.7461332 -0.0064037056 -0.11975717 -0.1731925 0.283892 0.24160388 0.3717734
0.008859982 -0.018550374 -0.16915315 -0.049124103 0.1055294 0.17666818 0.18313538 0.12818739
-0.33082497 -0.51059145 -0.1334577 0.36046585 -0.106831856 -0.097512186 -0.4462793 -0.104382336
0.2926985 0.05970081 0.0111749815 0.07092362 0.25662136 0.12731855 0.21154654 0.35485023
0.39121675 0.107052274 -0.3945244 0.41480166 -0.048067506 -0.0032833186 -0.0240555 -0.11353856
-0.44683018 -0.58624667 0.25315434 -0.9040624 -0.73675525 0.37322393 0.05890356 -0.2677381
0.117835715 -0.10154764 -0.2082655 -0.16934279 -0.5957496 -0.29022235 0.21133892 0.22916734
-0.6320709 -0.26198018 0.32695368 -0.44527915 -0.15938365 -0.02431587 0.1156506 -0.30850032
0.18790197 -0.55303985 0.26404402 -0.3590398 0.18418953 0.098783605 -0.31906626 0.4299369
-0.055408422 -0.11291153 -0.78637993 -0.06582711 0.054929353 0.017632024 -0.20604041 -0.0595566
-0.24118347 -0.025998788 -0.30395266 -0.10677155 -0.7276466 -0.030728344 -0.39450026 0.005727054
0.48617992 0.21802084 0.3375168 0.33740097 -0.17623192 -0.60254276 0.19379972 -0.772207
0.25190833 -0.033184517 -0.52482945 -0.32582083 -0.16255899 -0.3130891 0.0503356 0.18108347
-0.2227318 0.054956306 0.2020079 0.055866353 0.23152559 0.43378535 -0.15661153 -0.4759124
-0.06970355 0.09372594 0.124662034 -0.41026327 -0.14988193 0.07625231 -0.9328692 -0.08897543
-0.022561248 -0.056767758 0.047116056 0.14589891 0.08125731 -0.30385453 -0.30684438 -0.051801525
0.17949013 -0.07208842 0.091740586 -0.2954846 0.0033477417 -0.4275442 -0.3219602 0.055659596
-0.27903262 0.13129786 0.12336139 0.629598 0.3708882 0.20447405 0.054456525 0.3142666
0.09272994 -0.121491864 -0.037773542 0.25205487 0.16849792 0.009494214 0.023598108 0.15594667
-0.28810188 0.12584482 -0.48701054 -0.35843602 -0.9844594 -0.22768201 -0.21580778 0.31773388
0.2691409 -0.18581228 0.24729681 0.26259923 -0.11984348 -0.18900023 0.039964397 0.07687296
-0.025593713 -0.79173046 0.078361444 -0.25580978 0.3026833 0.06816859 0.62749594 0.3935726
00000000: bc6f 19bf 761b 6ebe 8adb 2e3f c122 3dbe
00000010: 004c 45bf 2945 bd3e e99f 7bbd d90a 733e
00000020: 19a5 35be 8094 41bf 6732 d73c dbf3 dabe
00000030: 6458 783e a4ce 88be d069 87be e638 02bf
00000040: 094d 853e 3d04 54be 33a9 e93d 3273 7f3e
00000050: 648e 6abd 58d7 cd3c 9d0b ae3e 7103 f93d
00000060: f6dc adbe b7cf ab3e 6453 403c bf49 563e
00000070: 960c c73e 9f62 1fbf d907 f3bd 5c90 2ebf
00000080: 72a4 fe3d 405a f13e fcf4 5dbe 5abe a03e
00000090: 2278 aa3d 38bb c33e b067 1bbe b87d c63e
000000a0: 6cf4 14bf b9b9 0ebf 0df0 833e f165 a9be
000000b0: c8d8 873d 90f3 d13d 7d44 663e 1ad4 c3bd
000000c0: 2f9b e23e a3ca 0dbe 0dc4 cf3d d632 93bd
000000d0: 9a70 b23e 8e14 0e3e cd29 cebe b7c2 8ebc
000000e0: ac2e 6d3e 006b 71bc ba78 37be 5476 e1bc
000000f0: f5f6 663d 0771 3cbe 52d3 8cbe 0c18 fabe
00000100: 65e8 693b c487 ef3e 6771 153f 6bed b1bd
00000110: 9aad 2fbf 2723 94bc ea27 0cbf 2434 713e
00000120: 524a 69be cc96 17be 7f49 dc3c a3c4 073e
00000130: 99ed 5ebd 742d 0fbe 433a 2a3f 8dfc 84be
00000140: 1cfd b4bd 9602 3fbf 2dd6 d1bb 3f43 f5bd
00000150: 6059 31be 4b5a 913e 0267 773e 1559 be3e
00000160: 7529 113c f4f6 97bc 7c36 2dbe 5b36 49bd
00000170: cc1f d83d 81e8 343e d787 3b3e 8e43 033e
00000180: e461 a9be 1fb6 02bf 23a9 08be fb8e b83e
00000190: a9ca dabd 78b4 c7bd b87e e4be 68c6 d5bd
000001a0: 94dc 953e d688 743d 4517 373c 6740 913d
000001b0: e063 833e cb5f 023e a89f 583e eeae b53e
000001c0: 904d c83e 393e db3d 1aff c9be e260 d43e
000001d0: 6fe2 44bd f22c 57bb 0a10 c5bc e886 e8bd
000001e0: edc6 e4be 4314 16bf 729d 813e a270 67bf
000001f0: fe9b 3cbf 3517 bf3e dc44 713d f814 89be
00000200: da53 f13d 36f8 cfbd 8d43 55be 3268 2dbe
00000210: 0c83 18bf 0698 94be 3b69 583e d8aa 6a3e
00000220: 66cf 21bf 4422 86be 7966 a73e a1fb e3be
00000230: 7835 23be 1332 c7bc 39da ec3d c1f3 9dbe
00000240: 6069 403e 0594 0dbf c730 873e 11d4 b7be
00000250: 2e9c 3c3e 0f4f ca3d a75c a3be b020 dc3e
00000260: f1f3 62bd 293e e7bd 3250 49bf 5dd0 86bd
00000270: 9afd 603d 0971 903c 42fc 52be 9ff1 73bd
00000280: cdf8 76be 69fb d4bc af9f 9bbe 0bab dabd
00000290: 0c47 3abf 02ba fbbc f0fb c9be 03aa bb3b
000002a0: 93ec f83e db40 5f3e 01cf ac3e d2bf ac3e
000002b0: 2476 34be 3e40 1abf 6f73 463e 5caf 45bf
000002c0: 21fa 803e 7dec 07bd 395b 06bf fdd1 a6be
000002d0: dd75 26be 374d a0be b42c 4e3d f26d 393e
000002e0: ce13 64be dd19 613d 29db 4e3e 1ed4 643d
000002f0: 0b15 6d3e 1d19 de3e c65e 20be caaa f3be
00000300: bcc0 8ebd 63f3 bf3d cf4e ff3d 070e d2be
00000310: a67a 19be 2c2a 9c3d 84d0 6ebf c038 b6bd
00000320: 5ed2 b8bc 4f85 68bd c4fc 403d 8666 153e
00000330: 3c6a a63d d292 9bbe b51a 9dbe d62d 54bd
00000340: 43cc 373e 18a3 93bd 7de2 bb3d c249 97be
00000350: c965 5b3b 13e7 dabe f8d7 a4be 51fb 633d
00000360: 5ddd 8ebe f272 063e e5a4 fc3d 562d 213f
00000370: 0fe5 bd3e a561 513e ce0d 5f3d 8de7 a03e
00000380: 32e9 bd3d bad0 f8bd 6eb8 1abd 560d 813e
00000390: b88a 2c3e 9f8d 1b3c d250 c13c 7cb0 1f3e
000003a0: 1782 93be 77dd 003e 7259 f9be ed84 b7be
000003b0: 8805 7cbf 7925 69be b7fc 5cbe 04ae a23e
000003c0: d6cc 893e 9345 3ebe 603b 7d3e 6873 863e
000003d0: 8070 f5bd 4789 41be b5b1 233d 926f 9d3d
000003e0: e8a9 d1bc d9ae 4abf f77b a03d 80f9 82be
000003f0: 4ef9 9a3e f99b 8b3d 93a3 203f 5982 c93e

l2.bias f4 [300]
0.17870085 -0.40672138 0.029317938 -0.23561792 -0.25536826 0.0382455 0.24743238 -0.14182039
0.017541861 0.32951826 -0.07800194 -0.2333088 0.07844096 -0.24524778 0.11268906 0.11771739
0.015302325 0.02595544 -0.053863943 0.1663111 -0.042920914 -0.2977793 0.4043972 0.022708708
-0.16074996 0.35352543 0.05929879 0.052947268 -0.019329883 -0.0034978737 -0.10089629 -0.15528408
-0.054420598 -0.044025585 -0.37211466 0.22040948 0.027902665 -0.08637989 -0.26270118 0.0071504307
-0.057608046 -0.18169841 0.15368578 -0.24637204 -0.014731102 -0.068712935 -0.42657384 -0.105954364
0.021871066 -0.2770071 0.04012612 0.22429809 0.19784355 0.12829095 0.0084149325 0.20171696
-0.014814384 -0.04095784 -0.15094867 -0.052329674 0.022753434 0.0111170225 -0.10845095 0.083252914
-0.1934215 -0.076204024 -0.31139824 -0.33044657 0.017183397 0.36262256 -0.018184505 0.48321643
0.30530196 -0.22910166 0.32145798 0.012069896 0.10256051 -0.04379862 0.007893164 0.15893722
-0.14969242 -0.24342322 0.1893462 -0.26946118 -0.25719032 0.009809616 -0.11993363 -0.32801813
-0.44368017 -0.052757215 0.21017456 0.16392829 -0.055146787 0.095760815 0.23072137 -0.05543617
0.12653965 0.11585219 0.0009857282 -0.074583046 0.05833616 0.069065526 -0.009469233 0.12368833
0.036447786 -0.45823482 -0.20364188 0.32235748 -0.14469235 -0.108520836 0.04796833 -0.03500574
0.10670462 0.10294844 -0.033661537 -0.110874966 -0.108011395 -0.3296023 -0.06594837 -0.07974399
0.07486993 0.21931165 -0.06732308 -0.17217109 0.3574908 0.09622189 -0.14786126 -0.19121023
0.004258265 -0.04738115 0.031484574 -0.03352265 -0.10154964 0.38751617 -0.40534806 -0.11361434
0.0144748725 0.011400738 -0.037480105 0.13856293 0.19917722 0.04228746 0.060885854 0.24085458
-0.21430817 -0.051896535 -0.101095416 0.23404744 0.24244317 -0.035425205 -0.22888139 0.028612684
0.27961993 0.2426922 -0.1910067 -0.10338124 0.09176126 0.3038924 0.06384416 0.040784042
0.0075155837 -0.16763373 -0.076408565 0.25295615 -0.05724856 0.019878978 0.29299575 -0.060041714
0.33112502 -0.18410662 -0.112496 -0.033688616 -0.06981259 0.008279053 0.13328639 0.095548764
-0.3666368 0.10373114 0.18522424 -0.02948117 0.25814357 0.024924813 -0.1255955 0.26855695
-0.1732591 0.29773086 -0.21947064 -0.07657749 0.029421331 0.15512036 0.04269484 0.38954324
0.32056856 -0.26349324 -0.3011256 -0.001455359 -0.33234093 0.10831494 -0.22829902 -0.10022767
0.0051494925 0.24153942 -0.011549175 0.11492513 -0.20389274 0.285554 0.34088385 0.19476993
0.34265026 -0.12768254 -0.30523396 0.18398368 -0.09494044 0.08848831 -0.3771971 -0.14041592
0.03343954 0.08548265 -0.29405546 0.27525967 -0.05804337 -0.041930597 0.36330497 -0.024132706
0.13906169 -0.042433918 -0.17122154 -0.30253452 0.3045327 0.07440184 -0.20966709 0.11465038
-0.02764789 0.014944159 0.00700334 -0.20324226 0.23273732 -0.02136354 -0.038137384 -0.3588998
-0.37030298 -0.049117547 0.2988025 -0.22599214 0.18500264 -0.038341448 0.24469964 -0.047768243
-0.45533696 0.03639156 -0.25944743 -0.17828289 -0.36313105 0.1514692 -0.19658183 0.018818581
00000000: 5bfd 363e c93d d0be 2c2c f03c d345 71be
00000010: a1bf 82be 50a7 1c3d ea5e 7d3e 5d39 11be
00000020: f3b3 8f3c 9eb6 a83e 7bbf 9fbd 81e8 6ebe
00000030: a7a5 a03d 3c22 7bbe 86c9 e63d d115 f13d
00000040: 9ab6 7a3c 81a0 d43c 70a0 5cbd 754d 2a3e
00000050: d7cd 2fbd 8776 98be 260d cf3e 9d07 ba3c
00000060: a39b 24be 4901 b53e 4ae3 723d 3cdf 583d
00000070: b459 9ebc 953c 65bb b7a2 cebd ca02 1fbe
00000080: 22e8 5ebd 2c54 34bd d085 bebe 06b3 613e
00000090: 2194 e43c f1e7 b0bd c580 86be 294e ea3b
000000a0: 6af6 6bbd 260f 3abe ce5f 1d3e f448 7cbe
000000b0: b85a 71bc 5eb9 8cbd e367 dabe 9afe d8bd
000000c0: f32a b33c e0d3 8dbe 495b 243d 66ae 653e
000000d0: 8097 4a3e b45e 033e c9de 093c e48e 4e3e
000000e0: 08b8 72bc 68c3 27bd 4a92 1abe a457 56bd
000000f0: 6965 ba3c 2c24 363c 881b debd 8180 aa3d
00000100: 4910 46be db10 9cbd 976f 9fbe 4b30 a9be
00000110: 32c4 8c3c aaa9 b93e acf7 94bc 2568 f73e
00000120: 8a50 9c3e a099 6abe 2496 a43e d0c0 453c
00000130: 3f0b d23d 2f66 33bd 5452 013c 70c0 223e
00000140: f848 19be f043 79be f8e3 413e d1f6 89be
00000150: 73ae 83be 83b8 203c c39f f5bd fef1 a7be
00000160: 0c2a e3be f317 58bd 0038 573e d1dc 273e
00000170: 99e1 61bd 3f1e c43d 3942 6c3e 0a11 63bd
00000180: 9c93 013e ea43 ed3d 8d33 813a ffbe 98bd
00000190: e6f1 6e3d 3a72 8d3d d824 1bbc 4f50 fd3d
000001a0: 464a 153d c19d eabe 7f87 50be 0a0c a53e
000001b0: 3b2a 14be 2c40 debd 717a 443d 2e62 0fbd
000001c0: f487 da3d a2d6 d23d aee0 09bd 6a12 e3bd
000001d0: 1435 ddbd a2c1 a8be f00f 87bd d150 a3bd
000001e0: 6855 993d 3c93 603e afe0 89bd 9e4d 30be
000001f0: 0909 b73e fb0f c53d f168 17be 9dcc 43be
00000200: ea88 8b3b bd12 42bd f8f5 003d 0c4f 09bd
00000210: 42f9 cfbd 8568 c63e c889 cfbe a3ae e8bd
00000220: 0428 6d3c 29ca 3a3c bd84 19bd 71e3 0d3e
00000230: 1df5 4b3e 9e35 2d3d 7263 793d 95a2 763e
00000240: 9a73 5bbe 7691 54bd 1d0b cfbd 22aa 6f3e
00000250: 0643 783e 051a 11bd e25f 6abe 2665 ea3c
00000260: 582a 8f3e 4e84 783e 4397 43be 8bb9 d3bd
00000270: 54ed bb3d c997 9b3e bac0 823d 2b0d 273d
00000280: 4945 f63b 2da8 2bbe 187c 9cbd 7883 813e
00000290: 777d 6abd 3dd9 a23c 8a03 963e 4dee 75bd
000002a0: 3889 a93e 7286 3cbe 4e64 e6bd 13fd 09bd
000002b0: e7f9 8ebd dda4 073c 3a7c 083e 12af c33d
000002c0: d2b7 bbbe fe70 d43d 6cab 3d3e 7f82 f1bc
000002d0: 652b 843e 1f2f cc3c 1b9c 00be 4c80 893e
000002e0: d56a 31be 2e70 983e e9bc 60be a9d4 9cbd
000002f0: 0105 f13c dfd7 1e3e c9e0 2e3d 3672 c73e
00000300: 9021 a43e 96e8 86be 222d 9abe bfc1 beba
00000310: 9728 aabe 39d4 dd3d 38c7 69be 2a44 cdbd
00000320: 13bd a83b 1c56 773e c038 3dbc de5d eb3d
00000330: 42c9 50be 2234 923e 5488 ae3e c571 473e
00000340: db6f af3e 36bf 02be a047 9cbe 3866 3c3e
00000350: 2270 c2bd 5c39 b53d fa1f c1be 31c9 0fbe
00000360: e6f7 083d 8711 af3d 708e 96be d6ee 8c3e
00000370: e2be 6dbd 6bbf 2bbd 1c03 ba3e f4b1 c5bc
00000380: 3066 0e3e 30cf 2dbd b354 2fbe cee5 9abe
00000390: b6eb 9b3e fe5f 983d f8b2 56be d2cd ea3d
000003a0: d47d e2bc 59d8 743c 467c e53b bd1e 50be
000003b0: b152 6e3e 9702 afbc f235 1cbd b7c1 b7be
000003c0: 5a98 bdbe 7b2f 49bd a4fc 983e 7c6a 67be
000003d0: 5571 3d3e ec0b 1dbd 8b92 7a3e a2a8 43bd
000003e0: ed21 e9be 510f 153d 4bd6 84be ca8f 36be
000003f0: 50ec b9be be1a 1b3e bf4c 49be 6d29 9a3c

l3.weight f4 [4, 300]
0.2824549 -1.4760779 -0.23928778 -0.7755037 0.06989593 -0.08001175 0.39744407 0.3162439
-0.40166232 1.5928576 -0.6629521 -0.12603894 -1.0802419 0.4037201 1.0178295 0.2980176
-0.00070803065 -1.858492 0.022469182 -0.13743803 -0.05780943 -1.2707654 0.1753428 -0.049328808
-0.2961968 1.7354393 1.4914112 0.4991876 1.1992414 0.032762583 -0.0378419 -0.6161294
-0.16263467 0.06791726 -0.11452528 -0.49038383 -0.13415766 -0.12708531 0.9197085 -0.0140855145
0.029291524 -2.06277 -0.51073766 1.5375102 -0.0008299599 -0.066408165 0.005332263 -0.45493865
-0.01852911 -0.25994855 0.19324812 -0.10868063 -2.4651494 0.25034386 -0.67133635 0.7994255
-0.4600318 0.16763312 -0.656522 0.054372944 0.07586652 -0.6868997 -1.356381 1.2823907
-0.111202165 0.2299982 0.47884044 -0.090376936 -0.032169428 1.8190174 -0.008105372 -0.6773066
-0.21238728 0.25821963 0.39516884 -0.00308991 0.29213738 -0.07731829 -0.26694894 -0.3286234
0.07306915 -0.19739453 -0.83009434 0.23207733 0.5163099 0.14919266 -0.44363862 0.38971367
1.3679645 0.062035084 0.3846263 -0.81120884 0.023662815 -0.8706486 -0.5058546 -0.04018243
-0.3259479 0.22959039 0.008209959 0.13012087 -0.041534353 0.59013945 0.042994145 0.118593074
0.2514687 0.24242574 -0.046846155 0.05135611 0.5944823 0.8171773 -0.21951523 0.029450089
0.33706522 2.6100287 -0.72530115 0.5244323 0.6525362 -0.2626497 0.35209244 0.7254989
-0.03337356 0.65718174 -1.054871 -0.7066853 0.35716042 0.26576632 0.5898654 -0.66208726
1.1946341 1.5854993 -1.1671605 -0.22137082 -0.19471529 -1.6242347 0.7218494 -1.1428801
0.041580148 -0.0017698759 -0.03621017 0.44180024 -0.23230825 -0.118738025 -0.16875382 0.7548442
0.1404408 -0.35219565 -0.3980694 0.5976113 0.032621812 1.4682083 0.732214 0.008766971
1.6565727 -0.28597942 -0.096579015 -0.34333253 0.94084024 0.46994945 0.52840936 0.33769655
-0.036194324 -0.52072763 -0.41656747 0.73394054 -0.0073452867 -0.14757763 0.3388503 -0.1874938
0.5653936 -0.065496005 1.1200197 0.22619544 -0.17647794 0.01344246 -3.0116556 0.60355365
0.91499263 0.03285211 0.14338203 -0.019557113 0.91103363 -1.1098676 -0.39350072 -1.4990973
-1.1350433 -1.3328629 0.52857137 -1.7645094 0.24952564 0.2712129 -0.8545732 0.39642653
-0.447979 -1.0575465 -1.014474 1.1733227 1.152198 0.59432566 -0.047170173 -1.2365309
0.022736559 0.571234 -0.08190233 -0.8449617 0.5580876 0.4729819 -0.3924662 3.081685
-0.12481758 -0.41974643 -0.34459245 0.84061253 0.3494582 1.5084357 -1.0597719 -0.11662446
-0.82018316 -0.57763 1.3521632 1.0770323 0.043701194 0.09310798 1.9249189 0.012662469
-0.12171384 0.10511694 0.4102745 0.45152172 3.427509 -1.1758766 0.49658012 -0.08050886
-0.9368771 -0.01496677 0.033922635 0.25318548 -1.2508041 -0.3756352 -0.021962605 0.65161246
-0.55272007 -0.054138847 1.051666 1.089535 0.20884252 -0.031956337 0.48405752 -0.03964319
-0.13977036 -0.45794305 0.9117337 0.1926855 0.40598753 2.57768 -0.19842029 0.2596842
00000000: ee9d 903e 1ff0 bcbf db07 75be 6987 46bf
00000010: 9925 8f3d 33dd a3bd ca7d cb3e b8ea a13e
00000020: afa6 cdbe c2e2 cb3f 3bb7 29bf 5a10 01be
00000030: 5e45 8abf 67b4 ce3e 3d48 823f c395 983e
00000040: 229b 39ba 11e3 edbf 4a11 b83c 8ebc 0cbe
00000050: 95c9 6cbd 71a8 a2bf 108d 333e 010d 4abd
00000060: 1ba7 97be e022 de3f 90e6 be3f 8495 ff3e
00000070: be80 993f 0f32 063d 1c00 1bbd a8ba 1dbf
00000080: b489 26be 3418 8b3d 3b8c eabd 9713 fbbe
00000090: a060 09be a722 02be 0472 6b3f eec6 66bc
000000a0: c7f4 ef3c 6c04 04c0 b4bf 02bf 22cd c43f
000000b0: ab91 59ba 0101 88bd 44ba ae3b b8ed e8be
000000c0: 5cca 97bc fa17 85be d6e2 453e f393 debd
000000d0: 02c5 1dc0 122d 803e b3dc 2bbf 26a7 4c3f
000000e0: 4a89 ebbe 04a8 2b3e d311 28bf 2ab6 5e3d
000000f0: e85f 9b3d a9d8 2fbf e59d adbf 6125 a43f
00000100: f6bd e3bd a684 6b3e 932a f53e 8b17 b9bd
00000110: 17c4 03bd 90d5 e83f 65cc 04bc f763 2dbf
00000120: 0d7c 59be 5d35 843e 9253 ca3e 1680 4abb
00000130: 0893 953e 0d59 9ebd 88ad 88be 5441 a8be
00000140: 47a5 953d cb21 4abe 1081 54bf aea5 6d3e
00000150: e32c 043f f6c5 183e 9a24 e3be 8d88 c73e
00000160: 7619 af3f 8018 7e3d bded c43e 62ab 4fbf
00000170: 85d8 c13c d4e2 5ebf b07f 01bf 5596 24bd
00000180: a5e2 a6be be19 6b3e 1083 063c 683e 053e
00000190: ed1f 2abd 6113 173f a11a 303d ede0 f23d
000001a0: 81c0 803e 743e 783e c1e1 3fbd c95a 523d
000001b0: fe2f 183f 8832 513f 9ac8 60be 5041 f13c
000001c0: d093 ac3e b60a 2740 56ad 39bf 3241 063f
000001d0: 9d0c 273f 057a 86be 7645 b43e 4cba 393f
000001e0: b7b2 08bd 103d 283f 0306 87bf 54e9 34bf
000001f0: bbdd b63e 8612 883e 6b01 173f 8d7e 29bf
00000200: c5e9 983f a4f1 ca3f 8465 95bf 08af 62be
00000210: 7263 47be ece6 cfbf 1fcb 383f e549 92bf
00000220: f24f 2a3d 2efb e7ba 1d51 14bd a433 e23e
00000230: 37e2 6dbe ec2c f3bd cdcd 2cbe 783d 413f
00000240: b7cf 0f3e fd52 b4be c1cf cbbe 0efd 183f
00000250: 739e 053d 40ee bb3f 6072 3b3f 57a3 0f3c
00000260: 930a d43f e56b 92be 38cb c5bd 48c9 afbe
00000270: e8da 703f 379d f03e d645 073f 90e6 ac3e
00000280: 8040 14bd 684e 05bf 5548 d5be 87e3 3b3f
00000290: bbb0 f0bb 971e 17be c97d ad3e 60fe 3fbe
000002a0: a3bd 103f c522 86bd ce5c 8f3f c79f 673e
000002b0: a2b6 34be c43d 5c3c f7be 40c0 7e82 1a3f
000002c0: f53c 6a3f ef8f 063d bdd2 123e 3d36 a0bc
000002d0: 8039 693f 2410 8ebf ed78 c9be 6ce2 bfbf
000002e0: 1949 91bf 409b aabf 7450 073f 72db e1bf
000002f0: a683 7f3e 6bdc 8a3e 4fc5 5abf 6bf8 ca3e
00000300: 815d e5be af5d 87bf 49da 81bf 702f 963f
00000310: 397b 933f ba25 183f 8335 41bd a546 9ebf
00000320: 0542 ba3c 643c 123f 69bc a7bd 694f 58bf
00000330: d4de 0e3f af2a f23e 54f1 c8be 543a 4540
00000340: 5ca0 ffbd 01e9 d6be 6c6e b0be 6232 573f
00000350: 2fec b23e 6c14 c13f 9ba6 87bf ced8 eebd
00000360: 86f7 51bf 8fdf 13bf af13 ad3f 32dc 893f
00000370: 0600 333d 66af be3d be63 f63f 3f76 4f3c
00000380: 1b45 f9bd 8d47 d73d 800f d23e db2d e73e
00000390: 4f5c 5b40 2083 96bf c03f fe3e d4e1 a4bd
000003a0: 2dd7 6fbf 2f37 75bc 76f2 0a3d 87a1 813e
000003b0: 591a a0bf 4253 c0be ecea b3bc 13d0 263f
000003c0: 107f 0dbf b2c0 5dbd fe9c 863f e275 8b3f
000003d0: d0da 553e a6e4 02bd 63d6 f73e e660 22bd
000003e0: f61f 0fbe 8377 eabe 6167 693f 594f 453e
000003f0: 99dd cf3e b6f8 2440 b02e 4bbe 54f5 843e

l3.bias f4 [4]
0.12438169 0.26590988 -0.27612343 0.2752365
00000000: d4bb fe3d 5725 883e 0d60 8dbe cceb 8c3e
