HalfCheetah/HalfCheetah-v4_actor_finalized_07.pth (torch, 520140 bytes, 6 tensors)

l1.weight f4 [400, 17]
0	0x3da85e9e	0.08221172
1	0xbf4912ab	-0.7854411
2	0xbedca582	-0.43095022
3	0xbec39b69	-0.38204506
4	0x3e0b6fb3	0.13616829
5	0x3e820a01	0.25398257
6	0x3d32ec3f	0.043682333
7	0xbe6b9659	-0.23006572
8	0xbdfbe7b4	-0.12300053
9	0xbd5a8426	-0.053348683
10	0xbf5eba06	-0.870026
11	0xbe6cf954	-0.23141986
12	0xbea1fcbf	-0.31638142
13	0x3a6d833e	0.0009060389
14	0xbe9a3f21	-0.3012629
15	0x3e83f41f	0.25772187
16	0x3e5947c2	0.2121878
17	0xc021d9c9	-2.5289176
18	0xbe09b6cf	-0.13448642
19	0xbf79532d	-0.9739254
20	0xbd74d02a	-0.059768833
21	0xbd509816	-0.05092629
22	0xbe82dc05	-0.25558487
23	0x3dde0654	0.10841051
24	0x3ea7c468	0.32767034
25	0xbd20df43	-0.03927542
26	0xbea30863	-0.31842336
27	0x3d20238a	0.039096393
28	0x3daa51b2	0.083163634
29	0x3de9bc19	0.1141283
30	0x3d079572	0.033101507
31	0x3e7278a0	0.23678827
32	0x3d379694	0.044821337
33	0x3d87b3bc	0.066260785
34	0x3f46dc74	0.77680135
35	0x3dcafdc2	0.09911682
36	0x3f2fde19	0.6869827
37	0x3dcb16a6	0.09916429
38	0x3f2ae2b1	0.66752154
39	0x3e8b3ee3	0.27196416
40	0xbde90dd6	-0.11379592
41	0xbef69adb	-0.4816502
42	0xbec9aa9b	-0.39387974
43	0xbee4ada9	-0.44663742
44	0x3ecac971	0.39606813
45	0xbea223c5	-0.31667915
46	0x3ebd4f4d	0.36974564
47	0x3ddaad8d	0.106776334
48	0xbde82dfa	-0.11336894
49	0xbd76a4f2	-0.060215898
50	0x3e7ae172	0.24500063
51	0x3e52e224	0.20594078
52	0xbbbb4627	-0.00571515
53	0x3d195936	0.037438594
54	0x3e9d213d	0.3068942
55	0x3eb1f3eb	0.34756407
56	0x3e743500	0.23848343
57	0x3f021e96	0.5082792
58	0xbe2edd66	-0.17076644
59	0x3d977886	0.07396035
60	0x3cf5ecd3	0.030020153
61	0x3f0eb30e	0.55741966
62	0xbe31de40	-0.17369938
63	0x3d0589d0	0.03260213
64	0x3cd3bffa	0.025848377
65	0x3d387071	0.045029107
66	0xbd5fe6b6	-0.054663382
67	0x3e848dbf	0.25889394
68	0xbf1f6cd4	-0.62275434
69	0x400555cf	2.0833623
70	0x3d80a127	0.06280737
71	0x3db04e35	0.08608667
72	0xbd67dd16	-0.05660733
73	0x3d1ed383	0.038775932
74	0x3f4695e8	0.7757249
75	0x3e3b16c1	0.18270399
76	0xbcd9258b	-0.02650716
77	0xbed64e99	-0.4185684
78	0x3e6bd0c1	0.23028852
79	0x3c4eb561	0.012616486
80	0xbc5867a9	-0.013208308
81	0xbd7583ed	-0.059940267
82	0xbbada1cd	-0.005298829
83	0x3d97b0c2	0.07406761
84	0xbcc2744c	-0.023737095
85	0xbc5fa9ab	-0.013651292
86	0x3f6de787	0.9293141
87	0x3f912e0c	1.1342177
88	0x3f88109f	1.0630072
89	0xbe959d76	-0.29221696
90	0xbcadaf12	-0.021201644
91	0xbe26b342	-0.16279319
92	0xbef08813	-0.46978816
93	0xbe62518e	-0.22101423
94	0x3e6431bf	0.22284602
95	0x3d0c122a	0.03419701
96	0x3e5e726e	0.21723339
97	0x3db591b8	0.08865684
98	0x3eb196c7	0.34685346
99	0xbe8673a8	-0.26260114
100	0xbe2e6f2e	-0.17034599
101	0x3e32fc16	0.17478976
102	0x3f51dfda	0.81982195
103	0x3eeadffe	0.45874017
104	0x3ec9a70e	0.39385265
105	0xbceb31e4	-0.028710313
106	0x3e326e77	0.17424951
107	0xbe02a410	-0.12757897
108	0x3e1e1d08	0.15440762
109	0xbe3981fb	-0.1811599
110	0xbf1a769c	-0.60337234
111	0x3e387177	0.18012033
112	0x3f539837	0.82654136
113	0x3deeab46	0.116537616
114	0xbc86b731	-0.016444774
115	0xbe262e1b	-0.16228525
116	0x3e86a596	0.26298207
117	0x3e264783	0.16238217
118	0xbd3d096d	-0.046151567
119	0xc06941ca	-3.6446404
120	0x3fd370e8	1.6518831
121	0xbe337bb0	-0.17527652
122	0xbe28dad0	-0.1648972
123	0xbde0c361	-0.109747656
124	0xbd808b94	-0.062766224
125	0xbe1f0ac3	-0.15531449
126	0x3e521a22	0.20517781
127	0x3ea87c00	0.32907104
128	0xbf8d406c	-1.1035285
129	0xbeb17ef4	-0.3466717
130	0xbe708f81	-0.23492242
131	0xbe191953	-0.14951067
132	0xbdb129b7	-0.086505346
133	0xbd0b114d	-0.033952046
134	0xbd4feae7	-0.05076113
135	0xbd609dd2	-0.05483801
136	0xc0092d00	-2.1433716
137	0x3f47d962	0.78066075
138	0xbecb08a1	-0.3965502
139	0x3d90c5a5	0.07068948
140	0x3d683504	0.056691185
141	0xbf02e2df	-0.5112743
142	0x3c28554e	0.0102742445
143	0xbe8d4b91	-0.27596715
144	0xbcf80089	-0.030273693
145	0xbe91cd1f	-0.28476807
146	0x3d80e4d0	0.062936425
147	0xbe0b6531	-0.1361282
148	0x3e3f292e	0.18668053
149	0xbe4fb2e0	-0.20283079
150	0xbe2d8c7a	-0.16948119
151	0xbd33d78d	-0.043906737
152	0x3ddaed21	0.1068976
153	0x407e233b	3.9709003
154	0x3e73d21e	0.23810622
155	0x3da51e9a	0.080624774
156	0xbe45f91e	-0.19333312
157	0x3dd134d1	0.10215152
158	0xbeaf426c	-0.34230363
159	0xbe2feac1	-0.17179395
160	0x3db4c4d7	0.08826607
161	0xbdf530db	-0.11972209
162	0xbee3b0e6	-0.444709
163	0x3e57af13	0.2106288
164	0xbe5900e8	-0.21191752
165	0xbe14171c	-0.1446194
166	0x3c458cdf	0.012057512
167	0xbcb8a38a	-0.022538919
168	0xbd0e71ab	-0.03477637
169	0xbd7c3500	-0.061573982
170	0xbf06cea3	-0.5265905
171	0x3f1495ce	0.58041084
172	0xbc8c467a	-0.01712345
173	0x3edc9cbf	0.43088338
174	0xbe474822	-0.1946111
175	0x3d5f16a1	0.05446494
176	0x3d2a5091	0.04158074
177	0x3f450734	0.76964116
178	0x3dc072fe	0.09396933
179	0xbc40eb3b	-0.011774833
180	0xbd961e3b	-0.07329985
181	0xbda945be	-0.082652554
182	0x3d78c9a6	0.060739182
183	0xbdbcd6e2	-0.09220673
184	0x3e2601d9	0.16211642
185	0x3e0eea74	0.13956624
186	0xbd9a15f1	-0.07523716
187	0x3efd3f8f	0.49462554
188	0xbfcf2d85	-1.6185766
189	0x3cc628ca	0.024189372
190	0x3e1e59fa	0.15464011
191	0x3d169c3b	0.036770087
192	0xbd418eb2	-0.047255225
193	0x3d7b5674	0.061361745
194	0x3e51853d	0.20460983
195	0x3e18897f	0.148962
196	0x3e6b8958	0.23001611
197	0x3e2145ea	0.15749326
198	0xbdda2496	-0.106515095
199	0xbd3caf94	-0.04606588
200	0xbd99462b	-0.074840866
201	0x3d868620	0.06568551
202	0x3ceeed9e	0.02916604
203	0xbc05a562	-0.008157106
204	0xc0441d9e	-3.0643077
205	0x3f9b9186	1.2153785
206	0x3f35e4bb	0.7105214
207	0x3e274939	0.16336526
208	0xbe2a2cb2	-0.16618612
209	0x3cccf8ba	0.025020946
210	0x3d34dd76	0.044156514
211	0x3db876fb	0.09007069
212	0x3e9cc3c9	0.30618122
213	0xbf7f7361	-0.9978543
214	0x3e7fd246	0.24982557
215	0x3e748c79	0.23881711
216	0x3dd3bb96	0.103385136
217	0x3cc744af	0.024324743
218	0xbdc11d00	-0.094293594
219	0x3da0e870	0.07856834
220	0x3d72007c	0.059082493
221	0xbf99af56	-1.2006633
222	0xbd981d9b	-0.07427522
223	0xbe4e713b	-0.20160381
224	0x3e775c66	0.24156341
225	0x3f198431	0.59967333
226	0xbdb316a4	-0.08744553
227	0xbfaf189d	-1.3679386
228	0xbf97cd42	-1.1859515
229	0x3eb0a181	0.34498218
230	0xbf3f38db	-0.7469613
231	0x3ed83963	0.42231283
232	0x3d256f64	0.040389434
233	0x3d9ba61d	0.07600043
234	0xbb56c4c5	-0.0032771092
235	0xbe96a712	-0.2942434
236	0xbdc18de6	-0.09450893
237	0x3d5c4a98	0.053782076
238	0x3dd4524c	0.103672594
239	0xbd105b5c	-0.035243377
240	0xbfa08b77	-1.2542561
241	0x3dfb8e9d	0.12283061
242	0x3c8ace47	0.016944064
243	0xbd041311	-0.032244746
244	0xbd7ae503	-0.06125356
245	0x3ecdf8e8	0.40228963
246	0xbdfdcc77	-0.12392514
247	0x3f1fcd19	0.6242233
248	0x3edc9309	0.4308093
249	0x3e913107	0.28357717
250	0x3e818a74	0.25300944
251	0x3ea20b59	0.31649283
252	0x3e1c7d0d	0.15282078
253	0xbdcbc5e1	-0.09949852
254	0x3e3304c8	0.17482293
255	0xbfe24da6	-1.7679946

l1.bias f4 [400]
0	0x3f18a5f9	0.59628254
1	0xbe1793d3	-0.14802484
2	0x3e266bd5	0.16252072
3	0x3f64ee80	0.8942642
4	0xbf1e62a1	-0.61869246
5	0xbea059a9	-0.31318405
6	0xbeec3b8d	-0.46139184
7	0xbf31ce23	-0.69455165
8	0xbeb1d6aa	-0.34734088
9	0x3de882b4	0.11353055
10	0xbf7ff467	-0.99982303
11	0x3f5d4e90	0.86448
12	0xbf1b44a3	-0.60651606
13	0xbd8950c9	-0.06704862
14	0xbf17e861	-0.5933896
15	0xbdc69ab8	-0.09697479
16	0xbf6ce287	-0.92533153
17	0x3e03d931	0.1287582
18	0x3d866ab0	0.06563318
19	0x3e289ec9	0.16466822
20	0xbe9de5d0	-0.30839396
21	0x3d80f055	0.0629584
22	0xbf3559b3	-0.70839995
23	0xbe2831b5	-0.16425212
24	0xbeead054	-0.45862067
25	0xbd15c2cc	-0.036562726
26	0xbf553db1	-0.8329726
27	0x3e5d672d	0.2162139
28	0x3e030923	0.12796454
29	0xbf2b715e	-0.6696986
30	0x3e07888f	0.13235687
31	0x3c6d8042	0.014495911
32	0x3ea6311b	0.3245934
33	0xbf21708a	-0.63062346
34	0x3b29b86a	0.0025897273
35	0x3f20af0f	0.6276712
36	0xbe96bd36	-0.2944123
37	0x3e9100d1	0.28320935
38	0x3ebeab81	0.37240222
39	0xbf06f6bc	-0.52720237
40	0xbe62915f	-0.22125767
41	0x3f85fcfb	1.0467829
42	0x3e3654f6	0.17805848
43	0xbe963c3e	-0.29342836
44	0xbebce55c	-0.36893737
45	0x3ec3be39	0.38231066
46	0xbede4cb6	-0.434179
47	0xbe2432a4	-0.16034943
48	0x3e9bd241	0.30433849
49	0xbf133528	-0.57502985
50	0xbf391d28	-0.72310114
51	0x3d3ccb00	0.046092033
52	0xbc5ab421	-0.01334861
53	0xbebd3cec	-0.36960542
54	0xbd37d0bc	-0.0448768
55	0xbf20c1c6	-0.62795675
56	0x3ec7e778	0.39043784
57	0xbe752645	-0.2394038
58	0xbc3f80ca	-0.011688421
59	0xbe4e8649	-0.20168413
60	0xbe080f49	-0.13287081
61	0xbeb29e65	-0.3488647
62	0x3f097b41	0.53703696
63	0xbeba1c58	-0.3634975
64	0x3dd6fb1a	0.104971126
65	0xbe09ad64	-0.1344505
66	0xbe335766	-0.17513809
67	0xbf802e59	-1.0014144
68	0xbf5239fe	-0.8211974
69	0xbf058c30	-0.52167034
70	0x3de8e0bf	0.11370992
71	0xbea00223	-0.3125163
72	0x3f220499	0.63288265
73	0xbed2a530	-0.41141653
74	0xbf1fa6db	-0.62363976
75	0xbf297cf2	-0.66206276
76	0xbda8253e	-0.082102284
77	0xbf1efcf2	-0.62104714
78	0xbec5fff4	-0.3867184
79	0x3ec4b1ab	0.384168
80	0x3ed184a7	0.40921518
81	0xbf9491b9	-1.1606971
82	0x3f3511d8	0.7073035
83	0x3d84ebc8	0.06490284
84	0xbd17eecf	-0.03709298
85	0xbdbaf931	-0.09129561
86	0xbd92acc7	-0.07161861
87	0x3eec8701	0.4619675
88	0x3d67fc9d	0.056637395
89	0x3f442443	0.7661783
90	0xbee13476	-0.43985337
91	0x3f22b058	0.6355033
92	0xbe155a7c	-0.14585298
93	0xbec8eab7	-0.39241573
94	0xbe6f991e	-0.23398253
95	0x3f0b67e2	0.5445539
96	0xbf35bd60	-0.7099209
97	0xbef74c28	-0.4830029
98	0x3db513c3	0.0884166
99	0xbebdbbc4	-0.37057316
100	0xbf4ce4cd	-0.8003662
101	0xbddd3f77	-0.108031206
102	0x3e0d18a1	0.13778926
103	0x3e5f96f2	0.21834925
104	0xbcf5693d	-0.029957408
105	0xbeb2818a	-0.34864455
106	0x3c31f010	0.010860458
107	0xbf522629	-0.8208948
108	0xbf03d1eb	-0.51492184
109	0x3e9134f3	0.2836071
110	0x3c972ecf	0.018454937
111	0xbe1ddc9c	-0.15416187
112	0xbec78a3f	-0.3897266
113	0x3ea361e6	0.31910628
114	0x3f560659	0.83603436
115	0xbebf379e	-0.3734712
116	0xbe41c8e0	-0.18924284
117	0x3da86b52	0.08223595
118	0xbe8bcf00	-0.27306366
119	0xbf179e8e	-0.5922631
120	0x3f196029	0.59912354
121	0x3f420194	0.7578366
122	0x3f0ed240	0.55789566
123	0x3db40c3f	0.08791398
124	0x3ec9fcc5	0.3945066
125	0xbf2c30fa	-0.6726223
126	0x3ed2e24e	0.41188282
127	0x3e209465	0.15681608
128	0x3f703f3f	0.93846506
129	0x3f054145	0.5205272
130	0x3d9ec420	0.077522516
131	0x3f244fc7	0.6418423
132	0x3e95d7d3	0.29266223
133	0x3e6923ab	0.22767513
134	0x3f3f7b98	0.74797964
135	0x3f63356d	0.88753396
136	0xbd7bce5e	-0.061476104
137	0x3e3fe45e	0.18739459
138	0xbebe905c	-0.37219512
139	0x3e8462fa	0.25856763
140	0x3eb69f94	0.35668623
141	0xbe77a1f4	-0.24182874
142	0x3f4d907f	0.8029861
143	0xbea109a6	-0.31452674
144	0xbe286b07	-0.16447078
145	0xbe78e6ea	-0.24306837
146	0x3b5efbdd	0.0034024634
147	0xbb84d770	-0.0040540025
148	0x3f34f6c9	0.70689064
149	0x3c8ea8e5	0.01741452
150	0xbe467ce5	-0.19383581
151	0xbd1859df	-0.037195083
152	0xbe56afd6	-0.20965514
153	0xbe48693f	-0.19571398
154	0x3d04e4c1	0.03244472
155	0x3f2541c5	0.6455348
156	0xbcf4c286	-0.029877912
157	0xbf552c14	-0.8327038
158	0xbe8f273d	-0.27959624
159	0xbd55a689	-0.052160773
160	0x3e62b7c9	0.22140421
161	0x3ed30622	0.41215616
162	0x3dfbfbdd	0.123038985
163	0x3e04861f	0.12941788
164	0xbe818e62	-0.25303942
165	0xbd89e3ee	-0.06732927
166	0x3e826340	0.25466347
167	0x3ecc67cf	0.3992295
168	0xbe15d986	-0.1463376
169	0xbe10ea94	-0.14151984
170	0x3f5e7752	0.8690082
171	0xbf61f84f	-0.88269514
172	0xbf6e9657	-0.9319815
173	0xbe31f53f	-0.1737871
174	0xbed0522a	-0.40687686
175	0xbedbd7cb	-0.42938074
176	0x3e63e9d9	0.22257175
177	0x3ee31a54	0.44356024
178	0xbdca394d	-0.098742105
179	0xbeb1ddfe	-0.3473968
180	0xbe66c6a5	-0.22536714
181	0x3ede7d73	0.43455085
182	0x3d9edd9c	0.077571124
183	0xbf68d013	-0.90942496
184	0xbf2f5602	-0.6849061
185	0xbe8aa747	-0.27080747
186	0xbe673165	-0.22577436
187	0x3d3ada8a	0.04561857
188	0x3f40004d	0.7500046
189	0xbf1d5e31	-0.6147185
190	0x3e1f3b64	0.1555
191	0xbe9ce1aa	-0.30640918
192	0x3ee63272	0.44960362
193	0x3f31c0f8	0.6943507
194	0xbf11049b	-0.5664765
195	0xbf19f7dc	-0.6014383
196	0xbf33306e	-0.6999577
197	0x3b050970	0.0020299815
198	0x3f5e2aa7	0.8678383
199	0xbea2571f	-0.31707093
200	0x3ddae198	0.1068756
201	0xbeafe4c0	-0.3435421
202	0xbe314687	-0.1731206
203	0xbf17a875	-0.5924142
204	0x3eeb4895	0.45953813
205	0xbe9867f9	-0.29766825
206	0xbf0f0125	-0.5586112
207	0xbe2feedd	-0.17180963
208	0xbd78bde4	-0.06072797
209	0x3f28c0fb	0.65919465
210	0xbe9d2c40	-0.30697823
211	0xbe9f8f9f	-0.31164262
212	0xbdc24bf3	-0.094871424
213	0xbcc66a80	-0.024220705
214	0x3e76f29f	0.2411599
215	0x3edd9861	0.43280318
216	0x3ea66c0c	0.32504308
217	0xbf376f3d	-0.7165411
218	0x3f09fbf8	0.539001
219	0x3ebaeb4f	0.3650765
220	0x3de7d77e	0.11320399
221	0xbe08afb5	-0.13348277
222	0xbe161f2f	-0.14660333
223	0xbf0461fb	-0.51712006
224	0x3f189922	0.5960866
225	0xbf4d54a4	-0.80207276
226	0x3dad8599	0.08472747
227	0x3e4f0ed4	0.202205
228	0x3e54a819	0.20767249
229	0x3e69985f	0.22812031
230	0x3f3e20f8	0.74269056
231	0xbebe95f9	-0.37223795
232	0x3e994c4b	0.2994102
233	0x3d359f8e	0.044341616
234	0xbe95ca80	-0.29256058
235	0xbeb19cd5	-0.34689966
236	0xbf1f3ace	-0.62199104
237	0xbeee3114	-0.4652182
238	0x3f1a8f92	0.6037532
239	0x3f2f3c64	0.68451524
240	0xbee8b696	-0.45451802
241	0x3e8ccad5	0.274985
242	0xbe56d4d3	-0.20979623
243	0x3f6fe592	0.9370967
244	0xbf5eaf01	-0.86985785
245	0x3ed4d4ec	0.41568696
246	0xbf0f2a05	-0.5592349
247	0xbef55ae2	-0.479209
248	0x3f0c60f7	0.54835457
249	0x3ea1b8f3	0.31586418
250	0x3d446aa9	0.04795328
251	0xbea3522a	-0.31898624
252	0x3d55c070	0.052185476
253	0xbe2337a9	-0.15939201
254	0xbf0abba5	-0.5419257
255	0x3dd4cb15	0.10390297

l2.weight f4 [300, 400]
0	0x3e4b9dec	0.19884461
1	0x3d8c2b92	0.06844248
2	0xbd89f35e	-0.06735872
3	0xbeda20ee	-0.42603248
4	0x3ce77efc	0.028258793
5	0x3da807e6	0.082046315
6	0x3d890e1d	0.06692145
7	0x3e403f97	0.18774258
8	0xbd8dfa1c	-0.0693247
9	0x3dbd8220	0.09253335
10	0x3d754808	0.059883147
11	0xbeb14e39	-0.34629992
12	0x3d9723bc	0.07379863
13	0xbd4bfba0	-0.049800515
14	0xbd16254a	-0.036656655
15	0x3cce0e19	0.025153207
16	0x3dc541cf	0.096316926
17	0x3ded220f	0.11578762
18	0xbdb7747d	-0.08957765
19	0xbebe4b48	-0.3716681
20	0x3e23d496	0.15999064
21	0xbe8426e6	-0.25810927
22	0x3dc36de9	0.09542448
23	0xbac104af	-0.0014726127
24	0xbeb7c430	-0.35891867
25	0xbd88682d	-0.06660495
26	0xbda8d2e0	-0.08243346
27	0x3e212ef8	0.15740573
28	0xbe69c9cc	-0.22830886
29	0x3e5b5a61	0.21421196
30	0x3d2b94fd	0.041890133
31	0xbd35fab6	-0.04442855
32	0xbc5bf438	-0.0134249255
33	0x3e57efd1	0.21087576
34	0xbc85fc11	-0.016355546
35	0xbdfdba2a	-0.123890236
36	0x3c32547d	0.010884401
37	0xbe1c03b5	-0.15235789
38	0x3d053142	0.03251768
39	0x3e987687	0.2977793
40	0xbb74325d	-0.0037261464
41	0x3d461615	0.048360903
42	0xbd2db9c9	-0.042413507
43	0x3dfc7009	0.123260565
44	0x3df658b7	0.1202864
45	0xbe989c0c	-0.29806554
46	0xbeb05752	-0.3444162
47	0x3e42aa8b	0.1901037
48	0xbd7c5f09	-0.06161407
49	0x3d0256d2	0.03182108
50	0xbdeecbd2	-0.116599694
51	0xbe2d662a	-0.16933504
52	0xbe844284	-0.25831997
53	0x3c5b24e7	0.013375497
54	0xbdaa9d12	-0.0833074
55	0xbd5d6cf7	-0.054058995
56	0xbda51adf	-0.08061766
57	0xbda4fe7b	-0.08056351
58	0x3ce58616	0.028018039
59	0x3e6b2ebd	0.22967048
60	0xbe087245	-0.1332484
61	0x3e6f77c6	0.23385534
62	0xbeaa76e3	-0.33293828
63	0xbe2c01b1	-0.1679752
64	0x3e94809c	0.2900437
65	0xbddc021d	-0.107425906
66	0x3e70a48c	0.2350027
67	0x3d06f2ac	0.032946274
68	0x3e211774	0.15731603
69	0xbd4610f2	-0.048356004
70	0xbd6e7ca5	-0.05822434
71	0x3e07a544	0.13246638
72	0xbeca83ea	-0.39553767
73	0xbe4d3baa	-0.20042291
74	0x3c379840	0.011205733
75	0xbb82b699	-0.0039890525
76	0xbdab3c7e	-0.08361147
77	0x3d6caad8	0.057780117
78	0x3e01845c	0.12648147
79	0xbe937485	-0.28799835
80	0xbe61d788	-0.22054875
81	0xbd3e808d	-0.046509314
82	0xbde9ee2c	-0.11422381
83	0xbe96992e	-0.29413742
84	0x3d70f051	0.058822934
85	0x3e45f77b	0.19332688
86	0xbd4c2084	-0.049835697
87	0xbe0873ca	-0.1332542
88	0xbe9bebd4	-0.3045336
89	0xbdda78ed	-0.10667596
90	0xbb9aaf65	-0.0047206157
91	0x3b2aec6c	0.002608086
92	0xbe071638	-0.1319207
93	0xbe31068a	-0.1728765
94	0xbe35ef2b	-0.17767017
95	0xbec143e6	-0.37747115
96	0x3e3c56b2	0.18392447
97	0xbddf351c	-0.10898802
98	0xbea48955	-0.32136026
99	0xbeae11f5	-0.33998075
100	0x3d83b1da	0.06430407
101	0x3cea9f56	0.02864043
102	0x3be81a32	0.007083201
103	0x3bb462cc	0.0055049416
104	0xbe2850c3	-0.16437058
105	0xbd27c6b9	-0.040961
106	0xbda06633	-0.07831993
107	0xbe3e706a	-0.1859757
108	0xbc6edb7b	-0.014578695
109	0xbdee9f03	-0.11651423
110	0xbe060280	-0.13086891
111	0xbe09b8e3	-0.13449435
112	0x3e250103	0.16113667
113	0xbdcf364e	-0.1011778
114	0xbd29d744	-0.04146506
115	0x3c90cdbc	0.017676227
116	0x3d8f5a54	0.069996506
117	0xbdc09fd1	-0.094054826
118	0x3cc58304	0.024110325
119	0x3e4c66a5	0.19961031
120	0xbe153b24	-0.14573342
121	0xbe8948aa	-0.2681325
122	0xbe295950	-0.16537976
123	0xbe2ed3e6	-0.1707302
124	0xbda278a8	-0.079331696
125	0x3bc532bd	0.0060180114
126	0xbd5b800e	-0.05358892
127	0xbe8f66af	-0.2800803
128	0xbe942238	-0.28932357
129	0xbe2840b1	-0.16430928
130	0xbd20a79f	-0.039222356
131	0x3cbbd11d	0.022926861
132	0xbc48d9ca	-0.012258956
133	0x3d43aed8	0.047774166
134	0xbd535e3f	-0.051603552
135	0xbe84dda6	-0.25950354
136	0xbe126dd8	-0.14299715
137	0xbd939f00	-0.07208061
138	0x3e579ce7	0.21055947
139	0x3c267a14	0.010160942
140	0x3e74d953	0.23911028
141	0xbea339b3	-0.3187996
142	0x3db12336	0.08649294
143	0xbbf9ccbb	-0.0076232827
144	0xbdc04dbf	-0.09389829
145	0xbe08221f	-0.13294266
146	0x3dc616b9	0.09672303
147	0xbd98b69c	-0.07456705
148	0x3d3cc2d4	0.04608424
149	0xbde6da66	-0.11272125
150	0xbd27116f	-0.04078811
151	0x3e577557	0.21040855
152	0xbd7ae555	-0.061253864
153	0xbe81ca36	-0.25349587
154	0x3dffbf81	0.12487698
155	0xbd96e7ad	-0.073684074
156	0xbbb80806	-0.005616191
157	0xbd088895	-0.03333338
158	0x3dc25988	0.09489733
159	0x3d4a448e	0.049381785
160	0xbc839a0d	-0.016064668
161	0x3e2019b9	0.15634812
162	0x3d695014	0.056961134
163	0x3d5bd28a	0.053667583
164	0x3d960929	0.07325966
165	0x3e09b7cf	0.13449024
166	0xbda02d46	-0.07821135
167	0x3d80dbf2	0.06291951
168	0xbd48f7df	-0.049064513
169	0xbe8408fb	-0.25788102
170	0xbeb3ee99	-0.35142973
171	0x3dab3a13	0.08360686
172	0xbd0b51c3	-0.03401352
173	0x3e4b92d5	0.1988023
174	0x3de9ab5e	0.11409639
175	0xbd54f06a	-0.05198709
176	0xbe8f79d0	-0.28022623
177	0xbe1df187	-0.15424167
178	0xbd325a0d	-0.04354291
179	0xbcc0c57e	-0.023531672
180	0x3b82a37d	0.0039867745
181	0xbb20c891	-0.002453361
182	0xbda965bb	-0.08271357
183	0x3e203a16	0.15647158
184	0x3d440e92	0.047865458
185	0x3e475529	0.1946608
186	0x3e80229d	0.25026408
187	0xbd261158	-0.040543884
188	0xbeb76ebe	-0.35826677
189	0xbdb856d1	-0.09000934
190	0xbd87b5b1	-0.06626452
191	0x3b3cc1ee	0.0028802115
192	0xbecb61f5	-0.39723173
193	0xbe8af09f	-0.27136704
194	0x3e376512	0.17909649
195	0x3cc1ac02	0.02364159
196	0x3e2b44b6	0.1672543
197	0x3deea31b	0.11652204
198	0xbe849c0f	-0.25900313
199	0xbe435902	-0.19076923
200	0xbe2390cd	-0.15973206
201	0x3e130d46	0.14360532
202	0xbd6dd56b	-0.05806486
203	0x3d3f8860	0.046760917
204	0xbda41d7d	-0.08013437
205	0x3dc1dcf0	0.094659686
206	0x3985854f	0.0002546706
207	0x3e92359b	0.28556523
208	0xbc574f49	-0.013141462
209	0xbe1305a9	-0.14357628
210	0x3eb9257e	0.36161417
211	0x3e3e1f61	0.18566658
212	0x3d25d992	0.040490694
213	0x3e9ce4c5	0.30643287
214	0xbe473f65	-0.19457777
215	0xbc9e29f5	-0.019307116
216	0xbe1095f4	-0.14119703
217	0x3cd73db8	0.026274547
218	0xbe3b8cd3	-0.18315439
219	0xbe754c58	-0.23954904
220	0xbe0af50d	-0.13570042
221	0xbc507219	-0.0127225155
222	0xbda2cc39	-0.07949109
223	0xbc009652	-0.007848339
224	0x3d1705eb	0.03687088
225	0x3d6478d9	0.05577931
226	0xbede965d	-0.43474093
227	0xbe17f9ec	-0.14841431
228	0x3c58af4f	0.013225391
229	0x3c1435cf	0.009046032
230	0xbea45f56	-0.32103986
231	0xbd619330	-0.05507201
232	0x3cc8650e	0.02446225
233	0x3dece020	0.11566186
234	0xbc71939e	-0.014744667
235	0xbd5783d1	-0.052615944
236	0x3d9462d3	0.07245412
237	0x3dd4b172	0.103854075
238	0xbe35e653	-0.17763643
239	0xbe11aab9	-0.14225282
240	0xbd5c00e1	-0.053711776
241	0xbda9627a	-0.08270736
242	0x3ca80c82	0.020513777
243	0xbed2fd16	-0.41208714
244	0x3e27342f	0.163285
245	0x3e56ba60	0.20969534
246	0xbd59ab5c	-0.053141937
247	0x3d5465c4	0.051854864
248	0xbe111a7a	-0.14170256
249	0xbdad162d	-0.08451495
250	0xbd934b4f	-0.07192098
251	0xbda8a844	-0.08235219
252	0x3d706e91	0.058699194
253	0x3e103394	0.14082175
254	0xbcda1907	-0.026623262
255	0x3db5aea7	0.08871203

l2.bias f4 [300]
0	0xbf0c246a	-0.54743063
1	0xbeeba36c	-0.46023118
2	0xbea3b7a8	-0.31976056
3	0xbee2eef0	-0.4432292
4	0xbddb842c	-0.10718569
5	0xbe13f0d7	-0.14447342
6	0x3e2bc861	0.16775657
7	0x3eb08f9f	0.34484574
8	0x3a8bfe3c	0.0010680626
9	0xbe1fc2f7	-0.15601717
10	0x3d000ec5	0.031264085
11	0x3f17ab6d	0.5924595
12	0xbe8662b4	-0.2624718
13	0xbe7b283a	-0.24527064
14	0xbe509a2c	-0.20371312
15	0x3e9e04d9	0.30863073
16	0x3dbaff58	0.09130734
17	0x3dac9da9	0.08428509
18	0x3bbb65d9	0.0057189283
19	0xbdae2a0b	-0.08504113
20	0x3ec077b7	0.37591335
21	0xbe806c27	-0.25082514
22	0x3ec5bd1a	0.38620836
23	0xbe626bf9	-0.22111501
24	0xbea125fe	-0.31474298
25	0x3ed7b906	0.4213335
26	0xbd432a71	-0.047647897
27	0x3caefe08	0.021361366
28	0xbd5c56bd	-0.053793658
29	0x3eca5fec	0.39526308
30	0x3da1143e	0.07865189
31	0xbd5acc3f	-0.05341744
32	0x3d9ce59b	0.07660981
33	0xbc6210be	-0.013797937
34	0xbd6fcfb4	-0.05854769
35	0x3e8992e2	0.26869875
36	0x3dae3bc0	0.0850749
37	0x3efb2406	0.4905092
38	0xbb51ce2e	-0.0032013762
39	0xbd3bb8b8	-0.04583046
40	0xbe6f304c	-0.23358268
41	0x3e674983	0.22586636
42	0xbd677305	-0.056506176
43	0x3e947fec	0.29003847
44	0x3dadc88f	0.08485519
45	0xbebf27a9	-0.37334946
46	0xbe91da52	-0.28486878
47	0x3e1d448e	0.15358183
48	0xbcba5227	-0.022744251
49	0xbed70fc2	-0.4200421
50	0x3d9ca467	0.07648545
51	0x3a74297e	0.0009314044
52	0xbd8edda4	-0.06975868
53	0xbf23537f	-0.6379928
54	0xbe882198	-0.2658813
55	0x3f1520f5	0.58253413
56	0x3e24067d	0.160181
57	0xbe663265	-0.22480161
58	0xbcbcbddc	-0.02303975
59	0xbe204dad	-0.15654631
60	0x3dadf5cc	0.08494148
61	0x3dc5a5ac	0.0965074
62	0x3e8f5b94	0.27999556
63	0x3a85bbf7	0.0010203113
64	0xbe8881cf	-0.26661536
65	0xbe32f175	-0.17474921
66	0x3e86fd88	0.26365304
67	0xbe0cd393	-0.13752584
68	0xbd895879	-0.06706328
69	0x3e896407	0.26834127
70	0x3d0e971a	0.03481207
71	0xbb9975a6	-0.0046832142
72	0x3ec63f71	0.38720277
73	0xbddfe491	-0.109322675
74	0xbe83de0c	-0.25755346
75	0x3c807367	0.015680028
76	0xbe46071d	-0.19338651
77	0x3e2c98fe	0.16855237
78	0xbcbf2f83	-0.023338085
79	0xbe0e27bc	-0.13882345
80	0xbe47fc49	-0.19529833
81	0xbde40926	-0.111345574
82	0xbec2eb8f	-0.38070342
83	0x3e13edee	0.14446232
84	0xbd3df71b	-0.046378236
85	0xbdb31872	-0.08744897
86	0x3dca0ebf	0.09866094
87	0xbe2af890	-0.16696382
88	0xbe8d0e9c	-0.2755021
89	0x3d1e3672	0.03862614
90	0x3e4c6f21	0.19964267
91	0xbe2c2e3a	-0.16814509
92	0x3cd4ebd0	0.02599135
93	0x3b985df7	0.0046498734
94	0x3e4fb8d4	0.2028535
95	0xbe8637e7	-0.26214525
96	0xbe3c44a7	-0.18385564
97	0xbd7c450b	-0.061589282
98	0x3e48367a	0.19552031
99	0x3d850590	0.064952016
100	0xbec1113c	-0.3770846
101	0x3e61e6ce	0.22060701
102	0x3e22fe7c	0.1591739
103	0xbe71658f	-0.23573898
104	0x3e0d6160	0.13806677
105	0x3e3a64ec	0.18202561
106	0xbec0e84a	-0.37677222
107	0x3f3cba5a	0.7372185
108	0xbdd0d51f	-0.101968996
109	0x3cf03ef9	0.029326903
110	0x3dbaa190	0.09112847
111	0x3e31af80	0.17352104
112	0xbe2a19db	-0.16611426
113	0xbeb06010	-0.3444829
114	0x3e8827a9	0.26592758
115	0xbdf0399f	-0.1172974
116	0x3d64ad07	0.055829074
117	0x3b9fe085	0.0048790597
118	0x3d0a9540	0.033833742
119	0xbe234b02	-0.15946582
120	0x3e55816e	0.20850155
121	0xbe4065b6	-0.187888
122	0xbe078d7b	-0.13237564
123	0xbdf72202	-0.12067033
124	0xbe308c5a	-0.1724104
125	0xbe8420e0	-0.25806332
126	0xbf196397	-0.5991759
127	0xbf098eb6	-0.53733385
128	0x3d207c21	0.03918088
129	0xbe8c9414	-0.27456725
130	0x3e0dd267	0.13849793
131	0xbe1a94eb	-0.1509587
132	0xbc9fcce0	-0.019506872
133	0x3e90784c	0.2821678
134	0xbeb6df00	-0.3571701
135	0x3e522031	0.20520093
136	0x3e084ae8	0.13309824
137	0xbede2c83	-0.43393335
138	0x3e1a64b8	0.15077484
139	0x3ec2bac0	0.38033104
140	0x3e058d04	0.13042074
141	0xbe366659	-0.1781248
142	0xbea5264c	-0.3225578
143	0xbe658115	-0.22412522
144	0xbe23f816	-0.16012606
145	0x3ca5b058	0.020225689
146	0x3cf07b23	0.029355591
147	0x3d24d219	0.040239427
148	0xbf0f0528	-0.5586724
149	0xbe0b42a5	-0.13599642
150	0x3e3e3c62	0.18577722
151	0xbea35c7a	-0.31906492
152	0x3dba9e17	0.091121845
153	0xbf125542	-0.57161343
154	0x3e950eed	0.2911295
155	0xbe79c091	-0.24389865
156	0x3d0de6f3	0.03464408
157	0xbc9c960b	-0.019114515
158	0xbdf3b993	-0.1190063
159	0x3d09566c	0.033529684
160	0xbe2fe677	-0.17177759
161	0xbd7fec55	-0.062481243
162	0xbddafeb9	-0.10693116
163	0xbeb30b6b	-0.3496965
164	0x3d871a37	0.06596797
165	0xbe1f074e	-0.1553013
166	0x3d1b9458	0.03798327
167	0x3ec654b0	0.38736486
168	0xbd22199f	-0.039575215
169	0x3ee83768	0.45354772
170	0xbdc69abf	-0.09697484
171	0x3e3f3a67	0.18674622
172	0xbe3e8100	-0.18603897
173	0xbe653666	-0.22384033
174	0xbee5b6de	-0.4486608
175	0xbdbde5ac	-0.09272322
176	0xbe1e6034	-0.15466386
177	0xbea8be2b	-0.32957587
178	0x3efaacec	0.48960054
179	0x3e3971e0	0.18109846
180	0x3e987f2c	0.29784524
181	0x3c32512b	0.01088361
182	0xbd15962e	-0.036520176
183	0xbd5fba7e	-0.054621212
184	0x3e854620	0.26030064
185	0x3cc54509	0.02408077
186	0xbdea6635	-0.11445276
187	0xbe47a68d	-0.19497128
188	0x3e66bf7a	0.2253398
189	0xbf0ac309	-0.5420385
190	0x3e1a78a1	0.15085079
191	0xbdfac35f	-0.12244295
192	0xbe36a03a	-0.17834559
193	0x3f0ab99f	0.54189485
194	0x3cfa1c99	0.030531215
195	0x3ec57abd	0.38570204
196	0x3e0ba3cd	0.13636704
197	0xbe8d0293	-0.27541026
198	0x3e8a2f3e	0.26989168
199	0x3d86c685	0.06580833
200	0xbe097db1	-0.13426854
201	0x3e0a9cd4	0.13536388
202	0xbdef94de	-0.11698316
203	0x3d164931	0.036690895
204	0x3decfd40	0.11571741
205	0xbb4c0576	-0.0031131185
206	0xbe067525	-0.13130625
207	0xbd8e6dcf	-0.06954538
208	0xbe9a1875	-0.30096784
209	0x3dc1268f	0.094311826
210	0x3ef6f23f	0.48231694
211	0xbecdc55d	-0.4018964
212	0x3eec0a62	0.4610167
213	0xbdf004b0	-0.11719644
214	0x3be1ce5f	0.0068910564
215	0x3dcef26d	0.10104833
216	0xbe8906f9	-0.26763132
217	0xbd77756b	-0.060414713
218	0xbeb1cd60	-0.34727
219	0x3e4d6789	0.20059027
220	0x3eeceb95	0.46273485
221	0xbb60d768	-0.003430808
222	0xbe5aba9d	-0.2136025
223	0xbdbd97a0	-0.09257436
224	0x3e85fe68	0.2617066
225	0xbd03ef4a	-0.032210626
226	0x3e1d242d	0.15345831
227	0xbda262e3	-0.079290174
228	0xbeb562e4	-0.3542701
229	0xbde701fd	-0.11279676
230	0xbe7b1984	-0.24521452
231	0x3f049a33	0.5179779
232	0x3e20e8c9	0.157138
233	0xbdbe95e8	-0.09305936
234	0xbdd515bd	-0.10404537
235	0xbddd1be4	-0.10796335
236	0x3dd1344a	0.102150515
237	0xbe36c2c5	-0.17847736
238	0x3d6f36b7	0.05840179
239	0xbe2b058c	-0.16701335
240	0xbf1d242d	-0.61383325
241	0xbd6ce879	-0.05783889
242	0xbdf7b8a6	-0.12095766
243	0x3b9a986f	0.0047178785
244	0xbd2fed70	-0.042951047
245	0xbd1579b6	-0.036493026
246	0xbee42573	-0.4455982
247	0x3e8215d1	0.2540727
248	0xbe0b12e2	-0.13581422
249	0xbd06a375	-0.03287073
250	0xbe2dddd6	-0.16979155
251	0xbe67cd0d	-0.22636814
252	0xbd71177d	-0.05886029
253	0x3c7b7ceb	0.015349607
254	0xbc96620d	-0.018357301
255	0x3e41aefa	0.18914405

l3.weight f4 [6, 300]
0	0xbef24a4a	-0.47322303
1	0xbeb8cd85	-0.360943
2	0x3ec65b56	0.3874156
3	0xbeb0f92c	-0.34565103
4	0xbe5c5c14	-0.215195
5	0x3ef711f6	0.4825589
6	0x3d40c5da	0.047063686
7	0x3e7c0d31	0.24614407
8	0xbd40ea60	-0.047098517
9	0xbd4782e9	-0.04870883
10	0xbd5abd02	-0.05340291
11	0x3efaa440	0.48953438
12	0xbe19e883	-0.15030102
13	0xbd9e6d56	-0.07735698
14	0xbde4efa2	-0.11178519
15	0xbc8dcfd4	-0.017311014
16	0xbe3a4dfb	-0.1819381
17	0x3d4a4113	0.049378466
18	0x3ed0d9f3	0.40791282
19	0x3db4cba4	0.08827904
20	0x3cc8436d	0.024446214
21	0xbe8ecdfd	-0.27891532
22	0xbd330acf	-0.04371148
23	0x3e888ec1	0.26671413
24	0x3e06f14f	0.1317799
25	0x3ec10cd4	0.377051
26	0x3d86e6e3	0.06587007
27	0x3f0b6ecf	0.54465955
28	0xbba774f0	-0.0051103756
29	0xbdbfb686	-0.093609855
30	0x3cb603c8	0.0222186
31	0x3cd4f640	0.025996327
32	0x3ea7bd0a	0.32761413
33	0xbcd5c2d3	-0.026093876
34	0xbe13634d	-0.14393349
35	0xbe273167	-0.16327439
36	0xbeaa54dc	-0.33267868
37	0xbd7767d5	-0.060401756
38	0x3e6482ce	0.22315523
39	0xbdf11ddf	-0.117732756
40	0xbe9fb3ef	-0.31191966
41	0x3ef5b2ef	0.47988078
42	0xbe91150d	-0.28336373
43	0xbea93a6c	-0.33052385
44	0xbc0be8a6	-0.008539354
45	0x3e2c6240	0.16834354
46	0x3a8829a5	0.0010388388
47	0x3dc9450c	0.09827623
48	0x3ed18c9e	0.40927595
49	0x3cf46d40	0.02983725
50	0x3ec96c86	0.3934061
51	0xbeda4dda	-0.4263752
52	0x3e172cf3	0.1476324
53	0xbe52776f	-0.20553373
54	0xbe3289c3	-0.17435364
55	0xbe01e979	-0.12686719
56	0x3d489983	0.048974525
57	0xbec35f17	-0.38158485
58	0xbf252d9f	-0.6452274
59	0xbe9431d3	-0.28944263
60	0x3e9524ee	0.29129738
61	0x3dbda8d1	0.09260715
62	0x3e333bb1	0.17503239
63	0xbcae0bde	-0.021245893
64	0x3e70671e	0.23476836
65	0x3e8bf9ae	0.27338928
66	0x3e869358	0.2628429
67	0x3e80a099	0.25122526
68	0xbd18b408	-0.037281066
69	0x3e190a5d	0.1494536
70	0x3ed025e3	0.40653905
71	0x3ebb6c99	0.3660629
72	0x3e89de43	0.26927385
73	0x3ef5bfa4	0.47997773
74	0xbc32fe90	-0.01092495
75	0xbe90961e	-0.2823953
76	0xbf0cd240	-0.55008316
77	0xbe2185eb	-0.15773742
78	0x3d65ae97	0.056074705
79	0x3deecc1d	0.11660025
80	0xbdd3a5c9	-0.103343554
81	0xbcaa9188	-0.020821348
82	0x3dfcd0e7	0.123445325
83	0x3e921d36	0.2853791
84	0xbe46825e	-0.19385669
85	0x3d941380	0.07230282
86	0xbebdb198	-0.37049556
87	0xbdf4a35f	-0.11945223
88	0xbe98cba3	-0.29842862
89	0x3e830ba0	0.25594807
90	0x3ee57da3	0.44822416
91	0xbddd7aae	-0.10814415
92	0xbea055ff	-0.3131561
93	0x3de972de	0.11398862
94	0x3ecc00ea	0.39844447
95	0x3e2ad3d6	0.16682371
96	0xbb32d35d	-0.0027286627
97	0xbf3c489f	-0.7354831
98	0x3e123af1	0.14280297
99	0xbf178e20	-0.5920124
100	0x3e253383	0.16132931
101	0x3e8fe367	0.28103182
102	0xbe4c8c6d	-0.19975443
103	0xbe6972bf	-0.22797678
104	0xbea11d80	-0.3146782
105	0xbe0d65ce	-0.13808367
106	0x3dcdf262	0.100559965
107	0x3ef2b010	0.4739995
108	0x3f110959	0.5665489
109	0x3ddf0aba	0.10890718
110	0x3e9645f7	0.29350254
111	0x3e57c1ad	0.21069975
112	0xbe59c0fb	-0.21265022
113	0xbe9ae99c	-0.30256355
114	0xbd24556b	-0.040120523
115	0x3cbd9768	0.023143485
116	0xbc52f94b	-0.012876819
117	0x3c80871f	0.01568943
118	0xbd6f3c24	-0.058406964
119	0x3d9f56e2	0.077802435
120	0x3ea4e88c	0.3220867
121	0x3dc49e6c	0.09600529
122	0xbd2a0876	-0.041511975
123	0xbe2b38ee	-0.16720936
124	0x3df40dfa	0.11916728
125	0xbe79381a	-0.24337807
126	0xbdd2d925	-0.10295323
127	0xbe9a4781	-0.30132678
128	0xbda09512	-0.07840933
129	0x3e6188e2	0.22024873
130	0x3ebaa739	0.36455706
131	0x3c86e04d	0.016464377
132	0xbd2d274a	-0.042273797
133	0xbd9a70be	-0.07541035
134	0xbed9bcd0	-0.42526865
135	0xbea67507	-0.3251116
136	0xbe0417b2	-0.12899664
137	0xbea8ba08	-0.3295443
138	0x3ee9f81a	0.456971
139	0x3e8992d7	0.26869842
140	0x3e380f90	0.17974687
141	0xbda7098e	-0.08156119
142	0x3eb7b7c1	0.3588238
143	0x3ebdfd00	0.37107086
144	0x3f37ab0d	0.7174538
145	0xbe46f6f3	-0.19430141
146	0x3e0bf3e8	0.13667262
147	0x3eec1faf	0.46117923
148	0xbe88323e	-0.26600832
149	0x3e31c0bd	0.1735868
150	0xbeee66e4	-0.46562874
151	0xbd93b1f5	-0.07211677
152	0xbaa4a705	-0.0012561983
153	0xbec4f694	-0.38469374
154	0x3f067d8f	0.5253534
155	0xbe0edf8d	-0.13952465
156	0xbcac6d1b	-0.02104812
157	0xbe0b4c5c	-0.13603348
158	0x3f490b00	0.7853241
159	0x3edfbabf	0.43697163
160	0xbe3f9c10	-0.18711877
161	0x3eeff014	0.46862853
162	0x3e8b7aa7	0.27242014
163	0xbe9b2b7f	-0.30306622
164	0xbebf8c22	-0.374116
165	0xbe75d029	-0.24005188
166	0x3e830f64	0.2559768
167	0xbe3270d2	-0.1742585
168	0x3e39b690	0.18136048
169	0xbd1ce8f8	-0.038308114
170	0xbeee4e93	-0.46544322
171	0x3f12dafc	0.57365394
172	0xbd704642	-0.058660753
173	0x3dafbed8	0.085813224
174	0x3e8d2fc7	0.27575514
175	0x3ed80ae8	0.4219582
176	0xbe9b5bd2	-0.3034349
177	0xbe5778eb	-0.2104222
178	0xbc1ac9d1	-0.009447531
179	0xbc12ed16	-0.0089676585
180	0x3f693bf6	0.9110712
181	0x3de63699	0.112408824
182	0xbdb77bd5	-0.08959166
183	0x3eb6a696	0.3567397
184	0x3f8a2655	1.0792948
185	0x3f6e9784	0.93199944
186	0xbe4666d2	-0.1937516
187	0xbda55cfc	-0.08074376
188	0x3da90ec1	0.08254767
189	0xbe59a4b1	-0.21254231
190	0x3f18012a	0.59376776
191	0xbee9984a	-0.45624
192	0xbe7e7099	-0.2484764
193	0x3ec10d3e	0.37705415
194	0xbd3ee2bf	-0.04660296
195	0x3ec21720	0.37908268
196	0x3e96ea0d	0.29475442
197	0xbe05ecd2	-0.13078621
198	0x3f226d98	0.63448477
199	0xbe112c37	-0.14177023
200	0xbe4e7153	-0.20160417
201	0x3d2f2374	0.04275842
202	0xbe9647ad	-0.2935156
203	0xbd814653	-0.063122414
204	0x3e6ced0f	0.23137306
205	0x3e576f37	0.21038519
206	0x3efeba78	0.4975164
207	0x3d8bcb2c	0.06825861
208	0xbd6b39ab	-0.057428043
209	0xbe82cb16	-0.25545567
210	0xbde199e4	-0.110156804
211	0xbe006864	-0.12539822
212	0x3f3e56d4	0.7435124
213	0x3ec67e32	0.38768154
214	0xbe0ef95f	-0.13962315
215	0x3e40d9d9	0.18833102
216	0xbe2f9829	-0.17147888
217	0xbd5fa970	-0.054604948
218	0xbeb727d8	-0.35772586
219	0x3f13c1de	0.5771769
220	0x3f5b924b	0.857701
221	0x3eabd2c1	0.3355923
222	0xbe236e37	-0.15960012
223	0xba26f5bb	-0.0006369014
224	0x3da57a5d	0.080799796
225	0xbdd57cf7	-0.10424226
226	0x3d8c9307	0.06863981
227	0xbc352afe	-0.011057613
228	0x3f5e95ad	0.8694714
229	0x3f04208d	0.5161217
230	0x3d579509	0.052632365
231	0xbdde0576	-0.10840885
232	0x3ea01be9	0.31271294
233	0xbe6f6c8a	-0.23381248
234	0xbe575f2f	-0.21032403
235	0xbd44f2f8	-0.048083276
236	0xbd96461d	-0.07337592
237	0x3e6d5137	0.23175512
238	0xbdce6487	-0.10077768
239	0xbe5e8e5d	-0.21733995
240	0xbe8fb07c	-0.28064334
241	0xbe007bc9	-0.1254722
242	0xbe6d7a3a	-0.23191157
243	0xbcef7583	-0.029230839
244	0xbe9524c1	-0.29129604
245	0xbcd8e7ba	-0.026477683
246	0xbd79a6ca	-0.060950078
247	0x3ea7023c	0.32618892
248	0x3e2612be	0.16218087
249	0xbe329593	-0.1743987
250	0xbe6d33ae	-0.23164245
251	0xbe8f7100	-0.280159
252	0x3ee93f8d	0.45556298
253	0x3e2fb934	0.17160493
254	0xbd550552	-0.052007027
255	0x3eb54e25	0.35411182

l3.bias f4 [6]
0	0x3e2f5253	0.17121248
1	0xbedda79f	-0.43291947
2	0xbe3699fd	-0.1783218
3	0x3dd3a482	0.10334112
4	0x3ec9ca21	0.39412025
5	0xbdd11d8d	-0.102107145
