HalfCheetah/HalfCheetah-v4_actor_finalized_00.pth (torch, 520140 bytes, 6 tensors)

l1.weight f4 [400, 17]
0.04610196 -0.66691124 -0.28374964 -0.15801837 0.11718744 0.21721475 0.0153286 -0.1978209
-0.1760118 -0.25171816 -0.95132655 -0.26179442 -0.26934546 -0.017334789 -0.29748234 0.18582003
0.2429907 -2.3035064 -0.15701361 -0.8694677 0.10034896 -0.08908814 -0.11353545 0.08113388
0.24929202 -0.026558246 -0.26243505 0.1197643 0.10462027 0.1250016 0.034482878 0.18916892
-0.0044087265 -0.02551673 0.64914817 0.0764323 0.63665944 -0.19377786 0.54588526 -0.08790231
-0.2597855 -0.5346718 -0.56491584 -0.35293162 0.33018258 -0.15190117 0.32273242 0.09986432
-0.13797121 0.025226425 0.23522556 0.19756946 0.0054110833 -0.1970826 0.014837105 0.3347904
0.30064338 0.52348477 -0.12911242 0.089213096 -0.06308759 0.5088557 -0.17435873 0.03342384
0.10083758 0.072752506 -0.07866898 0.31117344 -0.6918892 1.7887017 0.0036208373 0.04097327
-0.038960684 0.062200107 0.6793295 0.092482455 -0.034482766 -0.367178 0.2103992 -0.02149481
-0.004827933 -0.051653087 0.012519285 0.04000213 -0.053397212 -0.118558474 0.87643296 0.57047683
0.59376377 -0.2933376 0.029758027 -0.16989106 -0.3923932 -0.2114526 0.13057056 0.18125269
0.19390513 0.07651427 0.34524778 -0.34962013 -0.213436 0.16834418 0.6567583 0.53030187
0.2567325 -0.058510873 0.14179754 -0.13604683 0.058229923 -0.19580118 -0.66950274 0.0419879
0.79135704 0.063788645 0.005206335 -0.19726022 0.1965201 0.123672664 0.025462199 -3.3161366
1.5260348 -0.11537064 -0.10929703 -0.036765818 0.06002968 -0.13956925 0.099948145 0.3278925
-0.9512666 -0.30263793 -0.22176057 -0.15799661 -0.097980246 -0.072859354 -0.086634405 0.010560938
-2.0424342 0.768105 -0.38082093 0.071453705 0.20158988 -0.5448462 0.0031035894 -0.31141454
-0.00766346 -0.38427648 0.05479079 -0.22411183 0.21014136 -0.19331965 -0.17225066 -0.10014375
0.16104794 3.553186 0.1231772 0.2516747 -0.17934728 0.11210275 -0.3241246 -0.080952816
-0.038544953 -0.10111591 -0.2462566 0.20359835 -0.21100944 -0.12749659 -0.010500308 -0.0068616676
-0.059944738 -0.01986093 -0.49453 0.5551619 -0.07039393 0.48703772 -0.19941181 0.0075406446
-0.0011967884 0.6882175 0.10471337 -0.07603305 -0.09499276 -0.037971903 0.0325664 -0.12741433
0.15285896 0.18360417 -0.08455866 0.50705045 -1.5304319 -0.15121245 0.09604294 -0.020286713
-0.09871262 0.06920253 0.18083633 0.14798103 0.32429522 0.18461356 -0.1206577 -0.047791824
-0.0922218 0.080389336 0.017768247 -0.0030765305 -2.9304965 1.0901597 0.36161092 0.16317114
-0.14888334 0.083965704 0.08334581 0.05270562 0.3146526 -0.8534575 0.19008128 0.221152
0.121866375 0.02809078 -0.08874454 0.01950184 0.11004398 -1.1359845 -0.030313855 -0.16786395
0.22862487 0.4915862 -0.06850266 -1.0582803 -0.9933028 0.36593324 -0.64012176 0.38790542
0.0069285613 0.11332094 -0.04566297 -0.23208237 -0.1578799 0.06652311 0.06392601 0.045116816
-0.72933453 0.3329269 0.055016533 0.024056869 -0.08109871 0.35378304 -0.12668157 0.62857413
0.4361115 0.26555997 0.2793612 0.29261255 0.10662062 -0.115112856 0.111214355 -1.5635347
00000000: 69d5 3c3d b2ba 2abf a247 91be 91cf 21be
00000010: f8ff ef3d 8b6d 5e3e cf24 7b3c 9091 4abe
00000020: 703c 34be 34e1 80be 238a 73bf eb09 86be
00000030: a6e7 89be b001 8ebc 9b4f 98be 9b47 3e3e
00000040: 8ed2 783e a66c 13c0 2dc8 20be 6f95 5ebf
00000050: c183 cd3d d873 b6bd 4685 e8bd 8529 a63d
00000060: 6846 7f3e ae90 d9bc e35d 86be fc46 f53d
00000070: 2743 d63d 6b00 003e eb3d 0d3d 7fb5 413e
00000080: 1477 90bb 7608 d1bc 932e 263f 8a88 9c3d
00000090: 1dfc 223f b46d 46be 23bf 0b3f 2006 b4bd
000000a0: 9b02 85be 40e0 08bf 539e 10bf 74b3 b4be
000000b0: b10d a93e fb8b 1bbe 2f3d a53e aa85 cc3d
000000c0: 5348 0dbe a6a7 ce3c f8de 703e a64f 4a3e
000000d0: 754f b13b 05d0 49be 5417 733c a669 ab3e
000000e0: eeed 993e 1903 063f 0c36 04be 5bb5 b63d
000000f0: 1134 81bd 5e44 023f 188b 32be 70e7 083d
00000100: ef83 ce3d 44ff 943d 341d a1bd 2052 9f3e
00000110: a71f 31bf 2df4 e43f 924b 6d3b 96d3 273d
00000120: 3d95 1fbd 8ac5 7e3d 8ae8 2d3f 7167 bd3d
00000130: cd3d 0dbd c1fe bbbe e372 573e e215 b0bc
00000140: a333 9ebb 3092 53bd b01d 4d3c 46d9 233d
00000150: 09b7 5abd c9ce f2bd e95d 603f c50a 123f
00000160: e700 183f 5930 96be 1bc7 f33c ecf7 2dbe
00000170: c3e7 c8be 0887 58be 4ab4 053e 4e9a 393e
00000180: 118f 463e 83b3 9c3d 51c4 b03e 6901 b3be
00000190: f78e 5abe 6b62 2c3e 5021 283f ddc1 073f
000001a0: 7172 833e 19a9 6fbd 6033 113e dc4f 0bbe
000001b0: 8082 6e3d 1b80 48be 8864 2bbf 81fb 2b3d
000001c0: 6096 4a3f 9fa3 823d e799 aa3b 95fe 49be
000001d0: 913c 493e 1848 fd3d 1a96 d03c 953b 54c0
000001e0: 1c55 c33f 7147 ecbd 1fd7 dfbd c197 16bd
000001f0: afe1 753d 3eeb 0ebe 9db1 cc3d 87e1 a73e
00000200: 3586 73bf 5cf3 9abe 3415 63be ddc9 21be
00000210: dea9 c8bd 4937 95bd 616d b1bd c907 2d3c
00000220: 3eb7 02c0 87a2 443f f6fa c2be 5256 923d
00000230: 946d 4e3e 0a7b 0bbf 9765 4b3b ba71 9fbe
00000240: c31d fbbb e3bf c4be 4f6c 603d 927d 65be
00000250: 4c2f 573e 96f5 45be 7a62 30be 2b18 cdbd
00000260: c0e9 243e 6667 6340 5444 fc3d 82db 803e
00000270: d0a6 37be 2096 e53d a9f3 a5be 97ca a5bd
00000280: 50e1 1dbd dc15 cfbd b12a 7cbe 167c 503e
00000290: dc12 58be 778e 02be 7c09 2cbc d7d7 e0bb
000002a0: 9d88 75bd 64b3 a2bc 0933 fdbe 171f 0e3f
000002b0: b12a 90bd 025d f93e 9c32 4cbe 8317 f73b
000002c0: 8edd 9cba 062f 303f f773 d63d 37b7 9bbd
000002d0: 908b c2bd 6d88 1bbd 5864 053d e778 02be
000002e0: 0f87 1c3e bb02 3c3e 172d adbd 0fce 013f
000002f0: 31e5 c3bf 70d7 1abe 29b2 c43d 5230 a6bc
00000300: d829 cabd 0eba 8d3d 292d 393e 5788 173e
00000310: 060a a63e 560b 3d3e 621b f7bd 5cc1 43bd
00000320: c8de bcbd 2aa3 a43d b78e 913c 9e9f 49bb
00000330: 418d 3bc0 5a8a 8b3f 1125 b93e 5616 273e
00000340: e074 18be 36f6 ab3d 35b1 aa3d d9e1 573d
00000350: 251a a13e 317c 5abf aba4 423e ab75 623e
00000360: 1495 f93d a31e e63c b3bf b5bd 53c2 9f3c
00000370: bd5e e13d f167 91bf c354 f8bc 87e4 2bbe
00000380: a31c 6a3e 30b1 fb3e 1f4b 8cbd bb75 87bf
00000390: 1849 7ebf 9a5b bb3e 05df 23bf 8a9b c63e
000003a0: fc08 e33b cf14 e83d 1809 3bbd 00a7 6dbe
000003b0: 45ab 21be 453d 883d a4eb 823d 69cc 383d
000003c0: abb5 3abf 6575 aa3e 0459 613d e912 c53c
000003d0: 1517 a6bd 0d23 b53e d0b8 01be 3cea 203f
000003e0: 024a df3e 7af7 873e 6e08 8f3e 50d1 953e
000003f0: e95b da3d 4ac0 ebbd 5ac4 e33d e821 c8bf

l1.bias f4 [400]
0.56152636 -0.18627325 0.12177623 0.8314901 -0.5271969 -0.28549218 -0.42539403 -0.594189
-0.3257581 0.20357215 -0.8488514 0.70955384 -0.5446282 -0.119936846 -0.5508472 -0.08334032
-0.8195219 0.19604354 0.070106916 0.09842038 -0.28618157 0.0784705 -0.65119725 -0.19620234
-0.43010074 0.045427028 -0.6858584 0.2201454 0.12944254 -0.6672525 0.15234643 0.036466617
0.2101138 -0.550114 0.06437464 0.6170533 -0.20975873 0.32398394 0.31848395 -0.5027499
-0.24564625 0.95565045 0.19145429 -0.31374958 -0.3494918 0.41782886 -0.30834064 -0.08285357
0.20658238 -0.5991885 -0.583957 -0.015373602 -0.044969153 -0.29589507 0.039577566 -0.5628131
0.2761311 -0.23485929 -0.012425101 -0.24035731 -0.04395666 -0.37769476 0.5912942 -0.37588468
0.1182489 -0.1264022 -0.11170482 -0.86687464 -0.6785845 -0.40275702 0.14547777 -0.2682897
0.58794844 -0.38988885 -0.5327419 -0.5395225 -0.03576919 -0.5313868 -0.39237413 0.4086402
0.34243426 -0.99372107 0.6533775 0.082480185 -0.04714226 -0.07427127 -0.034096487 0.48929372
0.06223496 0.6616213 -0.4833671 0.5829098 -0.10304145 -0.3814711 -0.2337262 0.4981573
-0.69438946 -0.45744452 0.09417479 -0.30519557 -0.715008 -0.076489925 0.075144276 0.21210659
-0.11316449 -0.33566102 -0.06001989 -0.71722275 -0.51306504 0.28769448 0.026673751 -0.21629372
-0.393781 0.43483594 0.7301254 -0.48090702 -0.14222649 0.11989358 -0.2378002 -0.6073789
0.54275 0.6924847 0.5635901 0.028328015 0.3934846 -0.6101375 0.43164572 0.21934795
0.8481908 0.49602696 0.06384272 0.57793003 0.2710785 0.21278277 0.6550022 0.655964
-0.04576118 0.1288448 -0.35833803 0.30575278 0.37361896 -0.27377495 0.75209564 -0.23201653
-0.37576672 -0.15395962 -0.045814473 -0.09646024 0.6541286 0.04467623 -0.20219067 -0.08108021
-0.12880722 -0.2157441 0.023816 0.59776664 0.057064846 -0.6953996 -0.30483454 -0.009749572
0.23520629 0.3932432 0.111656666 0.14115553 -0.20777924 -0.023123914 0.205375 0.47865298
-0.0520579 -0.10788267 0.775617 -0.7223712 -0.8090163 -0.1925042 -0.41160488 -0.45225176
0.2526665 0.45998612 -0.13732702 -0.3085914 -0.14628081 0.4161282 0.08407087 -0.8343928
-0.7265063 -0.38121396 -0.22116828 0.08861823 0.6667552 -0.5795778 0.091790326 -0.23703635
0.36582437 0.64555025 -0.58922267 -0.4584471 -0.6440257 0.013313217 0.78137106 -0.23201811
0.07505847 -0.33155996 -0.17453752 -0.536179 0.4919724 -0.23986974 -0.54776764 -0.16576217
-0.07349649 0.54950327 -0.29280594 -0.2952155 -0.053923734 -0.059674855 0.24059376 0.44256535
0.33102307 -0.5879345 0.47753844 0.19998772 0.22249456 -0.12854888 -0.12078094 -0.44937196
0.60280603 -0.6515581 0.10333206 0.15208213 0.23356682 0.20430686 0.64041793 -0.26820466
0.15870407 0.0029411125 -0.2810054 -0.38189495 -0.50103086 -0.48515493 0.52233577 0.6038194
-0.48149624 0.16955554 -0.17089279 0.7884332 -0.7619188 0.42890087 -0.4723009 -0.38655162
0.54362583 0.38718164 0.16700797 -0.28614643 0.03728359 -0.14102186 -0.44930983 0.087438665
00000000: 31c0 0f3f 6abe 3ebe d165 f93d 89dc 543f
00000010: 60f6 06bf 082c 92be 3fcd d9be c51c 18bf
00000020: c4c9 a6be 3875 503e 534e 59bf 52a5 353f
00000030: c16c 0bbf 73a1 f5bd 5204 0dbf 54ae aabd
00000040: 30cc 51bf a3bf 483e 3794 8f3d a090 c93d
00000050: 6486 92be 24b5 a03d ddb4 26bf 44e9 48be
00000060: 2a36 dcbe b111 3a3d 6b94 2fbf cc6d 613e
00000070: 968c 043e 0fd1 2abf b400 1c3e 055e 153d
00000080: 1228 573e 45d4 0cbf dad6 833d 34f7 1d3f
00000090: feca 56be 39e1 a53e 5410 a33e 38b4 00bf
000000a0: b18a 7bbe 82a5 743f 980c 443e c9a3 a0be
000000b0: 97f0 b2be aaed d53e d3de 9dbe 22af a9bd
000000c0: 558a 533e 6b64 19bf 357e 15bf 8fe1 7bbc
000000d0: 9331 38bd 8f7f 97be 161c 223d 8514 10bf
000000e0: 0e61 8d3e f47e 70be a792 4bbc 3a20 76be
000000f0: e60b 34bd 3561 c1be 0f5f 173f f573 c0be
00000100: 7b2c f23d 946f 01be 7fc5 e4bd 7feb 5dbf
00000110: b7b7 2dbf 2b36 cebe 20f8 143e 445d 89be
00000120: ca83 163f 839f c7be c661 08bf 261e 0abf
00000130: b782 12bd f708 08bf 43e5 c8be 4a39 d13e
00000140: 8b53 af3e 8164 7ebf bf43 273f 5feb a83d
00000150: 3e18 41bd 891b 98bd c2a8 0bbd b584 fa3e
00000160: 16ea 7e3d 0360 293f e47b f7be 9439 153f
00000170: 6507 d3bd 2e50 c3be ec55 6fbe 790e ff3e
00000180: 82c3 31bf 2b36 eabe b6de c03d 9842 9cbe
00000190: c40a 37bf c0a6 9cbd 3ee5 993d 7832 593e
000001a0: c9c2 e7bd c3db abbe 6bd7 75bd e99b 37bf
000001b0: 3b58 03bf b14c 933e e982 da3c 1a7c 5dbe
000001c0: aa9d c9be d1a2 de3e 80e9 3a3f 7239 f6be
000001d0: d2a3 11be c48a f53d e581 73be 2f7d 1bbf
000001e0: aaf1 0a3f ad46 313f 7147 103f 2710 e83c
000001f0: d076 c93e f931 1cbf ab00 dd3e c09c 603e
00000200: 0823 593f 3ff7 fd3e f9bf 823d 39f3 133f
00000210: cdca 8a3e bae3 593e 39ae 273f 42ed 273f
00000220: 1370 3bbd e4ef 033e 1578 b7be a18b 9c3e
00000230: fc4a bf3e 3b2c 8cbe 5789 403f be95 6dbe
00000240: 7f64 c0be 97a7 1dbe f5a7 3bbd f28c c5bd
00000250: f974 273f 6cfe 363d 120b 4fbe 620d a6bd
00000260: 0ae6 03be 05ec 5cbe c619 c33c 3c07 193f
00000270: d4bc 693d b505 32bf 4613 9cbe abbc 1fbc
00000280: ebd9 703e 2c57 c93e 40ac e43d 138b 103e
00000290: 15c4 54be 5d6e bdbc d34d 523e 0112 f53e
000002a0: aa3a 55bd 97f1 dcbd d68e 463f 52ed 38bf
000002b0: b11b 4fbf d21f 45be e0bd d2be 8b8d e7be
000002c0: 815d 813e 4d83 eb3e 749f 0cbe b1ff 9dbe
000002d0: a3ca 15be c10e d53e 592d ac3d c49a 55bf
000002e0: 51fc 39bf 7a2e c3be f079 62be 797d b53d
000002f0: 78b0 2a3f 365f 14bf 91fc bb3d a8b9 72be
00000300: 554d bb3e c842 253f 4cd7 16bf 94b9 eabe
00000310: dede 24bf ae1f 5a3c ef07 483f 2896 6dbe
00000320: 41b8 993d 3ac2 a9be f7b9 32be 0743 09bf
00000330: cee3 fb3e 6aa0 75be 803a 0cbf 8fbd 29be
00000340: 5485 96bd 3fac 0c3f a9ea 95be 7c26 97be
00000350: 22df 5cbd 9f6d 74bd 365e 763e ed97 e23e
00000360: db7b a93e e082 16bf eb7f f43e 95c9 4c3e
00000370: 9dd5 633e 51a2 03be ff5b f7bd 1514 e6be
00000380: 7f51 1a3f 83cc 26bf c29f d33d 6bbb 1b3e
00000390: 242c 6f3e d135 513e 6ef2 233f 1f52 89be
000003a0: 5283 223e aebf 403b f1df 8fbe bc87 c3be
000003b0: 8f43 00bf 3a66 f8be ccb7 053f e893 1a3f
000003c0: ad86 f6be f89f 2d3e 85fe 2ebe c2d6 493f
000003d0: 1c0d 43bf e598 db3e 6cd1 f1be 18ea c5be
000003e0: 102b 0b3f ac3c c63e 2304 2b3e c981 92be
000003f0: adb6 183d 0968 10be f00b e6be 0b13 b33d

l2.weight f4 [300, 400]
0.17135274 0.03760438 -0.14643425 -0.4130009 0.0034963144 -0.0018796372 0.068035066 0.19307634
-0.03965958 -0.014947189 0.07635772 -0.18993585 0.09222273 -0.042609144 -0.05409404 0.06560316
0.08655378 0.034820076 -0.061950717 -0.30593655 0.16489112 -0.14522631 0.08259104 -0.13526826
-0.14081208 -0.15231352 -0.10767646 0.011811387 -0.20209315 0.0899393 -0.038522176 -0.11927732
0.05355077 0.1890019 -0.21509352 -0.15331228 0.06482955 -0.2489608 -0.033377025 0.17939763
-0.013479031 0.023993203 0.008774816 0.1281092 0.07288856 -0.2845715 -0.32786304 0.088417694
-0.08600982 0.015662383 -0.08869129 -0.18914838 -0.39059475 0.048680767 -0.069440424 0.007648786
-0.083531275 -0.14713885 0.028783964 0.1742787 -0.038101397 0.18147422 -0.30588356 -0.04026399
0.26707667 -0.16682217 0.17609975 0.078596324 0.1128376 -0.17244948 -0.1686016 0.117728435
-0.3432707 -0.2648611 0.07627319 0.012774154 -0.093552515 0.07283669 0.034184456 -0.36223406
-0.20178835 -0.071005724 -0.19615988 -0.3267289 -0.07661199 -0.017448198 -0.04160587 -0.20239028
-0.16630375 -0.05219274 -0.043927487 -0.027074302 -0.055279505 -0.28415897 -0.28058514 -0.3134025
0.16427954 -0.055978313 -0.2959991 -0.2008403 0.057894144 -0.106552035 -0.0025460885 -0.08472081
-0.18543884 -0.019756528 -0.048785407 -0.18690783 0.07889174 -0.05901208 -0.14396125 -0.25609115
0.121785685 -0.09259906 -0.035619535 0.008096784 0.07128093 -0.076715924 0.041006602 0.2157684
-0.11308364 -0.33461073 -0.22224495 -0.12881295 0.06595157 -0.09837699 -0.066427365 -0.3005683
-0.26550516 -0.11479696 -0.021881912 -0.07581409 0.028413849 0.006376383 0.004574515 -0.17486386
-0.05792502 -0.012386292 0.15300952 -0.0509951 0.14744322 -0.37875828 0.0025811463 0.05710425
-0.07072578 -0.035958283 0.05264652 -0.12900555 0.08296996 -0.1177142 0.056198798 0.17240782
-0.12508368 -0.37067428 0.0826071 -0.07815527 -0.060315803 -0.012808683 0.14026433 -0.033433065
-0.08906782 0.028051037 0.028112097 0.099234305 0.074154586 0.09807197 -0.13132535 0.029445143
-0.12976764 -0.28552243 -0.21927892 0.07929671 -0.06353909 0.107799836 0.11053535 -0.03220257
-0.12245236 -0.06856438 -0.016240954 0.09146221 0.014504045 -0.0004971901 -0.056686837 0.11454769
0.069067486 0.16635513 0.14936286 0.010989065 -0.3981953 -0.08728609 -0.08542758 -0.10025769
-0.28339204 -0.258664 0.1294239 0.08072834 0.10009703 0.08028153 -0.17811063 -0.30507445
-0.11849122 0.087372266 -0.074955925 -0.049255446 -0.030134305 0.06264988 -0.07155811 0.20008959
-0.01574779 -0.093781926 0.29360205 0.20843628 0.091695204 0.21063226 -0.12215253 0.05778831
-0.07917054 0.03941908 -0.1584876 -0.10006912 -0.112516455 -0.093867265 -0.049279615 -0.13843046
-0.0113208 0.051238477 -0.3562796 -0.12359156 -0.12804677 0.04988341 -0.3667198 -0.011450002
0.008315326 0.06206611 0.031783674 0.086612 0.009105322 0.028744567 -0.16561192 -0.15552759
0.006016778 -0.06284226 0.05042315 -0.18570708 0.13181412 0.20427178 0.01719927 0.04115265
-0.2452626 -0.09780266 -0.0303848 -0.15770406 0.032551486 0.1469723 0.04130303 0.09459106
00000000: 1877 2f3e 0d07 1a3d dcf2 15be db74 d3be
00000010: 6c22 653b 295e f6ba f855 8b3d ceb5 453e
00000020: 1572 22bd 0ee5 74bc 7061 9c3d 8b7e 42be
00000030: 45df bc3d ed86 2ebd b691 5dbd f35a 863d
00000040: 1c43 b13d 7f9f 0e3d 09c0 7dbd b7a3 9cbe
00000050: 38d9 283e 35b6 14be 7e25 a93d c383 0abe
00000060: 0b31 10be 13f8 1bbe 7a85 dcbd 8c84 413c
00000070: 82f1 4ebe 1932 b83d 6ec9 1dbd ab47 f4bd
00000080: 0d58 5b3d b789 413e 7a41 5cbe e5fd 1cbe
00000090: 5bc5 843d 94ef 7ebe 59b6 08bd 03b4 373e
000000a0: 27d7 5cbc 658d c43c 3fc4 0f3c 0f2f 033e
000000b0: 9946 953d 5bb3 91be aadd a7be 5614 b53d
000000c0: eb25 b0bd 664e 803c c7a3 b5bd 1db0 41be
000000d0: 09fc c7be 7c65 473d c836 8ebd aba2 fa3b
000000e0: 7212 abbd 91ab 16be 59cc eb3c 1e76 323e
000000f0: 3610 1cbd 61d4 393e c59c 9cbe dbeb 24bd
00000100: 46be 883e 6ed3 2abe 7e53 343e 1cf7 a03d
00000110: 6617 e73d 9996 30be e6a5 2cbe 9b1b f13d
00000120: 2dc1 afbe e09b 87be 1e35 9c3d af4a 513c
00000130: 7698 bfbd 672b 953d 0005 0c3d be76 b9be
00000140: 9ba1 4ebe 736b 91bd 23de 48be 0349 a7be
00000150: bfe6 9cbd 86ef 8ebc eb6a 2abd 663f 4fbe
00000160: 884b 2abe 0ec8 55bd 4fed 33bd edca ddbc
00000170: c36c 62bd 497d 91be dba8 8fbe 4b76 a0be
00000180: e538 283e 8449 65bd 328d 97be 14a9 4dbe
00000190: 6922 6d3d f437 dabd 47dc 26bb 1b82 adbd
000001a0: aee3 3dbe 71d8 a1bc 35d3 47bd c464 3fbe
000001b0: fe91 a13d a7b6 71bd 946a 13be 611e 83be
000001c0: c66a f93d 93a4 bdbd cae5 11bd 60a8 043c
000001d0: bcfb 913d 3d1d 9dbd 8af6 273d 64f2 5c3e
000001e0: 6598 e7bd 1952 abbe 2e94 63be 8be7 03be
000001f0: 9e11 873d e079 c9bd 120b 88bd 17e4 99be
00000200: 4bf0 87be ab1a ebbd b241 b3bc 6b44 9bbd
00000210: 29c4 e83c faf0 d03b d0e5 953b 830f 33be
00000220: c942 6dbd e0ef 4abc 87ae 1c3e 3de0 50bd
00000230: 5bfb 163e 9bec c1be 7328 293b 25e6 693d
00000240: aed8 90bd fe48 13bd e1a3 573d 081a 04be
00000250: 28ec a93d 2414 f1bd b630 663d ad8b 303e
00000260: f015 00be 05c9 bdbe e92d a93d df0f a0bd
00000270: b40d 77bd 83db 51bc 74a1 0f3e 1cf1 08bd
00000280: 3069 b6bd 4acb e53c 574b e63c 5b3b cb3d
00000290: 5cde 973d f5d9 c83d 277a 06be f136 f13c
000002a0: cfe1 04be ff2f 92be a78a 60be 5066 a23d
000002b0: c820 82bd 29c6 dc3d 5c60 e23d d8e6 03bd
000002c0: 4ec8 fabd 7b6b 8cbd c00b 85bc 8a50 bb3d
000002d0: 60a2 6d3c dd55 02ba 7530 68bd fb97 ea3d
000002e0: 4173 8d3d 0059 2a3e 94f2 183e 7b0b 343c
000002f0: 41e0 cbbe 0dc3 b2bd a8f4 aebd e753 cdbd
00000300: c318 91be 9c6f 84be b387 043e e654 a53d
00000310: acff cc3d a56a a43d a262 36be b832 9cbe
00000320: 86ab f2bd 3bf0 b23d 7e82 99bd 14c0 49bd
00000330: 38dc f6bc 954e 803d 0f8d 92bd 49e4 4c3e
00000340: 8201 81bc bd10 c0bd 0253 963e 5270 553e
00000350: b2ca bb3d fcaf 573e 1b2b fabd 6fb3 6c3d
00000360: 2a24 a2bd e775 213d 934a 22be 0af1 ccbd
00000370: 076f e6bd 7b3d c0bd 6cd9 49bd b7c0 0dbe
00000380: e07a 39bc 70df 513d 486a b6be 921d fdbd
00000390: b11e 03be 8c52 4c3d b3c2 bbbe ca98 3bbc
000003a0: 013d 083c 0939 7e3d 992f 023d a261 b13d
000003b0: 7d2e 153c ba79 eb3c 2c96 29be a042 1fbe
000003c0: 6428 c53b 71b3 80bd 8188 4e3d ff29 3ebe
000003d0: 48fa 063e 9f2c 513e 7ce5 8c3c ae8f 283d
000003e0: 1e26 7bbe c34c c8bd 8be9 f8bc 2c7d 21be
000003f0: b554 053d e87f 163e 5e2d 293d f5b8 c13d

l2.bias f4 [300]
-0.5223881 -0.37091497 -0.27847874 -0.38752773 -0.16061938 -0.17255847 0.17699353 0.3167819
0.0010680626 -0.082540095 0.031264085 0.51772016 -0.22468302 -0.2355869 -0.21712264 0.27184635
0.1762299 0.16826154 0.027601503 -0.074568205 0.3377392 -0.21634124 0.28152725 -0.13286373
-0.24551535 0.33872905 0.02487701 0.018384995 -0.053793658 0.2551442 0.16869722 -0.05341744
0.13665685 -0.013797937 0.013182294 0.22972639 -0.019821005 0.43175513 0.09400873 -0.08123236
-0.2175841 0.23508179 -0.056506176 0.25936356 0.08430888 -0.3351001 -0.21001457 0.18166807
-0.04958047 -0.26557627 0.09061116 0.11148221 -0.045466732 -0.5670143 -0.1958348 0.5286394
0.1504936 -0.21285264 -0.02233128 -0.1440014 0.089304745 0.098375306 0.23610073 0.0034240377
-0.2427298 -0.115066886 0.34705773 -0.046997316 -0.07458163 0.2079436 0.09722406 -0.029381603
0.42263314 -0.11642023 -0.284774 0.053828504 -0.15920313 0.16612719 -0.023338085 -0.15093741
-0.05233571 -0.16416395 -0.25491133 0.061256047 -0.04066187 -0.050787784 0.08284339 -0.0865936
-0.31431404 0.08196088 0.11023816 -0.18822141 -0.02674629 0.030408869 0.18785141 -0.23556955
-0.110182755 -0.01868006 0.117325805 0.04577639 -0.28767404 0.26125252 0.06224361 -0.20665945
0.12638213 0.13010858 -0.31041282 0.6830052 -0.08700037 0.05614921 0.12409594 0.26077634
-0.13141768 -0.29324955 0.26888847 -0.069371544 0.060701445 0.0048790597 0.12844029 -0.022771612
0.21838893 -0.15169124 -0.08779547 -0.12803163 -0.093056284 -0.19470723 -0.54734993 -0.4748728
0.0648117 -0.17381859 0.10884172 -0.11733853 -0.019506872 0.28384045 -0.30763662 0.057844378
0.12641053 -0.37855202 0.098158754 0.37688535 0.18102151 -0.18223745 -0.22995077 -0.21069683
-0.08718911 -0.019526675 0.05144857 0.035458393 -0.49849918 -0.1170698 0.17396155 -0.263699
-0.049560267 -0.45070586 0.28672633 -0.32407638 0.037512857 0.005715371 -0.054428726 -0.06535002
-0.13252294 -0.013989766 -0.09480371 -0.31429738 0.12894285 -0.15291151 0.094630934 0.3469228
-0.025810014 0.4475428 -0.1648961 0.13615306 -0.15818724 -0.22621988 -0.3632318 -0.053245533
-0.1297099 -0.22676104 0.43832874 0.27294034 0.26330084 0.05411809 -0.053402 -0.051545892
0.229872 0.04280691 -0.06149296 -0.16985065 0.17343913 -0.42375922 0.16328959 -0.035499938
-0.23250283 0.54316616 0.022636294 0.36921644 0.16848615 -0.19616531 0.19681552 0.063941166
-0.10335384 0.241184 -0.07382316 0.013047749 0.124996044 -0.0022991546 -0.15404269 -0.050986778
-0.20922536 0.09277387 0.47103515 -0.36509055 0.43399292 -0.04215052 -0.035629943 0.112311974
-0.24601048 0.034231275 -0.33308393 0.23754752 0.3805464 0.06590126 -0.1967391 -0.00871614
0.23389123 -0.018655794 0.1621618 -0.057081524 -0.38565546 -0.12880822 -0.22117326 0.48764455
0.09908855 0.026564667 -0.01826458 -0.1112906 0.058985014 -0.08255498 0.102201924 -0.13786122
-0.5412846 0.0050132126 -0.13135228 0.0047178785 -0.010069164 -0.036493026 -0.42400286 0.17654186
-0.1115253 0.009443185 -0.10862353 -0.15971795 -0.021412324 -0.01364407 -0.005792592 0.19970487
00000000: 3abb 05bf 91e8 bdbe c494 8ebe 096a c6be
00000010: 6879 24be 2bb3 30be cb3d 353e 3d31 a23e
00000020: 3cfe 8b3a c80a a9bd c50e 003d 4f89 043f
00000030: 4e13 66be b13d 71be 6655 5ebe 722f 8b3e
00000040: 9c75 343e c14c 2c3e 8c1c e23c 37b7 98bd
00000050: 27ec ac3e 8f88 5dbe 5724 903e 6e0d 08be
00000060: 6068 7bbe e56d ad3e dfca cb3c 219c 963c
00000070: bd56 5cbd 43a2 823e f7be 2c3e 3fcc 5abd
00000080: c6ef 0b3e be10 62bc 8cfa 573c 653d 6b3e
00000090: a95f a2bc 020f dd3e a687 c03d 275d a6bd
000000a0: 5ece 5ebe 48b9 703e 0573 67bd 4dcb 843e
000000b0: 22aa ac3d 3e92 abbe 0f0e 57be 3207 3a3e
000000c0: e414 4bbd 9df9 87be 5892 b93d c950 e43d
000000d0: 533b 3abd d927 11bf eb88 48be e954 073f
000000e0: ff1a 1a3e 0bf6 59be 17f0 b6bc 1a75 13be
000000f0: 68e5 b63d fe78 c93d 64c4 713e d265 603b
00000100: 298e 78be 30a8 ebbd 8db1 b13e 4280 40bd
00000110: 41be 98bd 2bef 543e 681d c73d b0b1 f0bc
00000120: 5f63 d83e bb6d eebd e6cd 91be 477b 5c3d
00000130: 2506 23be 3f1d 2a3e 832f bfbc 568f 1abe
00000140: f85d 56bd 981a 28be bd83 82be 9fe7 7a3d
00000150: 108d 26bd da06 50bd cca9 a93d fc57 b1bd
00000160: c5ed a0be 1bdb a73d 8bc4 e13d 1dbd 40be
00000170: 091b dbbc 051c f93c 1f5c 403e 2539 71be
00000180: 7fa7 e1bd ed06 99bc 8348 f03d 0680 3b3d
00000190: 034a 93be e4c2 853e 28f3 7e3d 899e 53be
000001a0: 516a 013e 2f3b 053e 6eee 9ebe 6ed9 2e3f
000001b0: 402d b2bd b7fc 653d 0326 fe3d 7a84 853e
000001c0: 5b92 06be ce24 96be c0ab 893e ab12 8ebd
000001d0: 14a2 783d 85e0 9f3b da85 033e 888b babc
000001e0: 59a1 5f3e f354 1bbe 1dce b3bd b91a 03be
000001f0: 4b94 bebd 5561 47be 201f 0cbf 8722 f3be
00000200: ffbb 843d 80fd 31be 68e8 de3d 2f4f f0bd
00000210: e0cc 9fbc 8953 913e 8c82 9dbe 3aee 6c3d
00000220: c371 013e 92d1 c1be 7507 c93d 1ef7 c03e
00000230: b45d 393e 749c 3abe 3778 6bbe e9c0 57be
00000240: 3490 b2bd 68f6 9fbc bcbb 523d d23c 113d
00000250: 493b ffbe 4bc2 efbd fa22 323e 8e03 87be
00000260: b5ff 4abd ebc2 e6be cbcd 923e 57ed a5be
00000270: 15a7 193d 0248 bb3b a8f0 5ebd 3bd6 85bd
00000280: 18b4 07be 5535 65bc 7328 c2bd 96eb a0be
00000290: 9809 043e d694 1cbe ddcd c13d de9f b13e
000002a0: 866f d3bc 5424 e53e 86da 28be b56b 0b3e
000002b0: d6fb 21be 2fa6 67be 85f9 b9be fd17 5abd
000002c0: acd2 04be 0c34 68be a06c e03e d6be 8b3e
000002d0: 5ecf 863e eeaa 5d3d 0ebc 5abd c921 53bd
000002e0: 9163 6b3e 4c56 2f3d 0be0 7bbd 54ed 2dbe
000002f0: 079a 313e f8f6 d8be 6335 273e 6268 11bd
00000300: 3915 6ebe f00c 0b3f c06f b93c f009 bd3e
00000310: a287 2c3e 8fdf 48be 028a 493e 96f3 823d
00000320: 2eab d3bd f0f8 763e 9930 97bd 3ac6 553c
00000330: edfd ff3d 6aad 16bb 5ebd 1dbe 83d7 50bd
00000340: 2c3f 56be 3a00 be3d 852b f13e 26ed babe
00000350: 5234 de3e 06a6 2cbd b4f0 11bd d203 e63d
00000360: 2cea 7bbe 1836 0c3d fa89 aabe a83f 733e
00000370: fad6 c23e 3df7 863d fa75 49be 24ce 0ebc
00000380: 2f81 6f3e 09d4 98bc be0d 263e 51ce 69bd
00000390: a274 c5be 4de6 03be 3e7b 62be 8cac f93e
000003a0: f0ee ca3d 259e d93c 9a9f 95bc 53ec e3bd
000003b0: 459a 713d 9612 a9bd 3e4f d13d 7e2b 0dbe
000003c0: a191 0abf e045 a43b 3681 06be 6f98 9a3b
000003d0: 23f9 24bc b679 15bd e716 d9be 64c7 343e
000003e0: 6067 e4bd 97b7 1a3c 0376 debd 1a8d 23be
000003f0: e668 afbc 618b 5fbc c9cf bdbb 6f7f 4c3e

l3.weight f4 [6, 300]
-0.3676825 -0.27455005 0.1734151 -0.20799513 -0.13097622 0.34814724 -0.008575961 0.049180973
-0.047098517 0.05977779 -0.05340291 0.57963115 0.038554512 -0.18570948 -0.281335 -0.11505566
-0.1501037 0.20086248 0.3627974 0.18613419 0.17697236 -0.18568349 0.0634975 0.29129946
0.121460736 0.3240996 -0.043459725 0.5825473 -0.0051103756 0.0049703186 0.0434622 0.025996327
0.28177544 -0.026093876 -0.115005314 -0.15083113 -0.0033178618 0.12815607 0.10203536 -0.137739
-0.12970449 0.39286816 -0.28336373 -0.24222474 0.03674642 0.06283425 -0.10962298 -0.029171776
0.36534923 0.03401675 0.21205318 -0.30774084 0.17935884 -0.15319863 -0.23868376 -0.13502146
-0.006203496 -0.19586916 -0.021569349 -0.15616962 0.13569103 0.070727825 0.36395612 -0.021245893
0.28577793 0.2094084 0.27460468 0.19578099 0.004544399 0.34907156 0.22775334 0.29345155
0.39262897 0.31179243 -0.024207197 -0.3916765 -0.44598415 0.031989742 0.056074705 0.16086474
-0.10052918 -0.10107145 0.092139326 0.05105325 -0.19144404 0.0974382 -0.204703 0.013127227
-0.2383538 0.18082492 0.29135182 -0.18558991 -0.0602609 0.05278116 0.48022127 -0.028786013
0.07214045 -0.56345445 0.24173549 -0.52209586 0.19799314 0.28930333 -0.16597936 -0.2669525
-0.37331778 0.03175923 0.14381246 0.46960142 0.50410753 0.014860712 0.28801107 -0.018514462
-0.28485513 -0.17329757 0.007860629 0.04988256 0.038643584 0.01568943 -0.027455777 0.10914664
0.10602029 0.10900173 -0.08986666 -0.14352588 0.11956915 -0.19762403 -0.18503267 -0.20742281
0.04928185 0.0686855 0.36691257 0.03051453 -0.042273797 -0.2177111 -0.3060912 -0.0010505352
-0.07822384 -0.19077379 0.26955348 0.2881383 0.04672306 -0.012334186 0.37894768 0.37107086
0.44436586 -0.06772962 0.08437855 0.46498665 -0.16526021 0.21524507 -0.19256029 0.027419664
0.37236226 -0.34367594 0.43047163 -0.029545577 -0.02104812 0.12597573 0.8145515 0.443183
-0.105220415 0.4544942 0.30134362 -0.23156956 -0.24680099 -0.35654905 0.09400292 -0.35493475
0.18121865 -0.059178323 0.01368214 0.23780029 -0.07278714 -0.09957258 0.04031198 0.091251254
-0.118711345 -0.16070339 0.23685706 -0.052746773 0.729845 0.1034408 -0.118550085 0.33478135
0.8816295 0.9247638 -0.009950618 0.007388904 0.2671269 -0.16079172 0.55321735 -0.25094068
-0.16957925 0.38843307 -0.10883393 0.29212624 0.14682415 -0.05416292 0.52534366 -0.21523678
-0.10956435 0.058965907 -0.22694816 0.023937149 0.28671062 0.23088689 0.29786745 0.04467524
-0.041877124 -0.1485716 0.10359057 0.0073210597 0.5013101 0.30901194 0.08150697 0.22282502
-0.064082816 -0.11268611 -0.20890014 0.5243262 0.74057615 0.31449714 -0.11734041 -0.19499895
0.19253276 -0.038224995 0.0033373346 0.03650964 0.42912716 0.3270025 -0.0059218337 0.11748162
0.22097248 -0.29528153 -0.1637688 -0.16400522 -0.04478236 0.11967481 -0.1095833 -0.18143433
-0.25056714 -0.23951608 -0.19215785 -0.029230839 -0.24630746 -0.026477683 -0.040034268 0.40922764
0.01186103 -0.07559099 -0.31119183 -0.21734403 0.5656704 0.29132465 -0.18744798 0.20836589
00000000: e140 bcbe d391 8cbe ba93 313e adfc 54be
00000010: a11e 06be 5b40 b23e 3082 0cbc fd71 493d
00000020: 60ea 40bd 8ed9 743d 02bd 5abd b562 143f
00000030: 56eb 1d3d a02a 3ebe 240b 90be 4da2 ebbd
00000040: c9b4 19be e5ae 4d3e 95c0 b93e f699 3e3e
00000050: 3e38 353e d023 3ebe fa0a 823d 3425 953e
00000060: 68c0 f83d 62f0 a53e d302 32bd d221 153f
00000070: f074 a7bb 0ede a23b 6b05 323d 40f6 d43c
00000080: df44 903e d3c2 d5bc e887 ebbd 7a73 1abe
00000090: 7c70 59bb 583b 033e eaf7 d03d 740b 0dbe
000000a0: 41d1 04be 0426 c93e 0d15 91be c309 78be
000000b0: 6a83 163d 3eaf 803d 0382 e0bd a6f9 eebc
000000c0: 0e0f bb3e 2655 0b3d 7824 593e 3590 9dbe
000000d0: d8a9 373e 1ae0 1cbe 8469 74be 1143 0abe
000000e0: b246 cbbb ed91 48be 34b2 b0bc eeea 1fbe
000000f0: 97f2 0a3e c0d9 903d 7558 ba3e de0b aebc
00000100: 7c51 923e 286f 563e fc98 8c3e d07a 483e
00000110: 2fe9 943b 82b9 b23e 2c38 693e 483f 963e
00000120: aa06 c93e 42a3 9f3e 2c4e c6bc d289 c8be
00000130: 0958 e4be ad07 033d 97ae 653d bab9 243e
00000140: 3ee2 cdbd 8cfe cebd 8bb3 bc3d 361d 513d
00000150: e809 44be ae8d c73d aa9d 51be 9513 573c
00000160: 0513 74be 2b2a 393e 112c 953e 480b 3ebe
00000170: 22d4 76bd 0f31 583d 90df f53e a5d0 ebbc
00000180: 5fbe 933d 8d3e 10bf 8289 773e 13a8 05bf
00000190: b7be 4a3e 911f 943e 7ef6 29be 00ae 88be
000001a0: 8223 bfbe f715 023d 9343 133e 996f f03e
000001b0: 310d 013f 587a 733c 3076 933e a4ab 97bc
000001c0: 88d8 91be eb74 31be dec9 003c a851 4c3d
000001d0: bc48 1e3d 1f87 803c f0ea e0bc 4688 df3d
000001e0: 2a21 d93d 4d3c df3d 030c b8bd 73f8 12be
000001f0: ace0 f43d f45d 4abe 3479 3dbe a566 54be
00000200: c4db 493d fcaa 8c3d f7db bb3e 9cf9 f93c
00000210: 4a27 2dbd a9ef 5ebe fcb7 9cbe 1db2 89ba
00000220: d233 a0bd 345a 43be ea02 8a3e dd86 933e
00000230: ae60 3f3d 5315 4abc 6e05 c23e 00fd bd3e
00000240: ec83 e33e d4b5 8abd a9ce ac3d bb12 ee3e
00000250: f939 29be 3469 5c3e 862e 45be 349f e03c
00000260: 44a6 be3e 4bf6 afbe c766 dc3e 9109 f2bc
00000270: 1b6d acbc c8ff 003e 7286 503f e2e8 e23e
00000280: cd7d d7bd 77b3 e83e b649 9a3e 9220 6dbe
00000290: 66b9 7cbe 998d b6be 9a84 c03d 02ba b5be
000002a0: 6291 393e f864 72bd 0e2b 603c eb81 733e
000002b0: 6d11 95bd b5ec cbbd 2d1e 253d f0e1 ba3d
000002c0: ef1e f3bd 6e8f 24be a88a 723e 000d 58bd
000002d0: 1fd7 3a3f c5d8 d33d 63ca f2bd 7668 ab3e
000002e0: 79b2 613f 52bd 6c3f eb07 23bc 9f1e f23b
000002f0: dbc4 883e 96a6 24be a79f 0d3f 4c7b 80be
00000300: 2fa6 2dbe b3e0 c63e 53e4 debd 9291 953e
00000310: 1259 163e f0d9 5dbd ec7c 063f 0867 5cbe
00000320: 4663 e0bd 3c86 713d 1965 68be d717 c43c
00000330: bccb 923e 9d6d 6c3e 1582 983e 62fd 363d
00000340: 5987 2bbd 2723 18be 4b27 d43d 80e5 ef3b
00000350: dc55 003f d036 9e3e 20ed a63d 3e2c 643e
00000360: da3d 83bd fac7 e6bd ebe9 55be 3e3a 063f
00000370: 6696 3d3f c505 a13e 2b50 f0bd cead 47be
00000380: 4f27 453e d091 1cbd 2fb7 5a3b 228b 153d
00000390: 8eb6 db3e df6c a73e f10b c2bb 349a f03d
000003a0: 9c46 623e 242f 97be 02b3 27be fcf0 27be
000003b0: b56d 37bd 1118 f53d 366d e0bd ecc9 39be
000003c0: 564a 80be b443 75be 07c5 44be 8375 efbc
000003d0: 0638 7cbe bae7 d8bc f9fa 23bd 4986 d13e
000003e0: c454 423c 73cf 9abd 8954 9fbe 6f8f 5ebe
000003f0: c6cf 103f 8128 953e 5df2 3fbe de5d 553e

l3.bias f4 [6]
0.2110411 -0.31370133 -0.14631057 0.070431665 0.36885425 -0.067907214
00000000: 281b 583e 769d a0be 70d2 15be 7a3e 903d
00000010: 77da bc3e f012 8bbd
