HalfCheetah/HalfCheetah-v4_actor_finalized_04.pth (torch, 520140 bytes, 6 tensors)

l1.weight f4 [400, 17]
000000 87 28 a9 3d 76 09 38 bf 4e 0b 85 be 29 db 43 be
       0.08259683 -0.71889436 -0.25985187 -0.19126572
000010 94 d8 01 3e 83 03 80 3e 03 7c 7b 3c 0b 4e de bd
       0.12680274 0.2500268 0.015349391 -0.10854729
000020 2a 28 2e be cb e0 45 be 2d 6d 71 bf 08 a7 7b be
       -0.17007509 -0.19324033 -0.94307214 -0.24575436
000030 c9 da 94 be 2f 7c a0 39 1f 20 a5 be 72 84 53 3e
       -0.2907317 0.00030610102 -0.3225107 0.20655993
000040 93 1b 7a 3e d9 0b 15 c0 ae 92 19 be a1 2b 61 bf
       0.24424581 -2.3288481 -0.1499736 -0.879572
000050 72 c6 d0 3d 6a 01 bd bd 82 97 21 be 95 7f 92 3d
       0.101941004 -0.09228785 -0.15780452 0.071532406
000060 03 aa 8d 3e e2 0f 08 bd 78 c4 9c be 5d 66 05 3e
       0.2766877 -0.033218272 -0.30618644 0.1302733
000070 72 61 d5 3d 1a 6a 03 3e a9 24 2a 3c f1 b9 71 3e
       0.10418977 0.12833443 0.010384717 0.23606087
000080 ae be 18 3c 88 f5 c9 bb 0c a5 28 3f d9 e1 f0 3d
       0.009322805 -0.006163303 0.6587684 0.11761827
000090 d9 da 18 3f eb 47 21 be 38 c1 f5 3e 10 ec 38 bd
       0.59708935 -0.15750091 0.47998977 -0.045147
0000a0 39 38 94 be f5 15 16 bf 97 39 09 bf 86 4d a8 be
       -0.28949144 -0.58627254 -0.536035 -0.32871646
0000b0 1f a2 b4 3e 1b 81 60 be 79 d5 bc 3e 85 02 aa 3d
       0.3527994 -0.2192425 0.36881617 0.08301262
0000c0 5d f5 16 be dd 03 a7 bc 6b ee 5b 3e fe b3 6e 3e
       -0.14742036 -0.020387584 0.21477668 0.23310849
0000d0 89 c6 38 3a ab a2 2a bd 9a ce d3 3d e9 3f af 3e
       0.0007048627 -0.04165904 0.103421405 0.34228447
0000e0 22 36 8a 3e d4 2f 04 3f 31 0e 5a be cb 90 b9 3d
       0.26994425 0.5163548 -0.21294476 0.0906082
0000f0 70 59 56 bd a4 e5 06 3f 65 b0 2e be 14 e6 ca 3c
       -0.052331388 0.52694154 -0.17059477 0.024767913
000100 bb c6 be 3d 99 ae 64 3d 3b 5a 18 bd 87 61 a0 3e
       0.093152486 0.05583057 -0.037195425 0.31324407
000110 d9 33 24 bf 3e 08 ef 3f 32 29 83 3c 76 61 af 3d
       -0.64141613 1.867439 0.016010854 0.08563511
000120 6f 04 45 bd cc 64 13 3d 56 b6 34 3f c1 3d 1c 3e
       -0.04809993 0.0359848 0.7059072 0.15257932
000130 c7 83 de bc 1c 8d c2 be 8f 83 49 3e 0d 80 62 bc
       -0.027162446 -0.37998283 0.19679092 -0.013824475
000140 92 2d 4d 3b e2 c1 5f bd 35 40 f9 3c aa 01 89 3d
       0.003130768 -0.05462826 0.030426124 0.066897705
000150 59 40 4d bd fa bf da bd bf 3c 5f 3f 26 11 3f 3f
       -0.050110195 -0.10681148 0.87202066 0.7463554
000160 56 07 27 3f ef b2 91 be e8 33 72 ba 19 53 22 be
       0.6524557 -0.28456828 -0.0009239302 -0.15852012
000170 92 2f cb be d8 cb 4e be ab 10 17 3e 06 8b 09 3e
       -0.3968473 -0.20194948 0.14752452 0.1343194
000180 2a c8 56 3e 0b c7 93 3d f8 e3 b7 3e 5c 83 a2 be
       0.20974794 0.07215699 0.35916114 -0.31740844
000190 9c 08 69 be dd 65 3c 3e 8a 0a 31 3f f4 45 05 3f
       -0.2275719 0.18398233 0.69156706 0.52059865
0001a0 7a e9 90 3e d9 2c a0 bc b8 45 02 3e c8 2e 02 be
       0.28303128 -0.019552635 0.12721908 -0.12713158
0001b0 ff e7 d5 3d 1b 60 54 be 61 cb 25 bf 8a 5a a5 3d
       0.1044464 -0.20739786 -0.64763457 0.080739096
0001c0 86 b0 46 3f cc 05 91 3d ca db 68 3c ee 57 50 be
       0.77613103 0.07081184 0.014212558 -0.20346043
0001d0 e0 f9 50 3e a3 8f 03 3e bc 0b b4 3b 95 b3 54 c0
       0.2040782 0.12847762 0.005494563 -3.3234608
0001e0 75 5d c5 3f 14 bc 0b be 40 d3 fb bd 3b a6 40 bd
       1.5419146 -0.13645965 -0.12296152 -0.04703353
0001f0 bf 12 a2 3c df 1d 2a be f6 b7 26 3e d2 bc a7 3e
       0.01978433 -0.16612957 0.16281113 0.32761246
000200 51 6f 79 bf 76 dc a1 be b0 38 6c be 44 b5 23 be
       -0.9743548 -0.3161351 -0.230685 -0.15987116
000210 6f f9 bc bd 94 66 84 bd c1 3c 7d bd d3 f7 3e 3a
       -0.09227263 -0.06464878 -0.061825518 0.00072848535
000220 4d 30 07 c0 99 00 43 3f 01 c8 b0 be 38 b9 cd 3d
       -2.112323 0.76172787 -0.3452759 0.10045093
000230 69 43 44 3e 52 36 09 bf d9 da 45 3d 84 4d 92 be
       0.1916634 -0.5359851 0.048304413 -0.28574765
000240 d2 b0 ad bc 1a 31 b0 be 4d f0 8f 3d af 21 62 be
       -0.021202479 -0.34412462 0.070282556 -0.22083162
000250 2f 6d 52 3e 65 74 41 be 40 ee 41 be 86 fa ae bd
       0.20549463 -0.18892057 -0.18938541 -0.08543877
000260 3c f8 32 3e 0c 62 75 40 01 80 23 3e 8c e9 a3 3e
       0.17477506 3.8341093 0.15966798 0.3201412
000270 14 30 9c bd 3e 94 c9 3d 43 05 a7 be 01 d4 ef bd
       -0.07626358 0.09842728 -0.32621202 -0.117103584
000280 46 77 07 bd 49 df f2 bd d5 6e 88 be 42 55 35 3e
       -0.033072732 -0.118589945 -0.26647058 0.17708305
000290 93 39 60 be b3 ba f1 bd 19 10 aa bc 7b c5 08 bd
       -0.21896963 -0.11803188 -0.02075963 -0.033391457
0002a0 97 4c 8b bd 7f 4c 43 bc be d8 01 bf 0b 19 10 3f
       -0.06801718 -0.011920094 -0.5072135 0.5628821
0002b0 c9 69 39 bd 07 83 0a 3f c5 05 3f be f6 02 df 3c
       -0.0452669 0.5410618 -0.18654545 0.027223092
0002c0 1c 45 9f 3d 1c b1 4a 3f db b8 d7 3d 27 3e 8d bd
       0.077768534 0.791765 0.10533305 -0.0689662
0002d0 d9 20 a3 bd e9 76 3a bd a6 ce a4 3c a6 c4 ee bd
       -0.079652496 -0.045523558 0.020118069 -0.116586015
0002e0 5b 1e 2a 3e 7b 7d 3a 3e 19 14 53 bd 86 47 d6 3e
       0.16613142 0.1821193 -0.05153284 0.41851443
0002f0 d5 e6 c7 bf c4 18 1e be 81 df b9 3d af b7 86 bc
       -1.5617319 -0.15439135 0.09075833 -0.016445009
000300 23 73 d5 bd f6 20 8a 3d 92 7a 1f 3e 6e 4b 11 3e
       -0.10422351 0.06744568 0.155741 0.1418893
000310 0e 77 99 3e 5c fb 31 3e 38 2d f3 bd 8e 85 3d bd
       0.29973644 0.17381042 -0.11873859 -0.046269946
000320 66 66 be bd 3a c6 a8 3d 9e 48 aa b9 8e 87 15 bc
       -0.09296875 0.08240934 -0.0003247903 -0.009126557
000330 bb b2 3a c0 da 1b 93 3f 3c c7 cd 3e 32 bf 36 3e
       -2.9171588 1.1492875 0.40191066 0.17846373
000340 77 1e 1d be ac ee 14 3d 70 d2 8c 3d ab da 5e 3d
       -0.15343653 0.036360428 0.06876075 0.054407757
000350 ed 1c a1 3e 30 62 6a bf 83 19 39 3e 95 44 62 3e
       0.3146738 -0.9155607 0.18076138 0.22096474
000360 88 62 f5 3d b0 b2 f0 3c 6c ca ce bd 18 dc 92 3d
       0.11981684 0.02938208 -0.10097203 0.07170886
000370 6e 15 e1 3d 10 14 9d bf 46 be 19 bd dd d3 2e be
       0.109904155 -1.2271748 -0.037534975 -0.17073007
000380 77 b5 85 3e f4 18 0b 3f 1d 86 90 bd 59 c1 92 bf
       0.2611501 0.5433495 -0.0705683 -1.1465255
000390 ad b2 83 bf 96 72 bf 3e cd 70 24 bf 4f e1 ca 3e
       -1.0288903 0.3739211 -0.6423462 0.39625022
0003a0 36 97 99 3c 24 2d ca 3d 30 32 e3 bc c3 27 7e be
       0.01874886 0.09871891 -0.027733892 -0.24819855
0003b0 0a 0e f4 bd c3 7d 8c 3d a0 f5 d2 bc 36 8d 42 3a
       -0.1191674 0.06859925 -0.025751889 0.0007421555
0003c0 22 35 45 bf 0e 72 98 3e 03 e6 10 3d 87 0e 24 3d
       -0.770342 0.29774517 0.035375606 0.040052917
0003d0 42 2b ac bd c7 9a b5 3e 3e 85 08 be ec 85 24 3f
       -0.08406688 0.35469648 -0.13332078 0.6426685
0003e0 e4 f0 d2 3e 41 f4 7d 3e 09 30 95 3e eb f6 8c 3e
       0.4119941 0.24800207 0.2913821 0.27532133
0003f0 d6 43 cb 3d 51 ad e1 bd 96 ec 02 3e b2 b5 d9 bf
       0.09925048 -0.110193856 0.12785563 -1.7008574

l1.bias f4 [400]
000000 f0 6b 13 3f 9a 2c 27 be 1d 6c 1f 3e e4 41 59 3f
       0.57586575 -0.16325608 0.15568586 0.84866166
000010 0b 24 0e bf 94 e7 90 be bd 84 df be 1d 42 21 bf
       -0.5552375 -0.2830168 -0.4365596 -0.62991506
000020 9f f3 a6 be 7f 88 19 3e 64 64 61 bf 7a 30 40 3f
       -0.32607743 0.14993475 -0.8804381 0.7507397
000030 81 92 0f bf b8 70 eb bd 40 4a 13 bf 35 33 8e bd
       -0.5608292 -0.11496109 -0.5753517 -0.06943361
000040 a7 e3 56 bf 48 2d 58 3e 2b 18 b3 3d 2d 33 cc 3d
       -0.8394112 0.21111023 0.08744844 0.099706985
000050 0f 38 8c be e3 3f 99 3d b5 3e 2c bf 9a 63 4c be
       -0.2738652 0.074828885 -0.67283183 -0.1995987
000060 85 0b ec be 00 7f 1c 3d c2 14 37 bf 60 7b 7a 3e
       -0.4610254 0.038207054 -0.7151605 0.24461126
000070 19 3a 05 3e 18 15 2b bf e3 e8 09 3e b1 d8 3d 3d
       0.13010444 -0.6682906 0.13467745 0.04634923
000080 0c 9d 75 3e c2 43 0c bf fe 35 fe 3c 80 74 20 3f
       0.2398569 -0.5479089 0.031031605 0.62677765
000090 17 0f 5c be b8 c8 9e 3e 9f 26 ab 3e 5b 62 05 bf
       -0.21490131 0.3101251 0.33427903 -0.52103204
0000a0 4f 7e 6f be 47 2d 7c 3f 1c 0c 3d 3e 39 ce 9d be
       -0.23388027 0.9850659 0.1846165 -0.30821398
0000b0 26 52 b2 be dc 95 d8 3e 00 20 b2 be 24 35 bc bd
       -0.348283 0.42301834 -0.3479004 -0.09189823
0000c0 df 32 80 3e ed 69 1b bf 0c 81 1a bf ba 38 04 bc
       0.25038812 -0.60708505 -0.6035316 -0.008070165
0000d0 a6 89 f4 bc 33 7a 9b be a9 8f ed 3b c3 85 0f bf
       -0.029850792 -0.30366668 0.0072497916 -0.5606348
0000e0 a3 0a 9a 3e 33 78 65 be de 46 17 bc d6 ca 92 be
       0.3008624 -0.22409134 -0.009233205 -0.28670377
0000f0 1a 15 83 bd e4 a5 bc be 42 18 10 3f 9a f3 bb be
       -0.06400509 -0.36845315 0.56287014 -0.3670929
000100 9f 2b e6 3d e3 7b 08 be 9f e6 0c be b3 ec 64 bf
       0.11238789 -0.13328509 -0.1375985 -0.89423674
000110 46 74 38 bf 8a 70 e0 be f3 b4 0d 3e 76 a5 86 be
       -0.7205242 -0.4383586 0.13838558 -0.26298112
000120 99 f8 18 3f 89 7e c8 be 17 92 0c bf b3 03 13 bf
       0.5975433 -0.3915904 -0.54910415 -0.5742752
000130 5b d3 34 bd 12 13 0e bf 8c 68 bc be dc 4b d7 3e
       -0.044146877 -0.5549785 -0.36798513 0.42050064
000140 c4 bc b5 3e 43 43 86 bf b2 10 32 3f 1a 86 ac 3d
       0.3549558 -1.0489277 0.69556725 0.08424015
000150 77 59 87 bc c4 20 99 bd 4e b0 3c bd 8f 65 fd 3e
       -0.016522152 -0.07476953 -0.046066575 0.49491546
000160 1b 20 8e 3d 5a 49 2d 3f 34 41 ed be 9c 18 16 3f
       0.069397174 0.6769005 -0.4633881 0.586313
000170 07 4b fd bd a0 26 c4 be 99 d5 7d be 47 a1 00 3f
       -0.12367826 -0.3831072 -0.24788512 0.5024609
000180 ec 0f 38 bf 06 55 f5 be b0 6f ff 3d c8 34 a5 be
       -0.71899295 -0.4791643 0.124724746 -0.3226683
000190 ba cc 42 bf 16 03 a0 bd 4e 78 8e 3d 42 7c 4b 3e
       -0.7609364 -0.078130886 0.0695654 0.1987162
0001a0 35 cf ac bd d0 fe bf be ea 7a 70 bd 91 d8 44 bf
       -0.08437959 -0.37499094 -0.05871097 -0.76892954
0001b0 77 12 08 bf 0f 11 8f 3e e6 98 ca 3c 80 e9 49 be
       -0.53153175 0.27942702 0.02473111 -0.1971798
0001c0 27 1e c5 be da 87 d5 3e 08 80 40 3f f7 7d f5 be
       -0.38499567 0.4170521 0.7519536 -0.47947666
0001d0 45 9a 19 be dc c7 bf 3d 10 9f 76 be b0 ab 1d bf
       -0.15000255 0.09364292 -0.24084115 -0.615901
0001e0 0b 30 0f 3f 13 9d 33 3f ab 4f 0b 3f 52 23 78 3d
       0.5593268 0.7016155 0.5441844 0.06058056
0001f0 76 01 bf 3e 0d 8c 20 bf 04 12 d6 3e 25 a6 3e 3e
       0.37305802 -0.627137 0.4181062 0.18618067
000200 c8 b4 61 3f 75 74 fc 3e 09 21 7c 3d 28 19 19 3f
       0.88166475 0.493076 0.061554942 0.5980401
000210 15 94 8f 3e c9 42 53 3e bf 03 30 3f 9f 42 3b 3f
       0.28042665 0.20630945 0.68755716 0.7314853
000220 60 5a 59 bd 54 14 0d 3e de f4 bd be 5e af 9e 3e
       -0.053064704 0.13777286 -0.3710088 0.3099317
000230 4a ae b9 3e 85 f7 94 be 04 a8 42 3f 8a 5a 87 be
       0.36265785 -0.29095092 0.7603762 -0.26436263
000240 a5 61 a6 be 8a a0 1b be f3 73 22 bd fa c1 85 bd
       -0.32496372 -0.1519796 -0.03966136 -0.06531139
000250 a1 f1 29 3f 67 61 3f 3d 81 f3 2f be 41 be 7f bd
       0.6638432 0.04672375 -0.17182733 -0.0624373
000260 d4 b1 29 be 9c 74 55 be 43 b4 cc 3c 32 3f 1f 3f
       -0.16571742 -0.20845264 0.0249883 0.62205803
000270 61 5a 07 3d 25 aa 37 bf 3f b5 8d be b4 99 3d bd
       0.033045176 -0.71743995 -0.27677342 -0.04628916
000280 75 02 68 3e 5d 24 d6 3e 61 38 eb 3d 79 7a 1a 3e
       0.22657187 0.41824618 0.11485363 0.15085782
000290 92 9f 53 be b2 19 a2 bc 6a d6 6a 3e ac 82 e7 3e
       -0.2066634 -0.019787643 0.22933355 0.45216882
0002a0 4d 39 a2 bd 0f 91 f5 bd 79 45 4a 3f 35 c4 3b bf
       -0.079210855 -0.11990558 0.79012257 -0.73346263
0002b0 0b 67 57 bf 56 4f 3f be b7 25 ca be bc 2d dc be
       -0.84141606 -0.18682608 -0.394819 -0.43003643
0002c0 a1 33 82 3e 75 5d e9 3e b0 a5 f5 bd d2 97 9c be
       0.25430015 0.45579115 -0.11994493 -0.3058458
0002d0 3d 3c 23 be 13 c3 ca 3e ed 8c ae 3d 66 29 5f bf
       -0.15940948 0.39601955 0.08522973 -0.87172544
0002e0 95 b7 37 bf e8 8b bb be 3b b9 45 be 8e 10 95 3d
       -0.717645 -0.36630177 -0.19308941 0.07278548
0002f0 9b 0f 34 3f a2 a0 18 bf 36 c5 bc 3d 32 21 87 be
       0.7033631 -0.59620106 0.092173025 -0.26392514
000300 9b 55 c5 3e 32 04 28 3f 87 42 17 bf 05 cf f8 be
       0.38541874 0.656314 -0.5908589 -0.48595443
000310 c9 09 27 bf ac c9 98 bb b4 a8 53 3f 55 50 87 be
       -0.65249306 -0.004662713 0.82679296 -0.26428476
000320 40 c8 aa 3d d0 f1 a7 be cb a0 23 be 9d 9c 0c bf
       0.08338976 -0.32801676 -0.15979306 -0.5492647
000330 25 57 f4 3e 8b d0 73 be e9 bd 08 bf f7 c6 11 be
       0.47722736 -0.23810022 -0.5341478 -0.14236055
000340 a6 6d 7d bd 03 96 17 3f 1d 9b 95 be 94 90 8a be
       -0.061872147 0.59213275 -0.29219905 -0.2706343
000350 2a a9 45 bd dc aa 5c bd 51 77 6c 3e bf 3d de 3e
       -0.04825703 -0.05387388 0.2309239 0.43406484
000360 92 9c af 3e 16 fb 23 bf 67 28 f4 3e 56 8b 76 3e
       0.3429914 -0.64055 0.47687075 0.2407659
000370 80 1c 2d 3e cf 48 db bd 38 f5 04 be 42 df ed be
       0.16905403 -0.107072465 -0.12984169 -0.46459395
000380 a0 5f 1a 3f ea 0a 2c bf 34 71 ee 3d d2 23 1f 3e
       0.6030216 -0.67204154 0.116426855 0.15541008
000390 e7 84 66 3e 44 ef 4c 3e b0 df 28 3f ce 23 91 be
       0.22511636 0.20013148 0.6596632 -0.2834763
0003a0 fa ed 2d 3e 62 f2 c8 3c 7c 8a 92 be 99 88 be be
       0.16985312 0.02452964 -0.2862128 -0.3721359
0003b0 04 b4 03 bf d6 63 f1 be 31 27 0c 3f 06 71 23 3f
       -0.5144656 -0.4714648 0.547473 0.63844335
0003c0 23 a9 ff be e3 a1 4a 3e 6a b7 25 be bd 0c 4c 3f
       -0.4993373 0.19788317 -0.16183248 0.7970694
0003d0 1e 51 50 bf 3f 3d e1 3e c8 eb ed be ef 1d ca be
       -0.81373775 0.4399204 -0.4646895 -0.39475963
0003e0 71 25 08 3f d7 cc c0 3e 39 56 f7 3d 95 bf 97 be
       0.5318213 0.3765628 0.120769925 -0.29638353
0003f0 80 5c 22 3d 35 da 0f be b7 27 e2 be 9b 38 b9 3d
       0.039638996 -0.14048083 -0.44170925 0.09044

l2.weight f4 [300, 400]
000000 0e c9 53 3e a8 c6 37 3d 95 12 1f be 31 66 d5 be
       0.20682165 0.044867188 -0.15534432 -0.41679528
000010 f3 c1 92 bb 29 5e f6 ba 67 8e 83 3d 34 24 37 3e
       -0.004478687 -0.0018796372 0.064236455 0.17884904
000020 41 01 02 bd 13 9d e3 bb 2a 06 a1 3d 78 b5 5f be
       -0.031739477 -0.006946215 0.07862504 -0.21846569
000030 37 0f ce 3d 85 f3 f0 bc ad fd 88 bd fc 6e 68 3d
       0.10061496 -0.029412994 -0.0668901 0.056746468
000040 3f ed 81 3d 77 73 6a 3d e0 a7 be bd 56 4c a4 be
       0.06344079 0.057239022 -0.09309363 -0.3208949
000050 48 30 4c 3e 76 af fc bd 5e e6 a6 3d b4 26 8f bd
       0.19940293 -0.12338154 0.08149408 -0.06989804
000060 b9 bf 37 be 20 bd 1b be 25 fa 0b be 67 c1 4e 3c
       -0.1794423 -0.15208864 -0.13669641 0.012619353
000070 ca 04 73 be 60 a8 f9 3d d5 a3 7f bd a9 6c 14 be
       -0.23732296 0.12190318 -0.0624121 -0.14494576
000080 a4 29 44 3d 2d 21 5a 3e d9 4a 47 be e5 fd 1c be
       0.047891274 0.21301718 -0.19462146 -0.15331228
000090 ba e8 43 3d 94 d1 79 be d3 6f 57 bd 00 46 3b 3e
       0.047829367 -0.24396354 -0.05259688 0.18288422
0000a0 f9 e9 e5 bc 76 6a 3f 3d a5 c1 23 bd aa 62 39 3e
       -0.028065668 0.04673239 -0.039979596 0.18104044
0000b0 5a c6 8b 3d cb ac a0 be 95 b3 b1 be 1c 55 f6 3d
       0.06824942 -0.3138183 -0.34707323 0.12027952
0000c0 6a 26 bc bd f1 a1 38 bc e7 29 d4 bd ed 20 37 be
       -0.091870144 -0.011269079 -0.10359555 -0.17883654
0000d0 09 fc c7 be 4d a0 44 3d 8f 44 d3 bd 6b ef 8f 3c
       -0.39059475 0.048004437 -0.10315811 0.017570218
0000e0 21 19 a6 bd f9 c0 00 be e0 74 91 3c a9 f7 5a 3e
       -0.08110262 -0.12573613 0.017755926 0.21383537
0000f0 b1 ed 57 bd 8b fd 49 3e c9 13 9f be a8 f9 b9 bd
       -0.052716915 0.19725625 -0.31069782 -0.09080821
000100 ae 4c 8b 3e 8a fc 1d be 71 6b 37 3e e5 22 71 3d
       0.2720694 -0.15428367 0.1791208 0.05887117
000110 20 99 f0 3d 99 96 30 be d4 80 c9 bd 33 33 0f 3e
       0.11747956 -0.17244948 -0.09839025 0.13984375
000120 4b a1 ae be 85 c3 9b be 83 c0 9e 3d 5e 28 8b 3c
       -0.34107432 -0.30422607 0.077515624 0.016987022
000130 76 98 bf bd c4 a8 9a 3d ad f9 18 3d 78 bc a5 be
       -0.093552515 0.07551721 0.037347484 -0.32370353
000140 9b a1 4e be 63 a4 88 bd ad f3 2f be 28 57 b3 be
       -0.20178835 -0.06671979 -0.17182799 -0.35027432
000150 43 04 29 bd f3 6a b3 3c 85 a0 b1 bd 66 3f 4f be
       -0.04126383 0.021901583 -0.08673195 -0.20239028
000160 ae b2 1d be 72 2a 8e bd 53 fd 77 bd 29 34 fa bc
       -0.15400192 -0.069416896 -0.060544323 -0.03054245
000170 42 c4 d2 bd 49 7d 91 be 30 fe 82 be 21 7f 9d be
       -0.102913395 -0.28415897 -0.25584555 -0.30761054
000180 45 49 1d 3e 1b f2 b4 bd 83 1b a1 be 2a d8 7f be
       0.15359981 -0.088352405 -0.31466302 -0.24984804
000190 2b 49 7e 3d 2e 82 af bd b5 97 a4 bc 91 c8 ce bd
       0.062081497 -0.08569752 -0.02009187 -0.10096849
0001a0 ae e3 3d be 71 d8 a1 bc 39 58 f0 bc 47 06 54 be
       -0.18543884 -0.019756528 -0.029338943 -0.2070552
0001b0 ac ae 82 3d 7f fa f5 bd 66 3a 04 be 83 3b 6b be
       0.06380972 -0.12010669 -0.12912902 -0.2297192
0001c0 e6 70 0d 3e 63 7d cd bd f3 70 b9 bd 9d 0e bb 3c
       0.13812599 -0.10033681 -0.090547465 0.022834117
0001d0 7c af 5b 3d 3d 84 b0 bd a3 09 32 3d 59 0e 52 3e
       0.05363415 -0.086189725 0.04346622 0.20513286
0001e0 3b da 05 be 57 2c 99 be 28 01 81 be e6 d7 e7 bd
       -0.1307153 -0.2991664 -0.25196195 -0.11320476
0001f0 60 bc 29 3d 60 f8 cc bd 16 8f 84 bd 72 cf a0 be
       0.041439414 -0.10008311 -0.06472604 -0.31408268
000200 92 00 97 be c4 91 e0 bd 0c c6 3e bd ac a8 59 bd
       -0.29492623 -0.109653026 -0.04657559 -0.053139374
000210 19 bf 90 bc ea 7d b0 3c 63 0a 10 3d f0 7a 38 be
       -0.017669247 0.021544416 0.035166156 -0.18015647
000220 ae 1f 6c bd 01 eb 84 bd 3e 06 18 3e d8 54 2c bd
       -0.0576474 -0.06490136 0.14846131 -0.0420731
000230 6b e3 03 3e 85 b0 cc be 30 cd 56 3d b0 ac 81 3d
       0.12879722 -0.39978424 0.052441776 0.06331766
000240 4e 7c 7d bd 7c e5 31 bd d2 10 08 3d 08 1a 04 be
       -0.061886124 -0.043431744 0.033219166 -0.12900555
000250 14 4e 9a 3d 89 77 25 be b0 c6 65 3d 20 9e 10 3e
       0.075344235 -0.1615888 0.056097686 0.1412282
000260 f0 15 00 be 8e 89 c7 be 01 74 e4 3d 44 90 7c bd
       -0.12508368 -0.38972133 0.111549385 -0.06166102
000270 59 e9 de bc 22 ed 11 bd 00 5b 0d 3e 1c f1 08 bd
       -0.027210878 -0.035626538 0.13804245 -0.033433065
000280 8c 66 4c bd 48 9c b2 3d 72 14 ab bc ad e5 fc 3d
       -0.049902484 0.087212145 -0.020883773 0.12348495
000290 a7 bc 63 3d f5 d9 c8 3d ff 4b d9 bd 70 40 3a 3d
       0.055599835 0.09807197 -0.10610198 0.04547161
0002a0 56 9f 20 be 65 cb 80 be 01 6c 46 be 1d 45 98 3d
       -0.15685782 -0.25155178 -0.19377138 0.07435057
0002b0 bc 41 74 bd 06 58 e4 3d 4e 83 00 3e bd e9 0a bd
       -0.059633 0.11149602 0.12550089 -0.033914316
0002c0 28 78 15 be 15 33 8d bd a2 3c a2 bc ac 01 c2 3d
       -0.14596617 -0.06894509 -0.019804303 0.09472975
0002d0 4b 2b c0 3c 67 f3 35 bb 1b ee a9 bd 9d 30 d7 3d
       0.023458144 -0.0027763487 -0.08297368 0.10507319
0002e0 41 69 ef 3c b8 58 4b 3e 1c d1 35 3e c4 b3 6b bc
       0.029224994 0.19858062 0.1775555 -0.014386121
0002f0 d3 b8 d4 be 66 09 d2 bd 97 2e 07 be 27 86 09 be
       -0.4154726 -0.10255699 -0.13201366 -0.13430081
000300 bb f3 9f be 78 e2 8e be 6a b4 f0 3d d4 89 b4 3d
       -0.3124064 -0.27907157 0.11753161 0.08815351
000310 40 02 fe 3d 64 75 2f 3d 74 5e 3c be 67 dd 8d be
       0.12402773 0.04283656 -0.18395406 -0.2770798
000320 8d b9 e0 bd e0 e1 c0 3d 8e 51 8d bc 7f ea 33 bd
       -0.10972891 0.09418082 -0.017250802 -0.043924805
000330 09 d5 f0 bc fc 97 99 3d 51 6a 9b bd de 09 47 3e
       -0.029398458 0.07499692 -0.075886376 0.19437358
000340 fb 8c 28 bc 3c ac cc bd 94 30 a7 3e 25 da 60 3e
       -0.010287519 -0.099937886 0.3265425 0.21958216
000350 80 b3 a8 3d 58 83 8a 3e ce 54 f8 bd 34 3a 85 3d
       0.08237362 0.27053332 -0.1212555 0.06505242
000360 74 22 a6 bd d1 93 9f 3c 4c 35 14 be de b6 f9 bd
       -0.0811204 0.019479664 -0.14473456 -0.12193082
000370 27 0f 0e be 45 b7 ad bd c0 20 57 bd b7 c0 0d be
       -0.13872968 -0.084822215 -0.052521467 -0.13843046
000380 31 81 19 bd 62 10 06 3d 48 6a b6 be 92 f1 2b be
       -0.037476722 0.032730468 -0.3562796 -0.1679137
000390 b1 1e 03 be e6 95 94 3d f2 7e cc be fc 99 be bc
       -0.12804677 0.07255153 -0.39940602 -0.023266785
0003a0 f2 d3 1b 3b 10 3a ea 3d 11 d4 02 bc 31 42 67 3d
       0.0023777452 0.11436856 -0.007985131 0.05645961
0003b0 e0 be 2e 3c ba 79 eb 3c a8 67 10 be ba 4d 1f be
       0.010665625 0.028744567 -0.14102042 -0.15556994
0003c0 df 02 b4 bc 96 7d 7f bd 81 88 4e 3d 50 db 4d be
       -0.021974025 -0.062375627 0.05042315 -0.20103192
0003d0 ba 12 10 3e 69 4d 70 3e 4b d4 a9 3c ae d6 21 3d
       0.14069644 0.2346703 0.020731112 0.039511375
0003e0 8e 65 85 be 5a 1f 9a bd 28 36 76 bd 13 4e 40 be
       -0.26054043 -0.07525511 -0.06011024 -0.18779783
0003f0 23 45 eb 3c b2 2b 2c 3e 15 d9 66 3d d3 3e bc 3d
       0.02871949 0.16813543 0.05635937 0.0919167

l2.bias f4 [300]
000000 2e 24 0a bf 68 2b c5 be bf 4e 9b be c7 14 d3 be
       -0.53961456 -0.3850968 -0.30333516 -0.4122679
000010 19 b2 1a be a3 3c 36 be 57 05 3d 3e c5 b4 a0 3e
       -0.15107001 -0.17796569 0.18459068 0.31387916
000020 3c fe 8b 3a 07 2f cb bd c5 0e 00 3d 5c 90 0a 3f
       0.0010680626 -0.09921079 0.031264085 0.54126525
000030 79 cc 71 be 26 c3 7a be b3 02 61 be 84 90 91 3e
       -0.23613156 -0.24488506 -0.21973686 0.2843057
000040 70 96 21 3e 91 39 1b 3e bf 8f 56 3c a9 a6 74 bd
       0.15780044 0.15158679 0.013095795 -0.059729252
000050 9a 4b b8 3e 55 17 56 be cd 5f 9d 3e 96 15 21 be
       0.3599518 -0.20907338 0.30737153 -0.1573089
000060 37 78 8a be 14 d9 b1 3e 52 31 15 3c 82 2f 1d 3c
       -0.27044842 0.3473593 0.009105997 0.009593846
000070 bd 56 5c bd 16 81 92 3e 07 04 18 3e 3f cc 5a bd
       -0.053793658 0.2861411 0.14845286 -0.05341744
000080 8b 68 ea 3d be 10 62 bc 34 8c 00 3d a4 76 73 3e
       0.11445721 -0.013797937 0.031383708 0.23775727
000090 a3 fd d4 3a 10 d7 e4 3e 4e e3 9f 3d be 68 89 bd
       0.0016249906 0.4469533 0.07807027 -0.06709431
0000a0 86 8e 70 be 28 fc 6a 3e 05 73 67 bd 0c 02 87 3e
       -0.23491868 0.22947752 -0.056506176 0.2636875
0000b0 4b d1 92 3d d3 b9 a7 be 88 e0 5e be 06 f3 3d 3e
       0.07168826 -0.3275896 -0.2176534 0.18549737
0000c0 54 09 81 bd b3 ed 97 be 60 7c c3 3d d5 17 fe 3d
       -0.06300607 -0.29673538 0.09545207 0.12406889
0000d0 66 37 cf bd 10 45 1a bf 15 36 3d be 02 6f 0e 3f
       -0.10117988 -0.6026163 -0.18477662 0.55638134
0000e0 fc 7a 17 3e 4a 8d 73 be 18 e7 4a bd 27 21 1b be
       0.14793009 -0.23784366 -0.049536794 -0.15149365
0000f0 15 b0 a8 3d d9 5b ea 3d 88 7b 7f 3e d2 65 60 3b
       0.0823671 0.114433 0.24949467 0.0034240377
000100 37 df 80 be b7 14 11 be bd 8f ad 3e 37 f6 49 bd
       -0.251703 -0.14168058 0.33898726 -0.049307074
000110 a5 b1 ca bd e3 24 5b 3e a8 ce b7 3d a9 c4 0d bd
       -0.09897164 0.2140079 0.089749634 -0.034611378
000120 76 8e de 3e 4a be ca bd 09 9c 8a be 23 89 5f 3d
       0.43468064 -0.09899576 -0.2707217 0.054574143
000130 a3 3e 2f be 3d fe 23 3e 83 2f bf bc 95 09 10 be
       -0.17113738 0.16014953 -0.023338085 -0.14066155
000140 96 98 ba bd 6a 14 15 be ee bc 8d be 49 1c a5 3d
       -0.09111135 -0.14558569 -0.27683204 0.080620356
000150 b0 1b dc bc c2 a7 8c bd d3 23 b5 3d 0b 18 e9 bd
       -0.026868671 -0.06867935 0.088447236 -0.11381539
000160 f5 cb 99 be 8b 0f 73 3d 80 df 0c 3e 8b 18 38 be
       -0.3003842 0.059340995 0.13757133 -0.17978112
000170 bb da 87 3b d9 35 de 3c 72 a4 4f 3e 2b 52 7e be
       0.0041459478 0.027125286 0.20277575 -0.24836032
000180 0a 91 f7 bd e3 81 cd bc 6d 01 0e 3e df 30 a9 3c
       -0.12088211 -0.025086349 0.13867731 0.020653186
000190 ba 93 af be ae e5 63 3e e8 e7 94 3d 75 9b 4b be
       -0.34292394 0.22255585 0.07270795 -0.19883521
0001a0 d1 95 0d 3e 61 62 cf 3d 2c 45 aa be 27 f3 2e 3f
       0.13826682 0.10126186 -0.332559 0.6833977
0001b0 9b 25 e1 bd 82 65 d7 3c fe ef fe 3d 46 b8 84 3e
       -0.10993501 0.02629352 0.124481186 0.2592184
0001c0 7d ee 2f be dc 14 94 be e3 95 88 3e 47 13 8a bd
       -0.1718082 -0.28922164 0.26676854 -0.06741958
0001d0 85 c8 8f 3d 85 e0 9f 3b 56 8b 06 3e 8b 10 6f bd
       0.07020668 0.0048790597 0.1313909 -0.058365386
0001e0 de d2 59 3e c5 81 2f be 0d 80 d1 bd 77 46 04 be
       0.21271846 -0.17139347 -0.10229502 -0.12917505
0001f0 53 3a fd bd aa 5f 42 be 76 f8 11 bf 98 4d 00 bf
       -0.1236464 -0.18981805 -0.57019746 -0.501184
000200 93 b6 b6 3d e2 de 39 be dd 82 bd 3d 26 31 0f be
       0.08921542 -0.1815143 0.09253476 -0.13983592
000210 e0 cc 9f bc be 36 92 3e 18 a9 9f be ff 02 97 3d
       -0.019506872 0.2855739 -0.31183696 0.07373618
000220 6d 8a 02 3e f4 20 d6 be c3 1b f0 3d 7b 37 cb 3e
       0.12748118 -0.41822016 0.11724045 0.39690766
000230 8b 5b 2d 3e 80 93 35 be 89 93 7a be 15 81 65 be
       0.16929452 -0.17732048 -0.24470343 -0.22412522
000240 58 3e 01 be b3 37 9d bb 0b 7c 06 3d 11 94 54 3d
       -0.12621439 -0.0047978996 0.03283314 0.05189902
000250 40 19 f7 be fb 6f 0e be 6c 77 3f 3e 9b c2 92 be
       -0.48261452 -0.13909905 0.186979 -0.28664097
000260 99 c5 9d bc 6c d3 ed be 35 48 a2 3e 74 d6 a0 be
       -0.019259261 -0.46450365 0.31695715 -0.31413615
000270 15 a7 19 3d 46 2b 07 3d e5 5b b3 bd c9 03 e3 bc
       0.037512857 0.033000253 -0.08757762 -0.027711766
000280 2f 28 14 be 82 14 27 bd 2f 30 97 bd af 30 9e be
       -0.14468454 -0.040791042 -0.07382237 -0.30896518
000290 70 f5 d5 3d f3 8f 19 be 2e b5 4f 3d 6f 78 b1 3e
       0.10447204 -0.14996319 0.050709896 0.34662196
0002a0 86 6f d3 bc a7 cc ea 3e 5f 5a 0d be 6e 39 1b 3e
       -0.025810014 0.45859262 -0.13804005 0.15158626
0002b0 c1 d2 2d be 91 45 69 be 78 8a c1 be fc 1c 2f bd
       -0.16974927 -0.22780444 -0.37800956 -0.04275225
0002c0 ab 69 10 be c5 79 7d be 66 62 e8 3e 94 5c 7c 3e
       -0.14102809 -0.24753483 0.45387572 0.24644691
0002d0 2f f9 83 3e 7b 3a 90 3d f6 56 58 bd 30 63 6b bd
       0.2577605 0.07042404 -0.052817307 -0.05746764
0002e0 e6 b5 6e 3e b2 c7 eb 3c da ce 6a bd 9b f4 3c be
       0.23311576 0.028781746 -0.057326175 -0.18452685
0002f0 84 20 3f 3e f9 8f e7 be c7 27 32 3e 80 8e 56 bd
       0.18664747 -0.4522703 0.17397986 -0.052381992
000300 f2 c7 6c be c9 2d 0b 3f 36 a0 9d ba 0a 4d b8 3e
       -0.23123148 0.5436674 -0.0012025896 0.35996276
000310 6f 0d 1a 3e 22 75 5d be d1 c3 50 3e ad e5 93 3d
       0.15044187 -0.21626714 0.20387198 0.072215416
000320 f6 e4 c9 bd f5 75 64 3e bf 37 8d bd fc 78 0e 3c
       -0.09858124 0.22310622 -0.06895398 0.008695837
000330 76 c5 12 3e 44 87 85 bc 39 9d 31 be 5f ae 80 bd
       0.14333138 -0.016299851 -0.17345132 -0.06283259
000340 7c 7e 5f be d2 46 a4 3d 30 c3 fc 3e 34 c1 c9 be
       -0.21825594 0.080213204 0.49367666 -0.39405215
000350 6e 11 db 3e d8 ec b2 bd 1c b7 9e bc 3a 13 e5 3d
       0.42786735 -0.087365806 -0.019374423 0.11185308
000360 67 95 77 be 6a c6 86 3c 82 e4 b0 be 2d 4b 5f 3e
       -0.24178086 0.016452033 -0.34549338 0.21806021
000370 55 8b d1 3e 16 8c 8b 3d 25 fa 4c be 97 df 6c bc
       0.40926614 0.06813829 -0.20017298 -0.014457605
000380 79 70 84 3e 48 c9 a9 bc 9a 45 21 3e 5e b3 9c bd
       0.2586706 -0.020725861 0.15749207 -0.07651399
000390 72 34 d9 be d1 63 0c be c9 2b 67 be 35 fa 01 3f
       -0.42422825 -0.13709952 -0.22575296 0.5077241
0003a0 e7 be 01 3e b6 b5 11 bc d0 7c 4c bd 82 ba ef bd
       0.1267048 -0.008893421 -0.049923718 -0.117054954
0003b0 c0 f8 b7 3d d0 c3 ec bd a2 a2 b4 3d 42 fb 06 be
       0.08982992 -0.11560786 0.08820082 -0.13181785
0003c0 93 08 11 bf 5c 6a 95 bc ea 67 0d be 6f 98 9a 3b
       -0.5665371 -0.018239193 -0.13809171 0.0047178785
0003d0 50 b7 58 bc b6 79 15 bd 6c ff d8 be d2 de 4a 3e
       -0.013227299 -0.036493026 -0.4238237 0.19811562
0003e0 96 06 04 be bf 03 08 ba bc c9 f5 bd d4 e8 20 be
       -0.12893137 -0.00051885465 -0.120013684 -0.15713817
0003f0 59 ca 21 bd c8 25 19 bd ff 77 d0 bb 11 bc 48 3e
       -0.039499614 -0.037389547 -0.006361961 0.19602992

l3.weight f4 [6, 300]
000000 fb 49 b8 be 88 89 95 be a9 31 3a 3e 61 46 64 be
       -0.35993943 -0.2920649 0.18183006 -0.22292472
000010 16 ae 02 be dc c9 bf 3e 23 af 3e 3d 6f 94 50 3d
       -0.12761721 0.37458694 0.046553742 0.050922807
000020 60 ea 40 bd 39 c9 52 3d 02 bd 5a bd 00 a1 03 3f
       -0.047098517 0.051461432 -0.05340291 0.5141754
000030 1a 76 53 bd a5 20 12 be 06 e1 8f be f7 9d 1e be
       -0.051626302 -0.14270265 -0.28101367 -0.15489946
000040 65 67 05 be 19 26 f5 3d bc 0b c1 3e 2a c3 39 3e
       -0.13027723 0.11970157 0.37704265 0.18140855
000050 a1 d0 23 3e 00 c9 3b be bc bf ce 3c 8b 2a 95 3e
       0.15997554 -0.18338394 0.02523791 0.2913402
000060 68 6e 36 3e 74 77 97 3e 8a c1 42 bd d6 06 0f 3f
       0.17815554 0.29583323 -0.047547854 0.55869806
000070 f0 74 a7 bb c8 ec f5 bc 24 0f 9c 3d 40 f6 d4 3c
       -0.0051103756 -0.030020133 0.07620075 0.025996327
000080 80 ec 9e 3e d3 c2 d5 bc f9 f4 b5 bd 99 6d 1e be
       0.3103981 -0.026093876 -0.088846155 -0.15471496
000090 e8 7c 3a bd 0c 7a ec 3d 27 e0 0a 3e 02 96 47 be
       -0.045529276 0.11546716 0.1356207 -0.19490817
0000a0 6c 73 83 be 9d ac ca 3e 0d 15 91 be b6 37 88 be
       -0.25673997 0.39584818 -0.28336373 -0.26605004
0000b0 44 2e 1f 3d 10 7e 55 3d 78 25 b9 bd f9 51 09 bc
       0.03886248 0.052122176 -0.0904035 -0.00838136
0000c0 c1 85 c5 3e 52 6a 86 3d 80 f8 6b 3e d0 bb 79 be
       0.3857861 0.06563248 0.23044014 -0.24388051
0000d0 c3 83 20 3e 1c 4e 3c be 58 01 44 be b7 ee e4 bd
       0.15675263 -0.18389171 -0.19141138 -0.11178344
0000e0 de df 07 3c 5f fc 24 be 0e ff d8 bd e9 62 56 be
       0.00829312 -0.16111897 -0.10595523 -0.20936169
0000f0 9e 34 42 3e cf 1f 1a 3e 5c 75 b9 3e de 0b ae bc
       0.18965384 0.15051197 0.3622235 -0.021245893
000100 bd 85 8f 3e 8b 85 4b 3e 35 2b 96 3e 32 1e 38 3e
       0.28031722 0.19875161 0.2932984 0.17980269
000110 f3 47 2a 3d 3b d2 83 3e da 5d 8b 3e 1f 32 82 3e
       0.041572522 0.2574633 0.2722004 0.25428864
000120 6e 78 b4 3e 69 e2 bf 3e ae b0 b0 bc 9a 0a d1 be
       0.3524813 0.37477425 -0.021568622 -0.408284
000130 90 43 e8 be a9 03 9a 3c 97 ae 65 3d 94 37 2a 3e
       -0.45364046 0.018800573 0.056074705 0.16622764
000140 af 5d fa bd 7f 0c cf bd 58 21 26 3e 64 cb 3f 3d
       -0.122249 -0.10109805 0.16223657 0.046824828
000150 b5 74 22 be f9 b1 ad 3d 99 7d 83 be d1 75 24 bd
       -0.15864833 0.08481211 -0.2568176 -0.04015142
000160 a2 32 97 be 7e 30 32 3e 44 e9 8b 3e c2 f3 41 be
       -0.29530817 0.17401311 0.27326405 -0.18940642
000170 d9 76 2e bd c2 3e 80 3d 80 da fe 3e 59 da 7d bd
       -0.04259381 0.0626197 0.49776077 -0.06197581
000180 cb 6b 32 3c 24 30 0f bf fc 7c 5e 3e db 4f f5 be
       0.010889958 -0.5593283 0.21727365 -0.47912487
000190 49 3a 8d 3e a5 d6 9a 3e ba 46 05 be 6e b3 8e be
       0.2758353 0.30241886 -0.13015261 -0.2787127
0001a0 50 86 a9 be 4c 07 53 3d 36 00 0f 3e 39 e2 fc 3e
       -0.33110285 0.05152063 0.13964924 0.49391344
0001b0 43 0f 0a 3f 82 ef 88 3d 9b 67 bd 3e b2 00 db bb
       0.5392954 0.066863075 0.36993107 -0.0066834325
0001c0 3b 6c 8e be 57 cc 5e be dc b7 1c 3d a3 e0 13 3d
       -0.27816948 -0.21757637 0.03826128 0.036102902
0001d0 62 91 51 3d 1f 87 80 3c cd 34 3b 3d 0a 66 73 3d
       0.05116404 0.01568943 0.04570465 0.059423484
0001e0 30 60 ea 3d 07 22 d8 3d 58 ba e0 bd 73 b4 22 be
       0.114441276 0.10553365 -0.10973042 -0.15889148
0001f0 a2 da 0f 3e 78 33 82 be ef c6 5d be 55 57 82 be
       0.14048246 -0.25429893 -0.21657918 -0.25457254
000200 0c c8 97 bb 5d bf 84 3d a3 c8 cb 3e a7 a9 e7 bb
       -0.0046320017 0.06481812 0.3980151 -0.0070697847
000210 4a 27 2d bd 78 c5 85 be b9 4a b5 be 2a 55 2b bd
       -0.042273797 -0.2612722 -0.3540857 -0.041829266
000220 e4 ca ed bd ac 6a 53 be da 4d 7f 3e 65 63 85 3e
       -0.11610964 -0.20646161 0.24932042 0.26052395
000230 e5 55 27 3d 77 f6 6f bd 16 ec 9c 3e 00 fd bd 3e
       0.0408534 -0.058584657 0.3064887 0.37107086
000240 ef 66 cd 3e db 29 8e bd d7 c5 af 3d 75 a8 f9 3e
       0.40117595 -0.06941577 0.08582657 0.48761335
000250 00 34 65 be 1b be 82 3e 46 17 21 be a7 84 da 3c
       -0.22383118 0.25535664 -0.15731534 0.026674582
000260 65 80 b5 3e 8b 01 9d be ec f8 e1 3e 5d 07 91 bd
       0.3544952 -0.3066524 0.44135225 -0.070814826
000270 1b 6d ac bc ad 2c d1 3d be bb 46 3f 6e fc e0 3e
       -0.02104812 0.10213599 0.7763022 0.4394259
000280 d9 20 bd bd 86 62 ef 3e 9d 8b 92 3e bd b5 8d be
       -0.09234781 0.46754855 0.2862214 -0.27677718
000290 a7 72 a3 be 5f a6 b0 be 96 fd 96 3d 22 59 c5 be
       -0.3192341 -0.3450193 0.073725864 -0.38544565
0002a0 62 91 39 3e bc f9 97 bd 22 2d 77 3c 1a ac 7a 3e
       0.18121865 -0.0742068 0.015086444 0.24479714
0002b0 36 13 57 bd 35 68 c1 bd 51 7a 85 3d b6 91 13 3e
       -0.052508555 -0.09443704 0.06517471 0.14411053
0002c0 a2 c6 8f bd 2d 59 08 be c9 00 33 3e 29 3a b8 bc
       -0.07020308 -0.13315268 0.17480768 -0.02248867
0002d0 71 5b 3c 3f d7 29 8b 3d 72 43 13 be 92 8e a8 3e
       0.7357703 0.0679509 -0.14381197 0.32921273
0002e0 8c 07 59 3f db e7 62 3f ec 7d 01 bd 3d 82 f7 bc
       0.8477714 0.88635033 -0.03161423 -0.03021347
0002f0 21 89 90 3e 15 c4 41 be 21 4a 1b 3f 12 1b 68 be
       0.2822962 -0.18922456 0.60659987 -0.22666577
000300 0d f1 6b be ab 68 cd 3e 8e 22 8b bd d5 09 9e 3e
       -0.23041172 0.40118918 -0.067937 0.30866876
000310 8e 55 3c 3e 51 4c 48 bd 19 ce 17 3f 80 ea 3e be
       0.18392012 -0.048900906 0.59298855 -0.18644142
000320 8c 77 25 be 50 0e 1a 3d ea 03 62 be e6 11 43 bc
       -0.16158885 0.037611306 -0.22071806 -0.011906123
000330 72 f4 8e 3e 5c e9 8c 3e e3 32 b4 3e 91 ec 31 3d
       0.27920872 0.2752179 0.35195073 0.043438498
000340 4d 06 bf bd 97 f2 29 be bd 52 c5 3d 56 d1 1f bd
       -0.09327374 -0.16596447 0.09634922 -0.039017998
000350 10 23 f4 3e 75 4e 98 3e 80 eb 88 3d 7a 43 65 3e
       0.47683 0.29747358 0.06685543 0.22389022
000360 51 9b 8e bd e3 13 50 bd 33 06 92 be 00 23 02 3f
       -0.06963218 -0.050800215 -0.28520355 0.50834656
000370 49 8a 3e 3f c2 95 93 3e a1 e6 a0 bd 5e 5e 52 be
       0.74429756 0.28825194 -0.07856489 -0.2054381
000380 30 5e 78 3e f3 a9 b2 bd 58 1a b2 bb 7a fd 52 3c
       0.2425468 -0.087238215 -0.0054352693 0.012877816
000390 af 50 ef 3e b8 dc ae 3e 83 b8 28 bc 28 ee 20 3e
       0.46741244 0.3415277 -0.010297897 0.1571585
0003a0 d6 32 5f 3e a6 77 7e be c3 87 4d be 38 3e df bd
       0.21796736 -0.2485033 -0.2007132 -0.10900539
0003b0 68 2d af bd 61 af 4a 3e 40 19 f4 bd fe 87 5d be
       -0.085535824 0.19793464 -0.119188786 -0.21633908
0003c0 0b ed 91 be 27 1c 81 be 0a ee 56 be 83 75 ef bc
       -0.28501162 -0.2521679 -0.20989242 -0.029230839
0003d0 13 94 82 be ba e7 d8 bc f0 fd 80 bd 02 28 ce 3e
       -0.25503597 -0.026477683 -0.06298435 0.402649
0003e0 bb 2f 1d 3c 95 f7 d9 bd e4 af 85 be aa b4 45 be
       0.009593899 -0.10642926 -0.26110756 -0.19307199
0003f0 64 62 08 3f 1d f3 a0 3e ba 57 25 be ed 57 4f 3e
       0.5327513 0.3143548 -0.16146746 0.20248385

l3.bias f4 [6]
000000 38 b8 57 3e 15 dc b1 be 81 e4 0a be eb ae 88 3d
       0.21066368 -0.34738222 -0.1356373 0.06673988
000010 9c 8e c2 3e a2 21 c5 bd
       0.37999427 -0.096255556
