HalfCheetah/HalfCheetah-v4_actor_finalized_09.pth (torch, 520140 bytes, 6 tensors)

l1.weight f4 [400, 17]
0	0x3deddcdc	0.11614391
1	0xbf4bfb62	-0.79680455
2	0xbebd56db	-0.36980328
3	0xbec5822e	-0.38575882
4	0x3de599a4	0.11210945
5	0x3e7716a6	0.24129733
6	0x3c9ee95f	0.01939839
7	0xbe606660	-0.21914053
8	0xbe17e1bb	-0.14832203
9	0xbdf587a0	-0.11988759
10	0xbf625696	-0.8841337
11	0xbe7027b1	-0.23452641
12	0xbe9bd105	-0.30432907
13	0xbbad2cd4	-0.005284885
14	0xbea4250c	-0.32059515
15	0x3e8904b7	0.2676141
16	0x3e6a0fc1	0.22857572
17	0xc01c9f3f	-2.4472196
18	0xbe163325	-0.14667948
19	0xbf6b8c7f	-0.92011255
20	0x3c73d8d0	0.014883235
21	0xbd88465b	-0.06654044
22	0xbe4d671f	-0.20058869
23	0x3ddbedb6	0.10738699
24	0x3ea8c19c	0.32960212
25	0xbca9dffd	-0.020736689
26	0xbea5a265	-0.3235046
27	0x3d82264b	0.0635496
28	0x3ddb086f	0.10694968
29	0x3dff07f4	0.12452689
30	0x3c962c28	0.018331602
31	0x3e8bf17f	0.27332684
32	0x3d0aabf0	0.03385538
33	0x3c6c8332	0.014435576
34	0x3f433d74	0.76265645
35	0x3dec381f	0.11534142
36	0x3f22f742	0.63658535
37	0x3cc49b01	0.023999693
38	0x3f291cd7	0.6605963
39	0x3e41ee87	0.18938647
40	0xbe3b97ee	-0.18319675
41	0xbee7e7c8	-0.45294023
42	0xbeeb915c	-0.46009338
43	0xbee28fb8	-0.44250274
44	0x3ec3e2c2	0.3825894
45	0xbe8b52f4	-0.27211726
46	0x3ebed234	0.37269747
47	0x3dcfe7a6	0.10151605
48	0xbe0dc105	-0.13843162
49	0xbd10bc61	-0.035335902
50	0x3e8ce91c	0.27521598
51	0x3e6cc9c8	0.23123848
52	0x3cd7ac56	0.026327293
53	0x3d1f817f	0.038941856
54	0x3e8a1167	0.26966402
55	0x3eae736c	0.34072435
56	0x3e86e6dd	0.2634801
57	0x3efe2e33	0.49644622
58	0xbe38d1ee	-0.18048832
59	0x3db1118c	0.08645925
60	0xbd393bf3	-0.045223188
61	0x3f0fe0c0	0.56202316
62	0xbe1eb1f4	-0.15497571
63	0x3cb3579b	0.02189236
64	0x3d374c08	0.044750243
65	0x3d4ab846	0.049492143
66	0xbd3fcc6b	-0.046825808
67	0x3e848adc	0.2588719
68	0xbf28f4bc	-0.65998435
69	0x3ffe06af	1.984579
70	0x3d63c5ed	0.05560868
71	0x3de33768	0.11094552
72	0xbd6124c3	-0.0549667
73	0x3bdde69a	0.0067718746
74	0x3f40ab0e	0.7526101
75	0x3e37396c	0.17892998
76	0xbce73661	-0.028224172
77	0xbee0daa6	-0.43916816
78	0x3e4a791d	0.19772764
79	0x3a1188a2	0.0005551671
80	0xbc0679b8	-0.008207731
81	0xbd80e65a	-0.06293936
82	0x3bcbad83	0.0062157526
83	0x3d903d07	0.0704289
84	0xbcee8a54	-0.029118694
85	0xbd7da235	-0.06192227
86	0x3f6319e5	0.88711387
87	0x3f81fff0	1.0156231
88	0x3f6e4bb4	0.93084264
89	0xbe924701	-0.28569797
90	0xbcc0ba1a	-0.02352624
91	0xbe1f4ddb	-0.15557043
92	0xbec8b220	-0.391984
93	0xbe559be7	-0.20860253
94	0x3e615301	0.2200432
95	0x3d34fda5	0.044187207
96	0x3e564349	0.20924105
97	0x3dad6be8	0.08467847
98	0x3eb123d5	0.3459765
99	0xbe910bce	-0.2832932
100	0xbe456fb4	-0.19280893
101	0x3e287807	0.16452037
102	0x3f46677d	0.7750166
103	0x3ef2d87b	0.47430786
104	0x3e9ee309	0.3103259
105	0x3c8b682d	0.017017448
106	0x3e2d5eb8	0.16930664
107	0xbe28eb44	-0.16495997
108	0x3e2c56a2	0.16829923
109	0xbe318fec	-0.17340058
110	0xbf21dfe3	-0.6323225
111	0x3e50018a	0.20313087
112	0x3f518e4e	0.81857765
113	0x3d9de3e8	0.07709485
114	0x3c80c24b	0.015717646
115	0xbe2cda95	-0.16880257
116	0x3e76ebeb	0.24113433
117	0x3dcb4de8	0.09926969
118	0xbcd537d2	-0.026027594
119	0xc0608d10	-3.5086098
120	0x3fc95dfd	1.5731808
121	0xbe2c324b	-0.1681606
122	0xbe32481b	-0.17410319
123	0xbdcc4b70	-0.09975326
124	0xbd6c3de8	-0.057676226
125	0xbe3f68a7	-0.18692265
126	0x3e527266	0.20551452
127	0x3ea1d842	0.31610304
128	0xbf8ac1bd	-1.0840374
129	0xbeaf8761	-0.34282973
130	0xbe678314	-0.22608596
131	0xbe242501	-0.16029741
132	0xbdcca5fb	-0.09992596
133	0xbd6af3b4	-0.05736132
134	0xbd771b98	-0.06032905
135	0xbd64b8df	-0.05584037
136	0xc00b163a	-2.1732316
137	0x3f47923e	0.7795752
138	0xbea3ced1	-0.31993726
139	0x3d3211a3	0.04347385
140	0x3dc0cdbd	0.094142415
141	0xbef8c0e0	-0.48584652
142	0x3dac739d	0.08420489
143	0xbe9e23b2	-0.30886608
144	0xbc3d779e	-0.0115641635
145	0xbe9d90ad	-0.3077444
146	0x3d1f1ad7	0.038843956
147	0xbe04f708	-0.1298486
148	0x3e3a368f	0.18184875
149	0xbe620127	-0.22070752
150	0xbe5fe22a	-0.21863618
151	0xbd68f592	-0.05687482
152	0x3dff6e48	0.12472206
153	0x407d9f8a	3.9628625
154	0x3e5ea816	0.21743807
155	0x3e1d71c4	0.1537543
156	0xbded3481	-0.1158228
157	0x3dc887fc	0.09791562
158	0xbeae6196	-0.34058827
159	0xbe2389fa	-0.15970603
160	0x3ca1a70b	0.019732973
161	0xbdffc51f	-0.1248877
162	0xbebf765c	-0.3739499
163	0x3e3a9b90	0.18223405
164	0xbe584d8f	-0.21123336
165	0xbe0becb2	-0.13664511
166	0xbc335c1b	-0.010947253
167	0xbd6644a8	-0.05621782
168	0xbcd6475c	-0.026157074
169	0xbd1e93d2	-0.03871519
170	0xbf05a84c	-0.52209926
171	0x3f125225	0.5715659
172	0xbcd31d65	-0.025770852
173	0x3eead09c	0.4586228
174	0xbe6cc6fb	-0.2312278
175	0xbc698f41	-0.014255346
176	0x3d27bc11	0.04095084
177	0x3f4408f6	0.76576173
178	0x3dc8e5c0	0.09809446
179	0xbc61720a	-0.013760099
180	0xbdb1be0a	-0.08678825
181	0xbdc64a4f	-0.09682142
182	0x3d3ffb3e	0.046870463
183	0xbdc51ac1	-0.096242435
184	0x3e3f882f	0.18704294
185	0x3e091754	0.13387805
186	0xbda74c6c	-0.08168873
187	0x3ee2dfaa	0.44311267
188	0xbfcf33ed	-1.6187721
189	0xbc224d25	-0.009906088
190	0x3df1c4be	0.11805104
191	0x3bd52009	0.006504063
192	0xbd6d647c	-0.057957157
193	0x3d1f20fd	0.03884982
194	0x3e2ce7b3	0.16885261
195	0x3e08fe0f	0.13378166
196	0x3e9597e0	0.29217434
197	0x3e2cfa01	0.16892244
198	0xbdf578ee	-0.11985956
199	0xbd43a408	-0.047763854
200	0xbda93f82	-0.08264066
201	0x3d37202f	0.044708427
202	0x3ccd52ef	0.02506396
203	0x3b6a9ba8	0.0035798345
204	0xc040b70a	-3.0111718
205	0x3f96fb78	1.1795492
206	0x3f1db398	0.61602163
207	0x3e5c2d97	0.21501766
208	0xbe24df2f	-0.16100763
209	0x3cedaa44	0.029011853
210	0x3d557b3f	0.05211949
211	0x3dc3643a	0.09540601
212	0x3ea21c4e	0.3166222
213	0xbf79640e	-0.97418296
214	0x3e5d1df4	0.21593457
215	0x3e6aa164	0.22913128
216	0x3de2d4ac	0.1107572
217	0x3cba93c8	0.022775546
218	0xbdf03d67	-0.117304616
219	0x3d9cf1ec	0.076633304
220	0x3da730e4	0.08163622
221	0xbf9bab8c	-1.2161727
222	0xbda6257b	-0.081126176
223	0xbe40caa9	-0.18827309
224	0x3e9098b0	0.2824149
225	0x3f1e3c18	0.61810446
226	0xbd6ccd2d	-0.05781286
227	0xbfa51ed7	-1.2900037
228	0xbf8a3297	-1.0796689
229	0x3eb5653e	0.35428804
230	0xbf30f0f6	-0.6911768
231	0x3edd5f64	0.4323684
232	0x3d33d1ec	0.04390137
233	0x3da8d0eb	0.08242973
234	0xbc00a06f	-0.00785075
235	0xbe8b1d30	-0.27170706
236	0xbdd3ac97	-0.10335653
237	0x3d803b3f	0.062613
238	0x3b492b41	0.0030695947
239	0xbcf63474	-0.030054308
240	0xbf88eeaa	-1.0697834
241	0x3e321708	0.17391598
242	0x3d02417b	0.03180073
243	0x3c9ccb8e	0.019140031
244	0xbd284418	-0.041080564
245	0x3ec84ad1	0.3911958
246	0xbdf4afd0	-0.11947596
247	0x3f282256	0.6567739
248	0x3ed390d0	0.4132142
249	0x3e90007f	0.28125378
250	0x3e81e729	0.25371674
251	0x3e9fd03a	0.31213552
252	0x3e12f97a	0.1435298
253	0xbe0b3090	-0.13592744
254	0x3e30cd42	0.172658
255	0xbfe6c9bb	-1.8030313

l1.bias f4 [400]
0	0x3f13f876	0.57800996
1	0xbe0115b1	-0.12605931
2	0x3e1ff2d8	0.15619981
3	0x3f62cb47	0.88591427
4	0xbf19f324	-0.6013663
5	0xbe9bc6a1	-0.3042498
6	0xbeeff2af	-0.4686484
7	0xbf30cb08	-0.690598
8	0xbea0edae	-0.31431335
9	0x3ddd5888	0.108079016
10	0xbf77d209	-0.96804863
11	0x3f5178ed	0.81825143
12	0xbf1542f3	-0.5830528
13	0xbdba0944	-0.090837985
14	0xbf13712c	-0.5759456
15	0xbdb96171	-0.090517886
16	0xbf659ed5	-0.89695483
17	0x3e0f229e	0.13978049
18	0x3d78004f	0.06054717
19	0x3e17b755	0.1481603
20	0xbe9958ea	-0.2995065
21	0x3d99ba5f	0.075062506
22	0xbf320b48	-0.69548464
23	0xbe302f2e	-0.17205498
24	0xbeeaf786	-0.4589197
25	0xbc6d88c2	-0.014497938
26	0xbf4c479c	-0.7979677
27	0x3e5cdf41	0.2156954
28	0x3dfbce40	0.122951984
29	0xbf2d5a7d	-0.677162
30	0x3e09607d	0.13415714
31	0x3cecda6d	0.028912747
32	0x3ea349c0	0.31892204
33	0xbf1db895	-0.61609775
34	0x3b66fab9	0.0035244657
35	0x3f2976e7	0.66197056
36	0xbe82b3dc	-0.25527847
37	0x3e989203	0.29798898
38	0x3eb50c2e	0.35360855
39	0xbf056390	-0.52105045
40	0xbe689122	-0.22711614
41	0x3f83da35	1.0300967
42	0x3e5677fd	0.2094421
43	0xbe972f9e	-0.29528517
44	0xbebd98ba	-0.37030584
45	0x3ed1d06e	0.40979332
46	0xbed0821b	-0.40724263
47	0xbe11c200	-0.14234161
48	0x3e98b799	0.29827574
49	0xbf1705ac	-0.5899303
50	0xbf2aff58	-0.66795874
51	0x3d6e8eb6	0.05824157
52	0xbcd443ee	-0.025911298
53	0xbeb1060a	-0.3457492
54	0xbca97c2b	-0.02068909
55	0xbf1369b6	-0.5758318
56	0x3eb628ad	0.35577908
57	0xbe518126	-0.20459422
58	0xb8e9be5d	-0.00011145764
59	0xbe5e4bd3	-0.21708612
60	0xbdcec72a	-0.10096581
61	0xbeb9eb9b	-0.36312565
62	0x3f0854d7	0.53254455
63	0xbeb0a643	-0.34501848
64	0x3dde12b5	0.10843412
65	0xbe00536b	-0.12531821
66	0xbe25a8f4	-0.16177732
67	0xbf73e0c5	-0.95264846
68	0xbf4cced8	-0.8000312
69	0xbf0155aa	-0.5052134
70	0x3df4ede7	0.11959439
71	0xbea07d86	-0.31345767
72	0x3f1d1016	0.6135267
73	0xbed5a603	-0.4172822
74	0xbf142301	-0.5786591
75	0xbf1b3013	-0.6062023
76	0xbd2fe7a9	-0.042945538
77	0xbf1642cb	-0.5869567
78	0xbeccf6d6	-0.4003207
79	0x3eca2e6c	0.39488542
80	0x3ec338f9	0.38129404
81	0xbf8ead58	-1.114665
82	0x3f311a5d	0.6918085
83	0x3dd083cf	0.101813905
84	0xbd1a7b5a	-0.037715293
85	0xbdc65487	-0.09684091
86	0xbd3dba64	-0.046320334
87	0x3ef908ab	0.48639426
88	0x3da0e5f5	0.07856361
89	0x3f3902a0	0.7226963
90	0xbee95562	-0.45572954
91	0x3f1a9428	0.6038232
92	0xbe0d1df6	-0.1378096
93	0xbed9c20c	-0.4253086
94	0xbe7d9e9f	-0.2476754
95	0x3f0490ea	0.5178362
96	0xbf3a3536	-0.72737443
97	0xbef6d95b	-0.48212704
98	0x3db8d483	0.090249084
99	0xbeb7ae75	-0.35875288
100	0xbf4b39a2	-0.79384816
101	0xbdab6a1f	-0.0836985
102	0x3de918f9	0.11381716
103	0x3e4fdec2	0.20299819
104	0xbd33883f	-0.043831106
105	0xbec16fc0	-0.3778057
106	0xbaed47de	-0.0018103083
107	0xbf4b627b	-0.79447144
108	0xbf096342	-0.5366708
109	0x3e9371c6	0.2879774
110	0x3cfeb208	0.031090751
111	0xbe3d96a9	-0.18514504
112	0xbec70d52	-0.3887735
113	0x3eb04353	0.34426364
114	0x3f551ffd	0.83251935
115	0xbed8ddd8	-0.42356753
116	0xbe31b4a8	-0.17354071
117	0x3d814884	0.063126594
118	0xbe7eab5a	-0.24870053
119	0xbf1811df	-0.5940227
120	0x3f186804	0.59533715
121	0x3f39d682	0.7259294
122	0x3f0ac9df	0.5421428
123	0x3dbd2b84	0.092368156
124	0x3ecac7f7	0.39605686
125	0xbf2f7330	-0.6853514
126	0x3ec3dbe7	0.3825371
127	0x3e1bf158	0.15228784
128	0x3f6a3d16	0.9149946
129	0x3f04d501	0.5188752
130	0x3dbd1708	0.092329085
131	0x3f1d2e3a	0.6139866
132	0x3e899ac2	0.26875883
133	0x3e53ed1c	0.20695919
134	0x3f35ceb5	0.71018535
135	0x3f55fcc8	0.8358884
136	0xbd894f44	-0.06704572
137	0x3e2f7a7a	0.17136565
138	0xbec59a98	-0.38594508
139	0x3e92c654	0.28666937
140	0x3ebc9bb7	0.3683755
141	0xbe873421	-0.2640696
142	0x3f4aac43	0.791691
143	0xbea01cdd	-0.3127202
144	0xbe66b4b3	-0.22529869
145	0xbe623984	-0.22092253
146	0xbcb3c294	-0.021943368
147	0xbc8b132e	-0.016976919
148	0x3f325f95	0.69677097
149	0x3cd2a813	0.02571491
150	0xbe43ed05	-0.19133385
151	0xbd12c6da	-0.03583417
152	0xbe53a8f4	-0.20669919
153	0xbe3f954a	-0.18709293
154	0x3cebbda4	0.028776951
155	0x3f25072d	0.64464074
156	0xbc3ef196	-0.011654278
157	0xbf49d5a2	-0.788416
158	0xbe96af4b	-0.29430613
159	0xbd38441b	-0.044986825
160	0x3e689999	0.22714843
161	0x3edb2712	0.42803246
162	0x3df50372	0.11963548
163	0x3e156b2a	0.14591661
164	0xbe892334	-0.2678467
165	0xbd69665d	-0.056982387
166	0x3e8e3119	0.27771834
167	0x3ed8a454	0.42312872
168	0xbe08202a	-0.1329352
169	0xbde50e47	-0.11184364
170	0x3f565640	0.8372536
171	0xbf57c7ab	-0.84289044
172	0xbf656284	-0.8960345
173	0xbe315705	-0.17318352
174	0xbec18ac9	-0.37801197
175	0xbed668e5	-0.41876903
176	0x3e685222	0.22687581
177	0x3eeefb92	0.46676308
178	0xbdb91e43	-0.09038975
179	0xbea4d478	-0.3219335
180	0xbe3b6542	-0.18300346
181	0x3ecf60e2	0.40503603
182	0x3dd4c385	0.10388855
183	0xbf695e00	-0.9115906
184	0xbf36a6dc	-0.7134836
185	0xbea401cb	-0.32032618
186	0xbe51ec1f	-0.2050023
187	0x3d6e0d85	0.058118362
188	0x3f3e2fb9	0.7429157
189	0xbf1f236e	-0.62163436
190	0x3e09da91	0.13462283
191	0xbe8cf223	-0.27528486
192	0x3ed6456d	0.41849843
193	0x3f2b9ecb	0.67039174
194	0xbf155d59	-0.5834556
195	0xbf073d86	-0.5282825
196	0xbf2b86f8	-0.6700282
197	0xbc889a69	-0.016675191
198	0x3f5d65b3	0.86483306
199	0xbe9d65b1	-0.30741647
200	0x3ddf434b	0.10901507
201	0xbec13875	-0.37738386
202	0xbe2eec7e	-0.17082402
203	0xbf0fa9c9	-0.56118447
204	0x3ee9edbf	0.45689198
205	0xbe86f089	-0.2635539
206	0xbf0ba4e6	-0.5454849
207	0xbe2aa747	-0.16665374
208	0xbd5b108d	-0.05348258
209	0x3f20aa41	0.62759787
210	0xbe9bee92	-0.30455452
211	0xbe9d64b7	-0.30740902
212	0xbdd83c01	-0.1055832
213	0xbcdce57c	-0.026964895
214	0x3e7cc38e	0.24683973
215	0x3eda72aa	0.42665607
216	0x3eabf180	0.33582687
217	0xbf2f59d1	-0.68496424
218	0x3f071f94	0.5278256
219	0x3ea6f998	0.326123
220	0x3df8125c	0.12112877
221	0xbe0d827a	-0.13819304
222	0xbdf0ae00	-0.11751938
223	0xbf003e81	-0.50095373
224	0x3f1a493e	0.6026801
225	0xbf3f6834	-0.74768376
226	0x3de99050	0.114044785
227	0x3e3bc171	0.18335511
228	0x3e5bb4f4	0.21455747
229	0x3e496f52	0.19671372
230	0x3f334d62	0.7003995
231	0xbeab4699	-0.334523
232	0x3e7f61c0	0.24939632
233	0x3d30bd09	0.043149028
234	0xbe961afb	-0.2931746
235	0xbeafd558	-0.34342456
236	0xbf1bcd68	-0.608603
237	0xbeeb31fc	-0.45936573
238	0x3f14a557	0.5806479
239	0x3f2ae7a8	0.6675973
240	0xbeee05ac	-0.46488702
241	0x3e68a3f1	0.22718789
242	0xbe5a330a	-0.21308532
243	0x3f66ede1	0.90206724
244	0xbf5b8fa9	-0.85766083
245	0x3ee3046f	0.4433932
246	0xbf04ea8f	-0.5192041
247	0xbee1a9ca	-0.4407485
248	0x3f0af13e	0.54274356
249	0x3ea5bbf9	0.32369974
250	0x3d420883	0.0473714
251	0xbeaa1141	-0.3321629
252	0x3d8556eb	0.06510719
253	0xbe1bc2aa	-0.15210977
254	0xbefb1546	-0.49039668
255	0x3dbc3ee4	0.09191683

l2.weight f4 [300, 400]
0	0x3e65f08c	0.22455043
1	0x3caaa51a	0.02083068
2	0xbd9eec6a	-0.07759936
3	0xbed690a9	-0.41907242
4	0xbb85ab27	-0.004079241
5	0x3cc13f16	0.023589652
6	0x3d9caf7d	0.07650659
7	0x3e373dc3	0.17894654
8	0xbd8a8125	-0.067629136
9	0x3d6b4914	0.05744274
10	0x3d0d2ed4	0.034468487
11	0xbe924be8	-0.28573537
12	0x3cf429b4	0.029805042
13	0xbd7f3f3f	-0.062316176
14	0xbda78f02	-0.081815735
15	0xbbd62454	-0.0065350924
16	0x3dcb0af5	0.09914199
17	0x3e0d8d68	0.13823473
18	0xbdc55a40	-0.096363544
19	0xbeaa0a9a	-0.33211213
20	0x3e033ff6	0.12817368
21	0xbe6a689f	-0.22891472
22	0x3d432e28	0.04765144
23	0xbd3d66e3	-0.0462407
24	0xbea500f4	-0.3222729
25	0xbdfc3704	-0.12315181
26	0xbe01bcfb	-0.12669747
27	0x3d88f491	0.06687272
28	0xbe7711c2	-0.24127868
29	0x3e3d7ae4	0.1850391
30	0x3cec31e1	0.028832378
31	0xbd879368	-0.066199124
32	0xbce4568a	-0.027873296
33	0x3e66436f	0.22486661
34	0xbc370c4d	-0.011172366
35	0xbe332bd8	-0.17497194
36	0x3d1e7d42	0.038693674
37	0xbe40eea2	-0.18841031
38	0x3aa90382	0.0012894722
39	0x3e9bc442	0.3042317
40	0xbcaee567	-0.021349622
41	0x3cdc8572	0.0269191
42	0xbe012317	-0.12611042
43	0x3e119775	0.14217933
44	0x3da1ef2d	0.07906947
45	0xbe9fc745	-0.31206718
46	0xbebed83b	-0.37274346
47	0x3dd6e1d9	0.10492296
48	0xbd95dbbe	-0.07317303
49	0x3d81ccf2	0.06337918
50	0xbe07f0c8	-0.13275445
51	0xbe3b81fb	-0.18311302
52	0xbe92428f	-0.28566405
53	0xbc80ffc1	-0.015746953
54	0xbdc1498b	-0.09437855
55	0xbd3d7edb	-0.046263557
56	0xbde98235	-0.11401788
57	0xbdff2b80	-0.12459469
58	0xbca9abc3	-0.020711785
59	0x3e5216b6	0.20516476
60	0xbdfc1d21	-0.123102434
61	0x3e4da6e9	0.20083202
62	0xbe9d417b	-0.3071402
63	0xbe11e086	-0.14245805
64	0x3e843384	0.25820553
65	0xbe159f02	-0.14611438
66	0x3e627bf9	0.22117604
67	0x3d24370a	0.04009155
68	0x3e1250a4	0.14288574
69	0xbdeef588	-0.11667925
70	0xbd0b5645	-0.03401782
71	0x3dd2b091	0.102875836
72	0xbecd5e24	-0.40110886
73	0xbe725e6a	-0.23668829
74	0x3d4af363	0.049548518
75	0x39997ef9	0.00029277036
76	0xbd3d39ba	-0.04619763
77	0x3d0b1c86	0.03396275
78	0x3def7abb	0.11693331
79	0xbe83dcd5	-0.2575442
80	0xbe66f747	-0.22555266
81	0xbdd23df0	-0.1026572
82	0xbe2202b1	-0.15821339
83	0xbe9e8745	-0.30962577
84	0x3c8b52f9	0.017007338
85	0x3e012225	0.12610681
86	0xbd835322	-0.06412341
87	0xbe067624	-0.13131005
88	0xbe85ed3e	-0.26157564
89	0xbd599550	-0.05312091
90	0xbd1acbef	-0.037792142
91	0xbd3bc460	-0.045841575
92	0xbdad157e	-0.08451365
93	0xbe6bec42	-0.23039344
94	0xbe301aca	-0.17197719
95	0xbeba0f95	-0.36340013
96	0x3e635898	0.22201765
97	0xbded41d9	-0.11584825
98	0xbe9dcd6a	-0.3082078
99	0xbebd5475	-0.36978498
100	0x3cdb7a8d	0.026791835
101	0xbcfc7324	-0.030816622
102	0xbc96ad53	-0.018393194
103	0x3cd7d519	0.02634673
104	0xbe40dd26	-0.18834361
105	0xbd9199c5	-0.07109407
106	0xbd478bf4	-0.048717454
107	0xbe6d47fd	-0.23171993
108	0x3c234aab	0.009966533
109	0xbe0c4c01	-0.13700868
110	0xbe3f1366	-0.18659744
111	0xbe1cf908	-0.15329373
112	0x3dea7569	0.114481755
113	0xbdca3909	-0.0987416
114	0xbc1c29a7	-0.009531415
115	0xba941c8b	-0.001130001
116	0x3d423382	0.047412403
117	0xbd3eee94	-0.046614245
118	0x3b76f194	0.0037680613
119	0x3e5c5c62	0.21519616
120	0xbde70e75	-0.11282054
121	0xbe800ea3	-0.25011167
122	0xbe6cc161	-0.23120643
123	0xbe2642ed	-0.16236468
124	0x3c19fd65	0.009398793
125	0xbd8df771	-0.06931961
126	0xbd8193f9	-0.06327052
127	0xbeaeb7a9	-0.34124497
128	0xbeab93e3	-0.33511266
129	0xbdf5be50	-0.1199919
130	0xbd7c1c58	-0.06155047
131	0xbcea13f5	-0.02857397
132	0x3c9a0886	0.018802892
133	0x3d036e3d	0.032087553
134	0xbca4ee7d	-0.020133251
135	0xbe7a2a33	-0.2443016
136	0xbe1d5ad7	-0.15366684
137	0xbd0a0e56	-0.033705078
138	0x3e354286	0.17701158
139	0x3ce43657	0.027857943
140	0x3e7db805	0.24777229
141	0xbecd60ea	-0.40113002
142	0x3d5d559d	0.054036725
143	0xbd6ce60d	-0.05783658
144	0xbd9ef3f5	-0.07761375
145	0xbd91fe8f	-0.07128631
146	0x3df72e8b	0.12069424
147	0xbda14905	-0.078752555
148	0x3d8f2b6f	0.06990706
149	0xbdce9aaa	-0.100880936
150	0xbbfadeb1	-0.0076559414
151	0x3e6392d6	0.22223982
152	0xbdcc647c	-0.099801034
153	0xbeb1044a	-0.34573585
154	0x3dbaf1d9	0.0912816
155	0xbd94714a	-0.07248171
156	0xbcb2c86b	-0.021824082
157	0xbd6b9085	-0.05751087
158	0x3dec36b1	0.11533869
159	0x3cdb166f	0.026744096
160	0x3beea540	0.007282883
161	0x3dae924e	0.08523999
162	0x3d16c48c	0.036808535
163	0x3bfb3263	0.0076659187
164	0x3d928e4b	0.071560465
165	0x3dc37250	0.09543288
166	0xbd3c73f5	-0.046009023
167	0x3d54338f	0.051806983
168	0xbd44ac93	-0.048016142
169	0xbe8372a9	-0.25673416
170	0xbeb62391	-0.3557401
171	0x3d998ba2	0.07497336
172	0xbd867ea2	-0.06567122
173	0x3e3dd5c8	0.18538582
174	0x3dc3c9b6	0.09559958
175	0xbd3d0ebf	-0.04615664
176	0xbe6880b7	-0.22705351
177	0xbdd79893	-0.10527148
178	0xbd969b11	-0.07353795
179	0x3c87cf68	0.016578391
180	0x3c936519	0.017992543
181	0xbc9bd08d	-0.019020343
182	0xbda30532	-0.07959975
183	0x3dd53d1c	0.10412046
184	0x3dc57314	0.0964109
185	0x3e61bbc7	0.22044288
186	0x3e43bd09	0.1911508
187	0xbcb4bde3	-0.022063201
188	0xbec3f65c	-0.38273895
189	0xbe0856dd	-0.13314386
190	0xbdab328c	-0.083592504
191	0xbc178f58	-0.009250484
192	0xbec660c1	-0.38745692
193	0xbe7d01d9	-0.24707736
194	0x3e275172	0.16339663
195	0x3b2b3ee2	0.002613001
196	0x3db36343	0.08759167
197	0x3d9146e3	0.07093599
198	0xbe9139da	-0.2836445
199	0xbe64eea2	-0.22356656
200	0xbe14cd3a	-0.14531413
201	0x3dd762c0	0.10516882
202	0xbc8848be	-0.016636249
203	0x3c7f0138	0.015564255
204	0xbd7e7771	-0.062125627
205	0x3dbebfa2	0.09313895
206	0xbd0447ba	-0.032294966
207	0x3e5694e5	0.20955236
208	0xbd8a6c02	-0.06758882
209	0xbdedae09	-0.1160546
210	0x3ea4b580	0.32169724
211	0x3e5a75a6	0.21333942
212	0x3d9d2ad0	0.076741815
213	0x3e7a1956	0.24423727
214	0xbe248cc9	-0.1606933
215	0x3d1f555f	0.038899776
216	0xbe065593	-0.13118581
217	0x3d00b93b	0.03142665
218	0xbe1fd561	-0.15608741
219	0xbe4052cc	-0.18781585
220	0xbe1f7902	-0.15573505
221	0xbc2acb54	-0.010424454
222	0xbcef1f42	-0.02918971
223	0xbdad3f64	-0.084593564
224	0x3cd65617	0.026164098
225	0x3d008447	0.03137615
226	0xbec2dd75	-0.38059583
227	0xbe0a1489	-0.13484396
228	0xbca14523	-0.019686287
229	0x3d0c2fb5	0.034225184
230	0xbe95ca9c	-0.2925614
231	0xbce2d120	-0.02768761
232	0x3b855ea0	0.004070118
233	0x3e0ebe5e	0.13939807
234	0xbd7dd83d	-0.0619738
235	0xbc960d73	-0.01831696
236	0xbb49d118	-0.0030794796
237	0x3da87ccb	0.08226927
238	0xbe017a75	-0.1264437
239	0xbe39c2d9	-0.18140735
240	0xbd0d5c46	-0.034511827
241	0xbd8f6d5f	-0.07003283
242	0x3db323fe	0.08747099
243	0xbe8d5728	-0.27605557
244	0x3e14e367	0.14539872
245	0x3e3d5181	0.18488123
246	0xbd92d565	-0.07169608
247	0x3c25d846	0.010122364
248	0xbe61fe40	-0.22069645
249	0xbdd7eee1	-0.105436094
250	0xbd3a334d	-0.04545908
251	0xbe03a7d1	-0.12856986
252	0x3d03c51c	0.0321704
253	0x3e2741ae	0.16333649
254	0xbd83d6cf	-0.06437456
255	0x3df56ff0	0.11984241

l2.bias f4 [300]
0	0xbf0aefed	-0.5427235
1	0xbee7998f	-0.45234343
2	0xbeabedde	-0.33579916
3	0xbed4dbf4	-0.4157406
4	0xbe0e00ac	-0.13867444
5	0xbe21493c	-0.15750593
6	0x3e246390	0.16053605
7	0x3ea627a4	0.32452118
8	0x3a8bfe3c	0.0010680626
9	0xbe0d6226	-0.13806972
10	0x3d000ec5	0.031264085
11	0x3f135ba5	0.57561713
12	0xbe793eeb	-0.24340408
13	0xbe781b1f	-0.24229096
14	0xbe89ba9c	-0.26900184
15	0x3e92ac50	0.2864709
16	0x3dd87d52	0.10570778
17	0x3ddbc88b	0.1073161
18	0xbc8ac569	-0.016939836
19	0xbda104e8	-0.07862264
20	0x3ebab7d7	0.36468384
21	0xbe7d168b	-0.2471563
22	0x3eba3444	0.36368
23	0xbe5399a3	-0.20664077
24	0xbea7b895	-0.32758012
25	0x3ed43965	0.4145004
26	0xbd01dfa6	-0.03170743
27	0x3befc3aa	0.007317026
28	0xbd5c56bd	-0.053793658
29	0x3eb45706	0.35222644
30	0x3dd94fad	0.106109
31	0xbd5acc3f	-0.05341744
32	0x3dc639dd	0.09679005
33	0xbc6210be	-0.013797937
34	0xbcbec8f3	-0.02328918
35	0x3e7d6110	0.24744058
36	0x3d595675	0.053060967
37	0x3ef1dcb7	0.47238705
38	0x3ceb00eb	0.028686961
39	0xbd456301	-0.04819012
40	0xbe72d432	-0.23713759
41	0x3e7d0651	0.24709441
42	0xbd677305	-0.056506176
43	0x3e88122d	0.26576367
44	0x3db23fbd	0.08703563
45	0xbeb68445	-0.3564779
46	0xbe83ca97	-0.257405
47	0x3e1e41c5	0.15454777
48	0xbd48bcfb	-0.04900835
49	0xbebd673e	-0.3699283
50	0x3da3971f	0.079878084
51	0x3d993432	0.074806586
52	0xbd8e46b1	-0.06947077
53	0xbf20da17	-0.6283278
54	0xbe7bc81a	-0.24588051
55	0x3f10722a	0.564242
56	0x3e2dbf86	0.16967592
57	0xbe693df8	-0.22777545
58	0xbd572804	-0.052528396
59	0xbe2fb9c2	-0.17160705
60	0x3dabfae1	0.08397461
61	0x3dbb6b47	0.09151321
62	0x3e89a057	0.26880142
63	0x3b6065d2	0.0034240377
64	0xbe7e8c0b	-0.2485811
65	0xbe298859	-0.16555919
66	0x3e7540b1	0.23950459
67	0xbdcedc35	-0.10100595
68	0xbdb0b22d	-0.08627734
69	0x3e8341b8	0.25636077
70	0x3d654e2c	0.055982754
71	0xbc440e17	-0.01196625
72	0x3ecf587e	0.40497202
73	0xbe0bf55b	-0.13667814
74	0xbe88355e	-0.26603216
75	0x3cd2ff23	0.025756424
76	0xbe2d3e19	-0.1691822
77	0x3e3799f7	0.17929827
78	0xbcbf2f83	-0.023338085
79	0xbe19d656	-0.15023169
80	0xbdfcc9ca	-0.12343176
81	0xbdf845d1	-0.121226914
82	0xbeac792c	-0.33686197
83	0x3dec3dbe	0.11535214
84	0xbd160d57	-0.036633816
85	0xbda6608a	-0.08123882
86	0x3dcefbc0	0.10106611
87	0xbe1eaef4	-0.15496427
88	0xbe91d4bd	-0.2848262
89	0x3d842e3e	0.064541325
90	0x3e325ad0	0.17417455
91	0xbe30c751	-0.17263533
92	0x3c201e2d	0.0097728195
93	0x3c309da9	0.010779777
94	0x3e4b031b	0.19825403
95	0xbe766c75	-0.2406481
96	0xbe2d1e04	-0.16905981
97	0xbd354c89	-0.044262443
98	0x3e31496c	0.17313164
99	0x3d3da0eb	0.04629604
100	0xbec05095	-0.3756148
101	0x3e481456	0.19539008
102	0x3de2f6f4	0.11082259
103	0xbe5fd805	-0.21859749
104	0x3e1f2ada	0.1554369
105	0x3e183a10	0.14865899
106	0xbec32f4b	-0.3812202
107	0x3f377158	0.71657324
108	0xbdbe9ea9	-0.09307606
109	0xbaf62883	-0.0018780384
110	0x3dca528e	0.09879027
111	0x3e692646	0.22768506
112	0xbe19e2be	-0.15027902
113	0xbea27f5f	-0.317378
114	0x3e8d2f6a	0.27575237
115	0xbdccbafd	-0.09996603
116	0x3d9f7861	0.07786632
117	0x3b9fe085	0.0048790597
118	0x3d7c4e0c	0.06159787
119	0xbe06361a	-0.13106576
120	0x3e5d2022	0.21594289
121	0xbe42f87f	-0.19040106
122	0xbdcd2ac7	-0.10017925
123	0xbe14b6da	-0.14522877
124	0xbe188613	-0.14894895
125	0xbe6e8551	-0.23293044
126	0xbf162a2f	-0.5865812
127	0xbf040f18	-0.5158553
128	0x3d974be4	0.07387522
129	0xbe650e76	-0.22368798
130	0x3de60273	0.11230936
131	0xbe16bfdf	-0.1472163
132	0xbc9fcce0	-0.019506872
133	0x3e9240fe	0.2856521
134	0xbeb58607	-0.35453817
135	0x3e152f5b	0.14568846
136	0x3dde1813	0.108444355
137	0xbed39ae3	-0.41329107
138	0x3e04ce69	0.12969364
139	0x3ebb3134	0.36560977
140	0x3e2074f7	0.15669619
141	0xbe307fab	-0.17236201
142	0xbe9eab4c	-0.30990064
143	0xbe658115	-0.22412522
144	0xbe0bba34	-0.1364525
145	0x3b5e7364	0.003394329
146	0x3cb2db50	0.021833092
147	0x3d7fc942	0.062447794
148	0xbf048cb5	-0.517772
149	0xbe0bc71f	-0.13650177
150	0x3e2e2cbd	0.17009254
151	0xbea42bb8	-0.32064605
152	0x3d0c0d32	0.03419227
153	0xbf0789f0	-0.5294485
154	0x3e92635f	0.2859144
155	0xbe89c6a6	-0.2690937
156	0x3d19a715	0.037512857
157	0xba5cc974	-0.0008422353
158	0xbde21ac4	-0.110402614
159	0x3a097339	0.0005243305
160	0xbe29a5c3	-0.1656714
161	0xbd9db523	-0.07700565
162	0xbdc1ba98	-0.09459418
163	0xbeabb96b	-0.335399
164	0x3d8721ca	0.065982416
165	0xbe2334c5	-0.15938099
166	0x3d9644c0	0.07337332
167	0x3ebbbc82	0.36667258
168	0xbd15174b	-0.036399167
169	0x3eeb290c	0.45929754
170	0xbdeb071e	-0.11475967
171	0x3e27888c	0.16360682
172	0xbe3e1d26	-0.18565807
173	0xbe601050	-0.21881223
174	0xbecf159e	-0.4044618
175	0xbd947aa1	-0.07249952
176	0xbe2270c1	-0.15863325
177	0xbe95b31a	-0.29238206
178	0x3ef576f1	0.47942308
179	0x3e4c7ec8	0.19970238
180	0x3e9c2bdb	0.3050221
181	0x3d796ac8	0.06089285
182	0xbd54162f	-0.05177897
183	0xbcd143d9	-0.025545048
184	0x3e89a3aa	0.26882678
185	0x3cd67d92	0.026182923
186	0xbd848baa	-0.06471951
187	0xbe4e051a	-0.20119134
188	0x3e4dccc1	0.20097639
189	0xbf05abe6	-0.5221542
190	0x3e1bc1ba	0.1521062
191	0xbdc6e037	-0.09710734
192	0xbe4945a6	-0.19655475
193	0x3f0dad6e	0.5534276
194	0x3cc776bd	0.024348611
195	0x3ec8dac5	0.39229408
196	0x3e131f96	0.14367518
197	0xbe851830	-0.25995016
198	0x3e847563	0.2587081
199	0x3d712615	0.05887421
200	0xbdd4ed1a	-0.10396786
201	0x3e356dd9	0.17717685
202	0xbdc9d39d	-0.09854815
203	0x3d2c01a8	0.041993767
204	0x3dc0a7b5	0.094069876
205	0xbcc60aba	-0.024175037
206	0xbe340efe	-0.17583844
207	0xbd67f347	-0.05662849
208	0xbe866a99	-0.26253203
209	0x3d5e611f	0.05429184
210	0x3ef0075d	0.46880618
211	0xbec9f06d	-0.39441243
212	0x3ee28f4d	0.44249955
213	0xbd9f2c2e	-0.077720985
214	0xbc253c05	-0.010085111
215	0x3d9a3ad1	0.075307496
216	0xbe85b121	-0.261117
217	0xbd5b8746	-0.053595804
218	0xbeaec93e	-0.3413791
219	0x3e548dc9	0.20757212
220	0x3ee331d4	0.44373953
221	0x3bcc1096	0.006227563
222	0xbe4ea4a1	-0.20179988
223	0xbd8a2406	-0.06745152
224	0x3e8e93d2	0.27847153
225	0xbc8c64ff	-0.017138002
226	0x3e27241d	0.1632237
227	0xbd9f0eef	-0.0776652
228	0xbec777e1	-0.38958648
229	0xbdc0e752	-0.09419121
230	0xbe650340	-0.22364521
231	0x3f002dab	0.50069684
232	0x3e0eabf5	0.13932784
233	0xbd88af7c	-0.06674096
234	0xbdc879f8	-0.09788889
235	0xbddcfaf8	-0.10790056
236	0x3dca1a58	0.09868306
237	0xbe21fb25	-0.1581846
238	0x3d8ca3c7	0.068671755
239	0xbe13c250	-0.14429593
240	0xbf17634a	-0.5913588
241	0xbd6cd070	-0.05781597
242	0xbdfdcb63	-0.123923086
243	0x3b9a986f	0.0047178785
244	0xbbba9113	-0.0056935637
245	0xbd1579b6	-0.036493026
246	0xbede966a	-0.43474132
247	0x3e6929dd	0.22769876
248	0xbe0496b2	-0.1294811
249	0xbccff1bf	-0.025383828
250	0xbe02f6e2	-0.12789491
251	0xbe55beaf	-0.20873521
252	0xbd932dbe	-0.07186459
253	0xbc1503a0	-0.009095103
254	0xbc1ed82c	-0.009695094
255	0x3e25e3bf	0.1620016

l3.weight f4 [6, 300]
0	0xbeec6473	-0.46170387
1	0xbeba7d58	-0.36423755
2	0x3ea3c388	0.31985116
3	0xbe9f7984	-0.31147397
4	0xbe80c945	-0.25153556
5	0x3ee000a5	0.43750492
6	0x3d916007	0.07098394
7	0x3e00c475	0.12574942
8	0xbd40ea60	-0.047098517
9	0x3c111797	0.008855722
10	0xbd5abd02	-0.05340291
11	0x3f05ec8d	0.5231407
12	0xbdb54b46	-0.08852248
13	0xbd82dc75	-0.06389705
14	0xbe6504d1	-0.22365119
15	0xbdf92b12	-0.12166418
16	0xbe34c99d	-0.17655034
17	0x3dce1abd	0.10063694
18	0x3ed07056	0.40710706
19	0x3dfbdcc3	0.12297966
20	0x3dec747c	0.11545655
21	0xbe8cb121	-0.2747889
22	0xbc8ef196	-0.017449182
23	0x3e830578	0.2559011
24	0x3decd498	0.115639865
25	0x3eb8b51f	0.36075684
26	0x3d9e9965	0.077441014
27	0x3f066271	0.5249396
28	0xbba774f0	-0.0051103756
29	0xbd91c7a1	-0.07118154
30	0xbca7f7f3	-0.020503974
31	0x3cd4f640	0.025996327
32	0x3e9fcdfd	0.31211844
33	0xbcd5c2d3	-0.026093876
34	0xbe0789d4	-0.13236171
35	0xbe484cf7	-0.1956061
36	0xbe31f57c	-0.17378801
37	0x3d8c27f1	0.06843556
38	0x3e3b1ce6	0.18272743
39	0xbe46feb6	-0.19433102
40	0xbe8a0982	-0.2696038
41	0x3efd086f	0.49420497
42	0xbe91150d	-0.28336373
43	0xbe96f826	-0.29486197
44	0x3b768a6b	0.0037619125
45	0x3e06749c	0.1313042
46	0xbd98e219	-0.07465
47	0x3c8c91eb	0.017159423
48	0x3ec611da	0.38685495
49	0x3d53c71a	0.05170355
50	0x3ea679e6	0.32514876
51	0xbec57884	-0.3856851
52	0x3dd4fe28	0.10400039
53	0xbe68d1ca	-0.22736278
54	0xbe28f9ef	-0.16501592
55	0xbde2dfda	-0.110778525
56	0xbd07d770	-0.03316444
57	0xbe9f9c0c	-0.31173742
58	0xbe94723b	-0.289934
59	0xbe8a7fd3	-0.27050647
60	0x3e1f010d	0.15527745
61	0x3db8c6d4	0.090222985
62	0x3e73f6d9	0.23824634
63	0xbcae0bde	-0.021245893
64	0x3e30517d	0.17218585
65	0x3e3f8a5b	0.18705122
66	0x3e4839de	0.19553325
67	0x3e3d077b	0.18459885
68	0xbd5d7c6f	-0.054073747
69	0x3dbed28e	0.09317504
70	0x3e8989fc	0.26863086
71	0x3e9928a0	0.29913807
72	0x3e8c733e	0.27431673
73	0x3ea65c1a	0.32492143
74	0xbda377f4	-0.079818636
75	0xbeb71866	-0.35760802
76	0xbf14e3ed	-0.5816029
77	0xbdcc6a5d	-0.09981225
78	0x3d65ae97	0.056074705
79	0x3d9d1d5f	0.07671618
80	0xbdfb928a	-0.122838095
81	0xbd99c0c1	-0.07507468
82	0x3df6a04b	0.12042292
83	0x3df8202f	0.121155135
84	0xbe543807	-0.20724498
85	0x3dac0f3d	0.08401344
86	0xbebb5494	-0.36587965
87	0xbda41d80	-0.08013439
88	0xbe98d74a	-0.29851753
89	0x3e7f2b36	0.24918827
90	0x3ee2c09b	0.4428757
91	0xbde6b73b	-0.11265417
92	0xbe6afc97	-0.22947918
93	0x3d89d1a8	0.06729442
94	0x3ed6a3d5	0.4192187
95	0x3dc5da14	0.09660736
96	0x3aa63a77	0.0012682219
97	0xbf3d3886	-0.7391437
98	0x3e4b95e9	0.19881405
99	0xbf1003a4	-0.56255555
100	0x3e318e10	0.17339349
101	0x3e974ea8	0.29552197
102	0xbe37bcd2	-0.17943123
103	0xbe813441	-0.2523518
104	0xbeb33799	-0.35003355
105	0xbd371b3b	-0.044703703
106	0x3de4c06e	0.111695156
107	0x3eff2106	0.49829882
108	0x3ef455e9	0.47721794
109	0x3db6d4a1	0.089272745
110	0x3e8897cd	0.26678315
111	0x3de620bd	0.11236713
112	0xbe756578	-0.23964489
113	0xbe9a056f	-0.3008227
114	0xbd80ed4b	-0.0629526
115	0xbad6d895	-0.0016391451
116	0xbc95e0b0	-0.018295616
117	0x3c80871f	0.01568943
118	0xbcba1750	-0.022716194
119	0x3db58a16	0.088642284
120	0x3e9b12a5	0.30287662
121	0x3dc49e6c	0.09600529
122	0xbe0609d7	-0.13089691
123	0xbe44fbe8	-0.1923672
124	0x3decc049	0.11560113
125	0xbe5cc1d6	-0.21558318
126	0xbdda4b7d	-0.106589295
127	0xbe927cce	-0.28610843
128	0xbd09ce66	-0.033644103
129	0x3ddc52cf	0.10757982
130	0x3eb15273	0.34633216
131	0xbc08b778	-0.008344524
132	0xbd2d274a	-0.042273797
133	0xbe54dd60	-0.20787573
134	0xbeccdad3	-0.400107
135	0xbe283867	-0.16427766
136	0xbe036db1	-0.12834813
137	0xbe9dd378	-0.308254
138	0x3ed5815c	0.41700256
139	0x3e686f02	0.22698596
140	0x3ddd9e9d	0.10821269
141	0xbdec08a4	-0.115250856
142	0x3ebd6a93	0.36995372
143	0x3ebdfd00	0.37107086
144	0x3f1ee421	0.6206685
145	0xbe2a73bf	-0.16645716
146	0x3dcd2f25	0.10018758
147	0x3ed69d4a	0.41916877
148	0xbe803008	-0.25036645
149	0x3e0fd15c	0.14044708
150	0xbeae4270	-0.34035063
151	0xbce2e7de	-0.027698454
152	0x3e1247e4	0.14285237
153	0xbee1bcda	-0.44089395
154	0x3ee6d78e	0.4508633
155	0xbdd21edf	-0.102597944
156	0xbcac6d1b	-0.02104812
157	0xbd582c7b	-0.052776795
158	0x3f46cd58	0.7765708
159	0x3ef3a4ca	0.47586662
160	0xbe1d1237	-0.1533898
161	0x3ef58043	0.47949418
162	0x3e87200d	0.2639164
163	0xbe87f479	-0.26553705
164	0xbea497ff	-0.32147214
165	0xbeb070b8	-0.34460998
166	0x3e6f0aaf	0.23343919
167	0xbe6ff67e	-0.23433873
168	0x3e39b690	0.18136048
169	0xbdb2c69a	-0.087292865
170	0xba2517b0	-0.000629778
171	0x3ef29b9e	0.47384351
172	0xbd8f812e	-0.07007061
173	0x3d01c908	0.03168586
174	0x3e895de9	0.2682946
175	0x3ea05f35	0.31322637
176	0xbe85126a	-0.2599061
177	0xbe7f080d	-0.24905415
178	0x3e1defea	0.15423551
179	0xbdbff132	-0.09372176
180	0x3f55f89b	0.83582467
181	0x3e04cc34	0.12968522
182	0xbdd1843d	-0.102303006
183	0x3eb5cf5f	0.35509774
184	0x3f7e299e	0.9928225
185	0x3f6a3a2d	0.9149502
186	0xbde249b5	-0.11049215
187	0xbd565959	-0.052331302
188	0x3e5c9c5e	0.21544024
189	0xbe2ef872	-0.17086962
190	0x3f14869a	0.58017886
191	0xbee7a420	-0.45242405
192	0xbe87f3e0	-0.2655325
193	0x3ef7cf16	0.48400182
194	0xbdd877ac	-0.105697006
195	0x3eac1f57	0.3361766
196	0x3e5970ce	0.21234438
197	0xbe0cd64e	-0.13753626
198	0x3f1ea9b9	0.61977726
199	0xbe592c72	-0.21208361
200	0xbe3a6db1	-0.18205906
201	0xbcbcd960	-0.023052871
202	0xbe99347e	-0.2992286
203	0xbd186ee2	-0.03721512
204	0x3e660396	0.22462305
205	0x3e73e8c7	0.23819266
206	0x3efda51a	0.49540025
207	0x3d781b55	0.06057294
208	0xbdb4ffd6	-0.08837859
209	0xbe5805cb	-0.2109596
210	0xbcd5d5ac	-0.026102863
211	0xbdb06a4f	-0.08614027
212	0x3f31074b	0.69151753
213	0x3ea75a62	0.32686144
214	0xbd9e07d4	-0.07716337
215	0x3e4979fc	0.1967544
216	0xbe23ada8	-0.15984213
217	0xbe145295	-0.14484628
218	0xbea123e3	-0.31472692
219	0x3f0368bc	0.51331687
220	0x3f4bea8d	0.7965477
221	0x3e9cc046	0.30615443
222	0xbe21d8f1	-0.15805413
223	0xbd805724	-0.06266621
224	0x3dde4b1e	0.10854171
225	0xbde36f28	-0.11105186
226	0x3c2b1bf0	0.010443673
227	0xbc8fda33	-0.0175601
228	0x3f4239ad	0.75869256
229	0x3ec88a70	0.3916812
230	0x3d63dc8d	0.055630255
231	0x3cece235	0.028916458
232	0x3eb64095	0.35596147
233	0xbe68330a	-0.2267572
234	0xbe83ab84	-0.25716794
235	0xbd9c9db8	-0.0764727
236	0xbe001798	-0.12509
237	0x3e34c55c	0.17653412
238	0xbe0cf173	-0.1376398
239	0xbe601ab3	-0.21885185
240	0xbe87f8bd	-0.2655696
241	0xbde91c60	-0.11382365
242	0xbe606bb3	-0.21916084
243	0xbcef7583	-0.029230839
244	0xbe89bff7	-0.2690427
245	0xbcd8e7ba	-0.026477683
246	0xbd777f97	-0.060424414
247	0x3eb43c0f	0.3520207
248	0x3dba0302	0.09082605
249	0xbe12c9ff	-0.14334868
250	0xbe95b800	-0.29241943
251	0xbe7aaf60	-0.24480963
252	0x3efabe73	0.48973426
253	0x3e3e1a15	0.18564637
254	0xbdc3e481	-0.09565068
255	0x3e9b4749	0.30327824

l3.bias f4 [6]
0	0x3e22acca	0.15886226
1	0xbecc2859	-0.39874533
2	0xbe2b51f9	-0.16730489
3	0x3dbc6cd6	0.09200446
4	0x3ec10393	0.3769804
5	0xbdf03b02	-0.11730005
