HalfCheetah/HalfCheetah-v4_actor_finalized_05.pth (torch, 520140 bytes, 6 tensors)

l1.weight f4 [400, 17]
00000000: aa43 8b3d a43d 31bf af13 85be 6d96 27be
00000010: 98fa 103e f2a3 773e e201 f03c 6c95 13be
00000020: 9be6 1ebe f092 5dbe 9937 6fbf a820 70be
00000030: 1ec8 97be 8493 5c3c ebf5 a0be 6a51 513e
00000040: d14f 783e c9e0 13c0 7508 23be 7022 5fbf
00000050: 76d7 e53d c35e b2bd 38ed febd c374 9b3d
00000060: 4976 813e 2dcf f7bc 7fe1 89be 42d8 f83d
00000070: d1ed e23d 6eae fc3d 0024 053d 0b3c 593e
00000080: f401 363c ab99 a5bc be4d 273f 0731 a83d
00000090: 891a 253f 7eb0 3dbe a71b 053f 8dce a6bd
000000a0: 6050 88be 86d5 0bbf 04ec 0fbf 826c aebe
000000b0: be96 a73e 1e23 30be 2f71 a93e a8da c83d
000000c0: 1ebb ffbd 26e3 9c3c b063 803e f5ae 383e
000000d0: a197 ed3b 0e27 15be 9cfb 043d fed3 ac3e
000000e0: eaf7 993e 6c8f 063f 348d 2cbe c308 c13d
000000f0: d00e 4fbd e313 073f 08f5 31be cd41 e83c
00000100: c3b8 cd3d 01cd 883d c9e1 99bd df9c 983e
00000110: 1f2d 2abf f49b e93f 846a 853b 31da 6a3d
00000120: 26c2 1bbd 5fdf 533d 7ba7 303f 12a9 de3d
00000130: 7f81 d5bc ffe4 b3be bdda 543e 6cec a2bc
00000140: 73a3 49bb 4763 50bd efd0 e73c d08a 533d
00000150: 55b9 5ebd c5a6 fabd 2b4e 5f3f ae67 1f3f
00000160: 5588 1c3f 9a75 98be c78c 5d3c be4e 30be
00000170: 9c8d cbbe 1df2 5bbe 1534 053e dfd5 283e
00000180: 450d 433e 5e90 ab3d c516 af3e b94a afbe
00000190: cac3 64be 23ba 323e 87a4 2c3f ee65 0c3f
000001a0: 0fda 883e 45ff 63bd 4477 0b3e 1ef1 07be
000001b0: 778f 8b3d eb93 5dbe 66ff 27bf 46d9 853d
000001c0: 87b6 493f 02c0 8f3d 0b5a 66bb 2606 4abe
000001d0: b009 5c3e a174 f23d 333f fd3b e53f 53c0
000001e0: d72d c43f 2e0d 07be d9a8 f4bd 6be7 2fbd
000001f0: 7e21 2a3d 658a 1bbe 0d61 f03d a571 a53e
00000200: 8ad6 76bf 280f a1be 00a9 6bbe f810 1ebe
00000210: a287 cdbd 1e60 8fbd 4c4c a1bd c8df 5d3b
00000220: ce92 04c0 ad2a 423f 3169 bebe ca53 a53d
00000230: bb22 493e b9ea 0abf db12 5f3c 1c4e 9cbe
00000240: b7ae 4bbc 4efc bebe 7d4a 933d bea6 63be
00000250: 1f0e 4c3e 1878 43be f193 33be 6622 b5bd
00000260: dce6 2f3e 0367 6b40 ab6b 013e d8d8 903e
00000270: c92a 16be 5ba1 e73d 4eea a1be db87 c5bd
00000280: 0070 7bbd 8137 e3bd c466 88be dd1b 3e3e
00000290: 3113 58be 99a0 01be 9b6c 50bc 73d5 58bc
000002a0: 0733 95bd 5bca 9abb 95dc 05bf 8c91 133f
000002b0: f2a2 63bd c243 fc3e 63fc 55be 245e a63c
000002c0: fd83 093d f264 383f 3240 e23d a9a2 9abd
000002d0: 52d6 8cbd 03d5 25bd 243c ba3c 7a6d 0abe
000002e0: fd95 223e 1fbb 283e 7dab b5bd 1421 dd3e
000002f0: df9d c4bf 2fdb 14be 4519 b53d cf19 bebc
00000300: ddde bcbd df6c 943d b197 303e c452 163e
00000310: c1aa a13e 9d8b 383e 11e1 f0bd d4d3 45bd
00000320: 3b21 cdbd 6e4c a93d 12c3 d13a 9d51 01bc
00000330: d6af 3bc0 2f4a 8f3f d74b b83e bfa4 373e
00000340: f2ce 1abe 0ec8 803d a125 a33d de2c 653d
00000350: 463b a03e 8933 61bf b8e9 2f3e 7284 5f3e
00000360: b378 003e 55f1 f43c d2ec adbd f985 1b3d
00000370: 154d e23d 2275 95bf 715b 3ebd 6475 28be
00000380: b739 7d3e 4123 033f 48da 90bd f636 8bbf
00000390: c338 7fbf e892 bb3e 3ecc 20bf e73c c63e
000003a0: e790 433c 2c1f db3d 7cbd 1cbd 7113 80be
000003b0: 78c3 13be bbd6 9a3d 555d d13c 033d 203d
000003c0: 3dc7 3fbf c4fc 9d3e 2b7d 713d 2cc7 293d
000003d0: 9c33 91bd 9e3d b63e c92b efbd 9139 263f
000003e0: 366f de3e dcf8 8a3e 9c5f 8b3e 0a25 993e
000003f0: 7fe6 dd3d f44f f5bd 8f8a d63d 1f3f d1bf
0.06800015 -0.6923468 -0.2599158 -0.16365977 0.14158094 0.24183634 0.029297773 -0.14412469
-0.15517657 -0.21638083 -0.9344421 -0.23449957 -0.29644865 0.013462905 -0.3143762 0.20441213
0.24249198 -2.3105948 -0.15921195 -0.8716192 0.112227365 -0.087094806 -0.1244759 0.0759063
0.25285557 -0.030250156 -0.26929852 0.12150623 0.11080516 0.12337957 0.032505035 0.21214311
0.011108864 -0.020214876 0.65353 0.08212476 0.64493614 -0.18524358 0.5199532 -0.08144865
-0.2662382 -0.54622686 -0.56219506 -0.3406716 0.32732195 -0.17200896 0.33094165 0.0980733
-0.12486862 0.019151282 0.25076056 0.18035491 0.0072507416 -0.1456568 0.032466516 0.33755487
0.30071956 0.52562594 -0.1685074 0.09425499 -0.050551236 0.5276472 -0.17378628 0.028351689
0.10045006 0.066797264 -0.07513768 0.29807183 -0.664751 1.8250718 0.0040715355 0.05733699
-0.03802695 0.051726695 0.69005555 0.10872091 -0.026062725 -0.35135648 0.20786567 -0.019888125
-0.003076759 -0.05087593 0.02829787 0.051646054 -0.054375965 -0.1223884 0.8722865 0.6226758
0.61145526 -0.29777223 0.013522333 -0.17217538 -0.39756477 -0.21479078 0.13008149 0.16487835
0.1904803 0.08377145 0.3419706 -0.34236696 -0.22340313 0.17453818 0.6743855 0.5484303
0.26728866 -0.055663366 0.13619715 -0.13275573 0.06814473 -0.21638457 -0.6562408 0.06535582
0.7879414 0.070190445 -0.0035148885 -0.19728908 0.2148807 0.118386514 0.007728481 -3.3007748
1.5326489 -0.13188621 -0.11946268 -0.042945307 0.041535847 -0.15189512 0.11737261 0.32313266
-0.9642111 -0.31456876 -0.23013687 -0.1543616 -0.100356355 -0.07000755 -0.078758806 0.0033855308
-2.0714602 0.7584637 -0.3718963 0.08072622 0.19642155 -0.5426441 0.013615335 -0.30528343
-0.012431792 -0.37301868 0.07191942 -0.22231576 0.19927262 -0.19088781 -0.17536904 -0.088444516
0.1717791 3.6781623 0.12638728 0.2829044 -0.14664759 0.11310073 -0.31624073 -0.09645053
-0.06138611 -0.11094571 -0.26640904 0.18565316 -0.21101071 -0.1265892 -0.012721206 -0.013234484
-0.07285123 -0.0047238297 -0.52289706 0.5764396 -0.05557532 0.49270445 -0.20897059 0.020308562
0.03357314 0.7202903 0.110474005 -0.07550556 -0.06876816 -0.040486347 0.022733755 -0.13518324
0.15877528 0.16477631 -0.088705994 0.431893 -1.5360678 -0.14536737 0.088427104 -0.023205666
-0.09222195 0.07247328 0.17245366 0.1468001 0.31575587 0.18022008 -0.11761678 -0.04829772
-0.10016104 0.08266531 0.001600357 -0.007892993 -2.9326072 1.1194514 0.3599536 0.1793394
-0.15118006 0.062881574 0.079661615 0.05595099 0.31295222 -0.8796926 0.17179 0.21827868
0.12546043 0.029900232 -0.084924355 0.037969563 0.110498585 -1.1676371 -0.046473924 -0.16451031
0.24729048 0.5122567 -0.07072884 -1.0876148 -0.99695987 0.36635518 -0.6281165 0.3871834
0.011936403 0.10699305 -0.038266644 -0.25014833 -0.14430034 0.07560488 0.0255572 0.039120685
-0.7491339 0.30856907 0.05895726 0.04144971 -0.07089922 0.35593885 -0.11678273 0.6493159
0.43444222 0.2714299 0.27221382 0.2991107 0.10834979 -0.119781405 0.10475647 -1.6347388

l1.bias f4 [400]
00000000: 8621 153f c34d 35be 2dcb 003e f5a9 573f
00000010: 20c0 09bf 7709 95be c4ba d9be cfe6 1cbf
00000020: 80b1 a7be 3936 3a3e 83ba 5abf ca82 3b3f
00000030: 4afa 0dbf 0277 f2bd 1d5e 0cbf 8421 a1bd
00000040: 513f 54bf 8698 4b3e c7b0 a83d ef60 b23d
00000050: 9799 8cbe 9d40 973d cb27 2abf e7a5 50be
00000060: 4e1c e6be f9e3 373d d8df 32bf 341b 593e
00000070: 4e26 083e a1b5 2cbf 379f 143e 46db 043d
00000080: ce8c 6a3e a896 0fbf d772 5b3d 0ad8 1a3f
00000090: d93d 5bbe 4cbc a03e 48eb a53e 075f 02bf
000000a0: 53fb 74be ef37 793f 35de 433e cce7 98be
000000b0: 630f b3be cc42 da3e a4e4 a7be 5fc1 c4bd
000000c0: 5b97 683e b0ad 18bf a16d 17bf a0ec fcbb
000000d0: eba5 40bd af98 9bbe 3097 de3c 46dc 11bf
000000e0: 492f 913e 2064 66be 901c 68bc af81 88be
000000f0: 975a 57bd 4a92 bcbe 5a00 153f df5a b9be
00000100: ef89 ef3d 4ac2 00be f08e e7bd 521e 60bf
00000110: 73f9 31bf 375b dabe 26c9 133e 6051 89be
00000120: b11d 1c3f 8b33 c6be bb96 0abf 8bf6 0abf
00000130: 0f75 36bd 49bd 0abf bb40 c6be 93c7 d73e
00000140: 984f b23e e902 82bf bb1f 2e3f 5412 a53d
00000150: af82 0fbd 400e 95bd afa0 35bd 3cb8 fc3e
00000160: 1914 903d 8777 2a3f 6fce f8be d14f 173f
00000170: c78f e3bd 573f c9be 1f35 73be a107 003f
00000180: b8bc 34bf 624d eebe 4fe5 ef3d 47c3 a2be
00000190: 9b73 3cbf 1535 8cbd 2438 8f3d 7fa5 543e
000001a0: e80d c7bd 8321 b5be adc1 56bd 06bc 3dbf
000001b0: ed70 03bf 573a 923e 8d9c f23c 9cfa 64be
000001c0: 2aaf c8be eb4a da3e 8642 3d3f a3d7 f7be
000001d0: 21b0 10be 22e3 e23d 1bfb 71be c82c 1dbf
000001e0: ffb4 0e3f a929 323f c506 0f3f a086 363d
000001f0: 0805 be3e 327c 1cbf 590c da3e 34ae 453e
00000200: 9ffe 5c3f a0f8 fe3e 045b 6f3d f49d 153f
00000210: aeae 8c3e c536 583e 8592 2b3f cd9a 2f3f
00000220: 07ab 48bd dba3 053e c2aa bdbe 82f9 9e3e
00000230: b14f c43e 644d 8dbe 29c4 423f 2a42 7ebe
00000240: a304 b8be ca3c 2cbe 1f26 24bd 161a c0bd
00000250: 62e1 273f 79af 393d f2c4 3fbe 47b8 8cbd
00000260: 75c4 19be c236 50be 34cc c63c 1d65 193f
00000270: 5d16 643d e075 33bf b718 94be 4583 bcbc
00000280: 0947 693e ea1b d03e d59d e93d 921c 163e
00000290: 384d 56be a674 afbc cae2 5e3e 520d f23e
000002a0: 1eeb a6bd b1c5 f7bd dadb 463f 6330 3abf
000002b0: 2a7b 53bf 2201 47be 4c17 cebe 0a5f e3be
000002c0: c7bd 873e 470e ed3e b9e6 04be 31ee 9bbe
000002d0: 5af7 1abe 3999 cf3e 94c2 963d 8a5a 5abf
000002e0: 4972 38bf 5ba9 bdbe a591 5cbe 2729 b23d
000002f0: ad24 2f3f 0219 16bf 98e7 c83d 7dc1 80be
00000300: fb2d c13e 1994 263f 0555 17bf 4527 efbe
00000310: 997e 23bf b16c 393c d57a 4d3f 097c 7dbe
00000320: 4f01 a13d 0214 acbe 6c65 34be 84c3 0abf
00000330: 1bb9 f53e 6622 7bbe 8250 0bbf 80b3 1dbe
00000340: ab39 86bd 9f9d 123f b230 93be 6a51 8dbe
00000350: 57ca 61bd 6692 6cbd efa4 783e 7db2 e03e
00000360: fd93 b13e 68df 1bbf c69e f03e cd33 5e3e
00000370: 4415 533e 84c2 eebd c7c3 fbbd a8c3 e8be
00000380: 6f86 183f 2c19 2abf 0fbe e13d b79e 193e
00000390: dc78 653e eb40 423e 585e 273f 4100 8bbe
000003a0: e5b0 273e 4e68 8d3c c4c9 91be 1ef6 bcbe
000003b0: 6df3 ffbe 77b9 ebbe e863 083f d240 1f3f
000003c0: 3770 f6be 30c1 3b3e fccc 33be 5a1a 4d3f
000003d0: 5a0e 49bf 92fb e13e eb75 efbe 1fdc c6be
000003e0: 43d5 0a3f 67c6 bd3e d336 1a3e 9091 92be
000003f0: ef94 2f3d 382d 0ebe 5dce e4be 2198 b73d
0.5825428 -0.17705445 0.12577505 0.8424371 -0.53808784 -0.29108784 -0.42525303 -0.61289686
-0.3275261 0.18184747 -0.85440844 0.73246443 -0.55460036 -0.11839105 -0.54831105 -0.07867721
-0.82909113 0.19882402 0.082368426 0.08709895 -0.2746093 0.07385371 -0.6646697 -0.20375787
-0.4494347 0.044895146 -0.6987281 0.21201783 0.13295862 -0.67464644 0.1451386 0.032435678
0.22905275 -0.5608926 0.053576317 0.604859 -0.21410312 0.3139366 0.32406068 -0.5092625
-0.23923998 0.9735097 0.19127734 -0.29864347 -0.34972677 0.42629087 -0.32791626 -0.09607195
0.22713988 -0.59640026 -0.59151655 -0.0077186376 -0.04703323 -0.30389926 0.027171701 -0.56976736
0.28356388 -0.22499132 -0.014166966 -0.2666144 -0.052576628 -0.3683036 0.5820366 -0.36202142
0.116962306 -0.12574115 -0.1130656 -0.87546265 -0.69521254 -0.42647716 0.14432201 -0.26819897
0.60982805 -0.387112 -0.54136246 -0.54282445 -0.04454523 -0.54195076 -0.3872126 0.4214445
0.3482635 -1.0157138 0.68017167 0.080601364 -0.03503674 -0.072781086 -0.044342693 0.4935931
0.07035083 0.66588634 -0.48594996 0.59106165 -0.11111408 -0.39306137 -0.23750733 0.5001164
-0.7060046 -0.46543413 0.11713659 -0.3178961 -0.736139 -0.06846062 0.0699313 0.20766257
-0.09719449 -0.3537713 -0.052430797 -0.74115026 -0.51344186 0.28560135 0.029615665 -0.22361225
-0.3919614 0.42635283 0.7392963 -0.48406705 -0.14129688 0.110784784 -0.23630945 -0.61396456
0.5574493 0.6959482 0.55869704 0.044561982 0.37113214 -0.61127007 0.42587546 0.19304734
0.8632602 0.4979906 0.05843641 0.5844414 0.2747702 0.21114643 0.67020446 0.6859558
-0.04899123 0.13050787 -0.3704434 0.31049734 0.3834205 -0.27598107 0.76080567 -0.24829927
-0.35941038 -0.16820064 -0.040075418 -0.093799755 0.6557828 0.04533336 -0.18727472 -0.068710856
-0.15016349 -0.20333388 0.024267294 0.5991991 0.05568539 -0.7010174 -0.28925106 -0.023011813
0.22781004 0.40646297 0.11407057 0.14659336 -0.20927894 -0.021417927 0.217662 0.47275788
-0.08150314 -0.120982535 0.77679217 -0.7273008 -0.8260981 -0.19434026 -0.4025215 -0.44408447
0.26511976 0.46299955 -0.12978639 -0.30455163 -0.1513342 0.40546587 0.073613316 -0.852944
-0.72049385 -0.3704327 -0.21539934 0.086992554 0.6841534 -0.5863191 0.09809798 -0.2514762
0.37730393 0.6506973 -0.59114105 -0.46709648 -0.6386505 0.011317418 0.8026555 -0.24754347
0.07861578 -0.33609015 -0.17616814 -0.54204583 0.47992787 -0.2452484 -0.5441972 -0.15400505
-0.06553968 0.5727176 -0.2874809 -0.27601177 -0.055124607 -0.057756804 0.24281667 0.43886176
0.3468322 -0.60887766 0.46996135 0.21699448 0.20613581 -0.11658195 -0.12293201 -0.45461774
0.5958013 -0.6644466 0.11022579 0.15001951 0.22409385 0.18970077 0.6537833 -0.2714863
0.16376074 0.01726165 -0.28474247 -0.36906523 -0.49990407 -0.46039936 0.53277445 0.6220828
-0.48132488 0.18335414 -0.17558664 0.80118334 -0.78537524 0.44137245 -0.46769652 -0.38839814
0.5423166 0.3706543 0.15059976 -0.2862668 0.042866644 -0.13884437 -0.44688693 0.08964563

l2.weight f4 [300, 400]
00000000: 7aab 3d3e e7a1 183d dcf2 15be 0ffe d6be
00000010: cdd5 763a 295e f6ba 89f6 963d 0275 403e
00000020: cc9b 21bd 7f1b fd3b 5f2a 923d 5fb2 43be
00000030: 0840 bc3d 822b 32bd e89d 62bd 6891 733d
00000040: 39d7 ab3d 926c 943d 1c89 88bd 83df a4be
00000050: 1dfb 313e b020 eabd 28b5 a83d e8ca c3bd
00000060: df96 14be ce1a 22be 68f6 f9bd 8c84 413c
00000070: c289 59be 8d6b cc3d 38ea 95bd 5078 febd
00000080: 7415 633d c7f0 4f3e 1ce8 5bbe e5fd 1cbe
00000090: 7bed 823d af22 77be 9a5c 31bd 8324 4a3e
000000a0: 5ea4 81bc a515 0c3d 4c37 ddbb 43f5 1d3e
000000b0: 4d8b 8d3d 3bea 96be 8422 a8be 94a5 b43d
000000c0: ea83 8fbd bcd0 b43c 0b9c babd 7dee 2cbe
000000d0: 09fc c7be 4375 473d 3f4c 9ebd 268f 833a
000000e0: 2582 8ebd a252 1cbe aab5 ad3c 148c 403e
000000f0: b4a7 37bd 028d 3b3e c383 98be cddf 8ebd
00000100: dc69 853e 9b7c 2bbe ccff 433e 1d99 903d
00000110: a684 053e 9996 30be 4145 0cbe 0c68 f23d
00000120: 67ba abbe 3307 8dbe 8196 9d3d 3bc5 7c3b
00000130: 7698 bfbd 6ee4 913d 0005 0c3d 7f90 a6be
00000140: 9ba1 4ebe 000c 8fbd 6cd5 35be a8b3 a3be
00000150: b059 75bd 0112 28bc b9ab 62bd 663f 4fbe
00000160: ef16 1dbe 1400 76bd dfc2 68bd 9e5e 04bd
00000170: d2b8 97bd 497d 91be 2c7d 8fbe 52d9 9fbe
00000180: e501 2c3e b520 5ebd bbca 9dbe 25ef 6bbe
00000190: 1205 833d 8780 b6bd 2a2e 46bc a4af d5bd
000001a0: aee3 3dbe 71d8 a1bc a3e1 58bd 50d1 42be
000001b0: 0e2c 943d 57f0 c4bd 01f9 07be 9853 7ebe
000001c0: 9c59 fe3d d996 bbbd aba9 6bbd e70d 4c3c
000001d0: 8085 843d edda 8bbd af4d 213d 4b30 543e
000001e0: ccb6 05be cecf 9ebe b5b8 69be b403 f3bd
000001f0: 55d0 813d e079 c9bd f62c 9bbd 8379 a1be
00000200: 5a9a 8ebe 74b1 f6bd 9d21 b6bc 363a 5fbd
00000210: 6f39 573c b199 5a3c 6da6 473c 1b0a 34be
00000220: c9a0 57bd 1ded 1dbd 2e95 1d3e 03d0 24bd
00000230: 5b4a 0b3e 5c05 c4be f98f 7d3c 003a 7d3d
00000240: cd78 88bd dbc3 29bd 993a 7c3d 081a 04be
00000250: a31e af3d 93e6 08be 64d5 6c3d 944b 1e3e
00000260: f015 00be 4a1f c0be e641 a43d d3e3 9dbd
00000270: 6b51 79bd 417c 09bd 6fa1 0f3e 1cf1 08bd
00000280: 1843 a6bd e088 3b3d 6917 4c3c 8ba7 dd3d
00000290: b7b4 983d f5d9 c83d 384c 01be 595a 563c
000002a0: 48f6 17be e12d 81be a7b5 4ebe aee3 a43d
000002b0: 0012 9dbd 97b0 cd3d 3de3 f13d 2e24 f4bc
000002c0: 8cc8 0ebe 3f40 6ebd e365 95bc 179c b33d
000002d0: e156 413c bc9e 45bb df1a 81bd 5763 e13d
000002e0: 460e 433d b53f 3d3e 63fe 183e 6211 323c
000002f0: 3c1c cfbe 8dc6 91bd da8d d6bd 71da efbd
00000300: 5958 8ebe 30a0 86be e6b9 093e 3b44 a73d
00000310: de7a ce3d 43f2 853d 89a7 3bbe 4725 94be
00000320: 2ed8 e6bd 7416 963d afe9 58bd ccf7 8bbc
00000330: 9c1f cdbc 0205 7e3d 408d 92bd cb74 553e
00000340: 2fb9 9cbc a0fb b5bd 8761 9e3e 1df2 613e
00000350: 5d21 ba3d 40c7 693e 9511 c9bd a6be 443d
00000360: 3ade 9dbd 86b0 1b3d 27aa 1cbe 3180 ecbd
00000370: 2881 ffbd 7575 d9bd 0eb6 83bd b7c0 0dbe
00000380: 2390 d7bc 93eb 333d 486a b6be 08d0 f2bd
00000390: b11e 03be 3b9d 7d3d a4fc c7be 62e5 3cbc
000003a0: dc96 fb3b c7f3 bb3d 364b 903c 6a7b a03d
000003b0: 9c59 b73a ba79 eb3c f331 17be 83ff 22be
000003c0: 4dcb 0fbc 7b36 6cbd 8188 4e3d 78ac 4dbe
000003d0: 7b72 153e 8b26 5e3e 8db8 6a3c 90ce 533d
000003e0: e6da 7fbe ae98 c2bd 08d4 05bd 080e 22be
000003f0: a3b5 ea3c 0678 1e3e 69ef 4f3d 64b3 c03d
0.18522444 0.037263777 -0.14643425 -0.41990706 0.0009416014 -0.0018796372 0.073712416 0.18794635
-0.03945522 0.007724225 0.07136988 -0.19111012 0.091919005 -0.043498524 -0.055326372 0.059464842
0.0839066 0.07247271 -0.066667765 -0.32201776 0.17380948 -0.11432016 0.08237678 -0.09560186
-0.14510678 -0.15830538 -0.122052014 0.011811387 -0.21243957 0.09981451 -0.07320064 -0.124252915
0.05544038 0.20306693 -0.21475261 -0.15331228 0.06392952 -0.24134324 -0.043301202 0.1974049
-0.015825447 0.03420033 -0.0067509767 0.15425591 0.06911335 -0.2947558 -0.32838833 0.08820644
-0.070075825 0.022072189 -0.09111794 -0.16887851 -0.39059475 0.048695814 -0.077293865 0.0010037168
-0.06958417 -0.15265897 0.021204788 0.18803436 -0.04483767 0.18315509 -0.29788026 -0.0697628
0.26057327 -0.16746752 0.19140548 0.07060454 0.13038883 -0.17244948 -0.13698293 0.118362516
-0.3354065 -0.27544555 0.07694722 0.0038569707 -0.093552515 0.07123648 0.034184456 -0.32532117
-0.20178835 -0.06984711 -0.17757195 -0.31973004 -0.059899986 -0.010258199 -0.05533955 -0.20239028
-0.1534078 -0.06005867 -0.05682647 -0.032316796 -0.074082986 -0.28415897 -0.28025186 -0.3122049
0.16797598 -0.05423041 -0.30818734 -0.23040445 0.063974515 -0.089112334 -0.012095967 -0.104338914
-0.18543884 -0.019756528 -0.05294956 -0.19025159 0.07234965 -0.09616154 -0.13278581 -0.24836576
0.124194354 -0.09159631 -0.057534855 0.012454486 0.064707756 -0.06828866 0.039380725 0.20721547
-0.13058013 -0.31017917 -0.22824366 -0.11865941 0.06338564 -0.09837699 -0.07576935 -0.3153802
-0.27852136 -0.12045565 -0.022232825 -0.054498874 0.013136252 0.013342307 0.012185675 -0.1758198
-0.05264357 -0.038556207 0.15388939 -0.040237438 0.13602583 -0.3828534 0.01547622 0.06182289
-0.06663666 -0.041446548 0.06157932 -0.12900555 0.08550765 -0.13369207 0.057820693 0.15458518
-0.12508368 -0.37523872 0.08020382 -0.0770947 -0.06086866 -0.033565763 0.14026426 -0.033433065
-0.08118266 0.04578483 0.012456753 0.10822972 0.074563436 0.09807197 -0.12626731 0.013083064
-0.14840043 -0.25230315 -0.20186482 0.08051239 -0.07669449 0.100434475 0.118109204 -0.029802408
-0.1394369 -0.05816674 -0.01823706 0.08770006 0.011800499 -0.0030154428 -0.063039534 0.11005276
0.047621034 0.18481334 0.14940791 0.010868402 -0.4045123 -0.07117949 -0.10476275 -0.11711586
-0.2780178 -0.26294088 0.13449821 0.08167311 0.10082029 0.065403484 -0.18325628 -0.2893469
-0.11271702 0.07328501 -0.052957233 -0.017085932 -0.025039487 0.062016495 -0.071558475 0.20845334
-0.019131271 -0.08885884 0.30933782 0.22065015 0.09088395 0.22829914 -0.09817807 0.04803338
-0.07708402 0.038010143 -0.15299283 -0.11547888 -0.124758065 -0.10618106 -0.064312086 -0.13843046
-0.026313847 0.043925833 -0.3562796 -0.11856085 -0.12804677 0.061917525 -0.39059937 -0.0115292985
0.007677896 0.09177356 0.017613988 0.07836039 0.0013988498 0.028744567 -0.14765148 -0.15917782
-0.008776498 -0.057669144 0.05042315 -0.20085323 0.14594452 0.2169439 0.014326227 0.051710665
-0.24985847 -0.095017776 -0.032672912 -0.15825665 0.028651064 0.15475473 0.05076543 0.09409216

l2.bias f4 [300]
00000000: 0902 07bf 82df bfbe ed6b 98be 14fd cfbe
00000010: 1a6c 27be 1a8f 38be 35a1 353e 1fb3 a43e
00000020: 3cfe 8b3a 9611 b9bd c50e 003d cbf5 083f
00000030: 3629 69be ec05 77be fb4c 61be 73be 8e3e
00000040: 3024 313e fca8 253e 3218 e63c d429 81bd
00000050: 74b5 b03e dfd3 52be 60e9 8e3e ed7c 16be
00000060: d176 83be a320 aa3e a39e a43c 35e8 283c
00000070: bd56 5cbd 354e 863e cfbf 2a3e 3fcc 5abd
00000080: 75a6 0b3e be10 62bc abd2 aa3c 6c7b 6c3e
00000090: 4b9c cdbb 4a08 e23e a707 bc3d 5b9b 85bd
000000a0: 5773 6cbe 6767 743e 0573 67bd e6f7 843e
000000b0: a601 953d c9ba a8be f518 58be 96a6 423e
000000c0: 0fd3 66bd eccf 8fbe d54a bd3d e589 f23d
000000d0: 06c3 8bbd 085c 15bf d197 44be 343b 0b3f
000000e0: 4773 123e da9b 61be 2434 16bd 2346 18be
000000f0: d2a7 ab3d c5d9 c43d 6fe4 753e d265 603b
00000100: 2fd1 6bbe 433c f5bd 8688 b83e 4c57 4cbd
00000110: e7f9 90bd 6e92 5a3e 713c c53d ce08 1bbd
00000120: 3cfe d83e 815b f7bd 35ec 8ebe 2dd6 673d
00000130: 7ed4 24be 4006 2e3e 832f bfbc 298e 0fbe
00000140: 3a89 9bbd 35b1 1dbe 944a 8bbe c16d 903d
00000150: 94d2 e2bc 0b63 65bd 4228 a93d 78d8 c5bd
00000160: 3399 9fbe e313 b83d 36e9 fb3d 045f 27be
00000170: ee59 dcbc 4fb6 093d 8615 403e 8149 79be
00000180: 767b ecbd ef65 bfbc 5937 003e 55e9 0f3d
00000190: af48 99be cc5f 733e 32d8 a23d 6a03 4fbe
000001a0: 5fcc 083e 8236 013e b104 a0be 754c 313f
000001b0: 129c b1bd 664a 1d3d ca50 053e b6b3 873e
000001c0: 660f 16be 9e09 98be 24a6 893e 9604 76bd
000001d0: a2e7 773d 85e0 9f3b a589 043e 49f0 11bd
000001e0: 4ea9 5e3e d3e3 1bbe f83a b5bd 7355 02be
000001f0: 7727 e7bd 6844 48be 978a 0fbf 0108 f6be
00000200: cc7b 823d f982 31be 4704 d63d d65b f5bd
00000210: e0cc 9fbc 234f 933e 2352 9fbe 52cd 823d
00000220: a456 083e ffb2 c8be fcec e43d 5cda c23e
00000230: ea27 343e ecd8 3ebe 9718 6bbe a5cb 61be
00000240: 2735 c8bd 208e 3cbc 0a76 103d 2d44 513d
00000250: ca2f 00bf 0037 fdbd 5b31 343e 1e63 93be
00000260: 4838 5abd e3fd e6be d9fe 943e 201c a5be
00000270: 15a7 193d 2497 a43c d2c5 86bd 1dd0 5cbd
00000280: 586a 0abe ab38 0cbd adf4 8fbd 3e96 9bbe
00000290: 8452 f43d bd99 17be 8b8a af3d a314 b53e
000002a0: 866f d3bc 2c1d ea3e 1ea9 1ebe f307 1e3e
000002b0: 861f 21be f8f0 64be 373b bfbe 8332 31bd
000002c0: 1389 01be f6b1 6bbe 96be e53e 22eb 853e
000002d0: 3f0e 883e 542f 693d 31af 4ebd 5224 6abd
000002e0: cfc9 663e 832d 0c3d e6d8 6bbd 25fe 33be
000002f0: b8a2 3f3e 752f dfbe c636 333e a78f 2dbd
00000300: 2fbe 77be f573 0b3f ac4c e13b f872 ba3e
00000310: ae06 203e 7cba 51be 7931 4b3e 4009 9b3d
00000320: 6b56 d1bd 30aa 6f3e 1fc0 9bbd c0ab 9d3c
00000330: 12ae fd3d f9b9 3abc 2709 30be d7e6 6abd
00000340: 8498 62be 98a9 a33d cb04 f43e db2c c4be
00000350: 9407 e63e 88c3 4dbd 3158 efbc 46aa e73d
00000360: be9e 7dbe b568 dc3c 6a99 abbe da12 6e3e
00000370: 9e71 c93e f290 633d aaa2 3cbe c79a f6bb
00000380: 4ed9 7d3e faad e2bc 25d5 283e 5146 9cbd
00000390: d746 cdbe 0412 0cbe 3cfd 54be 24ae fe3e
000003a0: 5029 d63d f4c4 973c 8dee f2bc cdef f5bd
000003b0: 84b0 983d 3f50 b9bd 23cc c23d bc50 fbbd
000003c0: 3089 0ebf 4207 f2bb 6fc3 0abe 6f98 9a3b
000003d0: db17 97bc b679 15bd 363b d6be 443a 3b3e
000003e0: 4577 fbbd a17e a33b 97a7 e3bd 9404 28be
000003f0: fdf4 11bd 4f2f 94bc 9135 48bc 5877 463e
-0.5273748 -0.3747521 -0.2976984 -0.4062277 -0.16349831 -0.18023339 0.17737277 0.3216791
0.0010680626 -0.090365574 0.031264085 0.5350005 -0.22769627 -0.24123353 -0.22002022 0.27879676
0.1729896 0.16177744 0.02808771 -0.06306806 0.34513438 -0.20588635 0.27912426 -0.14696093
-0.25676587 0.33228025 0.020095175 0.010309269 -0.053793658 0.26231542 0.16674732 -0.05341744
0.13637717 -0.013797937 0.020852407 0.23093957 -0.006274735 0.4414695 0.09181147 -0.06523772
-0.23090874 0.2386757 -0.056506176 0.25970381 0.07275705 -0.32955006 -0.2110327 0.1900886
-0.056353625 -0.2808832 0.09242789 0.118427075 -0.06824307 -0.58343554 -0.19198538 0.5438721
0.14301787 -0.22032109 -0.03667082 -0.14870505 0.083816186 0.09611849 0.24012922 0.0034240377
-0.23029016 -0.11974385 0.3604166 -0.04988794 -0.07078915 0.21344921 0.09630669 -0.037850194
0.42381465 -0.12078 -0.27914587 0.05660074 -0.16096684 0.16994572 -0.023338085 -0.14019074
-0.07594533 -0.1539963 -0.27205336 0.07052184 -0.027688302 -0.056002658 0.08259632 -0.09660429
-0.3117157 0.08988168 0.12300341 -0.1634484 -0.02689835 0.03362113 0.1875821 -0.24344446
-0.11546986 -0.023364035 0.12521113 0.035134632 -0.29938266 0.23767012 0.07951392 -0.20216146
0.13359211 0.1261845 -0.3125358 0.6925729 -0.08672346 0.03840103 0.130191 0.26504296
-0.14654312 -0.29694837 0.26884568 -0.060062967 0.060523637 0.0048790597 0.12943132 -0.035629544
0.21744272 -0.15223627 -0.08849138 -0.12727909 -0.11286824 -0.19557345 -0.56070846 -0.48052981
0.06371269 -0.17335118 0.104500346 -0.11980407 -0.019506872 0.28771314 -0.31117353 0.06386818
0.13314301 -0.39199063 0.11178014 0.3805722 0.17593351 -0.18637437 -0.22958599 -0.2205034
-0.09775763 -0.011508495 0.03526882 0.051090408 -0.5007292 -0.12364006 0.17596953 -0.28786558
-0.05327633 -0.45115575 0.29100683 -0.3224802 0.037512857 0.0200916 -0.065807 -0.05390941
-0.1351713 -0.03423373 -0.0702909 -0.30388063 0.11929801 -0.1480474 0.08571347 0.35367307
-0.025810014 0.4572538 -0.154942 0.1543272 -0.15734681 -0.22357547 -0.37349865 -0.043261062
-0.12649946 -0.23017105 0.44871968 0.26155955 0.2657337 0.0569299 -0.050460044 -0.057163544
0.22537921 0.03422309 -0.057579897 -0.17577417 0.18714416 -0.43590894 0.17501363 -0.042373326
-0.24193643 0.5447381 0.006875595 0.3641584 0.15627548 -0.20481294 0.19843091 0.07570124
-0.10221561 0.23404765 -0.076050036 0.019246936 0.12386717 -0.011396878 -0.17190991 -0.057349052
-0.22128493 0.07991332 0.47659907 -0.38315472 0.44927657 -0.0502353 -0.029216858 0.11311774
-0.24767587 0.026905397 -0.33515483 0.23249379 0.39344496 0.055558152 -0.18421426 -0.007525775
0.24789926 -0.02767085 0.16487558 -0.07630599 -0.4009311 -0.13678747 -0.20799726 0.49742234
0.104570985 0.018526532 -0.029654766 -0.12008629 0.07455543 -0.09048509 0.09511592 -0.12271258
-0.5567808 -0.007386119 -0.13551114 0.0047178785 -0.018443992 -0.036493026 -0.4184205 0.18283945
-0.12278608 0.0049894606 -0.111159496 -0.16407996 -0.03563403 -0.018088965 -0.0122198025 0.19381464

l3.weight f4 [6, 300]
00000000: 7922 bebe abf5 8ebe 76a6 2f3e 45ef 5fbe
00000010: 40ff f0bd 080e b43e efde b23c 32c9 4b3d
00000020: 60ea 40bd 3b49 723d 02bd 5abd c127 103f
00000030: b46f 263c c1d3 22be 3f0a 83be 72f0 dabd
00000040: ee58 1dbe 7ac7 283e 48a0 be3e 19f5 433e
00000050: 9674 403e d147 33be 99e6 883d 3ccb 913e
00000060: 5bb5 fe3d b600 9d3e d6d0 2bbd df49 133f
00000070: f074 a7bb e408 4e3c 1bd4 c93c 40f6 d43c
00000080: c0f5 943e d3c2 d5bc 8e62 bdbd 45e3 0dbe
00000090: 6299 1bbc 02f5 103e 9945 e03d 5df0 20be
000000a0: 8ab7 2fbe 6ff3 cd3e 0d15 91be 36b7 7ebe
000000b0: 442e 1f3d 54d2 4f3d daa9 dfbd 83e4 0ebb
000000c0: ba73 c13e 50bc ff3c 7ca0 683e d818 94be
000000d0: 3d51 303e b3bd 2fbe 4be3 77be 0868 e4bd
000000e0: 492f 10bc 01b9 41be a30e 97bc 0e67 35be
000000f0: 3e5a 0f3e 916a c03d 4519 be3e de0b aebc
00000100: 7286 8e3e 21bb 4c3e 78d4 893e 5216 583e
00000110: 61ea 57bc 8420 b13e 2fc1 773e 36e9 963e
00000120: d0b3 c23e 2109 aa3e 1d21 12bd 0d34 c0be
00000130: e00d e1be 37fd ec3c 97ae 653d 052d 233e
00000140: aaf4 05be 01ed b9bd 1ca4 af3d 8e9f 6c3d
00000150: ed8f 36be 940a f23d 132d 66be 5d6a 99bc
00000160: fe1b 85be 4118 3c3e 9ced 933e 480b 3ebe
00000170: 6f89 4ebd 744f 633d 709d 013f 02cf 55bd
00000180: b772 473d 1c03 12bf 7c78 703e b395 febe
00000190: 4f1f 573e c919 9a3e e279 13be 1e57 8dbe
000001a0: 85e7 babe 96ff 803d b68f 173e 7df9 fd3e
000001b0: a4a7 063f bef9 aa3c 4d0e 9c3e 2d97 863b
000001c0: 33a3 89be 0486 42be a702 ae3c ab92 553d
000001d0: 6202 6b3d 1f87 803c 6f6c 44bc 5889 b03d
000001e0: 71d1 013e 0f2f e53d 33b9 8ebd 3b99 1bbe
000001f0: 727f f13d cb02 6abe 709b 56be 24c3 67be
00000200: a4c5 e33c 9e5e a23d 39ea bc3e f50d 9e3c
00000210: 4a27 2dbd 18f8 58be b1f2 a3be 207b cdbc
00000220: 642e b2bd 99a6 48be cf9f 993e d53d 973e
00000230: 06df 713d dc32 c4bc 80a4 b63e 00fd bd3e
00000240: 25aa d53e 4064 76bd f9f1 c83d 560b f63e
00000250: 9211 3fbe 9044 643e 7d5b 32be 998b db3c
00000260: ac21 bf3e 1616 afbe 4aae e33e 8697 38bd
00000270: 1b6d acbc 3837 013e 612b 513f 0b27 e33e
00000280: e402 f3bd 57dd ec3e a3e5 a33e f1e9 80be
00000290: 035d 88be e9e8 a7be bd44 cd3d 3f27 aebe
000002a0: 6291 393e f7b9 71bd 47df 053c cb47 683e
000002b0: 2884 7fbd 7189 a8bd 9f0e 2d3d e308 e63d
000002c0: 3cb7 f1bd d11d 32be caea 5d3e ff73 12bd
000002d0: dd43 3c3f fbf2 c03d c154 dcbd 68e9 a93e
000002e0: e55c 5d3f 5f97 683f 2998 b9bc 42eb 80bc
000002f0: ca4f 863e 1543 3bbe 617a 113f e0b8 76be
00000300: 9bd7 41be c471 cf3e 491b bcbd efac 9f3e
00000310: c7fd 2c3e 3ad8 2dbd a0bd 023f 8569 4abe
00000320: c003 ffbd 2a18 3f3d 1712 6abe 4112 f83a
00000330: f593 8f3e f6f0 673e 7670 973e ec6b 8e3d
00000340: a4a5 9bbd 1d66 15be be5b ed3d 3767 0a3a
00000350: b6f8 ff3e 746e ab3e 7e8b c53d 868f 693e
00000360: b5c7 81bd 5111 f1bd b2ef 77be 5c2d 033f
00000370: b2ba 3a3f 6fdb 9e3e be6d d1bd 933e 5abe
00000380: 1917 4a3e e3f6 39bd 9b17 393c 03b1 ec3c
00000390: ce25 e53e 7f1f b63e dcf0 11bc 2c63 133e
000003a0: 468d 623e 22a8 94be 2f83 2ebe 6015 0dbe
000003b0: 91fa a5bd 9282 123e 92e4 ecbd edb4 48be
000003c0: 92f5 89be 20c7 6dbe 42f0 54be 8375 efbc
000003d0: 999e 80be bae7 d8bc 3d1e 11bd 476f d43e
000003e0: 1258 073d 04fe d0bd 7695 9bbe 6537 68be
000003f0: bd7b 083f aa9e 9c3e bef1 2abe a743 623e
-0.37135676 -0.27921805 0.17153344 -0.21868618 -0.11767435 0.35166955 0.021834819 0.04975242
-0.047098517 0.05915187 -0.05340291 0.5631066 0.010158468 -0.1590109 -0.25593755 -0.106903926
-0.15365955 0.16482344 0.3723166 0.19136466 0.18794474 -0.17507865 0.06684608 0.28475368
0.124369346 0.30664605 -0.04194721 0.57534593 -0.0051103756 0.012575362 0.024637273 0.025996327
0.29093742 -0.026093876 -0.092473134 -0.13856228 -0.0094970185 0.14155963 0.10950775 -0.15716691
-0.17159858 0.40224788 -0.28336373 -0.24874577 0.03886248 0.050737694 -0.109210685 -0.0021803684
0.37783605 0.031217724 0.2271747 -0.28925204 0.1721849 -0.17162208 -0.24207799 -0.11152655
-0.008800336 -0.1891823 -0.018439597 -0.17715093 0.13999268 0.09395326 0.37128654 -0.021245893
0.2783695 0.19993259 0.26919913 0.21102265 -0.013178439 0.3459512 0.24194787 0.294748
0.3802781 0.3321009 -0.03567611 -0.37539712 -0.43955898 0.028929336 0.056074705 0.15935142
-0.13081613 -0.09078408 0.08576223 0.05776935 -0.17828341 0.11818424 -0.22478132 -0.018727476
-0.2599792 0.18368627 0.2889222 -0.18558991 -0.050424036 0.055495694 0.50630856 -0.05219937
0.048693385 -0.57035995 0.23483461 -0.49723586 0.21008037 0.30097798 -0.14401963 -0.27605528
-0.3650476 0.06298749 0.14800915 0.49604407 0.5259955 0.02087104 0.3047966 0.004107377
-0.26882324 -0.18996435 0.0212415 0.052141827 0.05737532 0.01568943 -0.011988743 0.08619946
0.12677552 0.11190616 -0.06968918 -0.15195172 0.117918864 -0.22852628 -0.20957732 -0.22633034
0.027804203 0.07928203 0.36897448 0.019293765 -0.042273797 -0.2118839 -0.32021096 -0.025083125
-0.087002546 -0.19594802 0.30004737 0.29539362 0.059050582 -0.023950033 0.3567238 0.37107086
0.41731372 -0.0601542 0.098117776 0.48055524 -0.18659046 0.2229178 -0.17417713 0.026799964
0.37330377 -0.34196538 0.4446891 -0.04506638 -0.02104812 0.1261872 0.81706816 0.44365725
-0.11865786 0.4626262 0.32011136 -0.25178483 -0.26633462 -0.32794884 0.100228764 -0.34014317
0.18121865 -0.05901524 0.008170909 0.22683637 -0.062381893 -0.0822934 0.042250272 0.11232164
-0.11802527 -0.17394187 0.21671596 -0.035755154 0.7354105 0.09421345 -0.10758353 0.33185887
0.8646987 0.90855974 -0.022655563 -0.01573718 0.2623275 -0.18287309 0.5682736 -0.24093962
-0.18929903 0.40516484 -0.09184892 0.31186625 0.16893683 -0.042442538 0.51070595 -0.19766815
-0.12451887 0.046653904 -0.22858463 0.0018926339 0.2804257 0.22650513 0.29577988 0.06954178
-0.07599953 -0.14589734 0.11589764 0.00052796624 0.4999444 0.33482707 0.09645747 0.22808656
-0.06336919 -0.11770881 -0.2421253 0.5124109 0.72941124 0.3102679 -0.1022601 -0.21312933
0.19735374 -0.045401465 0.011297132 0.028893 0.44755405 0.35570905 -0.008907523 0.143933
0.22124204 -0.29034525 -0.1704223 -0.13777685 -0.081044324 0.14307621 -0.11567034 -0.19600268
-0.26945168 -0.23220491 -0.20794776 -0.029230839 -0.25121 -0.026477683 -0.035429228 0.41491148
0.033042975 -0.102047 -0.30387467 -0.22677381 0.5331381 0.305898 -0.1669378 0.2209612

l3.bias f4 [6]
00000000: 5213 573e 0ffe a7be af77 12be 8ec9 913d
00000010: 73ad c03e 8ba8 9fbd
0.21003464 -0.3281102 -0.14303468 0.07118522 0.3763233 -0.07795819
