HalfCheetah/HalfCheetah-v4_actor_finalized_02.pth (torch, 520140 bytes, 6 tensors)

l1.weight f4 [400, 17]
00000000: 7783 9c3d 6412 42bf 0385 abbe 1efa cbbe
00000010: 2cfd ef3d 2d7a 813e 35fe d13c c2f6 73be
00000020: 0999 16be 0f97 00be 8dea 60bf 64f7 6abe
00000030: 58d0 9fbe 1cc8 9bbc cf76 acbe ea66 873e
00000040: eb37 703e 7ba1 1bc0 d795 23be bdcf 64bf
00000050: 7f95 47bc 13cb 93bd d831 54be 3048 ce3d
00000060: a45e a03e 9567 d8bc c5f3 b4be 6299 ac3d
00000070: 72ae cc3d 6d3a 003e 51c7 653c a0c6 8a3e
00000080: c098 383c 556c 45ba 3999 403f 7071 f73d
00000090: ce8a 2a3f 56fe 6c3c 0a95 223f c9ca 463e
000000a0: b818 50be 3a71 fabe 9754 edbe c470 dfbe
000000b0: 9069 c23e 1587 84be 9cf9 c93e 2f2d 803d
000000c0: d76c 07be 60cc 0dbd 8ae7 8b3e 41b3 653e
000000d0: cdaa b83c c3d8 dc3c a9af 853e d34e a83e
000000e0: f9e7 853e d5b8 fa3e 180b 31be 3d33 ad3d
000000f0: d865 a1bd b2d3 0c3f aafa 2abe eab7 133d
00000100: f37a 0c3d c222 783d 6570 84bd 6c06 893e
00000110: 3326 2bbf 9a9e fa3f ab64 6d3d f897 e43d
00000120: 3ee3 7bbd 21b3 e5ba f420 3f3f dba0 3e3e
00000130: 47b0 03bd bd5b dbbe f4fb 553e d6b2 54bb
00000140: 7c06 a5bb 82b1 80bd da34 443c 0fc4 6b3d
00000150: 7474 02bd b1ee a6bd 14db 663f 9e74 7c3f
00000160: 28bf 633f 804d 93be 6dab d5bc 164b 23be
00000170: 4f47 c1be 0432 5abe 1fe2 5c3e c15a f53c
00000180: b22e 503e 2534 bb3d ce26 b03e 79ce 92be
00000190: e157 4bbe 289a 2f3e d7d8 463f 1718 f53e
000001a0: 982f 9d3e 8e02 ccbb e160 2a3e 1ca7 1cbe
000001b0: e39c 293e 4a00 33be 1e91 1fbf db0e 573e
000001c0: e2ab 4e3f 6a64 a93d 9b64 123c d041 31be
000001d0: eff0 7c3e 1c47 c83d 12e4 08bd e9b8 5fc0
000001e0: a636 c73f f743 1abe cd82 27be 26d4 c0bd
000001f0: df97 42bd 05cd 3fbe d588 4f3e 383e a23e
00000200: 04d6 86bf 2027 abbe c6ec 67be cab6 24be
00000210: 8fdc d6bd a597 91bd 7718 87bd 319e 3ebd
00000220: b501 0bc0 835c 463f 5420 99be 547c 3c3d
00000230: 05a3 bb3d aa23 ffbe d955 ad3d 48be a5be
00000240: 2e00 1cbc f906 9fbe 0fbd 303d 82f5 04be
00000250: 9bf0 463e c047 5fbe 268e 56be 7ec0 53bd
00000260: 0bac 093e 2061 7c40 a1c3 453e eca3 243e
00000270: 9703 b4bd 2817 c53d 69ea aabe 2376 1dbe
00000280: c30f 203d 3d57 f9bd 7725 a1be 32bb 383e
00000290: aa96 55be def6 0bbe f680 8dbb 4d96 91bd
000002a0: 9f1b 1abd f4c7 17bd 487c 03bf a56d 0c3f
000002b0: fd54 7dbc c173 e53e 9c20 79be 4fec 7abc
000002c0: f9eb 3a3d f2e2 473f 4f03 c03d de07 2cbd
000002d0: 056d c2bd e866 c5bd f4b1 f43c 38be c6bd
000002e0: c9ee 333e 7433 123e caa3 aabd 8dec ed3e
000002f0: e341 cbbf 4e81 0abd 3123 df3d 7acf 993c
00000300: 7389 6ebd 819d 5b3d 9c54 183e ac66 183e
00000310: 291f 903e a612 3b3e aae0 d2bd 8e63 80bd
00000320: 9a5d 9fbd 21ac 7d3d e9fb 033d cc2c abbb
00000330: 485d 3fc0 076a 973f 428b 163f 2c82 493e
00000340: 11c4 20be d294 c63c c36e 6f3d 3437 a93d
00000350: f607 a43e 5390 78bf f3c0 543e 4b19 6e3e
00000360: bf5d dd3d 118c bb3c d6e4 e8bd 46d7 8c3d
00000370: 8048 aa3d fff2 9abf bdfd b1bd e78c 3bbe
00000380: 9bef 923e a1e6 1e3f 8aa4 57bd 7cff a2bf
00000390: 783f 86bf ff93 b93e 5d1b 2bbf 5f58 d83e
000003a0: a3c2 313d fa5f b03d f15b 43bc 5f6a 8abe
000003b0: 2508 c8bd 8291 5d3d c1fa d3bb 9920 4cbd
000003c0: 9629 7cbf 323e 5b3e 0e78 e63c 82b7 9f3c
000003d0: cbe9 49bd 8535 cc3e 3bbf f6bd 2b2f 283f
000003e0: 336f d03e 05e9 8c3e 3801 873e f15c 9a3e
000003f0: bea2 043e aed0 01be f940 2d3e c954 e6bf
0.076422624 -0.7580931 -0.33499917 -0.39839262 0.117182106 0.25288525 0.02563391 -0.238246
-0.14706816 -0.12557624 -0.87857896 -0.22945935 -0.3121364 -0.019016318 -0.33684394 0.26445705
0.23458831 -2.431731 -0.15975128 -0.89379483 -0.012181639 -0.07216468 -0.20722139 0.100723624
0.31322205 -0.02641658 -0.3534223 0.08427693 0.0999421 0.12522288 0.0140245715 0.27104664
0.011266887 -0.00075310963 0.752338 0.12082183 0.6661805 0.014464935 0.63508666 0.19413294
-0.2032193 -0.4891451 -0.463536 -0.4364072 0.37971163 -0.2588431 0.3944825 0.06258618
-0.13225113 -0.034618735 0.27325088 0.22431661 0.022542382 0.026958829 0.2611058 0.32872638
0.26153544 0.4896914 -0.17289388 0.084570386 -0.07880753 0.5501052 -0.16697183 0.036064066
0.03429694 0.060580023 -0.0646675 0.26762712 -0.6685516 1.9579651 0.057957333 0.11161798
-0.061496012 -0.0017524698 0.7465966 0.18616049 -0.032150533 -0.42843428 0.20896894 -0.0032455227
-0.0050361734 -0.06283857 0.011975491 0.057560023 -0.03184934 -0.081509955 0.90178037 0.98615444
0.88963556 -0.28770065 -0.026082719 -0.15946612 -0.37749717 -0.21308142 0.21570633 0.029950501
0.20330313 0.09140805 0.34404606 -0.2867315 -0.19857742 0.1714865 0.7767462 0.47869942
0.30700374 -0.0062258905 0.16638519 -0.15298122 0.16563754 -0.17480579 -0.62330806 0.2100176
0.8073102 0.082711056 0.008935119 -0.17310262 0.24701284 0.09779188 -0.03342063 -3.495661
1.5563552 -0.15064989 -0.1635849 -0.09415464 -0.047508117 -0.18730552 0.20267041 0.31688094
-1.0534062 -0.33428288 -0.22648916 -0.16085353 -0.10491287 -0.07109002 -0.06596463 -0.04653758
-2.1719792 0.7748491 -0.29907477 0.046017006 0.09161953 -0.49831897 0.0846364 -0.32371736
-0.009521527 -0.31060007 0.04314905 -0.12984279 0.19427721 -0.21804714 -0.20952663 -0.051697247
0.13444535 3.943428 0.19312908 0.16078156 -0.08789747 0.09623557 -0.33381966 -0.15377097
0.03907753 -0.121748425 -0.31473896 0.1804016 -0.20858255 -0.13668391 -0.004318352 -0.07108746
-0.037623998 -0.037055925 -0.51361513 0.54854804 -0.015462157 0.44814876 -0.24328846 -0.015315129
0.045635197 0.78080666 0.09375631 -0.04199969 -0.0949345 -0.096387684 0.02987001 -0.0970425
0.17571558 0.1427744 -0.083320215 0.46469536 -1.5879482 -0.03381472 0.10895384 0.01877569
-0.05823655 0.053617004 0.14876026 0.14882916 0.28148773 0.18268833 -0.102967575 -0.062689885
-0.07781525 0.061931733 0.032222662 -0.005223846 -2.9900684 1.1829232 0.5880624 0.19678563
-0.15699793 0.024240885 0.05845524 0.08262482 0.32037324 -0.9709522 0.2077673 0.23251836
0.10808896 0.022893937 -0.11371772 0.06876998 0.083146095 -1.2105407 -0.08690975 -0.18315469
0.2869843 0.6207066 -0.05264715 -1.2734218 -1.0488119 0.36245725 -0.6683863 0.42254922
0.04339851 0.08612056 -0.011923776 -0.2703428 -0.097671784 0.054093845 -0.006469101 -0.049835775
-0.98500955 0.21410444 0.028133418 0.019496683 -0.049295228 0.39884582 -0.12048193 0.6569697
0.40709838 0.2752153 0.26368117 0.30149034 0.12952706 -0.12677261 0.16919316 -1.7994624

l1.bias f4 [400]
00000000: 0e4b 173f c467 07be 78f1 2c3e 976b 603f
00000010: 6c83 19bf d0b0 9bbe 9801 eabe d8f4 2ebf
00000020: 8cff 9ebe fb79 db3d 0766 78bf 055d 533f
00000030: 1e82 13bf fc4d c4bd 4e42 15bf bff9 a5bd
00000040: 62e3 60bf 3a20 133e 89c0 8e3d c6f3 113e
00000050: b055 8dbe b7b0 a03d f88a 30bf c000 4fbe
00000060: ed81 ebbe a61f 54bc 0cbe 49bf 439f 5c3e
00000070: a0b2 093e 8cac 2cbf eb5b 0e3e d55b 0f3d
00000080: db66 a03e f7c5 18bf ca27 193b 2a8a 2a3f
00000090: b974 7cbe 657f 9a3e a398 b73e b29a 03bf
000000a0: 482d 5fbe 810f 823f 2532 493e 1d13 94be
000000b0: d6a8 bcbe 8e87 dd3e a52d c3be 19d7 03be
000000c0: ee96 953e e24c 1cbf 8892 27bf a8b3 333d
000000d0: edb0 03bc 1fb3 afbe 6fe7 77bc 1a72 10bf
000000e0: 6631 b53e 4180 58be 39f4 aebb 5353 69be
000000f0: 7a25 bfbd 2019 b9be cacf 083f 5922 b7be
00000100: da7f d93d 3aca 09be 5af3 2cbe 03a2 72bf
00000110: 0e7a 49bf 3fc4 00bf 644e ea3d 5d9a 9cbe
00000120: 4218 1d3f 7778 d4be 4d18 13bf b919 19bf
00000130: 4c99 48bd 8244 16bf af4f d9be 2b36 d53e
00000140: 4010 be3e 8993 8ebf bec9 333f d52d be3d
00000150: 77de 38bd ca0e b3bd 0e7a 4dbd 2dd4 fa3e
00000160: 9b36 8c3d 522d 373f ebd7 eebe 85fc 173f
00000170: 7dfe 0ebe 9065 d7be 7585 7dbe 8d66 013f
00000180: 098f 37bf 8c36 f8be 9064 e03d e42b b6be
00000190: 97f3 4abf 5ff7 aebd c8e1 ce3d 6189 4f3e
000001a0: b63c 23bd 3308 c5be 88ab c5ba bfcd 4cbf
000001b0: e4e1 09bf b1aa 973e f8da 463d 6e3d 3dbe
000001c0: 6d8f cabe 6c90 b43e 0bf6 533f 4fb7 dcbe
000001d0: f0d3 2bbe 76c2 843d 58dc 75be 12d9 1bbf
000001e0: 26ec 143f 3573 383f 8ac4 0a3f 4220 be3d
000001f0: 05b9 cc3e 32e4 2cbf 2f1c c53e be93 1d3e
00000200: 02ca 693f 6fb4 023f fe09 b33d 5ab9 1e3f
00000210: b61e 853e b953 523e 08be 343f d76a 533f
00000220: 33bf 6ebd 16fd 263e 80b3 c1be 8d50 8d3e
00000230: 20d1 c13e 26aa 85be aa4a 4d3f 60b7 a2be
00000240: 73ab 71be 2377 44be c2d2 b0bc 952f c7bc
00000250: 2ea9 313f ce41 133d 89d1 2fbe 5bd0 0ebd
00000260: 4513 55be 53d3 39be c9f0 fc3c 2a2b 253f
00000270: 54be abbb ca40 48bf 2b59 90be 6eae 45bd
00000280: a269 6a3e 7462 db3e 3203 ed3d 41a0 0d3e
00000290: 4c91 83be 206d 85bd 2f59 8e3e faf0 d83e
000002a0: c6ff fbbd a22f f0bd 64a0 533f e4e8 53bf
000002b0: 013e 64bf 35f5 3cbe a7ed c1be 8b99 d4be
000002c0: 6a6b 703e 310d f13e 999a afbd d56a adbe
000002d0: 148e 44be bc4e d53e aa06 c63d 1299 69bf
000002e0: 4220 3bbf c068 a8be 91fe 50be 3c8a 4e3d
000002f0: 186b 3d3f 64f8 1dbf f7d5 133e 5c13 90be
00000300: 22b6 d53e ce14 2d3f bd1b 15bf 2855 05bf
00000310: 044c 29bf 26be 10bd 8ca5 5d3f 0c54 9cbe
00000320: 0fa3 d93d 0cfe bdbe c003 26be 207e 10bf
00000330: 74a3 e13e 0db0 7ebe cb85 08bf 0de7 2fbe
00000340: 5e58 4ebd 321d 223f 9bac 9abe 230d a1be
00000350: 4846 bebd 195b 09bd be97 713e eb7e dd3e
00000360: 8020 aa3e e27c 2dbf 244a 043f 1476 a23e
00000370: 867b 083e bc72 d7bd 06a5 efbd ab07 fdbe
00000380: ad58 1a3f c358 3ebf 323a ea3d 6863 373e
00000390: ef52 5b3e 4dcc 4f3e 01fb 343f 1de8 a9be
000003a0: 5b6d 743e 24a8 093d 9fc6 96be 0133 b9be
000003b0: 0af2 19bf bfae f3be 07da 133f 01fe 2c3f
000003c0: 87a4 edbe a9cc 683e cfe5 4cbe 16f1 663f
000003d0: 4d37 5abf aaac e33e e04a 01bf 06b8 e2be
000003e0: 4f46 0b3f cf11 a83e ee67 733d 85bd a1be
000003f0: fd1c 8e3d 785e 28be 6679 f5be 82d3 be3d
0.590989 -0.13223177 0.16888988 0.8766417 -0.5996616 -0.30408335 -0.4570434 -0.6834235
-0.31054342 0.10716625 -0.9703068 0.8256381 -0.5762042 -0.09585187 -0.583043 -0.08104276
-0.8784696 0.14367762 0.06970317 0.14253148 -0.27604437 0.07846206 -0.6896205 -0.2021513
-0.45997563 -0.012946999 -0.78805614 0.21545129 0.13447046 -0.67450786 0.13902251 0.034999687
0.31328472 -0.5967707 0.0023369663 0.6661707 -0.24653901 0.3017532 0.3585864 -0.5140792
-0.21794617 1.0160981 0.19648035 -0.28920832 -0.36847562 0.43267483 -0.38120762 -0.12875022
0.29216713 -0.61054814 -0.65457964 0.043872505 -0.008037788 -0.34316346 -0.015130862 -0.56424105
0.3538925 -0.21142675 -0.005339172 -0.22785692 -0.0933332 -0.3615198 0.5344206 -0.35768393
0.10620089 -0.1345605 -0.16889706 -0.9477846 -0.78701866 -0.5029945 0.11440733 -0.3058652
0.6136514 -0.41498157 -0.57458955 -0.59804875 -0.04897432 -0.58698285 -0.42443606 0.4164289
0.37121773 -1.1138774 0.7022971 0.092860855 -0.045134034 -0.08743055 -0.05016523 0.48990002
0.06846353 0.7155353 -0.46649107 0.5936969 -0.13964267 -0.42069674 -0.24757941 0.50547105
-0.7170263 -0.48479116 0.10956681 -0.3558036 -0.7927794 -0.08543276 0.10101658 0.2026725
-0.03985282 -0.38482818 -0.0015081028 -0.80001444 -0.53860307 0.29622415 0.04854867 -0.18480465
-0.3956255 0.35266435 0.82797307 -0.43108603 -0.16780066 0.06482403 -0.24009836 -0.608781
0.58172834 0.7205079 0.54206145 0.092834964 0.3998491 -0.675357 0.38498065 0.1538839
0.91323864 0.5105657 0.0874214 0.62001574 0.25999993 0.2053975 0.70602465 0.825849
-0.05828781 0.16307482 -0.3783226 0.27600518 0.37854862 -0.26106375 0.80192053 -0.3178053
-0.23600559 -0.19186072 -0.021584872 -0.024314681 0.6939877 0.035951428 -0.17169775 -0.034866672
-0.20808132 -0.1814702 0.030876534 0.6451899 -0.0052411947 -0.7822386 -0.2819303 -0.048262052
0.22891858 0.4284855 0.11572875 0.13830663 -0.2569679 -0.065149546 0.27802417 0.4237135
-0.12304644 -0.11727835 0.8266661 -0.8277724 -0.8915711 -0.18452914 -0.37876627 -0.41523394
0.23478475 0.47080377 -0.08574409 -0.3387057 -0.19194824 0.41661632 0.0966924 -0.9124919
-0.73096097 -0.32892418 -0.2040961 0.0504248 0.7399154 -0.6170714 0.1443709 -0.2813977
0.4174052 0.6760987 -0.5824545 -0.52083063 -0.66131616 -0.03533759 0.8658073 -0.30532873
0.10626804 -0.37107885 -0.16212368 -0.5644245 0.44070017 -0.24871846 -0.5332915 -0.17177983
-0.050377242 0.633258 -0.30209813 -0.31455335 -0.09290749 -0.033534143 0.23593041 0.43260893
0.3322792 -0.6776868 0.5167563 0.3173071 0.1332837 -0.10519931 -0.117013976 -0.49419913
0.6029156 -0.7435419 0.11436881 0.17909014 0.21418355 0.20292778 0.706955 -0.331849
0.23869841 0.033607617 -0.2944841 -0.36171725 -0.6013495 -0.47594258 0.5775456 0.6757508
-0.46414587 0.22734322 -0.2000954 0.9021162 -0.8524063 0.4446767 -0.50504875 -0.44281024
0.5440416 0.32826087 0.059425287 -0.31589904 0.06939123 -0.16442287 -0.47944182 0.09317686

l2.weight f4 [300, 400]
00000000: 8fa4 793e 086a a63c 632b 97bd 8190 d5be
00000010: c5ca 76bc f9f7 d73c e8a2 903d 897e 2d3e
00000020: 0f93 92bd 795e 3a3d 1582 1d3d d8b1 7bbe
00000030: e69c c03c ce73 bcbd 2e26 8dbd 68fe 78bc
00000040: 36a7 d13d bd8c 023e a2d6 99bd 6ee1 a5be
00000050: ccf7 063e ac81 37be 8bcf 333d 27a6 84bd
00000060: 4eb4 94be 1de1 04be 5d6c 0ebe ee3c 543d
00000070: cf00 84be f843 223e 5797 2a3c bf6f 8bbd
00000080: 0519 ecbb 2a41 753e 248c 43bc 45bc 41be
00000090: 257b 7f3d 58a3 49be 56cf 79bb cb14 953e
000000a0: f342 d1bc c5dd c43c 7c9b b3bd 6ed1 2a3e
000000b0: 8de5 863d f02f 9cbe 0f1f acbe c160 f33d
000000c0: 891b 3ebd 98d8 4e3d 9414 0dbe 4e2e 39be
000000d0: eb21 97be d0ee 6fbc 1970 b0bd a0ee 4dbc
000000e0: a8a3 a1bd 7cce f9bd ff33 09bd b94b 473e
000000f0: edb4 c2bd b673 4d3e a913 97be b488 0dbe
00000100: a14c 773e fd00 18be 000c 5e3e 7633 423d
00000110: 5cd8 143e 12da f4bd edc0 2abd c101 d43d
00000120: f098 c0be 0690 86be 6f99 643d de23 23ba
00000130: c420 84bd fb8d 373d c1df fa3d edb2 92be
00000140: 774a 5ebe 9afc dbbd 2eeb 0fbe e2b3 a5be
00000150: 9c0c bc3c 6a71 fb3d ece6 70bd dea1 02be
00000160: 15a2 65be 56cd 82bd a20d 60bd 1343 0cbd
00000170: cff1 62bd 615b 67be 10be 32be 85fc adbe
00000180: 6a66 6c3e d1df e4bd 9fba 9fbe 0d80 aabe
00000190: a214 0f3d c266 f4bc f49b 3bbd c01e f6ba
000001a0: c089 4bbe 1f19 a0bd 2c5c 2dbd 41e9 64be
000001b0: c3ef dc3c a4e2 13be 637e 19be 6589 23be
000001c0: 205e bf3d 136c cabd f601 02bd 9f52 34bc
000001d0: 88f1 123d 905a c8bc 0a5e 41bc ec34 563e
000001e0: 9fd2 febd 6606 78be 9ad0 6cbe 31fe 22be
000001f0: cc85 283d 91c5 a1bd 65f7 3ebd 06b4 adbe
00000200: a728 adbe 9b3b ccbd 10ac b2bd d429 f73b
00000210: 3d23 d03b 7cfc e83c 5b07 b7bb b8e9 7bbe
00000220: 287a 1fbe 6016 09bd 4d94 303e 35d2 3c3d
00000230: c08b 783e 5d26 c6be 87d0 033d 7a19 51bd
00000240: c514 b6bd bb04 7fbd b577 0f3e 2b2a 60bd
00000250: 148b 983d ce74 cdbd d6da ea3c 896c 5c3e
00000260: 94fb cebd 5369 acbe d385 9d3d 6ffc 57bd
00000270: 4da0 0dbd 5ed4 71bd 5927 0a3e 574d ec3c
00000280: d7d5 353c b45a 8c3d c127 993c 4fc0 283d
00000290: 50d8 963d caef d33d 682c 4ebd 3be7 743d
000002a0: d8fb 4fbd c19e 5abe 906f aebe 6453 8f3d
000002b0: 6707 a8bd e228 273e 3ce4 cd3d 6a1b 54bd
000002c0: 9ea7 4bbe 45cc afbd c17a b0bd e81a 433d
000002d0: bd4b e33c 277b f5bc 693f 64bd 8c04 ca3d
000002e0: 5eaf bd3d b4f3 523e 36c8 333e c8ad ebba
000002f0: 53f5 c1be c756 07be 05f3 8dbd 31d8 cabc
00000300: 3d69 b2be e8d7 71be c88e 1c3e 91f3 773c
00000310: 4d9b a73d 2f6a 8b3d 982d 92be 7ecd 5dbe
00000320: bb4d 10be 4a88 d33d ebe9 97bc fdb3 bfbb
00000330: a0e2 21bd a34d e93d d0fe 38bd ee11 553e
00000340: 0183 b1bd dc6a d3bd 5fef a73e a1d1 663e
00000350: cc29 973d 7d34 813e de16 0fbe 9f05 833d
00000360: 627c f1bd b7e5 073d 96cc 0cbe fb2b 33be
00000370: d264 13be ae6f 90bc e2df 2ebd 249b b2bd
00000380: ddf6 723c 1e25 013d 175e c5be a8dd 0bbe
00000390: 2ea7 02bd 4bc1 6d3d 6e20 92be 8a4c bfbc
000003a0: 4498 d43b 8a33 113e 81df 38bd 8db3 22bc
000003b0: 9ba7 2abb a97e 863d 2246 e4bd 2de9 30be
000003c0: 1a40 f4bc 09da 8cbd b093 bf3d 41a4 86be
000003d0: 8a54 143e 258a 463e 4066 a6bd e467 bd39
000003e0: e5c0 4ebe 1d61 b7bd d25f eebc 0a16 12be
000003f0: 1a8d 1f3d 0275 313e 41ce 24bd 673a e93d
0.2437918 0.020314232 -0.07381322 -0.4171181 -0.015062992 0.02636336 0.07062322 0.169428
-0.071569555 0.045500252 0.038454134 -0.24579561 0.023512315 -0.092017755 -0.06892048 -0.015197374
0.10236971 0.12749 -0.07511641 -0.32398552 0.13180465 -0.1792056 0.0438991 -0.064770035
-0.29043812 -0.12976499 -0.13908525 0.05181592 -0.25781867 0.1584624 0.010412059 -0.06808423
-0.007205131 0.2395064 -0.011935268 -0.18919475 0.0623733 -0.19691217 -0.0038117967 0.29117426
-0.02554462 0.02403153 -0.08769891 0.16681454 0.06586752 -0.30505323 -0.33617446 0.11883689
-0.04641298 0.05049953 -0.13777381 -0.1808407 -0.29518065 -0.01464434 -0.08615131 -0.0125691
-0.07892543 -0.12197587 -0.033496853 0.1946248 -0.09507165 0.20063671 -0.29507187 -0.1382168
0.24150325 -0.14844127 0.21684265 0.04741236 0.1453566 -0.11955656 -0.041687895 0.10351897
-0.37616682 -0.26281756 0.05581039 -0.0006223301 -0.06451562 0.044813138 0.12249709 -0.28652135
-0.21708094 -0.10741539 -0.14054558 -0.32363802 0.022955231 0.122774914 -0.058813974 -0.1275706
-0.2242511 -0.06386821 -0.0547005 -0.034243654 -0.055406388 -0.22593452 -0.17455316 -0.3398172
0.23085943 -0.11175502 -0.31197068 -0.3330082 0.034931786 -0.029834155 -0.045803025 -0.0018777475
-0.19876766 -0.078172915 -0.04232423 -0.22354604 0.026969796 -0.14441925 -0.14989619 -0.1597038
0.09344125 -0.09883895 -0.03174015 -0.0110060265 0.035874873 -0.024457246 -0.011802206 0.20918626
-0.124425165 -0.24221191 -0.2312645 -0.15917279 0.041143224 -0.07899011 -0.046622653 -0.3392641
-0.33820078 -0.09972306 -0.087242246 0.007542828 0.006351857 0.028440706 -0.0055855936 -0.24600875
-0.15573943 -0.033468604 0.17244072 0.046098907 0.2427206 -0.38701144 0.03218129 -0.051049687
-0.0889068 -0.06226037 0.14010508 -0.054727715 0.07448402 -0.10032044 0.028668802 0.21525778
-0.101065785 -0.33674106 0.076915406 -0.052730974 -0.034576703 -0.05904042 0.13491572 0.028845472
0.011098347 0.06853238 0.018695714 0.041199025 0.07365477 0.103484705 -0.050335318 0.05979083
-0.050777286 -0.21349622 -0.3406949 0.069983274 -0.08204537 0.1632419 0.10053298 -0.051783957
-0.1988816 -0.08583883 -0.086171634 0.04763308 0.027746076 -0.02996595 -0.055724535 0.098641485
0.09261964 0.20600778 0.17556843 -0.0017980868 -0.3788248 -0.13216697 -0.06931118 -0.024761291
-0.34845915 -0.23617518 0.15288842 0.015133754 0.08183918 0.06807362 -0.2855041 -0.2166042
-0.14092152 0.103287295 -0.018544158 -0.0058503137 -0.039522767 0.11391761 -0.045164883 0.20807621
-0.08667565 -0.10323116 0.32799813 0.22540905 0.07381019 0.25235358 -0.13973567 0.063975565
-0.11791302 0.033178058 -0.13749918 -0.17497246 -0.14393929 -0.017631378 -0.04269398 -0.08720997
0.014829365 0.03152954 -0.38548347 -0.13658774 -0.031897716 0.058045667 -0.28540367 -0.023351926
0.006487878 0.14179817 -0.045135025 -0.009930504 -0.0026039842 0.06567127 -0.11146189 -0.1727645
-0.029815722 -0.068775244 0.09354341 -0.2629719 0.14485374 0.19388635 -0.081249714 0.00036126294
-0.20190771 -0.0895407 -0.029098425 -0.1426622 0.038952924 0.17329791 -0.04023576 0.113880925

l2.bias f4 [300]
00000000: 682e 0bbf b112 e5be 80f4 abbe a855 dcbe
00000010: 9486 02be 5b9d 2cbe 26bb 263e 9aa1 a53e
00000020: 3cfe 8b3a b14f 0dbe c50e 003d 328a 103f
00000030: 5827 7fbe 37a3 80be e90a 88be 4824 8e3e
00000040: 44bb da3d 6875 f53d 491b 25bc 625f a5bd
00000050: 18f3 bb3e 5546 6ebe 8834 b73e 06e9 43be
00000060: 9651 a5be cf52 d13e 9879 b7bc bde7 ed3b
00000070: bd56 5cbd 527c ad3e 55e0 e03d 3fcc 5abd
00000080: 1d1e ca3d be10 62bc 2b3a e1bb f62f 7c3e
00000090: 72c7 423d 2936 ef3e 8834 123d 71ea 71bd
000000a0: 80b4 71be b7b2 833e 0573 67bd 4f2d 873e
000000b0: 000d aa3d 817e b3be 7b59 80be c3f0 153e
000000c0: e061 57bd b950 babe b329 a33d c55d 993d
000000d0: 7efb 85bd 6ff9 22bf 12fe 7dbe ed84 103f
000000e0: 5f72 2d3e 138e 6ebe 7207 52bd 8503 27be
000000f0: b2d5 943d a826 b03d 5fcc 8b3e d265 603b
00000100: 4bd7 80be ffeb 30be 6be1 743e ecad bcbd
00000110: aeca a8bd e147 7a3e 0dda 803d 7812 86bc
00000120: bbea c63e b12d 10be c3a9 81be affa af3c
00000130: ae06 2dbe 1bb8 2f3e 832f bfbc e997 1fbe
00000140: 5ec4 f1bd 2f6a f6bd 91a4 a8be 28c5 e63d
00000150: 1476 1bbd d1e1 a2bd 92f3 c43d 88fb 18be
00000160: 24a1 8ebe a38e 993d dc44 323e 30fa 2fbe
00000170: 2250 4a3c 9986 563c 7e5e 4b3e 7fe8 6dbe
00000180: 7032 25be f7e0 36bd 34eb 2a3e 9343 333d
00000190: e179 bebe a443 453e b839 c93d f010 67be
000001a0: 7214 233e 9ba1 0d3e a003 c4be 6bb6 363f
000001b0: 56b8 b5bd a084 423b 2ecf ba3d 18a5 703e
000001c0: 0e45 21be f146 9cbe 92f0 8c3e d976 b8bd
000001d0: 1a62 973d 85e0 9f3b 1b24 843d a474 f7bd
000001e0: 1f7a 6e3e 5db8 3fbe 43a5 bcbd c0de 09be
000001f0: 2c0a 0cbe a7de 6dbe 823c 17bf 5d87 02bf
00000200: f301 a73d 8b5e 58be 237f e13d aa35 1bbe
00000210: e0cc 9fbc d4d6 903e 33bb b6be b411 0a3e
00000220: 6770 e43d 81d3 d6be ae28 063e d3ef ba3e
00000230: 8399 143e 4439 29be f505 9bbe 1581 65be
00000240: 3aaf 13be b76b 993b 3ca7 863b a19f 673d
00000250: 0940 03bf 8092 0dbe 92cc 203e 6c6f a2be
00000260: f507 bd3c 1b35 05bf 58f7 983e 6ce9 8bbe
00000270: 15a7 193d 774c 05bc 2824 dbbd 1434 773c
00000280: 4521 2bbe 26c6 9bbd 7b01 a0bd c22f aabe
00000290: be4b 893d cf83 26be a946 6a3d 0da1 b63e
000002a0: daf6 12bd da3b eb3e 8932 ecbd ea7f 2d3e
000002b0: 79bd 47be 0744 5cbe cf93 c6be 705d 60bd
000002c0: 2731 25be 45ab 8bbe e499 f43e 34d2 523e
000002d0: 79c3 a03e 8916 aa3d 6ccd 60bd 1ed3 7abc
000002e0: 6098 883e 62b9 c73c c31e 8fbd 48f8 52be
000002f0: c13c 483e 7781 04bf c615 1c3e 99ca cabd
00000300: 4a55 4fbe e670 103f c332 123d 6c1d c33e
00000310: 1187 103e 1830 80be b492 833e 78ba 8b3d
00000320: 9d61 bebd 8703 373e cd7d d0bd b6e4 1d3d
00000330: 29e7 d53d 2d17 7bbc 2ca6 37be 6254 8cbd
00000340: 480e 82be bf26 493d 8db2 f53e 0a7e cebe
00000350: 3c70 e43e efda a6bd 6ba0 ecbb 2d1c 9a3d
00000360: cb41 82be 4571 0fbd 35a4 aebe 4d0b 553e
00000370: 54d8 e73e deed 453c 2d4f 4fbe d369 54bd
00000380: 252d 8c3e 510a 29bb 8f00 1c3e 1b3b 81bd
00000390: a466 cfbe d8c8 d1bd 48e9 64be 7e22 033f
000003a0: 323b 133e e20b 54bd 8883 bdbd 4d62 e4bd
000003b0: 1467 bf3d 094c 19be 456d a33d ec5e 14be
000003c0: 47df 16bf e642 50bd a1e8 02be 6f98 9a3b
000003d0: 2f4d 4bbc b679 15bd 95ae dabe c464 703e
000003e0: 2f32 03be f888 a8bc 9170 12be db91 51be
000003f0: 854d 92bd 9183 97bc f36e 98bc 3374 273e
-0.54367685 -0.44740823 -0.33584976 -0.430341 -0.1274665 -0.16856901 0.16282329 0.32349855
0.0010680626 -0.13799931 0.031264085 0.5646087 -0.24917352 -0.25124523 -0.26570824 0.27762055
0.10680249 0.11985284 -0.010077306 -0.080748335 0.36708903 -0.23269017 0.35782266 -0.1913186
-0.32288808 0.4088349 -0.022396848 0.0072602914 -0.053793658 0.3388391 0.10980288 -0.05341744
0.09869025 -0.013797937 -0.0068733892 0.2462767 0.047553487 0.46721008 0.03569463 -0.05906147
-0.23604012 0.25722286 -0.056506176 0.26401755 0.08303261 -0.35057452 -0.25068268 0.14642625
-0.052583575 -0.36389711 0.07966938 0.07488588 -0.06542109 -0.63661855 -0.24803951 0.5645283
0.1693816 -0.23296385 -0.05127663 -0.16309936 0.07267322 0.08601123 0.2730436 0.0034240377
-0.25164255 -0.17277525 0.23914115 -0.092128605 -0.08241783 0.24441482 0.0629159 -0.016366228
0.3885096 -0.1407993 -0.2532483 0.02148184 -0.1689708 0.17160074 -0.023338085 -0.15585293
-0.11805032 -0.12031972 -0.32938054 0.11268073 -0.037954405 -0.07953227 0.0961677 -0.14939702
-0.27857316 0.07497909 0.1740908 -0.17185283 0.012348207 0.013093614 0.19860265 -0.23233221
-0.16132522 -0.044648137 0.16691285 0.043765616 -0.3720236 0.19264084 0.09825462 -0.22565055
0.15925768 0.13831179 -0.38284016 0.713721 -0.0887305 0.0029681101 0.09121548 0.23500478
-0.15748999 -0.30522874 0.2752729 -0.090070434 0.07391758 0.0048790597 0.06452199 -0.12082794
0.23288773 -0.18722673 -0.09211209 -0.13463879 -0.13675755 -0.23229466 -0.590767 -0.509878
0.08154669 -0.21129815 0.110105775 -0.1515719 -0.019506872 0.282889 -0.35689697 0.13483316
0.111542515 -0.4195824 0.13101456 0.36511096 0.14511685 -0.16525751 -0.30277982 -0.22412522
-0.14422312 0.00468203 0.0041092914 0.05654872 -0.51269585 -0.13825417 0.15703037 -0.31725633
0.023075083 -0.5203416 0.29876208 -0.27326524 0.037512857 -0.008135906 -0.10700256 0.0150881
-0.1671191 -0.07606153 -0.078127824 -0.3323956 0.067039 -0.16261218 0.057196293 0.35669747
-0.035879947 0.459441 -0.11533076 0.16943327 -0.19505872 -0.21510325 -0.38784644 -0.05477661
-0.16132031 -0.27279106 0.4777366 0.20587999 0.31399134 0.083050795 -0.054883406 -0.015309123
0.26678753 0.02438039 -0.06988289 -0.20602524 0.19554426 -0.5176005 0.15242681 -0.09901924
-0.20247379 0.5642227 0.03569294 0.38108385 0.14114024 -0.25036693 0.25697863 0.068226755
-0.09295962 0.1787244 -0.101802446 0.038548194 0.10444481 -0.01532535 -0.17934483 -0.06852032
-0.2540152 0.049109217 0.47987786 -0.40330535 0.44616878 -0.08147227 -0.0072212717 0.07524905
-0.2544082 -0.03502013 -0.34109655 0.20805092 0.45282233 0.012080638 -0.20245047 -0.051858734
0.27378193 -0.0025793503 0.15234588 -0.063101016 -0.40507996 -0.10243386 -0.22354615 0.51224506
0.1437805 -0.051769145 -0.09253603 -0.11151562 0.093458325 -0.14970411 0.07979826 -0.14489335
-0.58934444 -0.05084505 -0.12784053 0.0047178785 -0.012408539 -0.036493026 -0.4271132 0.23475939
-0.12812112 -0.020573124 -0.14300753 -0.20465796 -0.07143692 -0.018495353 -0.018607592 0.1635292

l3.weight f4 [6, 300]
00000000: 3435 ecbe c701 b9be 5230 9c3e d6db 9cbe
00000010: c171 5cbe 81f8 d73e d299 d83d 7e82 d23d
00000020: 60ea 40bd ecb3 c63c 02bd 5abd 7dd2 063f
00000030: 1f68 b4bd 334a 26bd 5dda 84be 97b1 ffbd
00000040: e15f 21be 9974 d53d 9ee5 d23e 05e8 f53d
00000050: a06a 113e 8ec1 82be 0289 5fbc 14fa 873e
00000060: 7d49 f43d 6730 a93e dcec 8d3d 00df 003f
00000070: f074 a7bb 762d 89bd 5809 20bd 40f6 d43c
00000080: d41c a23e d3c2 d5bc 798c f0bd 14da 30be
00000090: 9664 2bbe bb68 b73d 941f 1e3e 008d 49be
000000a0: 2dd3 8bbe a926 013f 0d15 91be 8adc 96be
000000b0: c0cb 1e3c 1dd3 f13d cf97 93bd 05f1 a03a
000000c0: 76b2 be3e 204b 3e3d 19f4 ad3e 59d7 babe
000000d0: b050 f73d f6d3 67be 9ae7 2ebe b77b c8bd
000000e0: 201d 40bc 5b34 9dbe a23e 88be 5c2d 86be
000000f0: 1fb8 0b3e 043c d03d 9cd6 833e de0b aebc
00000100: 0fd9 323e fee0 393e 00ff 533e 69cd 103e
00000110: 137a 36bd 1ae5 b03d 967e 993e 5977 a23e
00000120: e8da ac3e dd45 993e 5d64 aebd 5260 b5be
00000130: dd54 11bf 021f 94bd 97ae 653d e5d4 b93d
00000140: f01e 04be 563f a6bd eb1e 0b3e 47f1 fe3d
00000150: a117 44be f97f a63d 1c5b c3be 75bd 9bbd
00000160: 053a 97be 1789 843e 9be6 e53e 5448 01be
00000170: a329 55be 133d 773d 3019 e63e 4de3 8b3d
00000180: f5cd 3839 f63a 3dbf e6e6 433e 31c8 09bf
00000190: 8484 433e c393 9b3e 13aa 08be c3c2 75be
000001a0: c431 aebe 3a1b 693c 6be9 f93d 8a4c f93e
000001b0: 4f32 ea3e 698f c13d 317a 8c3e 7a7e bd3d
000001c0: 1073 7bbe abe6 94be a4cd 44bd c120 8f3c
000001d0: 88e4 8a3c 1f87 803c 35ab 7dbc 0f37 9b3d
000001e0: dac7 9b3e 6c9e c43d 7cb4 09be e839 47be
000001f0: f650 d53d bd78 51be 0c95 e9bd 333c 8abe
00000200: 4317 29bd 7e82 a13d 1538 b33e 4eb9 263c
00000210: 4a27 2dbd 515c 60be 1c0e cbbe f311 03be
00000220: ecbf 09be 15a7 95be ef5a e43e 5386 933e
00000230: e582 e23d 8eeb 01be a9f4 b83e 00fd bd3e
00000240: 1591 1b3f 0346 3abe e25e df3d 3930 e63e
00000250: b3ed 7ebe c6d3 2c3e e5a6 84be 67ca 283b
00000260: 33e5 3b3e 8ddc d7be d58d ed3e c3c8 07be
00000270: 1b6d acbc 1507 e0bb f5a4 483f 0571 f73e
00000280: 9d34 17be cca1 f83e 2bcc 893e d3c7 86be
00000290: 1731 a5be e222 bebe 4073 2b3e ba3a 7fbe
000002a0: 90b6 393e 8827 bcbd 1704 3b3d 2c74 fc3e
000002b0: 9ec3 8cbd 0077 223d 9aa9 813e 9d2f 9d3e
000002c0: 4fa6 82be d6d1 7fbe b867 5a3e bff3 c7bd
000002d0: f316 5e3f 128d eb3d 0fc1 dbbd 7078 b53e
000002e0: 7d97 783f 05d4 673f 95de bfbd a56b 69bd
000002f0: c715 6b3e 0d8a 2ebe e3e6 133f fbbc ddbe
00000300: 3422 94be 58b5 fa3e a551 f9bd 0201 a43e
00000310: a122 593e bedb 12be 65e9 1c3f 8335 72be
00000320: db4c 35be 6012 20bd 6924 96be d406 17bd
00000330: 33ac 6c3e 6c32 7a3e d91e fb3e ef42 a83d
00000340: 9617 c5bd b8d8 50be 62ec d23b 978d 9cbd
00000350: 6b71 343f a80e ac3e b342 12bd 6c86 583e
00000360: 70d1 19be 26a2 22be cec4 98be 5885 083f
00000370: f786 503f d0bf a03e 5cb9 15be 9cf4 c6bd
00000380: f9f5 f23d e8dc c9bd a5ff 8cbb 7022 9dbc
00000390: b675 3d3f 5dfb d23e 0f33 2e3d 34da d33d
000003a0: c4fc b03e 34fa 71be 8d2a 8dbe 0496 7ebd
000003b0: 5129 06be bdf5 383e 0916 09be b647 4cbe
000003c0: 19da 8cbe 133a 00be 3c1b 5fbe 8375 efbc
000003d0: 2a1e 80be bae7 d8bc 02a4 7fbd e3be bb3e
000003e0: b950 d33d 76e0 12be 2a08 a2be 1bff 76be
000003f0: e755 003f 64ef 4b3e c915 f3bd 5424 a63e
-0.4613434 -0.36134169 0.30505615 -0.30636472 -0.21527769 0.4218178 0.10576214 0.10278796
-0.047098517 0.024255715 -0.05340291 0.5266493 -0.08808922 -0.040598106 -0.25947848 -0.124850444
-0.15759231 0.1042263 0.4119081 0.12007145 0.1420083 -0.25538296 -0.013643505 0.26557982
0.11928079 0.3304474 0.06929943 0.5034027 -0.0051103756 -0.06698124 -0.03907141 0.025996327
0.3166262 -0.026093876 -0.11745543 -0.1727069 -0.16737589 0.089555226 0.15441734 -0.19682693
-0.27309552 0.50449616 -0.28336373 -0.29465133 0.0096921325 0.11807845 -0.072066896 0.0012278861
0.3724553 0.046458364 0.33975294 -0.36492422 0.12075937 -0.2263945 -0.17080536 -0.09789222
-0.011725694 -0.30704007 -0.26610285 -0.2620648 0.13644455 0.10167697 0.2574967 -0.021245893
0.17465614 0.18152234 0.20702744 0.14140858 -0.044550013 0.08637448 0.2997939 0.3173168
0.33760762 0.29936114 -0.085152365 -0.3542505 -0.56770116 -0.07232477 0.056074705 0.090738095
-0.12902427 -0.08117549 0.13586013 0.12448364 -0.19149639 0.081298776 -0.38155448 -0.076044954
-0.29536453 0.2588584 0.449025 -0.12625247 -0.20816664 0.06036098 0.44941092 0.068304636
0.00017624332 -0.7391809 0.1913105 -0.5382109 0.1909352 0.3038617 -0.13346128 -0.24000077
-0.34022343 0.014227683 0.12202724 0.48691207 0.45741507 0.094511814 0.27436975 0.09252639
-0.24555612 -0.29082236 -0.048047677 0.017471673 0.016954675 0.01568943 -0.0154827135 0.07578861
0.30425912 0.09600529 -0.13447756 -0.19455683 0.10415833 -0.20456214 -0.114053816 -0.26999053
-0.04128195 0.078862175 0.35003725 0.010176016 -0.042273797 -0.21910216 -0.39659202 -0.12799816
-0.13452119 -0.29229036 0.44600627 0.2881342 0.110601224 -0.12687513 0.3612416 0.37107086
0.6076825 -0.1819077 0.10906769 0.44958666 -0.24895363 0.1687766 -0.2590858 0.0025755407
0.18349151 -0.42160454 0.46397272 -0.13260178 -0.02104812 -0.0068367817 0.78376704 0.48328415
-0.14766164 0.4856094 0.2691358 -0.2632433 -0.32264015 -0.37135988 0.16743183 -0.24924746
0.18136048 -0.091872275 0.045658197 0.49307382 -0.068732485 0.03966427 0.25324708 0.3070039
-0.25517508 -0.2498239 0.21328628 -0.09763288 0.8675377 0.115015164 -0.107301824 0.3544345
0.9710615 0.9055789 -0.09368626 -0.056987423 0.22957526 -0.1704485 0.5777418 -0.43308243
-0.28932345 0.4896648 -0.121737756 0.3203202 0.21204616 -0.14341637 0.6129363 -0.23653226
-0.177051 -0.039080024 -0.29324654 -0.036871746 0.23112564 0.24433297 0.49046972 0.082158916
-0.09623639 -0.20395172 0.0064368704 -0.076441936 0.7048556 0.33604932 -0.03570814 0.21145028
-0.150213 -0.15882167 -0.2983765 0.53328466 0.8145594 0.3139634 -0.1462149 -0.09714624
0.11863322 -0.09856588 -0.004302936 -0.01918146 0.7400774 0.412074 0.042529162 0.10344353
0.34567845 -0.23630601 -0.27571526 -0.062154785 -0.13101698 0.18062492 -0.13387312 -0.1994923
-0.27510145 -0.12522154 -0.21787733 -0.029230839 -0.25023013 -0.026477683 -0.06241227 0.36669073
0.10318131 -0.14343438 -0.31646854 -0.24120753 0.50131077 0.19915539 -0.118693896 0.3244959

l3.bias f4 [6]
00000000: ac30 1a3e 8fa5 c9be 56ef 26be 5926 b33d
00000010: 962c be3e e1a1 f2bd
0.1505763 -0.39384124 -0.16302237 0.087475486 0.3714339 -0.11847282
