HalfCheetah/HalfCheetah-v4_actor_finalized_03.pth (torch, 520140 bytes, 6 tensors)

l1.weight f4 [400, 17]
000000 ee 47 a8 3d b8 eb 30 bf 5a 8d 83 be 17 d9 3d be
       0.082168445 -0.6910968 -0.2569378 -0.18539844
000010 f5 04 12 3e a7 da 80 3e 58 d7 f3 3c 7e 9c e9 bd
       0.14259703 0.25166818 0.02976577 -0.11406802
000020 79 eb 1f be 63 ad 56 be dc 8f 6d bf 1e 62 6e be
       -0.1561717 -0.2096458 -0.92797637 -0.23279616
000030 48 5a 9a be ff 63 8e 3c 3a 6f a4 be 19 89 48 3e
       -0.30147004 0.017381666 -0.3211611 0.19583549
000040 c0 ba 6a 3e 35 9e 13 c0 e8 f8 2b be 17 61 60 bf
       0.22922802 -2.3065312 -0.16794169 -0.8764815
000050 91 a8 cb 3d 51 c8 be bd 94 6e 15 be 3b d6 87 3d
       0.09944261 -0.09315551 -0.14592963 0.06632658
000060 4c fc 89 3e 9f 3e 1e bd 21 66 93 be 10 b1 ee 3d
       0.269503 -0.03863394 -0.28788856 0.11654866
000070 38 31 d1 3d 62 e9 03 3e 45 29 c2 3c a3 45 67 3e
       0.10214466 0.12881997 0.02370132 0.22585158
000080 88 e7 89 3c 4c e1 62 bb c7 27 26 3f f5 12 cc 3d
       0.016834036 -0.003461915 0.64904445 0.09964553
000090 61 da 1c 3f 3f 6e 27 be 10 0e fe 3e 4c b1 5c bd
       0.6127072 -0.1635065 0.49620104 -0.05388002
0000a0 e3 8a 8a be 22 f3 14 bf ea 1d 0b bf 90 1f ae be
       -0.27059087 -0.5818349 -0.5434252 -0.34008455
0000b0 29 db a6 3e 8a 79 55 be d6 d0 b7 3e 30 71 af 3d
       0.3258908 -0.20847145 0.35901517 0.08566511
0000c0 2d eb 0e be 4d a8 09 3a bf e3 68 3e d2 f5 54 3e
       -0.139569 0.0005251214 0.22743128 0.20796898
0000d0 9e 6f 6d 3c c4 b3 c7 bd c4 93 42 3d 30 4e b3 3e
       0.014491944 -0.097510844 0.0475042 0.3502059
0000e0 a8 bd 95 3e 5e e9 07 3f db 22 37 be c2 1e d3 3d
       0.2924626 0.53090465 -0.1788439 0.10308601
0000f0 53 22 5a bd d9 be 07 3f 7b 25 26 be 70 33 86 3c
       -0.05325539 0.53025585 -0.16225235 0.01638195
000100 92 5f de 3d b8 21 9d 3d 2c cb 6c bd fb 79 98 3e
       0.10858072 0.07672447 -0.057810947 0.29780564
000110 a6 14 2e bf 21 a1 eb 3f 6e 71 21 3c db 55 8e 3d
       -0.68000257 1.8408548 0.009853704 0.069499694
000120 fb a2 2c bd b9 b6 69 3d 33 97 32 3f 1c 3d 01 3e
       -0.042147618 0.057059024 0.6976196 0.12620968
000130 46 a1 b3 bc 9f 6d b6 be 74 83 5b 3e fb 14 7f bc
       -0.021927487 -0.3563051 0.21436864 -0.015568967
000140 92 32 42 b9 4c 27 51 bd 8d 74 ee 3c a4 00 6b 3d
       -0.0001852012 -0.051062867 0.02910831 0.057373658
000150 a0 65 4d bd 97 7a 12 be 17 33 5e 3f 5b c0 28 3f
       -0.050145745 -0.14304577 0.86796707 0.6591851
000160 67 34 20 3f 09 14 91 be cc 20 76 3c 42 3b 1e be
       0.6257996 -0.28335598 0.015022468 -0.15452293
000170 7b 7d cf be 9a 97 4a be 38 b8 1b 3e de 59 25 3e
       -0.40525422 -0.19784394 0.15206993 0.16147563
000180 a8 f5 53 3e 4c ef 8d 3d bb c3 b7 3e d9 3c a6 be
       0.20699179 0.06930408 0.35891518 -0.32468298
000190 6e b4 6e be 06 4d 28 3e 52 2d 2d 3f 68 12 0d 3f
       -0.23311016 0.16435632 0.6764728 0.5510621
0001a0 31 91 84 3e 0e ef 06 bd 75 bd 02 3e 9f f0 14 be
       0.25892022 -0.032942824 0.12767585 -0.14544915
0001b0 d0 d4 92 3d c7 60 52 be 6b 5f 29 bf 8d 46 89 3d
       0.07169497 -0.2054473 -0.6616122 0.067029096
0001c0 46 30 48 3f ce be 71 3d 4e a1 da 3b 8f 6a 48 be
       0.7819866 0.059019856 0.006672061 -0.19571899
0001d0 08 aa 58 3e 51 3d ea 3d 77 02 07 3c 74 e4 54 c0
       0.21158612 0.114374764 0.008240334 -3.3264437
0001e0 79 66 c4 3f ad 59 0b be 3c 33 fb bd 1a f7 46 bd
       1.5343772 -0.13608427 -0.122656316 -0.0485755
0001f0 8c 61 11 3d 28 5b 25 be ec 79 0a 3e 4a ff a6 3e
       0.03549342 -0.16148055 0.13523072 0.32616645
000200 48 46 78 bf 8a ef 9d be 6c 15 6d be c2 74 1e be
       -0.9698224 -0.30846816 -0.23152703 -0.15474227
000210 3e 7b ca bd a2 f4 83 bd f0 e5 97 bd db b9 96 3b
       -0.09886788 -0.064431444 -0.07416904 0.0045997924
000220 73 ca 05 c0 12 6c 45 3f 9a 0a ba be 29 4e b3 3d
       -2.0904815 0.7711803 -0.36336213 0.08755142
000230 9a ab 44 3e a0 42 09 bf c3 12 b6 3c ba 02 9a be
       0.19206086 -0.53617287 0.022225743 -0.30080205
000240 6f 5c 7c bc 4d 40 b8 be 6d 64 8d 3d bf 33 60 be
       -0.015402897 -0.35986558 0.0690392 -0.2189474
000250 d6 f8 48 3e 00 30 45 be 04 7f 40 be b1 54 ba bd
       0.19626173 -0.19256592 -0.18798453 -0.09098185
000260 a2 3e 2b 3e 9a 32 70 40 59 df 13 3e d8 fb 9d 3e
       0.16723111 3.7530885 0.14440669 0.30856204
000270 97 21 dc bd 53 b2 df 3d a0 41 9e be b5 7b d2 bd
       -0.10748594 0.109226845 -0.30909443 -0.102775015
000280 8f 91 a3 bd 66 5a df bd 6d c6 85 be 21 03 45 3e
       -0.079867475 -0.10905914 -0.2612795 0.19239475
000290 25 53 58 be c0 aa 00 be 6c 88 9d bc 0f 95 0d bd
       -0.21125467 -0.12565136 -0.01923009 -0.03456598
0002a0 0b 6b 61 bd 82 b8 b0 bb 3c d5 03 bf 95 d3 11 3f
       -0.055033725 -0.005393089 -0.51497245 0.56963474
0002b0 e1 3b 56 bd 9f fd 04 3f 03 2d 46 be 8a 45 9a 3c
       -0.0523032 0.51949495 -0.19353108 0.018831987
0002c0 47 b1 3f 3d 73 f2 40 3f 05 a8 d4 3d 0b 95 a2 bd
       0.046799924 0.7536995 0.1038361 -0.07938584
0002d0 1e 1b 7c bd 1f 64 47 bd d1 3c e0 3c 6d f5 ff bd
       -0.0615493 -0.048679467 0.02737275 -0.12497983
0002e0 02 da 20 3e c2 c4 34 3e 71 c0 72 bd f4 cf d8 3e
       0.15708163 0.17653182 -0.059265558 0.42346156
0002f0 77 df c7 bf ba 8d 19 be a4 37 ca 3d 6c 62 cd bc
       -1.5615071 -0.1499547 0.09873894 -0.025071345
000300 6e ff e5 bd 9e 8e 85 3d 8a ed 36 3e f8 3d 09 3e
       -0.1123036 0.06521343 0.17864051 0.13402545
000310 f5 04 9c 3e ac 23 30 3e df e9 fe bd e5 64 2c bd
       0.30472532 0.17201108 -0.12446951 -0.042088408
000320 5b d7 c4 bd 58 a9 8f 3d 7e 30 c5 3b 4c 75 94 ba
       -0.09611388 0.07014722 0.0060177436 -0.0011326461
000330 a2 ba 3b c0 3f ef 90 3f 53 ff bf 3e 15 d2 31 3e
       -2.9332662 1.1323012 0.37499484 0.17365296
000340 07 02 1f be f7 a8 56 3d 20 4c 96 3d 85 15 40 3d
       -0.15528117 0.05240723 0.073387384 0.046895523
000350 f9 08 a1 3e 1c 30 63 bf e3 c4 39 3e e3 f2 5f 3e
       0.31452158 -0.88745284 0.18141513 0.21869998
000360 a1 94 01 3e 4b 0f e4 3c f6 0c ae bd 30 3e 43 3d
       0.12654354 0.027839324 -0.08498566 0.04766673
000370 e2 92 f0 3d 85 63 98 bf 5c f2 0a bd 2e 65 2c be
       0.11746766 -1.1905371 -0.03392254 -0.16835472
000380 f6 ad 80 3e 1f 9d 04 3f 33 47 99 bd 09 4a 8f bf
       0.25132722 0.5180225 -0.07484283 -1.1194469
000390 59 22 81 bf f6 85 b9 3e 82 05 23 bf e6 83 c9 3e
       -1.0088607 0.36235017 -0.6368028 0.39358443
0003a0 be 97 2c 3c 4e 55 d6 3d 63 16 0d bd 37 8e 78 be
       0.010534225 0.10465489 -0.034445178 -0.24273
0003b0 97 93 0d be 29 0c a5 3d 85 12 6d bc a9 ce f2 3c
       -0.13825832 0.0805896 -0.014469747 0.029639559
0003c0 b7 9e 44 bf aa 61 95 3e f0 1e 44 3d fc a1 33 3d
       -0.7680468 0.29176074 0.047881067 0.043855652
0003d0 01 55 98 bd ad 45 b4 3e 1a 52 fa bd 9c a6 27 3f
       -0.07438088 0.35209408 -0.12222691 0.654886
0003e0 05 da dc 3e 09 d3 83 3e 5f af 8e 3e f5 7a 92 3e
       0.43135086 0.25746945 0.27868173 0.28609434
0003f0 bf 1e d3 3d c6 d7 01 be 8f 21 db 3d 3e 35 d4 bf
       0.10308599 -0.12679967 0.1069976 -1.6578748

l1.bias f4 [400]
000000 28 bd 15 3f 7e 48 34 be 2d e9 15 3e 2a de 5a 3f
       0.58491755 -0.17605779 0.14639731 0.85495245
000010 8a 55 0b bf 3a 66 8e be 2e ea e0 be 9e 91 1f bf
       -0.544274 -0.27812368 -0.43928665 -0.6233157
000020 3e 4f a6 be 16 73 30 3e 93 ea 5e bf fb 5b 3b 3f
       -0.32482332 0.17231402 -0.8707668 0.73187226
000030 b7 30 0f bf 31 c8 f7 bd 98 49 0f bf 58 32 99 bd
       -0.5593371 -0.1209873 -0.5597167 -0.074803054
000040 30 cd 54 bf 93 06 3d 3e c0 cd a9 3d 57 3a bf 3d
       -0.8312559 0.18459539 0.08291197 0.09337299
000050 19 fe 8a be 60 a6 91 3d b6 80 2d bf eb 7b 49 be
       -0.27146986 0.07111812 -0.6777452 -0.19676177
000060 22 94 ea be 14 6f e9 3c 54 fc 33 bf b6 21 66 3e
       -0.4581614 0.028495349 -0.703069 0.22473797
000070 fe 0b 08 3e 33 e5 2a bf 93 9f 07 3e bb 4f 1d 3d
       0.13285825 -0.6675598 0.13244466 0.038406115
000080 85 23 71 3e 61 d1 0e bf 29 26 30 3d 2f 0e 21 3f
       0.23548706 -0.55788237 0.043005142 0.6291227
000090 c2 f4 56 be f9 e7 9d 3e 17 ef a7 3e d9 3c 04 bf
       -0.20991805 0.30841044 0.327996 -0.51655346
0000a0 6c e2 72 be 1d b6 7b 3f dc 9f 52 3e fe 71 98 be
       -0.23719186 0.9832476 0.20568794 -0.2977447
0000b0 6a c8 b3 be bb 47 d8 3e 13 b2 ad be 2c 53 c8 bd
       -0.3511384 0.42242226 -0.33924922 -0.09781489
0000c0 65 f5 70 3e 1e 75 18 bf 37 81 18 bf 70 e7 f8 ba
       0.2353111 -0.59553707 -0.59572166 -0.0018989872
0000d0 50 85 e9 bc 5c 59 9c be d2 26 b8 3c 4a 4b 0f bf
       -0.028505951 -0.30536926 0.022479448 -0.55974257
0000e0 5f ad 93 3e db b1 6b be ba 0a 3f bc e4 e6 8a be
       0.2884321 -0.23017065 -0.011660272 -0.2712928
0000f0 af 87 6e bd b6 9b c3 be eb 9e 13 3f 3c 15 ba be
       -0.058234867 -0.38204736 0.57664365 -0.36344326
000100 ea 4c 03 3e 4f 31 03 be 2b e3 0a be 4d 57 62 bf
       0.12822309 -0.12811778 -0.1356322 -0.8841446
000110 31 cc 34 bf de 70 d7 be aa 2e 18 3e fb 9e 85 be
       -0.7062407 -0.42078298 0.14861551 -0.26097855
000120 27 86 1c 3f 00 ce ca be 8c c4 0c bf 20 56 0e bf
       0.611422 -0.3961029 -0.54987407 -0.55600166
000130 d0 04 31 bd d4 f5 0b bf 0e 49 c3 be 89 51 da 3e
       -0.04321748 -0.5467198 -0.38141674 0.4264033
000140 e5 af b6 3e a7 4f 84 bf b6 69 30 3f aa e3 9e 3d
       0.35681072 -1.0336808 0.689113 0.07758267
000150 a2 0a 98 bc 5d aa a7 bd ce 82 30 bd 0c 09 fc 3e
       -0.018559758 -0.08186791 -0.043093495 0.49225652
000160 ed 9d 99 3d 39 a5 2b 3f 77 6c f3 be 7a bd 14 3f
       0.07500825 0.67048985 -0.4754369 0.5810162
000170 83 0d f5 bd b6 2c c6 be 95 0a 78 be 6a 12 00 3f
       -0.11965468 -0.38705987 -0.24222787 0.500281
000180 53 66 35 bf 0a 1c f1 be 41 89 ed 3d 91 95 a5 be
       -0.7085926 -0.47091705 0.11598445 -0.32340673
000190 91 30 3e bf d8 12 9f bd b3 98 6c 3d 97 fc 51 3e
       -0.74292856 -0.07767266 0.057762813 0.20506512
0001a0 41 96 b7 bd 7f 6f b9 be 2f 3b 4c bd 88 cd 40 bf
       -0.089642055 -0.36217877 -0.04986113 -0.75313616
0001b0 86 14 06 bf 89 6e 92 3e 55 e3 e3 3c 4c 32 59 be
       -0.52375066 0.28599957 0.027818361 -0.21210593
0001c0 44 d4 ca be 35 10 db 3e 30 c6 3e 3f c9 bf f7 be
       -0.3961507 0.42785802 0.7452116 -0.48388508
0001d0 ac cf 1d be e6 e1 ce 3d 95 34 77 be ca ca 1f bf
       -0.15411252 0.101016805 -0.24141152 -0.62418807
0001e0 b0 96 0d 3f ea 8e 32 3f 64 9e 0d 3f ad 5e 37 3d
       0.55308056 0.6974932 0.5531981 0.044768024
0001f0 8b 5c bd 3e 71 04 1f bf 12 7a d7 3e f4 5b 44 3e
       0.36984667 -0.6211615 0.4208532 0.19175702
000200 c6 e8 5e 3f cb 52 fd 3e 79 3a 47 3d 93 16 19 3f
       0.87073934 0.4947723 0.04863975 0.5980007
000210 2f 8e 8e 3e c0 69 59 3e 13 03 2c 3f 1e 54 33 3f
       0.27842852 0.21231747 0.6719219 0.7005023
000220 9c cd 45 bd 03 a3 0c 3e 50 46 ba be 16 e3 a2 3e
       -0.048291788 0.13734059 -0.3638177 0.31813878
000230 72 02 b9 3e a9 aa 92 be 26 a2 42 3f 0f 46 81 be
       0.36134678 -0.28645828 0.7602867 -0.25248763
000240 ce 3c b1 be b4 b7 1f be 31 cf f1 bc e6 aa 8c bd
       -0.34616703 -0.15597421 -0.029517742 -0.06868534
000250 8e 36 27 3f e2 95 4b 3d 09 7f 34 be e6 f7 8e bd
       0.6531762 0.049703486 -0.17626585 -0.069808766
000260 d4 b4 1b be 24 37 5a be 0a 29 e5 3c 15 29 1f 3f
       -0.15205699 -0.21310097 0.02797367 0.6217206
000270 be ab 2d 3d 56 cd 34 bf 11 0c 93 be 01 01 20 bd
       0.042400114 -0.7062582 -0.28720143 -0.039063457
000280 25 1d 6f 3e 3b 48 d1 3e df 50 07 3e e0 73 18 3e
       0.23350962 0.4087542 0.13214444 0.14887953
000290 93 7c 4a be 18 74 5a bc 14 dd 5f 3e fd 7f eb 3e
       -0.19774084 -0.013333343 0.21861678 0.45996085
0002a0 2a 4f 95 bd 38 51 ea bd 45 9b 48 3f a3 d1 39 bf
       -0.0729049 -0.114412725 0.7836192 -0.72585505
0002b0 af a0 55 bf 48 98 44 be b9 0f ca be 4a c6 df be
       -0.8344831 -0.19198716 -0.3946512 -0.4370597
0002c0 f9 56 82 3e 6b 72 e9 3e a8 55 04 be 53 6d 98 be
       0.2545698 0.45595106 -0.129233 -0.29770908
0002d0 bc 22 22 be 00 7b ce 3e e0 4d 9f 3d bf 26 5d bf
       -0.15833563 0.40328217 0.07778525 -0.86387247
0002e0 6b e1 39 bf 17 84 bd be 23 09 52 be 70 8b b6 3d
       -0.72609586 -0.3701484 -0.20511298 0.08913314
0002f0 78 29 31 3f e9 60 16 bf e0 ac b8 3d 42 f4 81 be
       0.692039 -0.58741623 0.09017348 -0.25381666
000300 82 a0 c6 3e 70 c5 27 3f aa c9 16 bf 06 7b ee be
       0.38794333 0.6553564 -0.58901465 -0.46578234
000310 03 74 26 bf 61 15 f2 3b f7 e3 50 3f 75 5d 7e be
       -0.6502077 0.0073878025 0.81597847 -0.24840339
000320 2f 6d a3 3d f6 93 a8 be 07 93 28 be 91 72 0f bf
       0.079798095 -0.32925385 -0.16462336 -0.5603419
000330 b0 1e f3 3e d1 00 7b be 82 05 09 bf be 0a 10 be
       0.4748435 -0.2451203 -0.5352403 -0.14066598
000340 8c ee 8e bd 51 a8 15 3f 33 e3 91 be a5 7d 90 be
       -0.06979093 0.58459955 -0.28493652 -0.2822086
000350 59 90 44 bd e1 c9 6d bd 6d db 6f 3e 7c a7 e2 3e
       -0.047989223 -0.058053855 0.23423548 0.44268405
000360 51 e5 ad 3e 1f 3a 1f bf a2 00 ee 3e c6 89 64 3e
       0.33964017 -0.6219806 0.46484858 0.22318181
000370 8a d0 41 3e 97 b5 f4 bd 70 10 07 be be 42 e9 be
       0.18927208 -0.11948698 -0.13189864 -0.45558733
000380 de 36 19 3f ed fd 2a bf 9c 6b e5 3d 71 da 21 3e
       0.59849346 -0.6679371 0.112021655 0.15805985
000390 f3 7d 65 3e db 7c 3f 3e 0a 0c 29 3f 14 62 90 be
       0.22411327 0.18699972 0.66033995 -0.28199828
0003a0 73 e1 26 3e a2 83 bf 3c e0 f5 92 be 3c 2e bb be
       0.1629694 0.023378197 -0.28703213 -0.36558712
0003b0 65 2b 01 bf c9 98 f2 be de 5b 09 3f 4b ad 20 3f
       -0.5045684 -0.4738219 0.53655803 0.62764424
0003c0 85 bf fb be bc 9f 46 3e c4 ef 22 be 86 51 4d 3f
       -0.49169555 0.19396871 -0.15911776 0.8020252
0003d0 91 f7 4b bf e6 10 e4 3e 7f 2b f1 be 22 8a ca be
       -0.7967463 0.44544142 -0.47103497 -0.39558512
0003e0 fd de 0a 3f 6f 93 ba 3e a7 1e 12 3e bb 19 94 be
       0.54246503 0.36440608 0.14269505 -0.2892588
0003f0 a3 f2 29 3d aa 32 13 be 19 54 dd be 4c 05 bb 3d
       0.041491162 -0.14374796 -0.43228224 0.0913187

l2.weight f4 [300, 400]
000000 24 e7 48 3e fe fe 25 3d be 30 19 be 34 b2 d5 be
       0.19619423 0.040526383 -0.1496 -0.4173752
000010 c5 cd ae bb 29 5e f6 ba 81 9f 88 3d 5e 72 3e 3e
       -0.0053345882 -0.0018796372 0.06671048 0.18598315
000020 32 d4 3b bd 70 f8 45 3c 0e b5 8c 3d e9 d1 4a be
       -0.045856662 0.012083158 0.06870471 -0.19806637
000030 1d 70 ae 3d 23 a1 3b bd 19 9d 81 bd 87 b2 8a 3d
       0.08517478 -0.04580797 -0.06328792 0.06772333
000040 00 5e a1 3d f0 fc 94 3d c7 bf b4 bd b0 d8 a8 be
       0.07879257 0.072748065 -0.08825641 -0.3297782
000050 1d db 37 3e 37 1b d7 bd 68 9c d5 3d 6e 8e 9d bd
       0.17954679 -0.10503238 0.10430223 -0.07693182
000060 c7 b9 29 be 6d 0b 14 be bd 97 fd bd 8c 84 41 3c
       -0.16574775 -0.14457484 -0.123824574 0.011811387
000070 60 df 53 be ac 07 cd 3d 62 25 90 bd f9 2f 04 be
       -0.2069068 0.10011229 -0.0703838 -0.12908925
000080 cc 33 61 3d 12 0b 50 3e 1d ac 4b be e5 fd 1c be
       0.054981038 0.20316723 -0.19889875 -0.15331228
000090 87 9a 70 3d 69 7f 72 be 64 91 2f bd 9a b0 42 3e
       0.05874112 -0.23681416 -0.042863265 0.1901268
0000a0 ec 15 b4 bc 13 b5 21 3d 87 38 a6 bc ab 8c 1c 3e
       -0.02198311 0.039479326 -0.020290626 0.15288036
0000b0 98 3e 93 3d fa 11 a8 be 5f 43 b2 be 46 55 cc 3d
       0.07189673 -0.32826215 -0.34817025 0.09977202
0000c0 58 91 9d bd 79 c9 41 3c 4f 1c de bd 05 5e 39 be
       -0.07693738 0.01182782 -0.10845243 -0.18102272
0000d0 09 fc c7 be 7f 9a 2b 3d 28 63 ae bd 5b 61 77 bb
       -0.39059475 0.041895386 -0.08515006 -0.0037747237
0000e0 1e c7 af bd eb 09 11 be c9 bf 98 3c f6 25 4b 3e
       -0.085829005 -0.1416394 0.018646138 0.198387
0000f0 dd 71 56 bd e5 a1 4d 3e c4 fd 9b be 00 47 b5 bd
       -0.052354682 0.20081289 -0.30467045 -0.08851433
000100 e4 2a 85 3e 47 c5 24 be ee ed 40 3e a3 04 8d 3d
       0.26009285 -0.1609088 0.18840763 0.0688565
000110 bb b1 06 3e 99 96 30 be f1 2e f8 bd 63 a2 e9 3d
       0.13153736 -0.17244948 -0.12118328 0.11407926
000120 c3 e8 ad be e4 11 89 be fa 25 9b 3d 6e 71 1a 3b
       -0.33966646 -0.26771462 0.07575603 0.0023566145
000130 76 98 bf bd da 56 8e 3d 00 05 0c 3d f3 b9 a6 be
       -0.093552515 0.06950159 0.034184456 -0.32563743
000140 9b a1 4e be b2 f9 90 bd e1 24 34 be c7 eb a3 be
       -0.20178835 -0.070788756 -0.17592193 -0.3201582
000150 f0 04 15 bd ce 80 78 3c 83 06 86 bd 66 3f 4f be
       -0.036381662 0.015167428 -0.06544211 -0.20239028
000160 1f 3e 23 be ad c4 80 bd ce c9 65 bd b5 46 01 bd
       -0.15941666 -0.06287513 -0.05610066 -0.031561572
000170 c5 3b aa bd 49 7d 91 be 0d eb 88 be 3c fd a4 be
       -0.083121814 -0.28415897 -0.2674183 -0.32224452
000180 62 f7 27 3e 23 8c 60 bd 8f bf 9b be c2 05 79 be
       0.16402963 -0.054821145 -0.30419585 -0.24318603
000190 d7 aa 82 3d a3 34 ad bd d8 5e c7 bc 37 26 d5 bd
       0.06380241 -0.08457305 -0.024337217 -0.104076795
0001a0 ae e3 3d be 71 d8 a1 bc e2 76 60 bd e9 f5 40 be
       -0.18543884 -0.019756528 -0.054800875 -0.18843807
0001b0 5a 52 75 3d 77 5e e9 bd 6c 88 0a be e1 b1 64 be
       0.05989299 -0.11394971 -0.13528603 -0.2233348
0001c0 5c 8c 04 3e 68 ad ca bd 71 19 93 bd a6 44 0c 3c
       0.12944168 -0.09896356 -0.07182587 0.008561289
0001d0 e4 59 77 3d 0a 3c a2 bd c6 81 37 3d e8 01 5b 3e
       0.06038846 -0.07921608 0.044801496 0.21387446
0001e0 b5 86 0d be 23 9f a2 be bd 5d 75 be fd 0f e8 bd
       -0.13820918 -0.31762037 -0.2396154 -0.113311745
0001f0 b0 b2 50 3d 60 f8 cc bd e3 c9 87 bd 88 99 a0 be
       0.05095166 -0.10008311 -0.06630304 -0.31367135
000200 6e 50 95 be 85 1f f8 bd 1d 91 20 bd 82 2e 63 bd
       -0.29162925 -0.12115387 -0.03920089 -0.055464275
000210 1a b0 e8 bb 20 2c 09 3c b0 ee be 3c 87 a4 3c be
       -0.007101071 0.008372337 0.023307174 -0.18422137
000220 b0 7a 88 bd 3d 82 25 bd 42 f2 1f 3e 4c 99 44 bd
       -0.06664026 -0.040407408 0.15619758 -0.047997758
000230 c8 81 11 3e 1a 0a cc be 3b 4c 9a 3c 7f a6 5e 3d
       0.14209664 -0.39851457 0.018835178 0.054358
000240 01 3b 94 bd 56 19 2f bd 2b 91 75 3d 08 1a 04 be
       -0.072378166 -0.04274877 0.059952896 -0.12900555
000250 19 15 a7 3d 8e 58 01 be 03 31 52 3d 82 b4 21 3e
       0.08158321 -0.12631437 0.051316272 0.15791515
000260 f0 15 00 be 96 a6 bd be c2 38 94 3d c3 a3 a9 bd
       -0.12508368 -0.37041157 0.07237388 -0.08283188
000270 d4 ac 3b bd 9b 54 22 bd 7f 2d 0f 3e 1c f1 08 bd
       -0.04581912 -0.039631467 0.13982199 -0.033433065
000280 94 6a 8d bd df cf 7f 3d 02 7d 65 bc 8f 04 e0 3d
       -0.06905094 0.0624541 -0.014006855 0.109383695
000290 df de 8d 3d f5 d9 c8 3d bf 0b ee bd 66 d4 8f 3c
       0.06927275 0.09807197 -0.11623334 0.017557334
0002a0 23 b2 12 be 08 45 7b be 7d 82 4e be 32 bd 93 3d
       -0.14325766 -0.24538052 -0.20166965 0.072138205
0002b0 8a 37 83 bd f6 32 e6 3d 0d 1e e2 3d 60 0d 12 bd
       -0.064070776 0.11240189 0.11040888 -0.035657287
0002c0 35 27 04 be 9e 70 8a bd e4 25 d6 bc 92 40 b5 3d
       -0.12905581 -0.06759761 -0.026141115 0.088502064
0002d0 40 5a 8d 3c 13 89 ee bb 34 17 95 bd 91 7b de 3d
       0.017254949 -0.007279524 -0.07279816 0.10863412
0002e0 39 6c 3f 3d e0 63 44 3e 72 6b 24 3e d0 f5 22 3c
       0.04673407 0.19178724 0.16056612 0.009946302
0002f0 8d 7c d0 be 0a ab 98 bd f5 e9 02 be 60 30 ed bd
       -0.40720025 -0.07454498 -0.1278456 -0.115814924
000300 60 9d 95 be 55 1c 84 be 1d f0 f6 3d 2e 2a 97 3d
       -0.2922163 -0.25802866 0.12057517 0.07381092
000310 b3 0b e8 3d 82 a5 90 3d 71 e0 45 be e1 d9 91 be
       0.113303564 0.07062818 -0.19323899 -0.2848654
000320 bb 9b eb bd 12 ff ac 3d a9 aa 12 bd 09 86 9d bc
       -0.115043126 0.08447088 -0.035807285 -0.019228952
000330 b0 8b 04 bd 82 15 88 3d e2 88 8d bd 8c ba 50 3e
       -0.03235978 0.06644727 -0.06910874 0.20383662
000340 9c c6 c3 bc e9 52 c5 bd 4b 78 a2 3e 30 71 63 3e
       -0.023898415 -0.096349545 0.317324 0.22211146
000350 cf a7 b2 3d ad ea 75 3e e3 94 d9 bd 28 e6 41 3d
       0.08723413 0.24015303 -0.10624101 0.047338635
000360 88 e8 a3 bd d3 1e 04 3d a1 56 20 be 9f cf f3 bd
       -0.08003336 0.03225596 -0.15658046 -0.11904835
000370 43 6b 08 be 4d b5 c4 bd 96 0e 64 bd b7 c0 0d be
       -0.13322167 -0.09604893 -0.055677973 -0.13843046
000380 57 57 fd bc 9f 74 11 3d 48 6a b6 be 90 42 12 be
       -0.030925436 0.03551161 -0.3562796 -0.14283204
000390 b1 1e 03 be 1c 74 77 3d 7e 23 d3 be f8 32 4e bc
       -0.12804677 0.060413465 -0.41238016 -0.012585394
0003a0 23 6a 33 3b 9b 4a cb 3d b1 4f b1 3b a1 8e 82 3d
       0.0027376495 0.09926339 0.0054111113 0.063748606
0003b0 09 46 2b 3b ba 79 eb 3c dc 7f 1a be dc b1 25 be
       0.0026134274 0.028744567 -0.15087837 -0.16181129
0003c0 c0 4a b9 bc be 17 81 bd 81 88 4e 3d 6a b7 56 be
       -0.022618651 -0.063033566 0.05042315 -0.20968404
0003d0 b0 36 19 3e 70 0f 5c 3e c5 9a e6 3b 98 42 14 3d
       0.14962268 0.21490264 0.007037493 0.03619632
0003e0 53 bf 87 be 9f c1 ac bd 75 d5 23 bd 3c ab 2d be
       -0.26513156 -0.08435368 -0.03999849 -0.16959852
0003f0 01 87 d1 3c 7e a0 2e 3e 32 4f 3f 3d ec 2e af 3d
       0.02557707 0.1705341 0.046706386 0.085538715

l2.bias f4 [300]
000000 e9 8d 08 bf cd cb c3 be 3a a2 9b be 65 61 d1 be
       -0.5334154 -0.38241425 -0.30397207 -0.4089462
000010 78 5d 2c be 29 9d 3a be f4 48 36 3e 96 6f 9f 3e
       -0.1683253 -0.18224014 0.17801267 0.3113982
000020 3c fe 8b 3a 0a fe b9 bd c5 0e 00 3d b5 96 09 3f
       0.0010680626 -0.09081657 0.031264085 0.53745586
000030 e9 f8 6a be 01 6e 7a be 3e 0b 69 be fb ce 8f 3e
       -0.22946514 -0.24456026 -0.22758195 0.280876
000040 0e 7e 21 3e a6 ca 22 3e 56 d4 ac 3c ae c4 87 bd
       0.15770742 0.15897617 0.021097343 -0.066293105
000050 bb 33 b3 3e b1 69 54 be 4e 97 92 3e d7 88 1d be
       0.35000405 -0.20743443 0.2863106 -0.15384232
000060 99 2c 7f be 2e 26 aa 3e f5 3c 71 3c f3 23 0c 3c
       -0.24919356 0.33232254 0.014724006 0.008553493
000070 bd 56 5c bd 91 87 89 3e d7 93 21 3e 3f cc 5a bd
       -0.053793658 0.2686124 0.15779053 -0.05341744
000080 95 91 f7 3d be 10 62 bc f4 52 d0 3c ca ba 6c 3e
       0.120883144 -0.013797937 0.02543018 0.2311813
000090 d0 2b f0 3a 6c 00 e5 3e 4f 5f 93 3d 3c b2 88 bd
       0.0018323604 0.44726884 0.07195913 -0.066746205
0000a0 95 b3 6b be 66 d9 71 3e 05 73 67 bd 79 0a 82 3e
       -0.23017724 0.23618087 -0.056506176 0.25398615
0000b0 4b d1 92 3d fd e2 a6 be 4d dd 59 be 5d 4b 4c 3e
       0.07168826 -0.32595053 -0.21275826 0.19950624
0000c0 c1 10 7b bd 63 ff 91 be fb b4 c1 3d 14 15 e8 3d
       -0.061295275 -0.28515157 0.094583474 0.11332145
0000d0 19 91 98 bd 16 e1 18 bf 3d 79 3c be ac 04 0d 3f
       -0.0744955 -0.59718454 -0.18405624 0.55085254
0000e0 24 e2 13 3e ff e2 69 be 92 c0 31 bd 63 a9 15 be
       0.14441735 -0.22840498 -0.04339654 -0.14615397
0000f0 79 ed af 3d 6d 1f dd 3d 34 c2 7b 3e d2 65 60 3b
       0.08590216 0.107970096 0.24585801 0.0034240377
000100 32 5c 6e be a4 a1 f8 bd c9 d7 b2 3e 2a 37 58 bd
       -0.23277357 -0.121402055 0.34930256 -0.052786984
000110 d4 2a 9d bd 78 d3 57 3e 0c 9e c9 3d 52 38 0c bd
       -0.076741844 0.21076763 0.09844598 -0.0342334
000120 50 ab dc 3e 3a f1 cd bd 62 fe 8d be a2 9e 4f 3d
       0.4309945 -0.10055776 -0.2773314 0.050688393
000130 4e 2e 30 be d0 a4 2a 3e 83 2f bf bc 15 ed 0b be
       -0.17205164 0.16664433 -0.023338085 -0.13664658
000140 c0 a7 ad bd 4b e5 1b be 74 86 88 be e3 6b 9a 3d
       -0.084792614 -0.15224187 -0.2666508 0.07540109
000150 32 6f 8c bc 1e c1 89 bd 40 41 aa 3d 8b 34 c9 bd
       -0.017142866 -0.06726287 0.08313227 -0.09824475
000160 ac d2 9d be ea bf ad 3d b8 28 11 3e ab f5 35 be
       -0.30824792 0.0848387 0.14175689 -0.17769496
000170 2b c4 9b 3a ee 04 f9 3c b0 56 2a 3e 34 f7 7a be
       0.0011884024 0.030397858 0.16634631 -0.24508363
000180 7c d3 fa bd e1 d2 ce bc f0 44 0c 3e ee 8d 14 3d
       -0.12247369 -0.02524704 0.13698173 0.036268167
000190 b1 ff 9b be 7e f7 6f 3e 8c d3 a3 3d af 48 4f be
       -0.30468515 0.23434255 0.07999334 -0.2024257
0001a0 27 71 0f 3e 46 50 04 3e 25 b2 a5 be 9f f7 30 3f
       0.14008008 0.12921247 -0.32362476 0.6912784
0001b0 f6 4b c0 bd 62 d8 dc 3c 9c fd 0a 3e 25 d5 85 3e
       -0.093894884 0.026958648 0.13573307 0.2613918
0001c0 50 32 16 be 49 b4 96 be 95 cd 88 3e 65 4b 89 bd
       -0.1466763 -0.29434422 0.26719347 -0.067038335
0001d0 f5 ea 66 3d 85 e0 9f 3b 27 c7 02 3e 58 73 4c bd
       0.056376416 0.0048790597 0.12771283 -0.049914688
0001e0 7b 32 61 3e 76 8c 26 be 55 af ba bd 7f 81 06 be
       0.21991913 -0.16264519 -0.09115473 -0.13135336
0001f0 ea 3e f0 bd 67 c0 41 be 42 ff 10 bf 7b 2a fc be
       -0.1173075 -0.18921052 -0.5663949 -0.4925116
000200 5d 75 9e 3d be f6 39 be 65 12 cb 3d 0d e7 fc bd
       0.07737229 -0.18160531 0.09915618 -0.12348757
000210 e0 cc 9f bc d7 5f 90 3e a8 df a1 be f2 f2 8f 3d
       -0.019506872 0.2819812 -0.3161595 0.0702876
000220 f1 de 04 3e 74 9e d0 be ef bb e6 3d c1 d3 c8 3e
       0.1297567 -0.4074589 0.11266314 0.39224055
000230 a5 c0 36 3e bc d6 44 be 14 87 76 be 0c 84 65 be
       0.17846926 -0.1922254 -0.24074966 -0.22413653
000240 79 ed dd bd 2e 54 fa bb 01 46 4a 3d dd 34 67 3d
       -0.1083631 -0.0076394295 0.049383167 0.0564469
000250 41 87 fc be 34 02 04 be 8b 53 35 3e c9 c9 91 be
       -0.4932194 -0.12891465 0.1770765 -0.28474262
000260 3e 7e 14 bd 69 2b eb be f0 3b a0 3e 49 f7 a2 be
       -0.036253206 -0.45931557 0.3129573 -0.3182929
000270 15 a7 19 3d e4 89 d4 3c 12 f6 9f bd a0 93 1b bd
       0.037512857 0.025944658 -0.07810606 -0.037982583
000280 bb 17 10 be 51 74 f2 bc 97 67 a8 bd 92 eb 9b be
       -0.14071552 -0.02959648 -0.08222883 -0.30453163
000290 e3 5a db 3d bd 47 1a be 43 5e 8d 3d 53 a7 b1 3e
       0.10710695 -0.15066428 0.069027446 0.3469797
0002a0 86 6f d3 bc 43 ff e7 3e 5d 70 10 be 15 d0 17 3e
       -0.025810014 0.45311937 -0.14105363 0.14825471
0002b0 62 a1 35 be a7 f4 60 be 4c 1c c3 be 65 f6 52 bd
       -0.17737344 -0.21968327 -0.38107526 -0.05150451
0002c0 58 cb 09 be c5 c4 6f be d0 6d e7 3e 7a e9 81 3e
       -0.13456476 -0.23414905 0.45200968 0.2537344
0002d0 47 93 89 3e 43 42 94 3d 13 7e 5f bd cc 36 7d bd
       0.26870176 0.07239201 -0.054563593 -0.061819836
0002e0 16 3b 6d 3e 23 dd f4 3c 88 ea 6d bd 4b aa 32 be
       0.23167071 0.029890602 -0.058084995 -0.17447774
0002f0 99 74 3b 3e 1a ba e2 be 55 e2 33 3e d1 7b 57 bd
       0.18306197 -0.4428261 0.17566808 -0.052608315
000300 e1 87 77 be 6c 53 0c 3f 54 8c 28 3a 24 56 b8 3e
       -0.24172927 0.5481479 0.0006429602 0.3600322
000310 67 b2 1c 3e 43 3f 57 be 44 62 47 3e ce 9c 8e 3d
       0.1530243 -0.21020226 0.19471079 0.06963502
000320 7a c5 cc bd e3 f7 6d 3e 82 66 97 bd e8 f2 45 3c
       -0.09998603 0.23239093 -0.07392599 0.012081839
000330 79 3d 02 3e b3 a8 1e bc fc dc 35 be c6 f9 61 bd
       0.12718762 -0.009683776 -0.1776008 -0.055169843
000340 f0 a5 69 be 38 e0 ab 3d 70 fd f8 3e b8 eb c1 be
       -0.22817206 0.08392376 0.48630857 -0.37875152
000350 21 e9 e2 3e 43 6e 93 bd 4c ca 02 bd 97 99 f4 3d
       0.44318488 -0.07198765 -0.031931207 0.119433574
000360 1d 4f 80 be 60 2e 6e 3c 78 44 ad be 43 b8 6d 3e
       -0.2506036 0.014537424 -0.338413 0.23214822
000370 f5 55 cb 3e c7 76 56 3d 4c fb 49 be 89 21 81 bc
       0.39714018 0.05235937 -0.19724768 -0.015763061
000380 be d4 82 3e bd a9 ca bc ea a6 22 3e 10 29 91 bd
       0.25552934 -0.02473914 0.15883985 -0.0708791
000390 d6 44 d0 be 75 61 0f be b0 a5 67 be 7e 7a 00 3f
       -0.40677518 -0.1400202 -0.22621799 0.5018691
0003a0 05 e5 02 3e c6 bf b9 3b 7a 96 f5 bc a6 8e f1 bd
       0.12782677 0.005668613 -0.02997898 -0.11794786
0003b0 da f9 90 3d 46 ce d3 bd 9d 55 b3 3d aa 6a 08 be
       0.070789054 -0.10342078 0.08756564 -0.13321939
0003c0 b9 74 0f bf e5 47 ee bb d7 63 08 be 6f 98 9a 3b
       -0.5603748 -0.007271754 -0.13319336 0.0047178785
0003d0 22 da 90 bc b6 79 15 bd c6 0f d6 be 62 70 46 3e
       -0.017682139 -0.036493026 -0.4180891 0.19378808
0003e0 e0 f3 03 be 6a 5b 4f 3b 7d 20 e7 bd a3 4c 20 be
       -0.12886 0.003164018 -0.112854935 -0.15654235
0003f0 62 e8 2d bd cd 3c 01 bd 1f e2 fb bb 97 41 45 3e
       -0.042457946 -0.031552125 -0.007686868 0.19263302

l3.weight f4 [6, 300]
000000 e5 f2 be be 5e af 8e be bc e5 29 3e 2c 9c 5b be
       -0.3729469 -0.2786817 0.16591543 -0.21446294
000010 03 45 d8 bd ae 06 b7 3e ab fb 49 3d 7d 99 43 3d
       -0.10560038 0.35747284 0.049312275 0.0477538
000020 60 ea 40 bd 04 15 5a 3d 02 bd 5a bd a5 e7 0c 3f
       -0.047098517 0.0532427 -0.05340291 0.5504096
000030 19 6d 70 bb f5 89 0f be b9 27 87 be 75 c4 d1 bd
       -0.003668612 -0.1401747 -0.26397493 -0.10242549
000040 99 5d 0a be 73 0f 17 3e 9e 59 bf 3e 15 11 5c 3e
       -0.13512267 0.14751987 0.3737306 0.21490891
000050 5b 96 51 3e 0b ca 33 be 52 f1 57 3d 72 d6 92 3e
       0.20467512 -0.17557542 0.052720375 0.28679234
000060 1e 21 25 3e 89 a1 9e 3e fb 1e 31 bd d9 43 14 3f
       0.16125914 0.30982617 -0.043242436 0.5791603
000070 f0 74 a7 bb 93 27 15 3c 00 d2 36 3d 40 f6 d4 3c
       -0.0051103756 0.0091036735 0.044633865 0.025996327
000080 86 ee 9e 3e d3 c2 d5 bc 88 7e b5 bd 12 15 06 be
       0.31041354 -0.026093876 -0.088620245 -0.13093975
000090 07 50 cb bc 79 5a 0f 3e 66 8f fb 3d 07 0e 2b be
       -0.024818433 0.13999356 0.122832105 -0.1670457
0000a0 3c 58 40 be 3e af d5 3e 0d 15 91 be 62 51 81 be
       -0.18783659 0.41735262 -0.28336373 -0.25257403
0000b0 44 2e 1f 3d 04 31 3d 3d 25 c9 d2 bd 48 c9 a3 3b
       0.03886248 0.046189323 -0.102922715 0.00499836
0000c0 65 21 c5 3e 0f 96 33 3d 19 8b 73 3e 1e c4 8e be
       0.3850204 0.04384428 0.2378353 -0.27884
0000d0 58 74 2e 3e e4 1f 32 be 61 c4 65 be bc 4f b2 bd
       0.17036569 -0.17394978 -0.22438194 -0.087066144
0000e0 43 41 e8 ba 8a 32 40 be 0b 46 08 bd 17 09 3e be
       -0.0017719645 -0.18769279 -0.033269923 -0.18558155
0000f0 b4 c7 27 3e 71 67 ee 3d 53 1a bf 3e de 0b ae bc
       0.16384774 0.11640824 0.3732477 -0.021245893
000100 87 46 8f 3e 9f e2 3c 3e 16 c6 8e 3e 72 4e 55 3e
       0.27983496 0.18445824 0.27885503 0.20830706
000110 50 b2 96 bc 9c 8e a7 3e fc db 8e 3e 90 09 8f 3e
       -0.018395573 0.3272599 0.2790221 0.27936983
000120 3b c0 ba 3e fc e9 bb 3e 10 6c de bc 7f 8a b7 be
       0.36474785 0.36701953 -0.027151138 -0.35847852
000130 76 cd da be 01 c7 10 3d 97 ae 65 3d 6a 2c 20 3e
       -0.4273488 0.035346035 0.056074705 0.15641943
000140 1a 50 08 be 5e 06 c3 bd b8 32 db 3d c5 58 88 3d
       -0.13311806 -0.09522699 0.10703033 0.066575564
000150 86 f6 17 be ec 32 df 3d d3 8a 68 be 28 57 f8 bc
       -0.14840135 0.108983845 -0.22709207 -0.030314997
000160 eb fd 8d be 26 c9 39 3e 82 97 8e 3e 48 0b 3e be
       -0.27732787 0.18143138 0.27849966 -0.18558991
000170 db 69 23 bd d3 26 7d 3d 58 0d 02 3f 85 db 88 bd
       -0.039895874 0.061804604 0.5080161 -0.06682495
000180 d4 36 d1 3c fa 22 11 bf 1f ee 6b 3e 3c 63 f3 be
       0.02553884 -0.56693995 0.23040055 -0.47536647
000190 a5 7e 6f 3e b0 ac 97 3e 2b 4f fd bd 90 fa 86 be
       0.23388155 0.29623938 -0.12368616 -0.2636304
0001a0 8e 09 aa be f3 46 84 3d 36 00 0f 3e bc e8 04 3f
       -0.33210415 0.06458845 0.13964924 0.51917624
0001b0 93 e1 06 3f 4f 7e bb 3c 38 71 b0 3e b3 39 9e 3b
       0.5268795 0.022887377 0.3446138 0.0048286556
0001c0 6b 62 8a be c9 1a 48 be c2 d2 17 3d 2c 4a 7c 3d
       -0.27028212 -0.19541468 0.03706623 0.061594173
0001d0 f0 37 87 3d 1f 87 80 3c 8b a4 fa bb 89 bd 97 3d
       0.06602466 0.01568943 -0.0076490096 0.07409198
0001e0 95 5b 22 3e af 73 e5 3d 0d 9f ac bd 19 0b 24 be
       0.15855248 0.112037055 -0.08428774 -0.16019858
0001f0 21 86 ed 3d 52 ba 79 be 37 a3 59 be 55 b6 6e be
       0.11597849 -0.24387482 -0.21253668 -0.23311742
000200 c9 11 6c 3c a7 b4 97 3d fa 53 c0 3e e2 f0 bf 3b
       0.014408537 0.074075036 0.3756407 0.005857573
000210 4a 27 2d bd 17 b0 52 be d7 8b ad be 47 e5 f4 bc
       -0.042273797 -0.20574985 -0.33895752 -0.029894484
000220 dd 2f be bd 8f 4a 50 be 35 b3 98 3e 27 85 8e 3e
       -0.09286473 -0.20340942 0.29824224 0.27835962
000230 0c 20 a3 3d a7 58 19 bd fb b0 ae 3e 00 fd bd 3e
       0.07965097 -0.03743806 0.341194 0.37107086
000240 bd 08 d1 3e f3 17 2b bd 22 48 da 3d 5c 54 01 3f
       0.4082698 -0.041770887 0.106582895 0.5051935
000250 47 12 4c be a7 9c 82 3e 5c 65 2d be d4 7f b2 3c
       -0.19928847 0.2551014 -0.16933197 0.021789469
000260 42 9f bb 3e aa e5 a6 be fb 1e e9 3e 6d 89 58 bd
       0.36644942 -0.32597095 0.4553145 -0.052865434
000270 1b 6d ac bc 92 5f dd 3d 5b ce 51 3f 8c e9 e5 3e
       -0.02104812 0.10809244 0.819555 0.44904745
000280 59 4a d3 bd 7e 59 eb 3e 27 bf a0 3e 4a 72 87 be
       -0.10316915 0.45966715 0.31395838 -0.26454383
000290 19 22 8b be 02 fc a6 be 96 f4 c5 3d 73 a8 b5 be
       -0.27174452 -0.32614142 0.09665792 -0.3548008
0002a0 62 91 39 3e 49 ba 37 bd 13 12 f5 3b d2 b8 75 3e
       0.18121865 -0.04485539 0.0074789613 0.23996285
0002b0 a6 a5 46 bd 50 be ab bd 18 9d 61 3d 55 32 09 3e
       -0.04849782 -0.083859086 0.055081457 0.13398106
0002c0 4c cd c4 bd 08 ca 32 be 3c d1 4f 3e 8f d2 8e bc
       -0.0960947 -0.17459881 0.2029466 -0.017434387
0002d0 49 3e 3d 3f 7f 5a a8 3d e7 82 ea bd ef 71 a4 3e
       0.73923165 0.08220386 -0.11450749 0.32118174
0002e0 3e 5a 5c 3f 78 3f 65 3f a0 e2 dc bc 01 13 cd bc
       0.860752 0.8954997 -0.026963532 -0.025033476
0002f0 24 38 87 3e b1 09 49 be c2 22 12 3f e3 49 75 be
       0.2641002 -0.19632603 0.57084286 -0.23953967
000300 f7 17 4c be af 26 d5 3e de dc 83 bd 25 a7 a1 3e
       -0.19931017 0.41631076 -0.064386114 0.31572834
000310 fd 86 3a 3e c7 31 26 bd 76 8b 09 3f 3c 23 3f be
       0.18215556 -0.040574815 0.53728426 -0.18665785
000320 c2 7d 06 be fd aa 63 3d 54 d0 6e be fc 54 34 ba
       -0.1313391 0.05558299 -0.23321658 -0.0006879119
000330 fe 0a 98 3e c3 d0 70 3e 13 a8 a9 3e 73 32 79 3d
       0.29695886 0.23517136 0.33136043 0.060839128
000340 b5 e2 b8 bd b9 c9 15 be eb c8 e1 3d 07 02 19 bc
       -0.09027616 -0.14627732 0.1102465 -0.009338862
000350 9c f2 fe 3e f7 57 a6 3e d5 0f c1 3d 23 7f 67 3e
       0.4979447 0.32488987 0.09426848 0.22607093
000360 cf a4 80 bd f2 4d da bd 37 da 86 be 14 1c 02 3f
       -0.06281435 -0.10659398 -0.2633836 0.50824094
000370 b5 97 3b 3f bb 6c a1 3e d1 83 ad bd 16 1d 5f be
       0.7327836 0.31528267 -0.084724076 -0.21788439
000380 91 5a 4d 3e 8e ee 88 bd f3 75 88 3b a8 95 6f 3c
       0.2005408 -0.06686126 0.0041644513 0.014623083
000390 cf d3 ec 3e b9 44 b6 3e 5d 32 3f bc 1f 2d 3c 3e
       0.46255347 0.35599306 -0.011669722 0.18376587
0003a0 53 1a 6b 3e 3f 27 96 be 28 ed 2d be d5 b3 d3 bd
       0.2295926 -0.29326817 -0.16984999 -0.103370346
0003b0 cd 54 cf bd f2 c5 39 3e 15 84 f5 bd ae 0d 4f be
       -0.10123596 0.18141916 -0.11988083 -0.20220062
0003c0 72 b0 8f be df 59 6e be 05 92 58 be 83 75 ef bc
       -0.28064305 -0.2327647 -0.21149452 -0.029230839
0003d0 b6 d0 78 be ba e7 d8 bc 81 79 4d bd db 76 d1 3e
       -0.24298367 -0.026477683 -0.050164703 0.40910992
0003e0 42 f2 e2 3c d9 5d de bd c2 2e 8c be ff 92 57 be
       0.027703408 -0.10857744 -0.27379423 -0.21052168
0003f0 ae 84 05 3f 0c 1c a5 3e c7 dd 11 be 2e 5d 6e 3e
       0.5215558 0.3224796 -0.14244758 0.23277733

l3.bias f4 [6]
000000 db 6f 5b 3e b3 3f ac be c6 5d 0d be 15 f6 8b 3d
       0.21429388 -0.3364235 -0.13805303 0.06834046
000010 d9 ad c1 3e cf fc b6 bd
       0.37827948 -0.08934938
