Swimmer/Swimmer-v4_actor_finalized_00.pth (torch, 500900 bytes, 6 tensors)

l1.weight f4 [400, 8]
0	0x3f492982	0.7857896
1	0x3dec0855	0.11525027
2	0xbfd7ed11	-1.6869222
3	0xbfeadeb1	-1.834921
4	0x3f326768	0.69689035
5	0xbdad3634	-0.08457604
6	0x3e9b156a	0.30289775
7	0xbdb3525e	-0.08755945
8	0xbf7959c6	-0.9740261
9	0xbe187d3a	-0.1489152
10	0xbf7337ed	-0.9500721
11	0x3f8e7a2e	1.1131036
12	0x3e83ab2e	0.25716537
13	0x3ec5d8bd	0.3864192
14	0xbeefcd43	-0.4683629
15	0x3e0a93ca	0.1353294
16	0x3feec747	1.8654565
17	0x3ec4bb3d	0.384241
18	0xbffd11be	-1.977104
19	0x3ffc65b3	1.9718536
20	0xbfa4ba29	-1.2869312
21	0x3e5f28e9	0.2179295
22	0xbef31373	-0.47475776
23	0x3ee2232c	0.4416746
24	0x4026aae0	2.6041794
25	0xbde70324	-0.11279896
26	0x3e744f57	0.23858391
27	0xbd915811	-0.070968755
28	0xbe26c336	-0.16285405
29	0x3d976e14	0.073940426
30	0xbf1e2957	-0.6178183
31	0x3eb73871	0.3578525
32	0xbf82e8df	-1.0227317
33	0x3f0dac0c	0.5534065
34	0xbf520bfd	-0.8204954
35	0x3f890d83	1.0707248
36	0x3fcc91e6	1.5982025
37	0x3edc1d32	0.42991024
38	0xbf5c870b	-0.8614356
39	0xbec82c76	-0.3909642
40	0x3fa69384	1.3013768
41	0x3fd05efb	1.6278986
42	0xbfecbbe0	-1.8494835
43	0x3f88419d	1.0645024
44	0x3f5e79bf	0.8690452
45	0xbf0170ca	-0.5056273
46	0x3e96b81b	0.29437336
47	0x3d73a7b9	0.059486125
48	0x3e942987	0.28937933
49	0xbeb822a4	-0.3596393
50	0xbf68b02b	-0.9089381
51	0xbf04be6a	-0.5185305
52	0xc0009ae0	-2.0094528
53	0xbf5272b9	-0.822063
54	0x3f2dc2c1	0.67875296
55	0x3f32bc36	0.6981844
56	0xbe557ea4	-0.20849091
57	0x3f4456ae	0.7669476
58	0xbf31501f	-0.6926288
59	0xbfb4c5e7	-1.4122895
60	0xbf76be20	-0.9638386
61	0xbf15d089	-0.58521324
62	0x3df344ce	0.11878358
63	0x3fa182b8	1.2618017
64	0xbf8eb102	-1.1147768
65	0xbf05de97	-0.5229277
66	0xbf58f0ac	-0.84742236
67	0xbfe8af46	-1.8178489
68	0xc00870ce	-2.131885
69	0x3f312126	0.69191206
70	0xbf1ed0fe	-0.62037647
71	0x3e01a625	0.12661035
72	0xbf6841ad	-0.90725213
73	0xbca24bd8	-0.019811556
74	0xbff636d3	-1.9235481
75	0xbfa4ee74	-1.288527
76	0xbfb5b1be	-1.4194868
77	0xbceab0c5	-0.028648743
78	0xbf0e183f	-0.55505747
79	0xbee33792	-0.44378334
80	0xbf63eb19	-0.89030606
81	0xbea298da	-0.3175724
82	0xc03ec9a2	-2.9810567
83	0x3fc8ca33	1.5686706
84	0xbf9c67ae	-1.221914
85	0xbf5dac9d	-0.8659151
86	0xbf7123ac	-0.94195056
87	0xbe175a37	-0.14780508
88	0x3fa95f25	1.3232161
89	0x3fc8150d	1.5631424
90	0x3f6bb70f	0.920762
91	0xbf48524c	-0.78250575
92	0xbf13e55b	-0.57771844
93	0xbe1acad2	-0.15116432
94	0x3fb791ab	1.4341329
95	0x3e5bc5dd	0.21462198
96	0x3f27e701	0.6558686
97	0xbe76f5c9	-0.24117197
98	0xbfc19196	-1.5122554
99	0x3da06792	0.078322545
100	0xbf839ed4	-1.0282845
101	0xbeb9d00b	-0.36291537
102	0xbeab3f66	-0.33446807
103	0x3f2773b2	0.6541091
104	0x3eaa6785	0.33282104
105	0x3f480331	0.7812987
106	0xbe9b0d80	-0.30283737
107	0xbffe1067	-1.9848756
108	0xc060eac8	-3.51433
109	0xbd0b9c16	-0.034084402
110	0xbf2fa39d	-0.6860903
111	0x3d55f413	0.05223472
112	0x400f8771	2.2426417
113	0x3eeaa102	0.45825964
114	0xbdfb4f8b	-0.12271031
115	0xbd5dc2aa	-0.054140724
116	0xbf116c50	-0.56805897
117	0xbbb3d453	-0.0054879575
118	0x3e572f2b	0.21014087
119	0x3f37a2fe	0.7173308
120	0x3dbf5701	0.093427666
121	0x3fc75611	1.557314
122	0xbd4dad5b	-0.050214153
123	0x3cd87c8e	0.02642658
124	0x3fa3fdf3	1.2811874
125	0xbe860bff	-0.26181027
126	0x3e18a666	0.14907226
127	0xbdae2d56	-0.08504741
128	0xbf11a808	-0.5689702
129	0x3f0b02a2	0.5430089
130	0xbd1ff7ce	-0.039054684
131	0xc0098b29	-2.1491187
132	0x404805b3	3.1253479
133	0x3f79fc10	0.9765024
134	0xbf48af83	-0.7839281
135	0x3f87081a	1.0549347
136	0xbd6ee2d7	-0.0583218
137	0x3fbb515f	1.4634207
138	0xbfac2e94	-1.3451715
139	0x3d896595	0.06708828
140	0xbfd6acfb	-1.677154
141	0xbf663b73	-0.8993446
142	0x3d0b0b5f	0.03394639
143	0xbf3ad0e0	-0.7297497
144	0x3e1edadf	0.1551318
145	0x3f0d9d3b	0.5531804
146	0xbfbf1bab	-1.4930319
147	0xc02cc0a0	-2.699257
148	0xbd4f2f0c	-0.050581977
149	0x3e82681c	0.25470054
150	0x3d897ce6	0.067132756
151	0xbd8fac09	-0.07015235
152	0x40717846	3.772966
153	0xbf5db715	-0.86607486
154	0xbf41526e	-0.755164
155	0xbfd2dc22	-1.6473429
156	0xbd98a7cd	-0.074538805
157	0xbeaaea2b	-0.3338178
158	0xbe9b424b	-0.30324015
159	0x3f8522f1	1.0401288
160	0xbe94c72f	-0.29058215
161	0x3e852a5f	0.2600889
162	0x3f298bda	0.6622902
163	0xbcc268b2	-0.023731563
164	0xbfeece42	-1.8656695
165	0xbfdac420	-1.7091103
166	0xbea5d68e	-0.32390255
167	0x3ff0f4ec	1.8824744
168	0xc00490fe	-2.0713496
169	0xbfbcb11e	-1.4741552
170	0x3f596c9c	0.8493135
171	0xbd8180b8	-0.06323379
172	0xbf4a1c34	-0.78949285
173	0xbf443c88	-0.76654863
174	0x3e06ef5a	0.13177243
175	0x3f7935ff	0.97348017
176	0x3f884253	1.064524
177	0x3eba014c	0.36329114
178	0xbf0abb8f	-0.5419244
179	0x3f390a5b	0.72281426
180	0xbe83930d	-0.25698128
181	0xbe5c6a15	-0.21524842
182	0x3e88470d	0.26616707
183	0x3e39a63e	0.18129823
184	0xc0063146	-2.0967574
185	0xbf04faae	-0.51945007
186	0xbeaa83b3	-0.33303604
187	0x3f4bcf41	0.7961312
188	0x3e53df5f	0.20690678
189	0x3cc9a16f	0.02461311
190	0xbf18a961	-0.5963345
191	0xbf056060	-0.5210018
192	0x3e842093	0.25806102
193	0xbe8ed64c	-0.2789787
194	0xc00fc3c9	-2.2463248
195	0xc024b237	-2.5733774
196	0x3f3adc62	0.7299253
197	0x3e71a763	0.23599009
198	0xbece06c7	-0.40239546
199	0xbefc3783	-0.49261102
200	0x3d6819f2	0.05666537
201	0xbf6c45dd	-0.922941
202	0xbf04b13c	-0.5183294
203	0x3faed052	1.3657324
204	0x3f448614	0.76767087
205	0x3f104951	0.5636187
206	0xbe384bc8	-0.17997658
207	0xbe1a16a0	-0.15047693
208	0xbe9662e9	-0.29372337
209	0xbeb92966	-0.36164397
210	0xbf183dcb	-0.5946929
211	0x3ed243b5	0.4106728
212	0x3e066be4	0.13127095
213	0xbe3f321a	-0.18671456
214	0xbe80e631	-0.25175622
215	0xbc4d5232	-0.012531804
216	0xbedbf118	-0.42957377
217	0x3efc4dd7	0.49278137
218	0xc03a17be	-2.907699
219	0xbeaadb95	-0.33370653
220	0xbffe2f61	-1.9858209
221	0xbebd055f	-0.3691816
222	0xbf62fda3	-0.8866827
223	0x3d84af0b	0.06478699
224	0x4092eaaa	4.5911455
225	0x3f17275a	0.5904442
226	0xbf1a49aa	-0.6026865
227	0x3c3f4146	0.011673277
228	0x3f853ed3	1.0409797
229	0xbf851e68	-1.0399904
230	0x3ed448cd	0.41461793
231	0x3f9622f4	1.1729417
232	0x3f30cf55	0.69066364
233	0x3ee0ae1b	0.43882832
234	0x3cad8556	0.021181744
235	0xbf6c44d7	-0.9229254
236	0x3ffc6656	1.971873
237	0x3fab94ad	1.3404747
238	0xbeb1504e	-0.3463158
239	0xbebf3eca	-0.37352592
240	0x3e0737ae	0.13204834
241	0xbf274ec5	-0.6535457
242	0xbe92a2d0	-0.2863984
243	0xbeb244d0	-0.34818125
244	0x3e266c1a	0.16252175
245	0x3f19397e	0.5985335
246	0x3e9aed3c	0.3025912
247	0x3e8e5764	0.2780105
248	0xbfe93e80	-1.8222198
249	0xbf113916	-0.5672773
250	0x3ef3602f	0.4753432
251	0x3f457c20	0.77142525
252	0x3f63212a	0.8872248
253	0x3f37e32e	0.71831024
254	0xbe8dcd8e	-0.27695888
255	0xbc07fa08	-0.008299358

l1.bias f4 [400]
0	0xbfee6039	-1.8623115
1	0xbf94b33f	-1.1617202
2	0xbf667a2a	-0.9003016
3	0xbea320c2	-0.3186093
4	0xbf8e4e07	-1.1117562
5	0xbf9d7b16	-1.2303188
6	0xbfca6b47	-1.5813988
7	0xbf04b04f	-0.51831526
8	0xbfd44511	-1.6583577
9	0x3d31e729	0.043433342
10	0x3fa0d703	1.2565616
11	0x3f1f7314	0.6228497
12	0xbf9edc72	-1.2411025
13	0xbf369bb1	-0.71331316
14	0xbfc3b4aa	-1.5289509
15	0xbe2c0bf5	-0.16801436
16	0xbeb26a59	-0.34846762
17	0xbf1a82ea	-0.6035601
18	0xbf8eaa24	-1.1145673
19	0x3e93a691	0.28838018
20	0xbf263c72	-0.6493598
21	0xbf102354	-0.56303906
22	0xbfa0bcb9	-1.2557594
23	0xbf5c7fc2	-0.8613244
24	0xbebbd793	-0.36687908
25	0xbf8eb39b	-1.1148561
26	0xc002408b	-2.0351894
27	0xbf0c7e6b	-0.548804
28	0x4013eb8d	2.3112519
29	0xbfd53a8e	-1.6658494
30	0xbffa80f8	-1.9570608
31	0xbf8fb6c7	-1.1227654
32	0x3f4234ea	0.7586199
33	0xbede564c	-0.43425214
34	0xbfad4874	-1.3537736
35	0x3ed023d6	0.4065234
36	0xbfc84bcb	-1.564813
37	0xbf60b666	-0.8777832
38	0x3e67ed3e	0.22649094
39	0xbfe7b4dd	-1.810207
40	0x3fd28f36	1.6449955
41	0xbe8f3d20	-0.27976322
42	0x3e67c6a6	0.22634372
43	0xbf686a8c	-0.9078758
44	0xbf00f7d1	-0.5037814
45	0xbf7a7938	-0.97841215
46	0x3eab8ac8	0.3350432
47	0xc01060f7	-2.2559183
48	0x3dbb17a8	0.091353714
49	0xbfd957a8	-1.6979876
50	0xbeeb7ebe	-0.45995134
51	0xc0320069	-2.781275
52	0xbf78294b	-0.9693801
53	0xbfaa3133	-1.3296264
54	0xbf9d0ed3	-1.2270149
55	0xbfd6f01b	-1.6792024
56	0xbe70fb21	-0.23533298
57	0xbf7bafb5	-0.9831498
58	0xbfdf4ff0	-1.744627
59	0xbfae4f03	-1.3617862
60	0xbf65fb4b	-0.8983657
61	0xbf5d9cc9	-0.8656736
62	0xbdf0a468	-0.11750108
63	0xc00ed0a9	-2.2314856
64	0xbfa837ce	-1.314203
65	0x3d7c6458	0.061619133
66	0xc019b41b	-2.4016178
67	0x3e5ffce1	0.2187381
68	0xbe177eff	-0.14794539
69	0x3d5d53a7	0.054034855
70	0x3fa69cee	1.3016641
71	0xc0053dab	-2.081889
72	0xbf9b9f8d	-1.2158066
73	0xbf82d533	-1.0221313
74	0xbf74461b	-0.9541947
75	0xbf6713f7	-0.9026484
76	0x3eb5ea17	0.3553016
77	0xbf871dbf	-1.0555953
78	0xbf046a3f	-0.5172462
79	0x3f279e89	0.6547628
80	0xbe76e238	-0.24109733
81	0xbf9a33a9	-1.2047015
82	0x3f74126d	0.95340616
83	0xbf7d2b1a	-0.9889389
84	0xbce76cbf	-0.028250096
85	0x3fb13350	1.3843784
86	0x3e452ed2	0.19256142
87	0x3f4fb29b	0.81131905
88	0xbf890316	-1.0704067
89	0xbf92a19a	-1.1455567
90	0xbf6dd041	-0.92895895
91	0xbf90a979	-1.1301719
92	0x3f88dd50	1.0692539
93	0x3eb8066a	0.35942394
94	0xbe96529e	-0.29359907
95	0x3f7e12d5	0.99247485
96	0xbf950511	-1.1642171
97	0x3ea2862c	0.3174299
98	0xb9dc7907	-0.00042051842
99	0xbfcfcbd6	-1.6234081
100	0x3ec79bd7	0.38986084
101	0xbf46c09e	-0.7763766
102	0x3d683364	0.056689635
103	0xc0036a85	-2.0533764
104	0xbfa635fe	-1.2985227
105	0xbed3c2a5	-0.4135944
106	0xbed98276	-0.42482346
107	0xbf025f85	-0.50927
108	0x3e873a1d	0.26411524
109	0xbe0e1d32	-0.13878325
110	0xbfa75c41	-1.3075029
111	0x3e956451	0.29178098
112	0xbf849e99	-1.03609
113	0xbdd984cb	-0.106210314
114	0xbf6f06b8	-0.93369627
115	0xbfa9228d	-1.3213669
116	0xbe4cb082	-0.19989207
117	0xbfbb1656	-1.4616191
118	0x3e46cf50	0.19415021
119	0xbf9a8afe	-1.2073667
120	0xc001e800	-2.0297852
121	0xbfbc407f	-1.4707183
122	0x3f6df767	0.9295563
123	0x3ec9ab35	0.39388433
124	0x3f1d9c1c	0.6156633
125	0xbee35998	-0.44404292
126	0xbfa9c705	-1.3263861
127	0x3fcacc2f	1.5843562
128	0xbfe98459	-1.8243514
129	0xbf9fac1b	-1.2474397
130	0xbe500dd4	-0.20317775
131	0xbe6ad549	-0.22932924
132	0x3f94c750	1.1623325
133	0xbea64ac3	-0.32478914
134	0xbf018acb	-0.50602406
135	0xbfbb1bf1	-1.4617902
136	0xbea8f5a8	-0.3299992
137	0xbfcdee1a	-1.6088288
138	0xbeccfd34	-0.4003693
139	0x3ee41019	0.44543532
140	0xbf888596	-1.0665767
141	0xbfcfc378	-1.6231527
142	0xbea7f971	-0.32807496
143	0xbf618dd9	-0.8810707
144	0x3eacf913	0.3378378
145	0x3eb0391c	0.3441857
146	0xbfc65e02	-1.5497439
147	0x3fd84948	1.6897364
148	0x3f18a08b	0.5961997
149	0xbf8c8068	-1.0976686
150	0xbf822b66	-1.0169494
151	0x3fe593ce	1.7935731
152	0xbee7a8f5	-0.4524609
153	0x3f0e3a46	0.5555767
154	0xbf77be58	-0.96774817
155	0xbf44a969	-0.76821
156	0xbfb6d60c	-1.4284072
157	0xbf665771	-0.89977175
158	0xbfb0cf0d	-1.3813187
159	0xbf3371c7	-0.70095485
160	0xbfdbb8b6	-1.7165744
161	0x3e61839d	0.22022863
162	0xbf3cc358	-0.7373557
163	0xbfd19558	-1.6373701
164	0xbfe671ec	-1.8003516
165	0xbf7cfdaf	-0.9882459
166	0xbf4ba7a9	-0.79552704
167	0xbeaa3af2	-0.33248097
168	0xbca146c1	-0.019687058
169	0xbf975a44	-1.1824422
170	0xbe9f1f96	-0.31078786
171	0xbfb5595d	-1.4167897
172	0xbfe26fca	-1.7690365
173	0xbe6db249	-0.23212542
174	0xbf40ef60	-0.7536526
175	0xbf6fe440	-0.93707657
176	0xbe948204	-0.29005444
177	0xbfa87d97	-1.3163327
178	0x3d2bb5ff	0.041921612
179	0x3f820991	1.015917
180	0xbe1d2714	-0.15346938
181	0x3d3caa0f	0.046060618
182	0x3ea354ad	0.3190054
183	0xbf9040b6	-1.1269748
184	0xbf1d7529	-0.615069
185	0xbf90e117	-1.1318692
186	0xbf2f36bb	-0.6844289
187	0xbff80737	-1.9377202
188	0xbf47703f	-0.7790565
189	0xbf877794	-1.0583367
190	0xbfcb7225	-1.5894209
191	0x3f80b932	1.0056517
192	0xbf023a5b	-0.50870293
193	0xbfbf6baf	-1.4954737
194	0x3ebb5323	0.36586866
195	0x3f7ea3db	0.99468774
196	0xbfb54599	-1.4161865
197	0xc01d1d9b	-2.454932
198	0x3f8a7555	1.0817057
199	0x3f5c2695	0.8599637
200	0xbfa8d415	-1.3189722
201	0xbf952100	-1.1650696
202	0xbf50b2e4	-0.81522965
203	0xbe20a95b	-0.15689604
204	0xbf9e36f6	-1.2360523
205	0xbf40e258	-0.75345373
206	0xbfba296a	-1.4543889
207	0xbfac5eae	-1.3466394
208	0xbe08ea46	-0.13370618
209	0xbfd4ff18	-1.6640348
210	0x3ef75828	0.48309445
211	0xbf9bf5c0	-1.2184372
212	0x3fe25a7b	1.7683862
213	0xbf5a2357	-0.85210174
214	0x3f933762	1.1501276
215	0x3ea73b8f	0.32662627
216	0xbfbbab10	-1.4661579
217	0xbfcef0eb	-1.6167272
218	0xbfa8deb6	-1.3192966
219	0x3ea9dca9	0.33176163
220	0xbf97ec0d	-1.1868912
221	0x3f18311a	0.59449923
222	0xbf9a6edb	-1.206508
223	0xbeea5d6b	-0.45774397
224	0xbf8b3057	-1.0874127
225	0x3f84e802	1.0383303
226	0xbf51ae14	-0.8190625
227	0x3f702e60	0.9382076
228	0xbf89bf3a	-1.0761483
229	0xbf99db20	-1.2019997
230	0x3f875593	1.057299
231	0x3ea9922a	0.33119327
232	0xbfa735fd	-1.3063351
233	0x3e89cb14	0.2691275
234	0xbfd3bac9	-1.6541377
235	0x3db28c44	0.0871816
236	0xc00d6cb3	-2.2097595
237	0xbf3af78d	-0.7303398
238	0xbeaffffd	-0.3437499
239	0x3fc69a10	1.5515766
240	0x3f992948	1.1965723
241	0x3f8d51ab	1.1040548
242	0x3fc52f16	1.5404994
243	0xbfd3da59	-1.655101
244	0xbfbfb961	-1.4978448
245	0x3dddd9e6	0.108325765
246	0xbfcaef54	-1.5854287
247	0x3f10ed67	0.5661225
248	0xbfc3315e	-1.5249441
249	0xbf9b5718	-1.2135954
250	0xbf3d8e95	-0.7404569
251	0xbfe89389	-1.8170024
252	0x3f8d10ca	1.1020749
253	0xbf16a75f	-0.5884914
254	0xbe30943f	-0.17244051
255	0x3f415999	0.7552734

l2.weight f4 [300, 400]
0	0x3cea3124	0.028587885
1	0x3b8ee028	0.0043602176
2	0xbdbad89c	-0.09123346
3	0xbe33d1ed	-0.17560549
4	0xbdac615c	-0.08417007
5	0xbd82a767	-0.06379586
6	0xbba8281d	-0.005131735
7	0xbd649788	-0.055808574
8	0xbd204a7d	-0.039133538
9	0xbd2f5207	-0.042802837
10	0xbdb29182	-0.0871916
11	0x3d0afa9f	0.033930417
12	0x3da173b5	0.078833975
13	0x3d0c3e94	0.034239367
14	0xbcb50436	-0.022096734
15	0xbd8b1ba2	-0.0679238
16	0xbdabca44	-0.083881885
17	0x3d2cdab3	0.042200755
18	0x3cc5335e	0.024072345
19	0xbd5bf9cc	-0.05370502
20	0xbe04f099	-0.12982406
21	0xbdfbae96	-0.12289159
22	0xbd42e355	-0.047580082
23	0xbe87dad1	-0.2653413
24	0x3b3d5a77	0.0028893033
25	0x3da2878d	0.079360105
26	0xbd827a03	-0.06370928
27	0xbd082594	-0.033238962
28	0xbcfd6b0a	-0.03093483
29	0xbdf02b36	-0.11726992
30	0xbd12df70	-0.035857618
31	0xbd64c81c	-0.0558549
32	0x3c36feda	0.01116916
33	0x3c7564b4	0.014977623
34	0x3d994f44	0.07485822
35	0xbd06e032	-0.032928653
36	0xbdf3ed18	-0.119104564
37	0x3c922198	0.017838284
38	0xbd555ee0	-0.052092433
39	0xbdf8ebab	-0.12154325
40	0x3c4c10c5	0.01245517
41	0xbd661407	-0.056171443
42	0x3d53880d	0.05164342
43	0x3cc29530	0.023752779
44	0xbd75b285	-0.059984703
45	0xbd9351ca	-0.071933344
46	0x3e4accd9	0.19804706
47	0xbe0c41c2	-0.1369696
48	0xbd9251a5	-0.07144479
49	0xbda4cc5e	-0.080467924
50	0xbdf4d202	-0.11954118
51	0xbcf373c2	-0.029718284
52	0xbd40a5f3	-0.04703326
53	0xbc5e0911	-0.013551966
54	0xbc16645f	-0.009179204
55	0xbdd4a668	-0.10383302
56	0x3c61cdd3	0.0137819825
57	0xbcecdac8	-0.028912917
58	0x3b76611f	0.003759451
59	0xbe66bf7f	-0.22533987
60	0x3d7988ae	0.060921364
61	0xbd928c1d	-0.07155631
62	0xbde94a6f	-0.1139115
63	0xbd995a59	-0.074879356
64	0xbddc48f1	-0.107561
65	0xbd803b6b	-0.06261333
66	0xbe117075	-0.14203055
67	0xbe0e9c48	-0.13926804
68	0x3e0e820b	0.13916795
69	0xbcbbd506	-0.022928726
70	0xbdad869c	-0.0847294
71	0xbd50a96b	-0.05094282
72	0xbcfeb846	-0.031093728
73	0x3cb854a0	0.02250129
74	0xbd69bc75	-0.057064492
75	0xbb0f869f	-0.0021900309
76	0xbde55192	-0.11197199
77	0xbd99cb37	-0.07509463
78	0xbd6aab94	-0.057292536
79	0xbdd15c0f	-0.10222637
80	0xbdeb43bb	-0.11487528
81	0xbe00e827	-0.12588559
82	0xbe230e9c	-0.15923542
83	0x3d8952d3	0.067052506
84	0xbd4261eb	-0.047456663
85	0xbc34506f	-0.011005505
86	0xbd68f2ca	-0.056872167
87	0xbe7430d0	-0.23846745
88	0x3d568087	0.052368667
89	0xbbe56fed	-0.007001868
90	0xbba1c577	-0.0049368697
91	0xbda2defe	-0.07952689
92	0xbe035044	-0.12823588
93	0xbd6ed0ce	-0.0583046
94	0xbbf3bdf4	-0.0074384157
95	0xbea2efe6	-0.31823653
96	0xbd6ed689	-0.058310065
97	0xbd761cd2	-0.06008608
98	0xbd9144be	-0.0709319
99	0xbda8a88b	-0.08235272
100	0xbdd9e171	-0.10638703
101	0xbd0b28a7	-0.033974316
102	0xbcc1ac97	-0.023641868
103	0x3dbad1df	0.09122061
104	0xbce2111c	-0.027596049
105	0x3d6c1e1e	0.05764591
106	0x3d7a3d3f	0.061093565
107	0xbd899bb3	-0.067191504
108	0x3d8b828b	0.068120085
109	0x3dbee988	0.09321886
110	0xbe04e002	-0.12976077
111	0xbd2e2aa7	-0.042521145
112	0x3c904481	0.01761079
113	0xbd9a21c0	-0.075259686
114	0xbdb04c48	-0.086082995
115	0xbdb97457	-0.09055393
116	0xbd847484	-0.06467536
117	0xbd350a8a	-0.044199504
118	0xbd6b95dd	-0.057515968
119	0x3c2c924c	0.010532927
120	0xbd31f9e8	-0.04345122
121	0x3defe73e	0.11714028
122	0xbc4f65d4	-0.012658555
123	0xbe59d7eb	-0.21273772
124	0xbd99a62f	-0.075024
125	0xbe1f1a59	-0.15537395
126	0xbde40444	-0.11133626
127	0xbdbda841	-0.092606075
128	0x3c901d3f	0.01759207
129	0xbd1f7be0	-0.038936496
130	0xbdb837d4	-0.08995023
131	0x3c4c81cc	0.012482118
132	0xbd6c8b19	-0.05774984
133	0xbdc040d6	-0.093873665
134	0xbd9a3dcd	-0.07531319
135	0xbd41ef5e	-0.04734742
136	0x3e2a1f84	0.16613585
137	0xbdccbfc7	-0.09997516
138	0xbc8cd14f	-0.01718965
139	0xbe281c41	-0.16417028
140	0xbd804cd6	-0.06264655
141	0xbda98d6e	-0.08278929
142	0xbc39c7ac	-0.011339109
143	0xbe548ded	-0.20757265
144	0x3dc702a3	0.097173
145	0xbd457c51	-0.04821426
146	0xbd3de670	-0.04636234
147	0xbe19f7cb	-0.15035932
148	0x3d8aabc1	0.06771041
149	0x3cc9263d	0.024554366
150	0xbdadd604	-0.08488086
151	0xbe0b829a	-0.1362404
152	0xbe3841e6	-0.17993888
153	0x3c0e3420	0.00867942
154	0xbdc5c0ae	-0.09655891
155	0xbe70e30f	-0.23524116
156	0xb9a529f8	-0.00031502522
157	0xbe0a47e1	-0.13503982
158	0xbd932b0b	-0.07185944
159	0xbe03cb0a	-0.12870422
160	0xbd2d39ca	-0.04229144
161	0xbda9ab1f	-0.08284592
162	0xbd7d838a	-0.061893024
163	0xbda414a3	-0.08011749
164	0xbcad2e34	-0.021140195
165	0xbb70f9ef	-0.0036770066
166	0xbd11c5ab	-0.0355889
167	0xbda2e8f8	-0.079545915
168	0xbd6c9e6b	-0.057768267
169	0x3d4527bd	0.0481336
170	0x3da08e77	0.07839673
171	0xbce094fe	-0.027414795
172	0x3b107839	0.0022044315
173	0x3d95b206	0.07309346
174	0xbe2f069d	-0.17092367
175	0x3ce10dc3	0.027472382
176	0x3d535c2e	0.05160158
177	0x3e0a5f3b	0.1351289
178	0x3d65cb47	0.056102064
179	0xbd85d5de	-0.065349326
180	0x3e26f86e	0.16305706
181	0xbdbd417a	-0.09241004
182	0x3cf5ebda	0.03001969
183	0x3c726477	0.0147944605
184	0xbe7bcc4b	-0.2458965
185	0xbe88a364	-0.26687157
186	0xbd4d2877	-0.05008742
187	0xbd7f4ee2	-0.062331088
188	0x3d3c2f4f	0.045943554
189	0x3cc68801	0.024234774
190	0xbe09d86a	-0.13461462
191	0x3c758305	0.014984851
192	0xbcff2f48	-0.031150475
193	0x3c95ada8	0.018271282
194	0x3a967395	0.0011478538
195	0x3dbe5387	0.09293275
196	0xbe2466f3	-0.16054897
197	0xbd43cac3	-0.04780079
198	0x3be004b5	0.0068364986
199	0xbdd3f3aa	-0.103492096
200	0x3c904084	0.017608888
201	0xbc3cc78d	-0.011522186
202	0xbdc1aabc	-0.09456393
203	0xbcef4e8a	-0.029212255
204	0xbb5a125b	-0.00332751
205	0xbd9f25e6	-0.077709004
206	0xbd77f7e6	-0.06053915
207	0x3d78ae88	0.06071332
208	0xbd88ddb9	-0.06682915
209	0xbdb7907e	-0.089631066
210	0xbd8b55de	-0.06803487
211	0x3d88d64f	0.06681501
212	0xbe07cb9e	-0.13261268
213	0xbda17be8	-0.07884961
214	0xbd5bde44	-0.053678766
215	0xbd851952	-0.0649897
216	0x3d81860a	0.06324394
217	0x3db676f8	0.0890941
218	0x3be30fed	0.0069293887
219	0xbd7e916b	-0.0621504
220	0xbda30ccf	-0.079614274
221	0x3dac814f	0.08423101
222	0xbca93940	-0.020657182
223	0xbdc4f6c5	-0.0961738
224	0xbdf24e6c	-0.11831364
225	0xbd825c26	-0.06365232
226	0xbdb0170f	-0.08598148
227	0xbd22a738	-0.039710253
228	0xbdaaf0d7	-0.08346718
229	0xbd9427aa	-0.07234128
230	0x3dcaf674	0.099102885
231	0xbd8d442e	-0.0689777
232	0xbda8e0bc	-0.0824599
233	0xbe546763	-0.20742564
234	0x3d0c2368	0.034213454
235	0xbe358643	-0.17726998
236	0x3d9eb887	0.077500395
237	0xbe1cc339	-0.15308847
238	0xbd90f001	-0.07077027
239	0xbdc5c598	-0.09656829
240	0xbdc2afcd	-0.095061876
241	0x3d028b31	0.031871025
242	0x3cfbfcf0	0.030760258
243	0x3d943897	0.07237356
244	0xbd0e1c2d	-0.03469484
245	0xbda89e86	-0.08233361
246	0xbcf2d290	-0.02964142
247	0xbe174db1	-0.1477573
248	0xbdb84316	-0.089971706
249	0xbd2ea4dc	-0.04263769
250	0xbd829d0c	-0.063776106
251	0x3d2b7f4f	0.041869458
252	0xbdf42d50	-0.11922705
253	0xbd799482	-0.060932644
254	0xbe0499f2	-0.1294935
255	0xbd636f3d	-0.055526007

l2.bias f4 [300]
0	0xbe1d8ab9	-0.1538495
1	0x3c3f806e	0.011688335
2	0xbf5dcc78	-0.8664012
3	0xbdabd333	-0.083898924
4	0xbd7e997d	-0.062158097
5	0xbda16149	-0.07879884
6	0xbf429eb1	-0.76023394
7	0xbb01e17f	-0.0019818244
8	0xbcd7ed6e	-0.026358332
9	0xbd77ee4e	-0.06053
10	0x39af4382	0.00033428898
11	0xbd8c7437	-0.06858104
12	0xbdcd0a1e	-0.10011695
13	0xbda320da	-0.0796525
14	0xbf3daf50	-0.7409563
15	0x3c002b44	0.007822815
16	0xbd4c3dc2	-0.049863584
17	0xbe01f346	-0.12690458
18	0xbd580c30	-0.052745998
19	0x3f908ba8	1.129262
20	0xba0002c7	-0.00048832264
21	0xbcb0b3c6	-0.021570098
22	0xbe10c6c7	-0.14138328
23	0x3e117d3a	0.14207926
24	0xbd64ab4b	-0.05582742
25	0xbce6502c	-0.0281144
26	0xbdcf6002	-0.10125734
27	0xbd890090	-0.066895604
28	0x3ec68cbb	0.38779244
29	0xbc609de4	-0.013709519
30	0xbd88b0db	-0.066743575
31	0xbdc3b923	-0.095567964
32	0xbea87794	-0.3290373
33	0xbd63e427	-0.055637505
34	0xbecea94f	-0.40363547
35	0xbd6613a7	-0.056171086
36	0xbea77955	-0.32709756
37	0xbeafb2c1	-0.34316066
38	0xbe0eb925	-0.13937815
39	0xbc41cc3d	-0.011828479
40	0xbdbaec52	-0.09127106
41	0xbe80dbc4	-0.25167668
42	0xbde5219e	-0.111880526
43	0xbd128d8b	-0.035779517
44	0xbdcac5ec	-0.09901032
45	0xbd1e45b4	-0.038640693
46	0xbe3543fe	-0.17701718
47	0xbe09765a	-0.13424054
48	0xbd9898ec	-0.074510425
49	0xbee916c9	-0.45525196
50	0xbe6d4fd8	-0.23174989
51	0xbdb60825	-0.08888272
52	0x3d84ab8b	0.06478032
53	0xbec2b3ac	-0.38027704
54	0xbd12feb1	-0.035887424
55	0xbd66b316	-0.056323133
56	0xbc820462	-0.01587123
57	0xbdac2a90	-0.08406556
58	0xbfd4e602	-1.6632693
59	0x3d23b3c3	0.039966356
60	0xbf608741	-0.8770638
61	0xbd9744ac	-0.07386145
62	0x3ed00352	0.40627533
63	0xbd4a7c8d	-0.049435187
64	0xbd478289	-0.048708472
65	0x3f06101a	0.5236832
66	0x3c4a95f0	0.012364849
67	0xbe2f6f6d	-0.1713235
68	0xbd1a3e89	-0.037657294
69	0xbfb18f81	-1.3871919
70	0xbd4a89b4	-0.04944773
71	0xbdef447d	-0.11682985
72	0xbd6be64a	-0.057592668
73	0xbd626296	-0.0552698
74	0xbc3b0d55	-0.011416753
75	0xbf58ab0e	-0.8463601
76	0xbd6f7b0c	-0.058466956
77	0x3e4c9572	0.19978884
78	0x3bf65c16	0.0075183017
79	0xbd829546	-0.06376128
80	0xbcba4814	-0.022739448
81	0xbd9badb5	-0.07601491
82	0xbe17e8a9	-0.14834847
83	0xbe2f0c07	-0.17094432
84	0xbd231853	-0.03981812
85	0xbcb16d76	-0.02165864
86	0xbd4325b3	-0.047643375
87	0xbe86a62d	-0.26298657
88	0x3e43a0f4	0.19104367
89	0xbde0a80b	-0.10969552
90	0xbe1308d4	-0.14358836
91	0xbd3bfe7a	-0.045896985
92	0xbf91e62c	-1.1398368
93	0xb9190283	-0.00014592153
94	0x3ea22996	0.31672353
95	0x3d57a980	0.052651882
96	0xbf63e004	-0.89013696
97	0xbe95afba	-0.2923563
98	0xbe09fd19	-0.13475455
99	0xbdd06604	-0.10175708
100	0xbe9bd38f	-0.30434844
101	0xbdc68de8	-0.09695035
102	0xbdaa87f0	-0.08326709
103	0xbda5acd2	-0.080896035
104	0xbc4aef12	-0.0123861
105	0xbe55f6ff	-0.20895003
106	0xbd8e13c2	-0.06937362
107	0xbeb3bc03	-0.3510438
108	0xbdac31f6	-0.08407967
109	0xbe522fb1	-0.20526005
110	0x3989a6d6	0.0002625498
111	0xbdc2f326	-0.09519033
112	0xbd4a4658	-0.04938349
113	0x3c247f36	0.010040095
114	0xbec684df	-0.38773248
115	0xbc871f9b	-0.016494563
116	0xbe2ada39	-0.16684808
117	0xbd21b433	-0.039478492
118	0xbb05e960	-0.0020433292
119	0xbd6ef04d	-0.058334637
120	0xbe15ddf8	-0.14635456
121	0xbd89be27	-0.06725722
122	0xbd5a0831	-0.05323047
123	0xbe84e243	-0.25953874
124	0xbe0a79a1	-0.1352296
125	0xbcbb7c95	-0.022886554
126	0xbdb261d8	-0.087100685
127	0xbe67970b	-0.22616212
128	0xbd12a03f	-0.035797354
129	0xbde1c56e	-0.11023985
130	0xbdb4b953	-0.0882441
131	0xbd8cbc47	-0.068718486
132	0xbd649129	-0.055802498
133	0xbc27200b	-0.010200511
134	0xbdf011d4	-0.117221504
135	0xc013e6af	-2.3109548
136	0xbd4236c7	-0.04741552
137	0xbd42648f	-0.04745918
138	0xbdd859b2	-0.10563983
139	0xbd1fc57b	-0.03900669
140	0xbe88ab83	-0.26693353
141	0xbdd6a413	-0.104805134
142	0xbd90ef52	-0.07076897
143	0xbd9f1f82	-0.077696815
144	0x3cff1539	0.03113805
145	0xbd66ebc2	-0.05637718
146	0x3c18e367	0.009331561
147	0xbd0fc940	-0.035104036
148	0xbe859500	-0.2609024
149	0x3f7e7130	0.9939146
150	0xbdaa5998	-0.0831787
151	0xbb889fcf	-0.0041694413
152	0xbcbde8f6	-0.023182373
153	0xbed4acd2	-0.415381
154	0xbeb8646f	-0.36014125
155	0xbde4a95e	-0.11165117
156	0xbe669e34	-0.22521287
157	0xbd90e3f2	-0.07074727
158	0xbd83ee23	-0.06441905
159	0xbcba2bcd	-0.022725964
160	0xbcc071b2	-0.023491714
161	0x3bacc8cf	0.0052729617
162	0xbe6932f6	-0.22773346
163	0xbd7977d0	-0.060905278
164	0xbe380d2d	-0.17973776
165	0xbd686aa5	-0.05674233
166	0xbdd7368d	-0.105084516
167	0xbd856b53	-0.06514611
168	0xbde85d90	-0.11345971
169	0xbd86aebe	-0.06576298
170	0xbdca42ae	-0.098759994
171	0xbe3eab3e	-0.18620011
172	0xbf2b16a9	-0.6683145
173	0xbde671a9	-0.11252148
174	0xbe811dc6	-0.25218028
175	0xbdd13a98	-0.10216254
176	0xbd7378c7	-0.059441354
177	0x3ec4d18f	0.3844113
178	0xbd8f2b85	-0.069907226
179	0xbecf0d89	-0.40440014
180	0xbec3a3e6	-0.38210982
181	0x3c229f42	0.009925665
182	0xbde1b1dd	-0.11020253
183	0xbd3a2bfc	-0.045452103
184	0xbda20670	-0.07911384
185	0x3d582a5c	0.052774772
186	0xbe66aa43	-0.22525887
187	0xbec3cefc	-0.38243854
188	0xbd29aa47	-0.041422155
189	0xbb9dfc47	-0.0048213336
190	0xbd9c9b25	-0.07646779
191	0x3f9d3ad1	1.2283574
192	0x3b0a2e01	0.002108455
193	0xbb5641f7	-0.0032693127
194	0xbd0bf0a4	-0.03416504
195	0xbd0476eb	-0.03233997
196	0xbdc51b89	-0.096243925
197	0xbd93769b	-0.072003566
198	0xbe519139	-0.20465554
199	0xbfed3d29	-1.853429
200	0xbd87408f	-0.066041104
201	0xbd86a5bc	-0.0657458
202	0x3f4c167b	0.797218
203	0x3f996815	1.1984888
204	0xbd261c8a	-0.04055456
205	0x3d43a486	0.047764324
206	0xbe268687	-0.16262256
207	0xbdcf17de	-0.10111974
208	0x3c71c09e	0.014755396
209	0xbea9dc66	-0.33175963
210	0xbea6981e	-0.3253793
211	0xbdf15fdb	-0.11785861
212	0xbec1e3a7	-0.37868997
213	0xbd06a94e	-0.032876305
214	0xbe37f61d	-0.17964979
215	0x3eb4b08b	0.35290942
216	0xbcd02478	-0.025408015
217	0xbec10d19	-0.37705305
218	0xbd727900	-0.059197426
219	0xbe1b9e97	-0.15197216
220	0xbd89665d	-0.06708977
221	0x3c1127de	0.008859603
222	0xbe176c16	-0.14787325
223	0xbda7fbe2	-0.0820234
224	0xbdb0f308	-0.086401045
225	0xbdc29eb0	-0.095029235
226	0xbddc845a	-0.107674316
227	0xbe8796fd	-0.26482382
228	0x3dda566b	0.10661014
229	0xbf39fb24	-0.72648835
230	0xbdf15cfc	-0.117853135
231	0xbd87fa08	-0.066394866
232	0xbecf9bd8	-0.40548587
233	0xbd877559	-0.06614179
234	0xbe6f54d0	-0.23372197
235	0xbe0ea29d	-0.1392922
236	0xbd3d398a	-0.04619745
237	0xbda4fec5	-0.08056406
238	0x3fcecd14	1.6156335
239	0x3f78ca6e	0.97183883
240	0x3eea4728	0.45757413
241	0xbd1459b3	-0.036218356
242	0xbd1faf35	-0.03898545
243	0xbdb645a8	-0.089000046
244	0xbe176133	-0.14783172
245	0xbe6e4b59	-0.2327093
246	0xbecceb2d	-0.40023175
247	0xbea3438c	-0.31887472
248	0xbd622965	-0.05521526
249	0xbdfdcaea	-0.123922184
250	0xbd96593f	-0.07341241
251	0xbdada8c6	-0.084794566
252	0xbd961b6d	-0.0732945
253	0xbe46dc70	-0.19420028
254	0xbdc5c1a0	-0.09656072
255	0xbe6b3e0a	-0.22972885

l3.weight f4 [2, 300]
0	0x3e464f56	0.19366202
1	0xbcde18dd	-0.027111465
2	0xbf1787a3	-0.5919134
3	0x3c7237cf	0.014783814
4	0x3c6715bc	0.014104303
5	0x3ced2b9b	0.028951457
6	0xbc4a1459	-0.012333953
7	0xbc096800	-0.008386612
8	0x3c21a4a8	0.009865917
9	0x3f0a1279	0.5393444
10	0x3ca42b2a	0.020040113
11	0x3d5de493	0.054173063
12	0x3ea0ebcf	0.31429908
13	0xb9c06e58	-0.00036703306
14	0xbf34f223	-0.7068197
15	0xbdc06efa	-0.09396167
16	0xbc8c46cf	-0.017123608
17	0x3adc2eda	0.0016798631
18	0xbd068aea	-0.032847323
19	0x3fa30e9f	1.2738837
20	0xbc2ae9f7	-0.010431758
21	0xbcb77807	-0.0223961
22	0xbbd34e74	-0.0064485613
23	0x40b05d99	5.5114255
24	0x3c872da4	0.016501255
25	0x3c64e686	0.013970977
26	0xbca52898	-0.020160958
27	0xbc83a200	-0.016068459
28	0x3f8d8c7d	1.1058499
29	0xbc5aaf8b	-0.013347517
30	0xbc6300bc	-0.013855156
31	0xbc08ae56	-0.008342346
32	0x3eb55a6e	0.35420555
33	0xbd4e1cc9	-0.05032042
34	0x3df2c437	0.11853831
35	0x3b91957c	0.0044428688
36	0x3f4ea390	0.80718327
37	0x3f20a742	0.62755215
38	0x3b10f986	0.0022121384
39	0xbbfecb0d	-0.0077756704
40	0x3a63996c	0.00086822244
41	0xbfbec2aa	-1.4903157
42	0x3edbbf81	0.42919543
43	0x3d6cb639	0.05779097
44	0x3d470e1f	0.04859745
45	0xbd371db8	-0.044706076
46	0xbcfa21f8	-0.030533776
47	0xbc211de7	-0.009833789
48	0xbc580f2d	-0.013187212
49	0xbae024f2	-0.0017100854
50	0x3cbf6acf	0.02336636
51	0x3d9bfbd2	0.0761639
52	0x3fa6b0a4	1.3022656
53	0x3cfa5453	0.030557787
54	0xb9c62edb	-0.00037800413
55	0x3d6a3d69	0.05718747
56	0x3cc0eda9	0.023550825
57	0xbceee831	-0.029163452
58	0xbffda694	-1.9816461
59	0x3f934fcd	1.1508728
60	0x400e5cf6	2.224424
61	0x3a895871	0.0010478628
62	0x3c08f86d	0.008360011
63	0xbc1972da	-0.009365762
64	0x3c9d6f50	0.019218117
65	0xbf0b53a2	-0.5442449
66	0xbcad1533	-0.021128273
67	0xbcfdb716	-0.030971091
68	0xbcf9ec26	-0.030508112
69	0x3fd68067	1.6757935
70	0x3cf058f0	0.029339284
71	0x3f72dec4	0.94871163
72	0xbb825183	-0.003977002
73	0x3c2b06ae	0.010438604
74	0xbd19da4c	-0.0375617
75	0x3dd7d965	0.105395116
76	0x3c1ed6db	0.00969478
77	0xbea891ce	-0.3292374
78	0x3fd31ac9	1.6492549
79	0xbd5d4914	-0.05402477
80	0x3cb39c9d	0.021925265
81	0xbd4412bd	-0.047869433
82	0xbd12296d	-0.035684038
83	0x3bee8c68	0.0072799213
84	0xbcb785f8	-0.022402748
85	0xbcaaa133	-0.020828819
86	0xba14b9f4	-0.0005673461
87	0x3e01a9c0	0.1266241
88	0x3f889faf	1.0673732
89	0xbc5147a7	-0.012773431
90	0xbe3e380c	-0.18576068
91	0x3bb25444	0.005442174
92	0xbfd43c8b	-1.6580976
93	0xbd9f2dba	-0.077723935
94	0x3fcc0bde	1.5941122
95	0x3e86ea98	0.26350856
96	0xbf156f85	-0.5837329
97	0x3f830468	1.023572
98	0xbc4e9c22	-0.012610467
99	0x3c89d749	0.016826289
100	0x3f989a61	1.1922113
101	0x3d062c0f	0.03275686
102	0x3d18af3b	0.037276488
103	0xbc5e98cb	-0.013586233
104	0xbdb29d4c	-0.08721408
105	0xbf9126eb	-1.1340002
106	0x3de7321a	0.11288853
107	0xbd70791d	-0.058709253
108	0x3c8c4626	0.017123293
109	0x3d895d8a	0.06707294
110	0x3bc312ce	0.0059531694
111	0x3cfec5c7	0.031100167
112	0x3bb51d8e	0.005527205
113	0x3e06b982	0.13156703
114	0xbe1ad94a	-0.15121952
115	0xbcbf8f7f	-0.023383854
116	0xbc7d3b5a	-0.015456045
117	0x3d338f58	0.043837875
118	0xbac45544	-0.0014979024
119	0x3c7e509c	0.015522148
120	0xbad742fa	-0.0016423159
121	0x3ca57f0e	0.020202186
122	0x3b8f1ece	0.004367686
123	0x3e1d0a02	0.15335849
124	0x3f454b00	0.77067566
125	0xbbdbc81d	-0.006707205
126	0xbb87b9f9	-0.0041420427
127	0x3e35d6ad	0.17757674
128	0xbd7e7045	-0.062118787
129	0x3bc0499a	0.005868149
130	0xbc4799d1	-0.012182669
131	0x3cf3564d	0.029704237
132	0x3ed715fa	0.42008954
133	0xbc85c946	-0.016331326
134	0xbcebd848	-0.028789654
135	0x402e85b1	2.7269099
136	0x3c2192a8	0.009861626
137	0x3c521124	0.012821469
138	0x3dc92559	0.098215766
139	0x3c7f84f0	0.01559566
140	0x3e03e4fb	0.12880318
141	0x3d098889	0.033577476
142	0xbae6879b	-0.0017588021
143	0xbc0a10f0	-0.00842689
144	0x3fd0c85e	1.6311147
145	0xbd108372	-0.035281606
146	0xbd21c630	-0.039495647
147	0x3c8e0453	0.017336046
148	0x3f0b6025	0.5444358
149	0x3f9e0773	1.2346023
150	0x3cf030ab	0.029320082
151	0x3c7293bc	0.01480573
152	0xbc8e9236	-0.017403703
153	0x3de0529d	0.10953257
154	0xbc4569a2	-0.012049111
155	0xbdc39b10	-0.0955106
156	0xbd729a19	-0.05922899
157	0x3debf1c2	0.11520721
158	0xbbf18a83	-0.007371248
159	0xbcb371c5	-0.021904835
160	0x3c9a72e1	0.018853607
161	0xbcc48b02	-0.023992065
162	0xbe76afd2	-0.24090508
163	0xbc197583	-0.009366396
164	0x3efd864e	0.4951653
165	0x3b9ad7cc	0.004725432
166	0x3eb85cf5	0.3600842
167	0xbc9eea9b	-0.019398978
168	0x3bd2a8b7	0.006428804
169	0x3d3a54f6	0.04549118
170	0x3e852ecc	0.26012266
171	0xbe26f6cf	-0.16305088
172	0x3f9be355	1.2178751
173	0x3d05e9a3	0.032693516
174	0x3da10d35	0.07863847
175	0x3cc04ee8	0.023475125
176	0xbd169c5e	-0.036770217
177	0x4050eb5e	3.2643657
178	0x3cf93fa1	0.030425848
179	0x3e8ae10a	0.27124816
180	0x3e53f16f	0.20697568
181	0x3b9f2e6a	0.004857828
182	0x3c217a98	0.009855889
183	0x3f30efb2	0.69115746
184	0xbddd549b	-0.10807153
185	0x3fc770b1	1.5581266
186	0xbd4bda20	-0.049768567
187	0xbf405b65	-0.75139457
188	0x3c3b1b25	0.011420046
189	0xbb6cadb2	-0.0036114273
190	0xbcc52fc5	-0.02407063
191	0xc03a04b6	-2.9065375
192	0xbcb2418d	-0.021759773
193	0x3aa97092	0.0012927225
194	0xbba27f10	-0.0049589947
195	0xbd03bc8b	-0.03216223
196	0xbcf9e816	-0.030506175
197	0x3c1109cc	0.008852433
198	0x3c851e8d	0.01624992
199	0xbfa2a82f	-1.2707576
200	0xbb88669c	-0.0041626226
201	0xbca02ca5	-0.019552538
202	0xbfab9c56	-1.3407085
203	0xc022df9e	-2.5448985
204	0x3cffce31	0.03122625
205	0x3db6440e	0.08899699
206	0x3cd1d2a7	0.025613142
207	0x3c4191d3	0.011814552
208	0xbcc892ff	-0.024484156
209	0x3d2d64c2	0.04233242
210	0xbe4802fd	-0.1953239
211	0x3ed1a9b1	0.40949777
212	0xbfc91b2a	-1.5711415
213	0xbd37c4ff	-0.044865604
214	0x3d298539	0.041386817
215	0x3f5b0538	0.8555484
216	0x3b912ee0	0.0044306368
217	0xbe20800b	-0.15673845
218	0x3c76e2fc	0.015068766
219	0x3d1a5880	0.037682056
220	0xbca5ad1c	-0.020224147
221	0x40089a30	2.1344109
222	0xbdd2dbe0	-0.10295844
223	0x3baca74b	0.0052689663
224	0xbe31ddca	-0.17369762
225	0xbe34a679	-0.1764163
226	0x3c63c7b3	0.0139025925
227	0x3f860f5a	1.0473435
228	0x3ee9293a	0.45539266
229	0x408a29cd	4.3176026
230	0x3bfa32cf	0.0076354514
231	0x3bcf4916	0.006325851
232	0x3f23d391	0.639947
233	0x3cf3f325	0.029779026
234	0x3ee83d99	0.45359495
235	0x3ec7f929	0.39057282
236	0xbcef4fff	-0.02921295
237	0xbce5ad6b	-0.028036794
238	0xbd99d3d4	-0.07511106
239	0x3de3cf0d	0.11123476
240	0x40847d0c	4.1402645
241	0x3b379e65	0.0028017994
242	0x3bb68145	0.0055696093
243	0x3af81314	0.0018926584
244	0xbca65cc9	-0.020307915
245	0x3deb86e8	0.11500341
246	0x3fcb3522	1.587559
247	0xbde5e6f0	-0.112256885
248	0x3c4f6211	0.012657658
249	0xbd5d85b2	-0.05408258
250	0x3d5ede86	0.054411434
251	0x3e7ed796	0.24886927
252	0x3d6b632f	0.057467636
253	0x3ef8976c	0.48553026
254	0x3d8b8224	0.06811932
255	0x3e013484	0.1261769

l3.bias f4 [2]
0	0xbc51a7c9	-0.012796351
1	0xbf562928	-0.8365655
