Swimmer/Swimmer-v4_trained_actor.pth (torch, 500850 bytes, 6 tensors)

l1.weight f4 [400, 8]
00000000: 4eb1 593f febb b33e 229e 3fc0 e7d4 78bf
00000010: d60b 203f 92b6 0f3e 5edd 983e 6d4b 11bf
00000020: 6ea8 8dbf 0f14 5d3e 9df2 5abf 5177 343f
00000030: ad23 613e 41fe 6b3f e031 59bf 3ca8 4a3f
00000040: 003b 6c40 7ec5 13bf 31e5 3cc0 798c 383f
00000050: 0b70 acbe 472d afbe 8a19 6d3e eebf 27be
00000060: d17d 6d40 684d 0dbd 08b8 a03d 792a adbf
00000070: fc5d f23e 5c38 f1be 158d 6dbe 47ac 603d
00000080: 39be 9fbe 2d2c cfbe 5415 02c0 e80e 833f
00000090: 1704 ea3f ea5a 773f a627 40bf 29a6 4dbf
000000a0: fa30 813f 6983 3840 00b3 b7bf b948 bf3f
000000b0: 3f2a 573f 17dd d7be 2c12 0f3e 64ea a83e
000000c0: 715c 563f e46d a8bf 03fa 18c0 c38d 30bf
000000d0: 63b6 e4bf 8868 95bf a550 533f 0664 653f
000000e0: 9ba8 c23f e70d 3b3e be24 afbe 1395 11c0
000000f0: 5452 a9be 58f8 87bf 0c7f 133f 0e46 c13f
00000100: 9151 663d 4ee7 28bf 155c 43c0 3c3b 09bf
00000110: 6197 e4bf b8c9 823e 7f44 bbbe f60c a43e
00000120: 1df0 02c0 67a7 a93f ba35 09c0 1b32 f9bf
00000130: 104f a1bf 902e 0ebe 7e77 28bf 3f16 223e
00000140: ed71 a9bf 9979 20bf f98e 86c0 91f3 d63f
00000150: 2ca5 8ebf 2fa0 86bf 1028 3abf 8d5c 183d
00000160: 1077 813f 64d7 ec3f b470 f53f 60f7 37bf
00000170: f4d1 bbbf c467 423e 3988 943f c59b 86be
00000180: c648 c03f 076b e9be 3f3a ccbf bc3d 0c3e
00000190: d1b0 6abf e229 87be 0c77 37be 63fa ee3e
000001a0: 3a1c f23e ef5e c63f 8194 cebf 3982 09bf
000001b0: 17c2 23c0 1bcc 63bf 0115 acbd 0f56 903e
000001c0: 0ba0 8a40 2416 ddbf cbe4 613f 03f7 d83e
000001d0: 6d06 82bf 5c45 1c3f 6fb0 17be 1e39 b43d
000001e0: 5c0e bb3d adf3 2840 4d87 ad3e a741 97be
000001f0: 9330 813f 1db7 eebd d8ed 253d 199e 3b3d
00000200: 031f fe3e b802 dd3e f5e1 32be 8752 0ac0
00000210: 59f3 5940 405c 923f e55c 18bf 8637 493f
00000220: 36a9 043d 2519 0640 376b b1bf bcda 763f
00000230: 074f 2fc0 f25f 9cbf c8f6 39bc db7e 56bf
00000240: c40f 33bf d72c a63f 63c9 cdbf 42de 01c0
00000250: 8e02 a73e 7501 a03e 53be 483e 3d14 f3be
00000260: cf36 9940 59be 6fbf 8981 6dbf 02ea bbbf
00000270: 8590 c03c 0161 a5be 380d 52bc 25d0 083f
00000280: 001f 5f3f fd35 72bf 0060 b33f 96f8 cd3e
00000290: 5f33 cbbf 6a6b 00c0 b65e 91bd b949 f73f
000002a0: 9579 e7bf 9e1d 26c0 02ff 943f 5383 14bf
000002b0: 5a7e 8abf 1a29 9abe ea7a 5f3c 4934 813f
000002c0: b4d2 f03f 0602 93be 17e0 f8bf bd92 173f
000002d0: e6b2 3fbf 9319 bb3e b330 d3bc d236 c23e
000002e0: 0cc8 22c0 6e1e 8fbf a41d c5be d1ad b7bd
000002f0: defd 92bd a35b 76be 6b15 ffbe fcac 00bf
00000300: 9df1 b83e a4c7 e2be c1df 79c0 fda9 cbbf
00000310: de3a 9c3f 1257 9dbe a072 52be b282 92be
00000320: 6b8b bb3e 6646 8bbf c302 93bf a537 0240
00000330: c511 023f b6f0 283f fc51 03bf d4ed 033f
00000340: e962 96be 6629 b9be cb3d 18bf b543 d23e
00000350: e46b 063e 1a32 3fbe 31e6 80be 3252 4dbc
00000360: c0cd 93bf 3b32 f23f d96c 49c0 ff9b 233f
00000370: e309 15c0 b224 febe 1ddd 56bf 980b 92be
00000380: c923 b140 7696 cb3e 27a6 8b3f d917 a13e
00000390: a8ae 763f 5bcb 86bf d058 993e 0348 fb3e
000003a0: 8ebe 883f 3fa6 373f 7495 cebf 99e4 5abf
000003b0: 01a6 2240 963f d33f 0a97 19be 6aa3 ffbe
000003c0: bf23 fb3d 759c 24bf 2c6b 91be 2800 afbe
000003d0: a91e 283e 117a 1b3f e5c9 9a3e 42e4 853e
000003e0: 24e7 f4bf ecf6 83bf 83a7 b13f f18a 783f
000003f0: 9767 403f 1489 fe3e 4467 a63e b29b ccbe
0.8503617 0.35104364 -2.9940267 -0.97199863 0.6251806 0.14034489 0.2985639 -0.56755716
-1.1067026 0.21589683 -0.8552645 0.7049456 0.21986265 0.92184836 -0.8484173 0.79162955
3.691101 -0.57723224 -2.9514887 0.72089344 -0.33679232 -0.3421423 0.23154274 -0.16381809
3.7108042 -0.03449765 0.07847601 -1.3528587 0.4733733 -0.4711331 -0.2319835 0.054851796
-0.31199816 -0.4046339 -2.0325518 1.0238924 1.8282498 0.966231 -0.750605 -0.80331665
1.0093071 2.8830206 -1.4351501 1.4944068 0.8404884 -0.42160866 0.13971776 0.32991326
0.83734804 -1.3158536 -2.3902595 -0.6896631 -1.786816 -1.1672525 0.8254493 0.8960575
1.5207704 0.18267022 -0.3420772 -2.2747238 -0.33070624 -1.0622663 0.57615733 1.5099504
0.05623013 -0.6597794 -3.0524952 -0.5360601 -1.7858697 0.25544524 -0.36575696 0.32041138
-2.0459054 1.3254212 -2.1439042 -1.9468416 -1.2602253 -0.1388495 -0.6580733 0.15828799
-1.3237892 -0.62685543 -4.2049527 1.679308 -1.1144156 -1.0517634 -0.7271738 0.03719764
1.011446 1.8503232 1.9175019 -0.7186184 -1.4673448 0.18984896 1.1604072 -0.26290718
1.5022209 -0.45589468 -1.5955275 0.13695425 -0.9167605 -0.26399142 -0.17916507 0.46675405
0.4728716 1.5497721 -1.613907 -0.5371433 -2.5587213 -0.88983315 -0.08402444 0.28190657
4.3320365 -1.7272382 0.88239735 0.42375955 -1.0158211 0.61043334 -0.14813398 0.08799957
0.09133598 2.6398728 0.3389229 -0.29542276 1.0092949 -0.1165602 0.04051003 0.04580507
0.49633035 0.43166137 -0.17469008 -2.161287 3.4054778 1.1434402 -0.59516746 0.7860035
0.032387935 2.0952847 -1.3860844 0.9642751 -2.7391984 -1.221678 -0.011350341 -0.83787316
-0.6994593 1.2982434 -1.6077083 -2.0291905 0.32619137 0.31251112 0.19603853 -0.47476378
4.7879405 -0.9364982 -0.9277578 -1.4680789 0.023506412 -0.3230057 -0.012820534 0.53442603
0.8715668 -0.9461363 1.4013672 0.4022872 -1.5875052 -2.006556 -0.07098143 1.9319373
-1.8083979 -2.5955577 1.1640322 -0.58012885 -1.081981 -0.30109483 0.013640145 1.0094081
1.8814301 -0.2871248 -1.9443387 0.5920828 -0.7488235 0.3654295 -0.025780058 0.3793245
-2.54346 -1.1181161 -0.38499177 -0.089687 -0.071773276 -0.24058394 -0.49821028 -0.50263953
0.36121836 -0.4429294 -3.9042819 -1.5911251 1.2205465 -0.30730492 -0.20551538 -0.28615338
0.36629805 -1.0880859 -1.1485218 2.0346463 0.50808364 0.65992296 -0.51296973 0.5153477
-0.29372337 -0.36164397 -0.5946929 0.4106728 0.13127095 -0.18671456 -0.25175622 -0.012531804
-1.1547165 1.8921579 -3.1472685 0.63909906 -2.3287284 -0.4963737 -0.8393114 -0.2852447
5.5356183 0.3976323 1.0910081 0.31463507 0.96360254 -1.0530809 0.2995057 0.49078378
1.0683153 0.71738046 -1.613936 -0.8550506 2.541382 1.650378 -0.14999023 -0.49929363
0.122626774 -0.64301234 -0.28402078 -0.34179807 0.16417946 0.60733134 0.30232158 0.2615071
-1.9133039 -1.030973 1.3879246 0.9708701 0.75158066 0.49713957 0.3250066 -0.39962536

l1.bias f4 [400]
00000000: d01b 0bc0 d364 9fbf 612d 0ac0 e790 acbf
00000010: 5c9c dfbf b851 e8bf 5e5b b2bf 05c8 88bf
00000020: 9012 d0bf d37a 603f e239 0e40 a827 88bd
00000030: 06aa e2bf b658 a6be 190a cebf a66f 93bf
00000040: 0c1e e1bf 82a5 99bf 8cfc e9bf 139e 73bf
00000050: 311c 51bf de34 1fbf 687f 9fbf e30c dcbf
00000060: 1dab d6be f160 c8bf 8b40 02c0 64ab c3bd
00000070: bc0a 5540 0bb3 cbbf 1e67 fbbf e147 e8bf
00000080: 6ce6 073f d14a 88bf 09d9 7bbf f5f1 69bf
00000090: 2b26 d0bf 7498 9ebf 426f 9d3f c654 c9bf
000000a0: 615d 983f 3d11 43bf 6c7d 5a3f d546 95bf
000000b0: 9986 b2bf 0db7 92bf 168c 2bbe d6c2 2bc0
000000c0: 4a97 293f 45f2 01c0 acfa c4bf e2c0 43c0
000000d0: ef56 a9bf bd4c aebf c82e e9bf 5dbc 2fc0
000000e0: 19ef 4fbf e5f1 abbf 2728 10c0 8d4f bcbf
000000f0: 4bfb 65bf 0323 c3bf e841 1ebe f792 11c0
00000100: 3102 8fbf ec35 c9be 475d 4fc0 208b 4ebd
00000110: e799 83bf d425 5bbd 23ed 0640 9353 43c0
00000120: bc2b afbf fdf9 c5bf 9f00 babf a0c8 e4bf
00000130: ffd6 a6bd 6e14 d3bf 86fd 91bd 534c d43e
00000140: f0c8 833e ae70 bebf a008 433f 6c32 7fbf
00000150: 5166 79bf 6271 4040 e857 96bf 3f2d 1540
00000160: 77e5 a1bf 1c3e c1bf 44c3 adbf 2e1e d8bf
00000170: b496 1540 843d e43d 726d 2abf a4a1 2940
00000180: 466d babf 9406 77bf 8b8f 02bf 95c0 f8bf
00000190: 0434 013f ebe2 b7bf 64d7 fb3e ba30 22c0
000001a0: 7c60 d7bf ae83 43bf 3fac a63e e6f9 3dbf
000001b0: 96a3 60bf 9684 3dbf 937c 89bf 5df7 afbe
000001c0: 6269 13c0 8367 8bbf 41aa a2bf 430f febf
000001d0: 22b8 68bf 49f8 bfbf 35f2 09be 6c31 b2bf
000001e0: f41f 02c0 7732 fbbf f5d1 773e cc1d 753e
000001f0: fce7 e33f 7322 173d fc5c 9abf 4dc2 c23f
00000200: 6323 2fc0 9043 a6bf dd51 98bf 3698 bb3e
00000210: ca0a 2d40 ea78 dfbe c385 89bf 953d cdbf
00000220: a462 20bf 9395 d8bf b489 0cc0 b398 a2be
00000230: c48a a4bf 5d54 0fc0 89db a9be 7a76 d4bf
00000240: 9696 b33f ba8b 20bf a80f eabf 2923 5d40
00000250: 7834 493e f33c b0bf 26f4 8bbf a153 3040
00000260: 37dd 383e 23c9 853f a2af 37bf d37a c1bf
00000270: 2054 abbf 135e e2be 0dcf b0bf 7ef0 71bf
00000280: 441e 2ac0 2174 9ebe ea3b 10bf cbba c6bf
00000290: f85c 09c0 70e6 eabf 0ff8 89bf 3185 37bf
000002a0: 27b0 a5bf 2a49 e6bf 9d5d 7ebf c1e2 edbf
000002b0: cf34 febf 5011 59bf 2313 f6bd 964b eebf
000002c0: 76dc 43bf 2219 d8bf 28db 78be d017 0740
000002d0: d1eb 61be 0255 ecbc cab9 aebf 647f e0bf
000002e0: 6b51 dbbf bf03 d5bf 5c23 b5bf 4744 1ec0
000002f0: ae16 fcbf a26d cdbf 2572 cbbf acef 3740
00000300: 1f05 31bf 6d20 a4bf cf7b d13f efd4 2b3f
00000310: 6d13 02c0 7da6 36c0 6470 c33f add9 883f
00000320: 4967 d9bf d6fc 1ec0 ca10 4bbf 7d34 63bf
00000330: f636 9ebf 69a2 bebf 4275 f8bf d407 f0bf
00000340: ddbd 233e fe5c 05c0 9631 80be 99ff 84bf
00000350: 9df0 1340 55a1 63bf 0cd6 d03f 8483 613f
00000360: 0991 bfbf 53df f6bf ad14 a1bf 6d5d ae3f
00000370: b046 15bf c722 533d 6214 debf 86ca 763e
00000380: 293a c3bf 0d9b 0140 3caa 8dbf e317 973f
00000390: 7d5a c8bf cbb6 acbf f904 0340 1991 38be
000003a0: e96f ffbf 30ca f83e c67b ecbf 78d8 203f
000003b0: c2ed 52c0 a164 debe 94f5 553e cb06 6740
000003c0: d1c8 673f e3a3 0740 bb8d 883f 59da d3bf
000003d0: fd66 e0bf 9ee8 523e fd4d e0bf 52fd 0140
000003e0: c10a 85bf fd98 fbbf 87b5 d3bf c9bb 06c0
000003f0: 3335 c03f 7b8a 87be a821 7a3f 79b4 593f
-2.1735725 -1.2452644 -2.1590197 -1.3481721 -1.7469592 -1.8149939 -1.3934133 -1.0686041
-1.6255665 0.87687415 2.222283 -0.06648189 -1.7708137 -0.32489556 -1.6096832 -1.1518447
-1.7587295 -1.2003634 -1.8280196 -0.9516308 -0.8168364 -0.62190044 -1.2460756 -1.7191433
-0.41927424 -1.5654584 -2.0351894 -0.095541745 3.3287802 -1.5914015 -1.9640844 -1.8146936
0.5308597 -1.0647832 -0.98378044 -0.9138482 -1.6261648 -1.2390275 1.2299578 -1.5728996
1.1903497 -0.7619818 0.8534763 -1.1662241 -1.3947326 -1.1462113 -0.16752657 -2.6837668
0.66246474 -2.030412 -1.5388999 -3.0586476 -1.3229655 -1.3617169 -1.8217402 -2.7458718
-0.8122421 -1.3433195 -2.2524507 -1.4711777 -0.8983657 -1.524506 -0.15454829 -2.274595
-1.1172544 -0.39298952 -3.2400682 -0.05042565 -1.0281342 -0.053502873 2.1082237 -3.051976
-1.3685222 -1.5466915 -1.453144 -1.7873726 -0.08146476 -1.649061 -0.07128434 0.4146448
0.2573924 -1.4878137 0.76185036 -0.9968631 -0.9742175 3.0069203 -1.1745577 2.3308866
-1.2648152 -1.5097079 -1.3575215 -1.688421 2.3373232 0.11144546 -0.6657325 2.6504908
-1.4564598 -0.9649441 -0.5100028 -1.9433771 0.50469995 -1.4366125 0.49187768 -2.534224
-1.682632 -0.763728 0.32553288 -0.7420944 -0.8774961 -0.74030435 -1.0741142 -0.3436841
-2.303307 -1.0890964 -1.2708207 -1.9848408 -0.90905964 -1.4997646 -0.13471301 -1.3921332
-2.0332003 -1.9624776 0.24201186 0.23937148 1.7805171 0.036898088 -1.2059627 1.5215546
-2.7365348 -1.2989368 -1.1899983 0.36639565 2.7037835 -0.43646938 -1.0743946 -1.6034418
-0.62650514 -1.6920646 -2.1959047 -0.31757125 -1.2854848 -2.2395241 -0.33175305 -1.6598656
1.403033 -0.62713206 -1.8286028 3.455271 0.19648921 -1.37686 -1.0933883 2.7551043
0.18053137 1.0452007 -0.7175237 -1.5115608 -1.3385048 -0.44212398 -1.3813187 -0.94507587
-2.6580973 -0.30947974 -0.5634142 -1.5525755 -2.1462994 -1.8351574 -1.0778826 -0.7168761
-1.2944382 -1.7991078 -0.9936159 -1.8584825 -1.9859866 -0.8479204 -0.12015369 -1.8616817
-0.7650827 -1.688267 -0.24302351 2.1108284 -0.22062613 -0.028849129 -1.3650448 -1.7538877
-1.7134222 -1.6641768 -1.4151416 -2.4729173 -1.9694421 -1.6049082 -1.5894209 2.8740034
-0.6914844 -1.2822396 1.6365908 0.67121786 -2.0324357 -2.8539116 1.5268674 1.0691429
-1.6984645 -2.484182 -0.79322493 -0.88751966 -1.2360523 -1.4893314 -1.9410784 -1.8752389
0.15990396 -2.0838008 -0.2503783 -1.0390502 2.3115609 -0.8891805 1.6315322 0.880913
-1.4966136 -1.9286903 -1.2584435 1.3622261 -0.58310986 0.051546838 -1.734997 0.24100694
-1.5252124 2.0250885 -1.1067576 1.1804165 -1.5652615 -1.3493284 2.0471785 -0.180241
-1.9956027 0.48591757 -1.8475273 0.62830305 -3.2957616 -0.4343615 0.20894462 3.6097896
0.90540797 2.1193779 1.0668253 -1.655101 -1.753143 0.20596549 -1.75238 2.0310864
-1.0393907 -1.9656063 -1.6539773 -2.1052115 1.5016235 -0.2647284 0.97707605 0.85041004

l2.weight f4 [300, 400]
00000000: 2431 ea3c 28e0 8e3b 9cd8 babd edd1 33be
00000010: 5c61 acbd 67a7 82bd 1d28 a8bb 8897 64bd
00000020: 7d4a 20bd 0752 2fbd 8291 b2bd 9ffa 0a3d
00000030: b573 a13d 943e 0c3d 3604 b5bc a21b 8bbd
00000040: 44ca abbd b3da 2c3d 5e33 c53c ccf9 5bbd
00000050: 99f0 04be 96ae fbbd 55e3 42bd d1da 87be
00000060: 775a 3d3b 8d87 a23d 037a 82bd 9425 08bd
00000070: 0a6b fdbc 362b f0bd 70df 12bd 1cc8 64bd
00000080: dafe 363c b464 753c 444f 993d 32e0 06bd
00000090: 18ed f3bd 9821 923c e05e 55bd abeb f8bd
000000a0: c510 4c3c 0714 66bd 0d88 533d 3095 c23c
000000b0: 85b2 75bd ca51 93bd d9cc 4a3e c241 0cbe
000000c0: a551 92bd 5ecc a4bd 02d2 f4bd c273 f3bc
000000d0: f3a5 40bd 1109 5ebc 5f64 16bc 68a6 d4bd
000000e0: d3cd 613c c8da ecbc 1f61 763b 7fbf 66be
000000f0: ae88 793d 1d8c 92bd 6f4a e9bd 595a 99bd
00000100: f148 dcbd 6b3b 80bd 7570 11be 489c 0ebe
00000110: 0b82 0e3e 06d5 bbbc 9c86 adbd 6ba9 50bd
00000120: 46b8 febc a054 b83c 75bc 69bd 9f86 0fbb
00000130: 9251 e5bd 37cb 99bd 94ab 6abd 0f5c d1bd
00000140: bb43 ebbd 27e8 00be 9c0e 23be d352 893d
00000150: eb61 42bd 6f50 34bc caf2 68bd d030 74be
00000160: 8780 563d ed6f e5bb 77c5 a1bb fede a2bd
00000170: 4450 03be ced0 6ebd f4bd f3bb e6ef a2be
00000180: 89d6 6ebd d21c 76bd be44 91bd 8ba8 a8bd
00000190: 71e1 d9bd a728 0bbd 97ac c1bc dfd1 ba3d
000001a0: 1c11 e2bc 1e1e 6c3d 3f3d 7a3d b39b 89bd
000001b0: 8b82 8b3d 88e9 be3d 02e0 04be a72a 2ebd
000001c0: 8144 903c c021 9abd 484c b0bd 5774 b9bd
000001d0: 8474 84bd 8a0a 35bd dd95 6bbd 4c92 2c3c
000001e0: e8f9 31bd 3ee7 ef3d d465 4fbc ebd7 59be
000001f0: 2fa6 99bd 591a 1fbe 4404 e4bd 41a8 bdbd
00000200: 3f1d 903c e07b 1fbd d437 b8bd cc81 4c3c
00000210: 198b 6cbd d640 c0bd cd3d 9abd 5eef 41bd
00000220: 841f 2a3e c7bf ccbd 4fd1 8cbc 411c 28be
00000230: d64c 80bd 6e8d a9bd acc7 39bc ed8d 54be
00000240: a302 c73d 517c 45bd 70e6 3dbd cbf7 19be
00000250: c1ab 8a3d 3d26 c93c 04d6 adbd 9a82 0bbe
00000260: e641 38be 2034 0e3c aec0 c5bd 0fe3 70be
00000270: f829 a5b9 e147 0abe 0b2b 93bd 0acb 03be
00000280: ca39 2dbd 1fab a9bd 8a83 7dbd a314 a4bd
00000290: 342e adbc eff9 70bb abc5 11bd f8e8 a2bd
000002a0: 6b9e 6cbd bd27 453d 778e a03d fe94 e0bc
000002b0: 3978 103b 06b2 953d 9d06 2fbe c30d e13c
000002c0: 2e5c 533d 3b5f 0a3e 47cb 653d ded5 85bd
000002d0: 6ef8 263e 7a41 bdbd daeb f53c 7764 723c
000002e0: 4bcc 7bbe 64a3 88be 7728 4dbd e24e 7fbd
000002f0: 4f2f 3c3d 0188 c63c 6ad8 09be 0583 753c
00000300: 482f ffbc a8ad 953c 9573 963a 8753 be3d
00000310: f366 24be c3ca 43bd b504 e03b aaf3 d3bd
00000320: 8440 903c 8dc7 3cbc bcaa c1bd 8a4e efbc
00000330: 5b12 5abb e625 9fbd e6f7 77bd 88ae 783d
00000340: b9dd 88bd 7e90 b7bd de55 8bbd 4fd6 883d
00000350: 9ecb 07be e87b a1bd 44de 5bbd 5219 85bd
00000360: 0a86 813d f876 b63d ed0f e33b 6b91 7ebd
00000370: cf0c a3bd 4f81 ac3d 4039 a9bc c5f6 c4bd
00000380: 6c4e f2bd 265c 82bd 0f17 b0bd 38a7 22bd
00000390: d7f0 aabd aa27 94bd 74f6 ca3d 2e44 8dbd
000003a0: bce0 a8bd 6367 54be 6823 0c3d 4386 35be
000003b0: 87b8 9e3d 39c3 1cbe 01f0 90bd 98c5 c5bd
000003c0: cdaf c2bd 318b 023d f0fc fb3c 9738 943d
000003d0: 2d1c 0ebd 869e a8bd 90d2 f2bc b14d 17be
000003e0: 1643 b8bd dca4 2ebd 0c9d 82bd 4f7f 2b3d
000003f0: 502d f4bd 8294 79bd f299 04be 3d6f 63bd
0.028587885 0.0043602176 -0.09123346 -0.17560549 -0.08417007 -0.06379586 -0.005131735 -0.055808574
-0.039133538 -0.042802837 -0.0871916 0.033930417 0.078833975 0.034239367 -0.022096734 -0.0679238
-0.083881885 0.042200755 0.024072345 -0.05370502 -0.12982406 -0.12289159 -0.047580082 -0.2653413
0.0028893033 0.079360105 -0.06370928 -0.033238962 -0.03093483 -0.11726992 -0.035857618 -0.0558549
0.01116916 0.014977623 0.07485822 -0.032928653 -0.119104564 0.017838284 -0.052092433 -0.12154325
0.01245517 -0.056171443 0.05164342 0.023752779 -0.059984703 -0.071933344 0.19804706 -0.1369696
-0.07144479 -0.080467924 -0.11954118 -0.029718284 -0.04703326 -0.013551966 -0.009179204 -0.10383302
0.0137819825 -0.028912917 0.003759451 -0.22533987 0.060921364 -0.07155631 -0.1139115 -0.074879356
-0.107561 -0.06261333 -0.14203055 -0.13926804 0.13916795 -0.022928726 -0.0847294 -0.05094282
-0.031093728 0.02250129 -0.057064492 -0.0021900309 -0.11197199 -0.07509463 -0.057292536 -0.10222637
-0.11487528 -0.12588559 -0.15923542 0.067052506 -0.047456663 -0.011005505 -0.056872167 -0.23846745
0.052368667 -0.007001868 -0.0049368697 -0.07952689 -0.12823588 -0.0583046 -0.0074384157 -0.31823653
-0.058310065 -0.06008608 -0.0709319 -0.08235272 -0.10638703 -0.033974316 -0.023641868 0.09122061
-0.027596049 0.05764591 0.061093565 -0.067191504 0.068120085 0.09321886 -0.12976077 -0.042521145
0.01761079 -0.075259686 -0.086082995 -0.09055393 -0.06467536 -0.044199504 -0.057515968 0.010532927
-0.04345122 0.11714028 -0.012658555 -0.21273772 -0.075024 -0.15537395 -0.11133626 -0.092606075
0.01759207 -0.038936496 -0.08995023 0.012482118 -0.05774984 -0.093873665 -0.07531319 -0.04734742
0.16613585 -0.09997516 -0.01718965 -0.16417028 -0.06264655 -0.08278929 -0.011339109 -0.20757265
0.097173 -0.04821426 -0.04636234 -0.15035932 0.06771041 0.024554366 -0.08488086 -0.1362404
-0.17993888 0.00867942 -0.09655891 -0.23524116 -0.00031502522 -0.13503982 -0.07185944 -0.12870422
-0.04229144 -0.08284592 -0.061893024 -0.08011749 -0.021140195 -0.0036770066 -0.0355889 -0.079545915
-0.057768267 0.0481336 0.07839673 -0.027414795 0.0022044315 0.07309346 -0.17092367 0.027472382
0.05160158 0.1351289 0.056102064 -0.065349326 0.16305706 -0.09241004 0.03001969 0.0147944605
-0.2458965 -0.26687157 -0.05008742 -0.062331088 0.045943554 0.024234774 -0.13461462 0.014984851
-0.031150475 0.018271282 0.0011478538 0.09293275 -0.16054897 -0.04780079 0.0068364986 -0.103492096
0.017608888 -0.011522186 -0.09456393 -0.029212255 -0.00332751 -0.077709004 -0.06053915 0.06071332
-0.06682915 -0.089631066 -0.06803487 0.06681501 -0.13261268 -0.07884961 -0.053678766 -0.0649897
0.06324394 0.0890941 0.0069293887 -0.0621504 -0.079614274 0.08423101 -0.020657182 -0.0961738
-0.11831364 -0.06365232 -0.08598148 -0.039710253 -0.08346718 -0.07234128 0.099102885 -0.0689777
-0.0824599 -0.20742564 0.034213454 -0.17726998 0.077500395 -0.15308847 -0.07077027 -0.09656829
-0.095061876 0.031871025 0.030760258 0.07237356 -0.03469484 -0.08233361 -0.02964142 -0.1477573
-0.089971706 -0.04263769 -0.063776106 0.041869458 -0.11922705 -0.060932644 -0.1294935 -0.055526007

l2.bias f4 [300]
00000000: b98a 1dbe d07d 3f3c 78cc 5dbf 33d3 abbd
00000010: 7d99 7ebd 4961 a1bd b19e 42bf 7fe1 01bb
00000020: 6eed d7bc 60a5 09be 8243 af39 3774 8cbd
00000030: 1e0a cdbd da20 a3bd 50af 3dbf 442b 003c
00000040: c23d 4cbd 46f3 01be 300c 58bd fbec 813f
00000050: c702 00ba c6b3 b0bc c7c6 10be 3a7d 113e
00000060: 4bab 64bd 2c50 e6bc 0260 cfbd 9000 89bd
00000070: 2c95 8b3e e49d 60bc dbb0 88bd 23b9 c3bd
00000080: 9477 a8be 27e4 63bd 4fa9 cebe a713 66bd
00000090: 5579 a7be e1d5 bfbe 25b9 0ebe 3dcc 41bc
000000a0: 52ec babd 10cc 513f 9e21 e5bd 8b8d 12bd
000000b0: ecc5 cabd b445 1ebd fe43 35be 5a76 09be
000000c0: ec98 98bd 9ee5 8dbf d84f 6dbe 2508 b6bd
000000d0: 8bab 843d acb3 c2be b1fe 12bd 16b3 66bd
000000e0: 6204 82bc 902a acbd 7d07 bbbf c3b3 233d
000000f0: 8199 ccbf ac44 97bd 4f36 d93e 8d7c 4abd
00000100: 8982 47bd 8059 b53e f095 4a3c 6d6f 2fbe
00000110: f87b 1ebd 69db c0bf b489 4abd 7d44 efbd
00000120: b622 9fbd 9662 62bd 550d 3bbc 8606 53bf
00000130: 0c7b 6fbd 7295 4c3e 165c f63b 4695 82bd
00000140: 1448 babc b5ad 9bbd a9e8 17be 070c 2fbe
00000150: 5318 23bd 766d b1bc b325 43bd 2da6 86be
00000160: 6928 8dbd 0ba8 e0bd d408 13be 7afe 3bbd
00000170: 2ce6 91bf 8302 19b9 b822 1f3f 80a9 573d
00000180: e7d7 68bf baaf 95be 19fd 09be 0466 d0bd
00000190: 8fd3 9bbe e88d c6bd f087 aabd d2ac a5bd
000001a0: 12ef 4abc fff6 55be c213 8ebd 03bc b3be
000001b0: f631 acbd b12f 52be d6a6 8939 26f3 c2bd
000001c0: 5846 4abd 367f 243c df84 c6be 9b1f 87bc
000001d0: 39da 2abe 33b4 21bd 60e9 05bb 4df0 6ebd
000001e0: f8dd 15be 27be 89bd 3108 5abd 43e2 84be
000001f0: b7dc 88be 957c bbbc d861 b2bd 0b97 67be
00000200: 3fa0 12bd 6ec5 e1bd 53b9 b4bd 47bc 8cbd
00000210: 2991 64bd 0b20 27bc d411 f0bd f6c7 15c0
00000220: c736 42bd 8f64 42bd b259 d8bd 7bc5 1fbd
00000230: 83ab 88be 13a4 d6bd 52ef 90bd 821f 9fbd
00000240: 3915 ff3c c2eb 66bd 67e3 183c 40c9 0fbd
00000250: 0095 85be 8cae 423f 9859 aabd cf9f 88bb
00000260: f6e8 bdbc d2ac d4be 6f64 b8be 5ea9 e4bd
00000270: 349e 66be f2e3 90bd 23ee 83bd cd2b babc
00000280: b271 c0bc cfc8 ac3b f632 69be d077 79bd
00000290: 2d0d 38be a56a 68bd 8d36 d7bd 536b 85bd
000002a0: 905d e8bd beae 86bd ae42 cabd 3eab 3ebe
000002b0: 53d1 30bf a971 e6bd c61d 81be 983a d1bd
000002c0: c778 73bd 8fd1 c43e 852b 8fbd 890d cfbe
000002d0: e6a3 c3be 429f 223c ddb1 e1bd fc2b 3abd
000002e0: 7006 a2bd c1b2 2ebe 43aa 66be fcce c3be
000002f0: 47aa 29bd 47fc 9dbb 259b 9cbd 756e bd3f
00000300: 012e 0a3b f741 56bb a4f0 0bbd eb76 04bd
00000310: 891b c5bd 9b76 93bd 3991 51be a7a1 fdbf
00000320: 8f40 87bd bca5 86bd ac2f 953f 3969 3240
00000330: 8a1c 26bd 86a4 433d 8786 26be de17 cfbd
00000340: 9ec0 713c 66dc a9be 1e98 a6be db5f f1bd
00000350: 5c48 03bf 4ea9 06bd 1df6 37be b77c 5a3f
00000360: 7824 d0bc 16d5 c6be 0079 72bd 979e 1bbe
00000370: 5d66 89bd ea3c 353e 166c 17be e2fb a7bd
00000380: 08f3 b0bd d98a 0bbe 5a84 dcbd fd96 87be
00000390: 6b56 da3d 16ab 82bf fc5c f1bd 08fa 87bd
000003a0: d89b cfbe 5975 87bd d054 6fbe 9da2 0ebe
000003b0: 8a39 3dbd c5fe a4bd 9629 ba3f fcce 513f
000003c0: 2847 ea3e b359 14bd 35af 1fbd a845 b6bd
000003d0: 3361 17be 594b 6ebe 1b86 75be 8c43 a3be
000003e0: 6529 62bd eaca fdbd 3f59 96bd c6a8 adbd
000003f0: 6d1b 96bd 70dc 46be a0c1 c5bd 9a06 0ebd
-0.1538495 0.011687711 -0.8664012 -0.083898924 -0.062158097 -0.07879884 -0.76023394 -0.0019818244
-0.026358332 -0.13441992 0.00033428898 -0.06858104 -0.10011695 -0.0796525 -0.7409563 0.007822815
-0.049863584 -0.12690458 -0.052745998 1.0150446 -0.00048832264 -0.021570098 -0.14138328 0.14207926
-0.05582742 -0.0281144 -0.10125734 -0.066895604 0.27262247 -0.013709519 -0.066743575 -0.095567964
-0.3290373 -0.055637505 -0.40363547 -0.056171086 -0.32709756 -0.37467864 -0.13937815 -0.011828479
-0.09127106 0.81952 -0.111880526 -0.035779517 -0.09901032 -0.038640693 -0.17701718 -0.13424054
-0.074510425 -1.1085699 -0.23174989 -0.08888272 0.06478032 -0.38027704 -0.035887424 -0.056323133
-0.01587123 -0.08406556 -1.461166 0.039966356 -1.5984346 -0.07386145 0.42424247 -0.049435187
-0.048708472 0.35419846 0.012364849 -0.1713235 -0.038692445 -1.5066959 -0.04944773 -0.11682985
-0.077702925 -0.0552698 -0.011416753 -0.8243183 -0.058466956 0.19978884 0.0075183017 -0.06376128
-0.022739448 -0.07601491 -0.14834847 -0.17094432 -0.03981812 -0.02165864 -0.047643375 -0.26298657
-0.06892473 -0.10969552 -0.14358836 -0.045896985 -1.1398368 -0.00014592153 0.6216235 0.052651882
-0.9095444 -0.2923563 -0.13475455 -0.10175708 -0.30434844 -0.09695035 -0.08326709 -0.080896035
-0.0123861 -0.20895003 -0.06937362 -0.3510438 -0.08407967 -0.20526005 0.0002625498 -0.09519033
-0.04938349 0.010040095 -0.38773248 -0.016494563 -0.16684808 -0.039478492 -0.0020433292 -0.058334637
-0.14635456 -0.06725722 -0.05323047 -0.25953874 -0.26730892 -0.022886554 -0.087100685 -0.22616212
-0.035797354 -0.11023985 -0.0882441 -0.068718486 -0.055802498 -0.010200511 -0.117221504 -2.3403296
-0.04741552 -0.04745918 -0.10563983 -0.03900669 -0.26693353 -0.104805134 -0.07076897 -0.077696815
0.03113805 -0.05637718 0.009331561 -0.035104036 -0.2609024 0.7604759 -0.0831787 -0.0041694413
-0.023182373 -0.415381 -0.36014125 -0.11165117 -0.22521287 -0.07074727 -0.06441905 -0.022725964
-0.023491714 0.0052729617 -0.22773346 -0.060905278 -0.17973776 -0.05674233 -0.105084516 -0.06514611
-0.11345971 -0.06576298 -0.098759994 -0.18620011 -0.69069403 -0.11252148 -0.25218028 -0.10216254
-0.059441354 0.3844113 -0.069907226 -0.40440014 -0.38210982 0.009925665 -0.11020253 -0.045452103
-0.07911384 -0.17060377 -0.22525887 -0.38243854 -0.041422155 -0.0048213336 -0.07646779 1.4799334
0.002108455 -0.0032693127 -0.03416504 -0.03233997 -0.096243925 -0.072003566 -0.20465554 -1.9814957
-0.066041104 -0.0657458 1.1655173 2.7876723 -0.04055456 0.047764324 -0.16262256 -0.10111974
0.014755396 -0.33175963 -0.3253793 -0.11785861 -0.51282287 -0.032876305 -0.17964979 0.8534655
-0.025408015 -0.38834447 -0.059197426 -0.15197216 -0.06708977 0.17699018 -0.14787325 -0.0820234
-0.086401045 -0.13627185 -0.107674316 -0.26482382 0.10661014 -1.0208461 -0.117853135 -0.066394866
-0.40548587 -0.06614179 -0.23372197 -0.1392922 -0.04619745 -0.08056406 1.4543941 0.8195646
0.45757413 -0.036218356 -0.03898545 -0.089000046 -0.14783172 -0.2327093 -0.23976938 -0.31887472
-0.05521526 -0.123922184 -0.07341241 -0.084794566 -0.0732945 -0.19420028 -0.09656072 -0.034674264

l3.weight f4 [2, 300]
00000000: 564f 463e dd18 debc a387 17bf cf37 723c
00000010: bc15 673c 9b2b ed3c 5914 4abc 0068 09bc
00000020: a8a4 213c f662 fb3e 2a2b a43c 93e4 5d3d
00000030: cfeb a03e 586e c0b9 23f2 34bf fa6e c0bd
00000040: cf46 8cbc da2e dc3a ea8a 06bd c0ca 8b3f
00000050: f7e9 2abc 0778 b7bc 744e d3bb 995d b040
00000060: a42d 873c 86e6 643c 9828 a5bc 00a2 83bc
00000070: 988e d83f 8baf 5abc bc00 63bc 56ae 08bc
00000080: 6e5a b53e c91c 4ebd 37c4 f23d 7c95 913b
00000090: 90a3 4e3f 42a7 203f 86f9 103b 0dcb febb
000000a0: 6c99 633a e25c 1cc0 81bf db3e 39b6 6c3d
000000b0: 1f0e 473d b81d 37bd f821 fabc e71d 21bc
000000c0: 2d0f 58bc 52b5 d23d cf6a bf3c d2fb 9b3d
000000d0: a4b0 a63f 5354 fa3c db2e c6b9 693d 6a3d
000000e0: a9ed c03c 31e8 eebc 5897 ebbf cd4f 933f
000000f0: 017a 3140 7158 893a a356 093c da72 19bc
00000100: 506f 9d3c 044c bebe 3315 adbc 16b7 fdbc
00000110: c507 b8bc 886c 2f3f f058 f03c c4de 723f
00000120: 3292 11bd ae06 2b3c 4cda 19bd bc5b 0f3f
00000130: dbd6 1e3c ce91 a8be c91a d33f 1449 5dbd
00000140: 9d9c b33c bd12 44bd 6d29 12bd 688c ee3b
00000150: f885 b7bc 33a1 aabc f4b9 14ba c0a9 013e
00000160: 7b9d d93f a747 51bc 0c38 3ebe 4454 b23b
00000170: 8b3c d4bf ba2d 9fbd 564f 5d3f 98ea 863e
00000180: 5a29 0dbf 6804 833f 229c 4ebc 49d7 893c
00000190: 619a 983f 0f2c 063d 3baf 183d cb98 5ebc
000001a0: 4c9d b2bd eb26 91bf 1a32 e73d 1d79 70bd
000001b0: 2646 8c3c 8a5d 893d ce12 c33b c7c5 fe3c
000001c0: 8e1d b53b 82b9 063e 4ad9 1abe 7f8f bfbc
000001d0: 5a3b 7dbc 588f 333d 4455 c4ba 9c50 7e3c
000001e0: fa42 d7ba 0e7f a53c ce1e 8f3b 020a 1d3e
000001f0: 8bea 333f 1dc8 dbbb f9b9 87bb add6 353e
00000200: 4570 7ebd 9a49 c03b d199 47bc 4d56 f33c
00000210: fa15 d73e 46c9 85bc 48d8 ebbc 5d1e 2b40
00000220: a892 213c 2411 523c 5925 c93d f084 7f3c
00000230: fbe4 033e 8988 093d 9b87 e6ba f010 0abc
00000240: 5ec8 d03f 7283 10bd 30c6 21bd 5304 8e3c
00000250: 2560 0b3f f507 963f ab30 f03c bc93 723c
00000260: 3692 8ebc 9d52 e03d a269 45bc 109b c3bd
00000270: 199a 72bd c2f1 eb3d 838a f1bb c571 b3bc
00000280: e172 9a3c 028b c4bc d2af 76be 8375 19bc
00000290: 4e86 fd3e ccd7 9a3b f55c b83e 9bea 9ebc
000002a0: b7a8 d23b f654 3a3d cc2e 853e cff6 26be
000002b0: dfe4 933f a3e9 053d 350d a13d e84e c03c
000002c0: 5e9c 16bd 5eeb 5040 a13f f93c 0ae1 8a3e
000002d0: 6ff1 533e 6a2e 9f3b 987a 213c b2ef 303f
000002e0: 9b54 ddbd 04d4 f13f 20da 4bbd 655b 40bf
000002f0: 251b 3b3c b2ad 6cbb c52f c5bc e872 4ec0
00000300: 8d41 b2bc 9270 a93a 107f a2bb 8bbc 03bd
00000310: 16e8 f9bc cc09 113c 8d1e 853c 569a 9ebf
00000320: 9c66 88bb a52c a0bc 724b b2bf 16b7 7cc0
00000330: 31ce ff3c 0e44 b63d a7d2 d13c d391 413c
00000340: ff92 c8bc c264 2d3d fd02 48be b1a9 d13e
00000350: c278 c3bf ffc4 37bd 3985 293d 48a9 013f
00000360: e02e 913b 0b80 20be fce2 763c 8058 1a3d
00000370: 1cad a5bc d661 2840 e0db d2bd 4ba7 ac3b
00000380: cadd 31be 79a6 34be b3c7 633c 5a0f 863f
00000390: 3a29 e93e b451 9840 cf32 fa3b 1649 cf3b
000003a0: 91d3 233f 25f3 f33c 993d e83e 29f9 c73e
000003b0: ff4f efbc 6bad e5bc 8b11 1c3d 7646 02bf
000003c0: 0c7d 8440 659e 373b 4581 b63b 1413 f83a
000003d0: c95c a6bc e886 eb3d 2350 ef3f f0e6 e5bd
000003e0: 1162 4f3c b285 5dbd 86de 5e3d 96d7 7e3e
000003f0: 2f63 6b3d 6c97 f83e 2482 8b3d 5c6d 093f
0.19366202 -0.027111465 -0.5919134 0.014783814 0.014104303 0.028951457 -0.012333953 -0.008386612
0.009865917 0.4909894 0.020040113 0.054173063 0.31429908 -0.00036703306 -0.7068197 -0.09396167
-0.017123608 0.0016798631 -0.032847323 1.0921249 -0.010431758 -0.0223961 -0.0064485613 5.5114255
0.016501255 0.013970977 -0.020160958 -0.016068459 1.6918516 -0.013347517 -0.013855156 -0.008342346
0.35420555 -0.05032042 0.11853831 0.0044428688 0.80718327 0.62755215 0.0022121384 -0.0077756704
0.00086822244 -2.443169 0.42919543 0.05779097 0.04859745 -0.044706076 -0.030533776 -0.009833789
-0.013187212 0.1028849 0.02336636 0.0761639 1.3022656 0.030557787 -0.00037800413 0.05718747
0.023550825 -0.029163452 -1.8405561 1.1508728 2.7730715 0.0010478628 0.008382472 -0.009365762
0.019218117 -0.3716737 -0.021128273 -0.030971091 -0.022464642 0.6852498 0.029339284 0.94871163
-0.035539813 0.010438604 -0.0375617 0.5599935 0.00969478 -0.3292374 1.6492549 -0.05402477
0.021925265 -0.047869433 -0.035684038 0.0072799213 -0.022402748 -0.020828819 -0.0005673461 0.1266241
1.7001184 -0.012773431 -0.18576068 0.005442174 -1.6580976 -0.077723935 0.8644918 0.26350856
-0.5514122 1.023572 -0.012610467 0.016826289 1.1922113 0.03275686 0.037276488 -0.013586233
-0.08721408 -1.1340002 0.11288853 -0.058709253 0.017123293 0.06707294 0.0059531694 0.031100167
0.005527205 0.13156703 -0.15121952 -0.023383854 -0.015456045 0.043837875 -0.0014979024 0.015522148
-0.0016423159 0.020202186 0.004367686 0.15335849 0.7027976 -0.006707205 -0.0041420427 0.17757674
-0.062118787 0.005868149 -0.012182669 0.029704237 0.42008954 -0.016331326 -0.028789654 2.6737282
0.009861626 0.012821469 0.098215766 0.01559566 0.12880318 0.033577476 -0.0017588021 -0.00842689
1.6311147 -0.035281606 -0.039495647 0.017336046 0.5444358 1.1721178 0.029320082 0.01480573
-0.017403703 0.10953257 -0.012049111 -0.0955106 -0.05922899 0.11520721 -0.007371248 -0.021904835
0.018853607 -0.023992065 -0.24090508 -0.009366396 0.4951653 0.004725432 0.3600842 -0.019398978
0.006428804 0.04549118 0.26012266 -0.16305088 1.1554221 0.032693516 0.07863847 0.023475125
-0.036770217 3.2643657 0.030425848 0.27124816 0.20697568 0.004857828 0.009855889 0.69115746
-0.10807153 1.8892827 -0.049768567 -0.75139457 0.011420046 -0.0036114273 -0.02407063 -3.2257633
-0.021759773 0.0012927225 -0.0049589947 -0.03216223 -0.030506175 0.008852433 0.01624992 -1.239085
-0.0041626226 -0.019552538 -1.3929274 -3.9486747 0.03122625 0.08899699 0.025613142 0.011814552
-0.024484156 0.04233242 -0.1953239 0.40949777 -1.5271227 -0.044865604 0.041386817 0.5064893
0.0044306368 -0.15673845 0.015068766 0.037682056 -0.020224147 2.6309714 -0.10295844 0.0052689663
-0.17369762 -0.1764163 0.0139025925 1.0473435 0.45539266 4.7599735 0.0076354514 0.006325851
0.639947 0.029779026 0.45359495 0.39057282 -0.02921295 -0.028036794 0.038102668 -0.50888765
4.1402645 0.0028017994 0.0055696093 0.0018926584 -0.020307915 0.11500341 1.8696331 -0.112256885
0.012657658 -0.05408258 0.054411434 0.24886927 0.057467636 0.48553026 0.06811932 0.53682494

l3.bias f4 [2]
00000000: 835c c0bf d164 37bf
-1.5028232 -0.7163821
