Swimmer/Swimmer-v4_actor_finalized_02.pth (torch, 500900 bytes, 6 tensors)

l1.weight f4 [400, 8]
000000 9e 39 3d 3f fd 9d 34 3f ad 05 1a c0 33 c1 b2 bf
       0.7391604 0.7055357 -2.4065964 -1.396521
000010 f4 19 11 3f 03 82 76 3d 59 00 4a 3e 43 54 d1 be
       0.56680226 0.060182583 0.19726695 -0.408846
000020 70 1f 4f bf 67 e8 07 bd 06 e3 6e bf de 71 6f 3f
       -0.80907345 -0.03318062 -0.9331516 0.9353312
000030 a5 86 ad 3d 02 9e 84 3f c5 6c 66 bf 19 d1 c7 3e
       0.08472947 1.036072 -0.9000972 0.39026716
000040 31 c3 68 40 4f 41 e8 be a2 a6 1e c0 45 b1 fe 3e
       3.6369135 -0.45362327 -2.4789205 0.4974462
000050 aa 3c cf be ec 58 bb be 96 13 3b 3e 76 4f ec bd
       -0.4047597 -0.3659128 0.1826919 -0.115385935
000060 6d a0 78 40 ab ab fd be 77 77 2c be a6 c0 84 bf
       3.8847916 -0.49545035 -0.16842447 -1.0371292
000070 12 07 01 3f da b4 f5 be f2 b9 56 be 07 9e 44 ba
       0.50401413 -0.4798954 -0.2096937 -0.00075003545
000080 f3 db 0d bf 12 b9 b2 be 80 13 a4 bf c4 33 61 3f
       -0.5541374 -0.34906822 -1.2818451 0.87969613
000090 aa d8 db 3f d0 b7 6e 3f 19 60 43 bf 75 ac 7a bf
       1.7175496 0.93249226 -0.7631851 -0.979194
0000a0 86 d0 a5 3f 95 ba 21 40 88 7a 0f c0 38 55 b0 3f
       1.2954261 2.527013 -2.2418537 1.3776007
0000b0 c9 8e 89 3f 76 98 fa be c9 de ba 3e 94 f1 a2 3b
       1.07467 -0.48944443 0.36498097 0.004972646
0000c0 af 98 82 3f 3a 79 94 bf ef ac 0f c0 92 52 16 bf
       1.0202845 -1.1599495 -2.24493 -0.5871974
0000d0 e8 9c fb bf e9 31 83 bf 3b 5c 1d 3f e1 e6 83 3f
       -1.9657259 -1.0249606 0.6146886 1.0304834
0000e0 c0 0f c8 3f 9f 27 b2 be 9e d9 f9 be 6a df 08 c0
       1.5629807 -0.34795853 -0.4879884 -2.138636
0000f0 bf 37 cd be f7 12 6b bf cb 8e 0e 3f 7b 63 7e 3f
       -0.40081593 -0.91825813 0.55686635 0.99370545
000100 d8 39 14 be 2c 2d 3e bf f3 9d 30 c0 e7 a9 f1 be
       -0.1447519 -0.74287677 -2.7596405 -0.47199938
000110 c8 07 f4 bf a0 b8 fe 3e 9c d0 e3 be d8 bc 12 3e
       -1.9064875 0.49750233 -0.44495094 0.1432985
000120 29 dc f2 bf c2 07 8e 3f 87 4f 0c c0 df 56 ed bf
       -1.8973438 1.1096117 -2.192354 -1.8542136
000130 e0 87 9c bf bd 25 67 be 81 2b 0d bf da 16 1c 3d
       -1.2228966 -0.2257299 -0.55144507 0.03810773
000140 d2 d0 b7 bf b6 31 a3 be 29 e2 79 c0 99 be ed 3f
       -1.4360602 -0.31873864 -3.9044287 1.8573791
000150 6a 79 af bf 5b 6e 57 bf a9 e5 7e bf 98 7d aa 3d
       -1.3708928 -0.84152764 -0.99569184 0.08324736
000160 05 6c 8a 3f 76 2f c6 3f b7 13 d1 3f 0a eb 35 bf
       1.0814215 1.5483234 1.6334141 -0.71061766
000170 5d aa b0 bf 13 0a bc 3d c3 82 99 3f 60 1b 49 be
       -1.3801991 0.09181609 1.199303 -0.19639349
000180 32 59 9c 3f b8 6c dc be e0 07 b5 bf fc 8f 47 3e
       1.221472 -0.43051696 -1.4143028 0.1948852
000190 e9 c0 b6 bf 30 9f 50 3e b6 32 1d bf 35 cc ce 3e
       -1.4277622 0.20373225 -0.61405504 0.40390173
0001a0 66 35 3d 3f 27 45 9c 3f 5d aa b5 bf c5 07 64 bf
       0.73909605 1.2208604 -1.4192616 -0.89074355
0001b0 91 e2 28 c0 78 2d 42 bf 75 26 0c be ae 1d e1 3d
       -2.6388285 -0.7585063 -0.13686545 0.10991989
0001c0 62 e7 81 40 10 02 db bf 91 19 a2 3f fe 74 5a 3e
       4.059495 -1.7110004 1.2664052 0.21333691
0001d0 22 06 7a bf d3 14 04 3f 1e d3 f8 bd 43 78 6f 3d
       -0.9766561 0.51594275 -0.121496424 0.0584643
0001e0 f3 e2 09 3d 56 e9 18 40 7b ba 5b 3d fb 20 8d be
       0.0336637 2.3892417 0.05364464 -0.27564225
0001f0 b7 cb 82 3f 7a 43 ed bc 60 8a fa 3a c6 43 25 3c
       1.0218419 -0.02896284 0.0019114725 0.010086959
000200 bc a5 cf 3d 8b 9b e6 3e 59 b8 97 be f2 47 d5 bf
       0.10139033 0.45040545 -0.29632834 -1.6662581
000210 54 46 5a 40 0c 14 8f 3f db 23 17 bf e4 9f 43 3f
       3.4105425 1.1177993 -0.59039086 0.7641585
000220 5f cf 35 bd 04 bf 0b 40 d6 22 87 bf 17 c4 25 3f
       -0.044387218 2.1835337 -1.0557506 0.64752334
000230 f5 91 28 c0 22 db a3 bf a0 1a 88 bb 9e d1 2a bf
       -2.6339085 -1.2801249 -0.0041535646 -0.667261
000240 7a 28 13 bf 50 2a 9d 3f a7 1e b6 bf bc 3c 12 c0
       -0.5748364 1.2278538 -1.4228104 -2.284957
000250 ca 9f b8 3e 0b 3e 78 3e e0 d3 6e 3e fd f6 24 bf
       0.3605941 0.24242418 0.23323011 -0.64439374
000260 83 65 9c 40 77 87 62 bf 14 dc 8f bf e6 5a bc bf
       4.8873916 -0.8848795 -1.1239038 -1.471524
000270 69 1e 02 3e 31 cb 0d bf 7f b0 d8 bb 6b 52 75 3f
       0.12706913 -0.5538817 -0.006612837 0.95828885
000280 3e da 22 3f 93 56 7e bf a9 73 bd 3f 85 56 07 3f
       0.6361426 -0.9935085 1.4800922 0.52866393
000290 1a e2 d9 bf 73 8d f0 bf 4b 37 22 be db da f1 3f
       -1.7022126 -1.8793167 -0.15841405 1.8894914
0002a0 83 16 01 c0 79 4e 25 c0 ee af a4 3f a8 0d e9 be
       -2.016999 -2.5829146 1.286619 -0.4551823
0002b0 0b 29 8c bf 6b 63 d3 be 6c 6a 74 bd c2 aa 99 3f
       -1.0950025 -0.41286787 -0.059671804 1.2005236
0002c0 ad 81 c3 3f 4c a1 2d be a1 2d aa bf 52 1e 0d 3f
       1.5273949 -0.16956061 -1.3295175 0.5512439
0002d0 2b 43 39 bf 92 37 d2 3e 46 c5 b2 bd fe cf a3 3e
       -0.72368115 0.41058022 -0.08729033 0.31994623
0002e0 b2 e7 0f c0 38 5b a3 bf 88 46 ea be 7e aa 83 be
       -2.2485166 -1.2762213 -0.45756936 -0.25716013
0002f0 7a 95 51 3c 23 f6 5c be eb aa d1 be 60 72 01 bf
       0.012791986 -0.21578269 -0.40950713 -0.5056515
000300 57 4a 05 3f d5 ae 92 be 72 da 6c c0 27 cb fd bf
       0.5206656 -0.2864901 -3.7008328 -1.9827622
000310 d7 f9 83 3f dd 26 28 be 09 52 b0 be 1e 27 ca be
       1.031062 -0.16421075 -0.34437588 -0.3948297
000320 e0 c9 c8 3e e8 a8 af bf 12 fe a8 bf f3 63 01 40
       0.39216518 -1.3723421 -1.3202536 2.0217254
000330 b9 21 f5 3e c0 66 55 3f 3b 3f ff be d7 c3 52 3d
       0.4787729 0.8335991 -0.4985293 0.0514563
000340 e9 62 96 be 66 29 b9 be cb 3d 18 bf b5 43 d2 3e
       -0.29372337 -0.36164397 -0.5946929 0.4106728
000350 e4 6b 06 3e 1a 32 3f be 31 e6 80 be 32 52 4d bc
       0.13127095 -0.18671456 -0.25175622 -0.012531804
000360 9a 96 5f bf dd c2 db 3f b0 2b 4f c0 85 5a 67 3f
       -0.87339175 1.7168843 -3.2370415 0.90372497
000370 f6 49 15 c0 61 29 03 bf 29 1e 5e bf 89 7e 8a be
       -2.3326392 -0.51235014 -0.8676477 -0.27049664
000380 22 68 ad 40 4b 8d c4 3e 02 f8 f4 3e 95 4d c7 3e
       5.4189615 0.38389048 0.47845465 0.38926378
000390 3e bd 91 3f f8 91 8d bf fc 5d fb 3e b9 18 cb 3e
       1.1385877 -1.1060171 0.49095142 0.396673
0003a0 79 ea 84 3f 8d 42 4c 3f 63 4c 90 bf e4 5b 83 bf
       1.0384055 0.7978905 -1.1273311 -1.0262418
0003b0 48 49 13 40 e6 45 e8 3f ed e3 80 be 95 7d 25 bf
       2.3013477 1.8146331 -0.25173894 -0.6464475
0003c0 bf 23 fb 3d 75 9c 24 bf 2c 6b 91 be 28 00 af be
       0.122626774 -0.64301234 -0.28402078 -0.34179807
0003d0 a9 1e 28 3e 11 7a 1b 3f e5 c9 9a 3e 42 e4 85 3e
       0.16417946 0.60733134 0.30232158 0.2615071
0003e0 0f 02 d1 bf 1a 25 92 bf 05 83 fa 3e 45 57 88 3f
       -1.6328753 -1.1417572 0.48928085 1.0651633
0003f0 e8 6b f5 3e fd 0f 63 3f 6c ca f1 3d 81 3b b5 be
       0.47933888 0.8869627 0.11806187 -0.3539696

l1.bias f4 [400]
000000 28 62 0c c0 2d 34 9e bf 58 b2 ff bf 7b 7b 97 bf
       -2.193491 -1.2359673 -1.9976301 -1.1834558
000010 fa ad e1 bf 58 2e d6 bf 11 fe b0 bf 07 53 81 bf
       -1.7631218 -1.6732893 -1.3827535 -1.0103463
000020 2c 2c b2 bf c8 69 1a 3f 24 0d d7 3f 60 00 70 bd
       -1.391973 0.6031766 1.6800885 -0.058594108
000030 c2 02 b9 bf 9a 22 3f bf 7b 37 ac bf b8 e1 8f bf
       -1.4453967 -0.7466217 -1.3454431 -1.1240759
000040 9a 0a ca bf 04 0b 9c bf 53 02 d9 bf 88 e5 10 bf
       -1.5784485 -1.2190862 -1.6953834 -0.56600237
000050 7e 22 36 bf 8c 96 5f be 56 ad ae bf 3a 16 c8 bf
       -0.7114638 -0.21834773 -1.3646648 -1.5631783
000060 c1 74 e0 be c2 a4 ac bf 8b 40 02 c0 cb fd 78 be
       -0.43839076 -1.348778 -2.0351894 -0.24315564
000070 01 43 3d 40 a3 b7 b6 bf 1e 67 fb bf 07 b9 e5 bf
       2.9572146 -1.4274791 -1.9640844 -1.7947091
000080 eb 2a 50 3f 6c 8d 4a bf c2 ad 80 bf 8c 65 58 bf
       0.8131549 -0.7912204 -1.0053027 -0.8452995
000090 0f 37 e9 bf 68 d7 80 bf d8 b2 8f 3f db 36 e2 bf
       -1.8219928 -1.0065737 1.1226454 -1.767299
0000a0 74 d0 91 3f e3 a9 cd be 5d ac 2c 3f dd 19 5b bf
       1.139174 -0.40168676 0.67450505 -0.8558634
0000b0 f2 a7 9d bf 87 05 9b bf de 0e f8 bd 46 54 18 c0
       -1.2316878 -1.2111062 -0.12112211 -2.3801436
0000c0 c9 db a8 3e c5 d4 fa bf 06 3d 9f bf e2 c0 43 c0
       0.32980183 -1.9596182 -1.2440498 -3.0586476
0000d0 5b 33 8c bf 7b fa a5 bf e3 e6 e2 bf bf f3 34 c0
       -1.0953172 -1.2967066 -1.7726711 -2.827377
0000e0 b0 2c 0b bf bc f9 9d bf 84 26 f6 bf ca 54 bb bf
       -0.5436506 -1.2341838 -1.9230504 -1.463525
0000f0 4b fb 65 bf eb e5 b2 bf 9b 02 1f be 8a f5 11 c0
       -0.8983657 -1.3976415 -0.15528338 -2.2806115
000100 c3 d7 75 bf 14 5c 04 bf 31 bf 3e c0 ab db 5d be
       -0.9603235 -0.51703 -2.9804194 -0.21665828
000110 65 43 43 bf b7 ae 14 3d e6 8c df 3f de cb 36 c0
       -0.7627471 0.036299434 1.7464874 -2.856193
000120 97 b0 8a bf 54 c0 be bf 5d 45 9a bf 05 75 d5 bf
       -1.0835141 -1.4902444 -1.2052418 -1.6676337
000130 fc a7 1c 3d b2 6e b2 bf 38 b5 a5 3d 5f ae a3 3e
       0.03824614 -1.3940032 0.08091205 0.31968972
000140 52 be 78 3e 41 64 ac bf 8e 7d 9c 3f fd c2 67 bf
       0.24291351 -1.3468095 1.2225816 -0.90531904
000150 c5 0f 28 bf 79 6e 16 40 55 14 63 bf 77 41 09 40
       -0.6564906 2.3504927 -0.887029 2.1446207
000160 ab 76 94 bf 57 39 bb bf c3 37 93 bf 93 12 b7 bf
       -1.1598715 -1.4626874 -1.1501392 -1.4302543
000170 bb 70 ec 3f ed 90 ab 3e ab 15 fc be 9e e8 04 40
       1.8471903 0.33509007 -0.4923528 2.0766978
000180 06 f3 b6 bf 2e 8e 1b bf fb 37 cc 3c e1 5d db bf
       -1.4292915 -0.60763824 0.024929037 -1.7138025
000190 e3 a5 f1 3e 82 17 bc bf f6 2e e0 3e ca ff 25 c0
       0.47196874 -1.4694674 0.43785828 -2.5937371
0001a0 b2 97 ed bf 07 c5 0c bf 12 f0 c2 3d 15 a3 1c bf
       -1.8561919 -0.5498814 0.09518446 -0.61186343
0001b0 d6 22 25 bf 39 b9 83 be 97 4b 95 bf 9b 1f 99 3d
       -0.6450628 -0.2572725 -1.1663693 0.074767314
0001c0 1b 77 0b c0 b9 63 8f bf 8d 48 9f bf 8d 53 e4 bf
       -2.1791446 -1.1202308 -1.2444016 -1.7837998
0001d0 82 ac 3e bf 32 6d b7 bf c4 bf b4 3d 8d 70 a7 bf
       -0.74481976 -1.4330199 0.08825639 -1.3081223
0001e0 d3 7b fe bf 9d 4a f9 bf 1b 30 42 3f 4a 8e d3 3d
       -1.9881538 -1.9475895 0.75854653 0.10329874
0001f0 31 9f d4 3f eb 39 d7 be 1e 06 64 bf 0f 52 e4 3f
       1.6611081 -0.42036375 -0.89071834 1.7837542
000200 73 db 2a c0 81 71 9e bf 9d de b1 bf f7 46 f3 3e
       -2.669644 -1.2378389 -1.3896061 0.4751508
000210 ab 9d 05 40 2f 7d 9a be 6f 7c 5f bf 43 3b a7 bf
       2.0877483 -0.30173633 -0.87299246 -1.306496
000220 f1 e1 cc be 82 0d c0 bf 72 4f 07 c0 86 c1 a8 be
       -0.4001613 -1.5004122 -2.114224 -0.32960147
000230 43 18 b0 bf 42 f2 10 c0 c6 0c 02 be 2f 5b b1 bf
       -1.3757404 -2.2647862 -0.12700185 -1.3855952
000240 0d 75 8c 3f 8a 1f b0 be 21 42 eb bf ca e3 36 40
       1.0973221 -0.34399062 -1.8379556 2.8576531
000250 27 ae c7 3e 4e 5e a1 bf e3 dd 86 bf ed 74 25 40
       0.39000055 -1.2606905 -1.0536464 2.5852616
000260 62 83 9e 3d 48 ec 79 3f 7a 6e 49 bf cc d8 b7 bf
       0.07739903 0.9762616 -0.786842 -1.4363036
000270 f4 3a 99 bf b3 38 11 bf 0d cf b0 bf 3d ad 53 bf
       -1.1971116 -0.5672714 -1.3813187 -0.82686216
000280 0c d2 0c c0 e5 60 50 be 2a c7 06 bf 7b 55 bb bf
       -2.2003202 -0.20349462 -0.5264765 -1.4635462
000290 ca 4e e6 bf 0f 33 d1 bf da 5a 42 bf 42 93 e9 be
       -1.7992795 -1.6343707 -0.7591988 -0.4562016
0002a0 94 a4 9a bf 8d b0 c0 bf 41 0e 99 bf b3 03 dd bf
       -1.2081475 -1.5053879 -1.1957475 -1.7266754
0002b0 17 e2 ee bf 9e 71 34 bf c7 f8 0b be f1 b0 0b c0
       -1.8662747 -0.70485866 -0.1366912 -2.1826746
0002c0 07 2a c0 be 00 88 d2 bf 9d 52 7e be d8 f0 cd 3f
       -0.37532064 -1.6447754 -0.24836202 1.6089125
0002d0 3c 0b e9 be b0 77 fc bd c7 10 79 bf 2c ad c1 bf
       -0.45516384 -0.12327516 -0.97291225 -1.5130973
0002e0 3f af ba bf 53 cb bd bf 02 62 b2 bf 98 e4 16 c0
       -1.4584731 -1.4827675 -1.393616 -2.3577023
0002f0 45 cb db bf 94 b8 c3 bf 25 72 cb bf c5 f0 11 40
       -1.7171408 -1.5290704 -1.5894209 2.2803204
000300 74 c9 06 bf d9 67 a9 bf 7f 5d c6 3f ff db 9a 3f
       -0.52651143 -1.3234817 1.5497283 1.2098387
000310 46 10 e8 bf ef ad 39 c0 da bb c1 3f 1b 75 4d 3f
       -1.8129966 -2.901241 1.5135453 0.80256814
000320 99 e8 d4 bf ef f9 1c c0 1f b6 ec be f8 ed d7 be
       -1.6633483 -2.4527547 -0.46232697 -0.42173743
000330 f6 36 9e bf f2 4c 86 bf 4f da ed bf a7 85 eb bf
       -1.2360523 -1.0492232 -1.8582247 -1.8400162
000340 45 ea 32 3e 5a 3f 09 c0 f8 38 2e 3e 00 74 75 bf
       0.17472179 -2.1444917 0.1701392 -0.95880127
000350 07 09 0a 40 28 5d 5f bf b9 48 d6 3f e7 86 89 3f
       2.156801 -0.8725152 1.6740943 1.0744294
000360 50 76 b0 bf f6 25 e5 bf 51 da b7 bf 03 5e 94 3f
       -1.3786106 -1.790221 -1.43635 1.159119
000370 a1 27 00 bf cf 94 d7 3e 31 46 d7 bf 44 4a a5 3d
       -0.5006047 0.4210572 -1.6818296 0.08070806
000380 20 84 bf bf ec 88 e1 3f bb f5 88 bf 53 31 8c 3f
       -1.4962196 1.761991 -1.0699991 1.0952553
000390 f1 06 be bf df d6 9e bf 78 50 d9 3f 6d bb 90 be
       -1.4845868 -1.2409323 1.6977682 -0.28267995
0003a0 32 c5 f9 bf 62 bc 1c 3f 96 64 ea bf e0 18 06 3f
       -1.9513304 0.6122495 -1.8311946 0.52381706
0003b0 0a 28 3e c0 d9 03 65 be 7c 1d 1f 3d f4 ee 48 40
       -2.9711938 -0.22364749 0.038846478 3.1395845
0003c0 5b c0 9c 3f e1 9b 0e 40 75 bd b6 3f 59 da d3 bf
       1.2246202 2.228264 1.4276568 -1.655101
0003d0 55 67 c5 bf eb 6c 3c 3f e8 3e db bf 86 8d b6 3f
       -1.542216 0.73603696 -1.7128572 1.426194
0003e0 58 2d 9d bf 82 49 e3 bf cf e5 c2 bf ce 57 de bf
       -1.2279463 -1.7756808 -1.5226382 -1.7370546
0003f0 c5 6e b5 3f 64 d1 db be d7 a2 03 3f 9b a9 5c 3f
       1.4174429 -0.4293319 0.5142035 0.861963

l2.weight f4 [300, 400]
000000 24 31 ea 3c 28 e0 8e 3b 9c d8 ba bd ed d1 33 be
       0.028587885 0.0043602176 -0.09123346 -0.17560549
000010 5c 61 ac bd 67 a7 82 bd 1d 28 a8 bb 88 97 64 bd
       -0.08417007 -0.06379586 -0.005131735 -0.055808574
000020 7d 4a 20 bd 07 52 2f bd 82 91 b2 bd 9f fa 0a 3d
       -0.039133538 -0.042802837 -0.0871916 0.033930417
000030 b5 73 a1 3d 94 3e 0c 3d 36 04 b5 bc a2 1b 8b bd
       0.078833975 0.034239367 -0.022096734 -0.0679238
000040 44 ca ab bd b3 da 2c 3d 5e 33 c5 3c cc f9 5b bd
       -0.083881885 0.042200755 0.024072345 -0.05370502
000050 99 f0 04 be 96 ae fb bd 55 e3 42 bd d1 da 87 be
       -0.12982406 -0.12289159 -0.047580082 -0.2653413
000060 77 5a 3d 3b 8d 87 a2 3d 03 7a 82 bd 94 25 08 bd
       0.0028893033 0.079360105 -0.06370928 -0.033238962
000070 0a 6b fd bc 36 2b f0 bd 70 df 12 bd 1c c8 64 bd
       -0.03093483 -0.11726992 -0.035857618 -0.0558549
000080 da fe 36 3c b4 64 75 3c 44 4f 99 3d 32 e0 06 bd
       0.01116916 0.014977623 0.07485822 -0.032928653
000090 18 ed f3 bd 98 21 92 3c e0 5e 55 bd ab eb f8 bd
       -0.119104564 0.017838284 -0.052092433 -0.12154325
0000a0 c5 10 4c 3c 07 14 66 bd 0d 88 53 3d 30 95 c2 3c
       0.01245517 -0.056171443 0.05164342 0.023752779
0000b0 85 b2 75 bd ca 51 93 bd d9 cc 4a 3e c2 41 0c be
       -0.059984703 -0.071933344 0.19804706 -0.1369696
0000c0 a5 51 92 bd 5e cc a4 bd 02 d2 f4 bd c2 73 f3 bc
       -0.07144479 -0.080467924 -0.11954118 -0.029718284
0000d0 f3 a5 40 bd 11 09 5e bc 5f 64 16 bc 68 a6 d4 bd
       -0.04703326 -0.013551966 -0.009179204 -0.10383302
0000e0 d3 cd 61 3c c8 da ec bc 1f 61 76 3b 7f bf 66 be
       0.0137819825 -0.028912917 0.003759451 -0.22533987
0000f0 ae 88 79 3d 1d 8c 92 bd 6f 4a e9 bd 59 5a 99 bd
       0.060921364 -0.07155631 -0.1139115 -0.074879356
000100 f1 48 dc bd 6b 3b 80 bd 75 70 11 be 48 9c 0e be
       -0.107561 -0.06261333 -0.14203055 -0.13926804
000110 0b 82 0e 3e 06 d5 bb bc 9c 86 ad bd 6b a9 50 bd
       0.13916795 -0.022928726 -0.0847294 -0.05094282
000120 46 b8 fe bc a0 54 b8 3c 75 bc 69 bd 9f 86 0f bb
       -0.031093728 0.02250129 -0.057064492 -0.0021900309
000130 92 51 e5 bd 37 cb 99 bd 94 ab 6a bd 0f 5c d1 bd
       -0.11197199 -0.07509463 -0.057292536 -0.10222637
000140 bb 43 eb bd 27 e8 00 be 9c 0e 23 be d3 52 89 3d
       -0.11487528 -0.12588559 -0.15923542 0.067052506
000150 eb 61 42 bd 6f 50 34 bc ca f2 68 bd d0 30 74 be
       -0.047456663 -0.011005505 -0.056872167 -0.23846745
000160 87 80 56 3d ed 6f e5 bb 77 c5 a1 bb fe de a2 bd
       0.052368667 -0.007001868 -0.0049368697 -0.07952689
000170 44 50 03 be ce d0 6e bd f4 bd f3 bb e6 ef a2 be
       -0.12823588 -0.0583046 -0.0074384157 -0.31823653
000180 89 d6 6e bd d2 1c 76 bd be 44 91 bd 8b a8 a8 bd
       -0.058310065 -0.06008608 -0.0709319 -0.08235272
000190 71 e1 d9 bd a7 28 0b bd 97 ac c1 bc df d1 ba 3d
       -0.10638703 -0.033974316 -0.023641868 0.09122061
0001a0 1c 11 e2 bc 1e 1e 6c 3d 3f 3d 7a 3d b3 9b 89 bd
       -0.027596049 0.05764591 0.061093565 -0.067191504
0001b0 8b 82 8b 3d 88 e9 be 3d 02 e0 04 be a7 2a 2e bd
       0.068120085 0.09321886 -0.12976077 -0.042521145
0001c0 81 44 90 3c c0 21 9a bd 48 4c b0 bd 57 74 b9 bd
       0.01761079 -0.075259686 -0.086082995 -0.09055393
0001d0 84 74 84 bd 8a 0a 35 bd dd 95 6b bd 4c 92 2c 3c
       -0.06467536 -0.044199504 -0.057515968 0.010532927
0001e0 e8 f9 31 bd 3e e7 ef 3d d4 65 4f bc eb d7 59 be
       -0.04345122 0.11714028 -0.012658555 -0.21273772
0001f0 2f a6 99 bd 59 1a 1f be 44 04 e4 bd 41 a8 bd bd
       -0.075024 -0.15537395 -0.11133626 -0.092606075
000200 3f 1d 90 3c e0 7b 1f bd d4 37 b8 bd cc 81 4c 3c
       0.01759207 -0.038936496 -0.08995023 0.012482118
000210 19 8b 6c bd d6 40 c0 bd cd 3d 9a bd 5e ef 41 bd
       -0.05774984 -0.093873665 -0.07531319 -0.04734742
000220 84 1f 2a 3e c7 bf cc bd 4f d1 8c bc 41 1c 28 be
       0.16613585 -0.09997516 -0.01718965 -0.16417028
000230 d6 4c 80 bd 6e 8d a9 bd ac c7 39 bc ed 8d 54 be
       -0.06264655 -0.08278929 -0.011339109 -0.20757265
000240 a3 02 c7 3d 51 7c 45 bd 70 e6 3d bd cb f7 19 be
       0.097173 -0.04821426 -0.04636234 -0.15035932
000250 c1 ab 8a 3d 3d 26 c9 3c 04 d6 ad bd 9a 82 0b be
       0.06771041 0.024554366 -0.08488086 -0.1362404
000260 e6 41 38 be 20 34 0e 3c ae c0 c5 bd 0f e3 70 be
       -0.17993888 0.00867942 -0.09655891 -0.23524116
000270 f8 29 a5 b9 e1 47 0a be 0b 2b 93 bd 0a cb 03 be
       -0.00031502522 -0.13503982 -0.07185944 -0.12870422
000280 ca 39 2d bd 1f ab a9 bd 8a 83 7d bd a3 14 a4 bd
       -0.04229144 -0.08284592 -0.061893024 -0.08011749
000290 34 2e ad bc ef f9 70 bb ab c5 11 bd f8 e8 a2 bd
       -0.021140195 -0.0036770066 -0.0355889 -0.079545915
0002a0 6b 9e 6c bd bd 27 45 3d 77 8e a0 3d fe 94 e0 bc
       -0.057768267 0.0481336 0.07839673 -0.027414795
0002b0 39 78 10 3b 06 b2 95 3d 9d 06 2f be c3 0d e1 3c
       0.0022044315 0.07309346 -0.17092367 0.027472382
0002c0 2e 5c 53 3d 3b 5f 0a 3e 47 cb 65 3d de d5 85 bd
       0.05160158 0.1351289 0.056102064 -0.065349326
0002d0 6e f8 26 3e 7a 41 bd bd da eb f5 3c 77 64 72 3c
       0.16305706 -0.09241004 0.03001969 0.0147944605
0002e0 4b cc 7b be 64 a3 88 be 77 28 4d bd e2 4e 7f bd
       -0.2458965 -0.26687157 -0.05008742 -0.062331088
0002f0 4f 2f 3c 3d 01 88 c6 3c 6a d8 09 be 05 83 75 3c
       0.045943554 0.024234774 -0.13461462 0.014984851
000300 48 2f ff bc a8 ad 95 3c 95 73 96 3a 87 53 be 3d
       -0.031150475 0.018271282 0.0011478538 0.09293275
000310 f3 66 24 be c3 ca 43 bd b5 04 e0 3b aa f3 d3 bd
       -0.16054897 -0.04780079 0.0068364986 -0.103492096
000320 84 40 90 3c 8d c7 3c bc bc aa c1 bd 8a 4e ef bc
       0.017608888 -0.011522186 -0.09456393 -0.029212255
000330 5b 12 5a bb e6 25 9f bd e6 f7 77 bd 88 ae 78 3d
       -0.00332751 -0.077709004 -0.06053915 0.06071332
000340 b9 dd 88 bd 7e 90 b7 bd de 55 8b bd 4f d6 88 3d
       -0.06682915 -0.089631066 -0.06803487 0.06681501
000350 9e cb 07 be e8 7b a1 bd 44 de 5b bd 52 19 85 bd
       -0.13261268 -0.07884961 -0.053678766 -0.0649897
000360 0a 86 81 3d f8 76 b6 3d ed 0f e3 3b 6b 91 7e bd
       0.06324394 0.0890941 0.0069293887 -0.0621504
000370 cf 0c a3 bd 4f 81 ac 3d 40 39 a9 bc c5 f6 c4 bd
       -0.079614274 0.08423101 -0.020657182 -0.0961738
000380 6c 4e f2 bd 26 5c 82 bd 0f 17 b0 bd 38 a7 22 bd
       -0.11831364 -0.06365232 -0.08598148 -0.039710253
000390 d7 f0 aa bd aa 27 94 bd 74 f6 ca 3d 2e 44 8d bd
       -0.08346718 -0.07234128 0.099102885 -0.0689777
0003a0 bc e0 a8 bd 63 67 54 be 68 23 0c 3d 43 86 35 be
       -0.0824599 -0.20742564 0.034213454 -0.17726998
0003b0 87 b8 9e 3d 39 c3 1c be 01 f0 90 bd 98 c5 c5 bd
       0.077500395 -0.15308847 -0.07077027 -0.09656829
0003c0 cd af c2 bd 31 8b 02 3d f0 fc fb 3c 97 38 94 3d
       -0.095061876 0.031871025 0.030760258 0.07237356
0003d0 2d 1c 0e bd 86 9e a8 bd 90 d2 f2 bc b1 4d 17 be
       -0.03469484 -0.08233361 -0.02964142 -0.1477573
0003e0 16 43 b8 bd dc a4 2e bd 0c 9d 82 bd 4f 7f 2b 3d
       -0.089971706 -0.04263769 -0.063776106 0.041869458
0003f0 50 2d f4 bd 82 94 79 bd f2 99 04 be 3d 6f 63 bd
       -0.11922705 -0.060932644 -0.1294935 -0.055526007

l2.bias f4 [300]
000000 b9 8a 1d be d0 7d 3f 3c 78 cc 5d bf 33 d3 ab bd
       -0.1538495 0.011687711 -0.8664012 -0.083898924
000010 7d 99 7e bd 49 61 a1 bd b1 9e 42 bf 7f e1 01 bb
       -0.062158097 -0.07879884 -0.76023394 -0.0019818244
000020 6e ed d7 bc 60 a5 09 be 82 43 af 39 37 74 8c bd
       -0.026358332 -0.13441992 0.00033428898 -0.06858104
000030 1e 0a cd bd da 20 a3 bd 50 af 3d bf 44 2b 00 3c
       -0.10011695 -0.0796525 -0.7409563 0.007822815
000040 c2 3d 4c bd 46 f3 01 be 30 0c 58 bd 1f c6 a9 3f
       -0.049863584 -0.12690458 -0.052745998 1.3263587
000050 c7 02 00 ba c6 b3 b0 bc c7 c6 10 be 3a 7d 11 3e
       -0.00048832264 -0.021570098 -0.14138328 0.14207926
000060 4b ab 64 bd 2c 50 e6 bc 02 60 cf bd 90 00 89 bd
       -0.05582742 -0.0281144 -0.10125734 -0.066895604
000070 df 1b d2 3e e4 9d 60 bc db b0 88 bd 23 b9 c3 bd
       0.4103689 -0.013709519 -0.066743575 -0.095567964
000080 94 77 a8 be 27 e4 63 bd 4f a9 ce be a7 13 66 bd
       -0.3290373 -0.055637505 -0.40363547 -0.056171086
000090 55 79 a7 be e1 d5 bf be 25 b9 0e be 3d cc 41 bc
       -0.32709756 -0.37467864 -0.13937815 -0.011828479
0000a0 52 ec ba bd ac 58 c3 3e 9e 21 e5 bd 8b 8d 12 bd
       -0.09127106 0.3815359 -0.111880526 -0.035779517
0000b0 ec c5 ca bd b4 45 1e bd fe 43 35 be 5a 76 09 be
       -0.09901032 -0.038640693 -0.17701718 -0.13424054
0000c0 ec 98 98 bd dd 3b 45 bf d8 4f 6d be 25 08 b6 bd
       -0.074510425 -0.7704447 -0.23174989 -0.08888272
0000d0 8b ab 84 3d ac b3 c2 be b1 fe 12 bd 16 b3 66 bd
       0.06478032 -0.38027704 -0.035887424 -0.056323133
0000e0 62 04 82 bc 90 2a ac bd 39 97 ca bf c3 b3 23 3d
       -0.01587123 -0.08406556 -1.58274 0.039966356
0000f0 fa 03 b0 bf ac 44 97 bd 4f 36 d9 3e 8d 7c 4a bd
       -1.3751214 -0.07386145 0.42424247 -0.049435187
000100 89 82 47 bd f4 c4 be 3e f0 95 4a 3c 6d 6f 2f be
       -0.048708472 0.37259638 0.012364849 -0.1713235
000110 f8 7b 1e bd 69 db c0 bf b4 89 4a bd 7d 44 ef bd
       -0.038692445 -1.5066959 -0.04944773 -0.11682985
000120 b6 22 9f bd 96 62 62 bd 55 0d 3b bc 7d 55 fb be
       -0.077702925 -0.0552698 -0.011416753 -0.4908866
000130 0c 7b 6f bd 72 95 4c 3e 16 5c f6 3b 46 95 82 bd
       -0.058466956 0.19978884 0.0075183017 -0.06376128
000140 14 48 ba bc b5 ad 9b bd a9 e8 17 be 07 0c 2f be
       -0.022739448 -0.07601491 -0.14834847 -0.17094432
000150 53 18 23 bd 76 6d b1 bc b3 25 43 bd 2d a6 86 be
       -0.03981812 -0.02165864 -0.047643375 -0.26298657
000160 a2 b3 bd 3d 0b a8 e0 bd d4 08 13 be 7a fe 3b bd
       0.09262778 -0.10969552 -0.14358836 -0.045896985
000170 2c e6 91 bf 83 02 19 b9 5d a7 09 3f 80 a9 57 3d
       -1.1398368 -0.00014592153 0.53771 0.052651882
000180 c4 4e 64 bf ba af 95 be 19 fd 09 be 04 66 d0 bd
       -0.89182687 -0.2923563 -0.13475455 -0.10175708
000190 8f d3 9b be e8 8d c6 bd f0 87 aa bd d2 ac a5 bd
       -0.30434844 -0.09695035 -0.08326709 -0.080896035
0001a0 12 ef 4a bc ff f6 55 be c2 13 8e bd 03 bc b3 be
       -0.0123861 -0.20895003 -0.06937362 -0.3510438
0001b0 f6 31 ac bd b1 2f 52 be d6 a6 89 39 26 f3 c2 bd
       -0.08407967 -0.20526005 0.0002625498 -0.09519033
0001c0 58 46 4a bd 36 7f 24 3c df 84 c6 be 9b 1f 87 bc
       -0.04938349 0.010040095 -0.38773248 -0.016494563
0001d0 39 da 2a be 33 b4 21 bd 60 e9 05 bb 4d f0 6e bd
       -0.16684808 -0.039478492 -0.0020433292 -0.058334637
0001e0 f8 dd 15 be 27 be 89 bd 31 08 5a bd 43 e2 84 be
       -0.14635456 -0.06725722 -0.05323047 -0.25953874
0001f0 b7 dc 88 be 95 7c bb bc d8 61 b2 bd 0b 97 67 be
       -0.26730892 -0.022886554 -0.087100685 -0.22616212
000200 3f a0 12 bd 6e c5 e1 bd 53 b9 b4 bd 47 bc 8c bd
       -0.035797354 -0.11023985 -0.0882441 -0.068718486
000210 29 91 64 bd 0b 20 27 bc d4 11 f0 bd f6 c7 15 c0
       -0.055802498 -0.010200511 -0.117221504 -2.3403296
000220 c7 36 42 bd 8f 64 42 bd b2 59 d8 bd 7b c5 1f bd
       -0.04741552 -0.04745918 -0.10563983 -0.03900669
000230 83 ab 88 be 13 a4 d6 bd 52 ef 90 bd 82 1f 9f bd
       -0.26693353 -0.104805134 -0.07076897 -0.077696815
000240 39 15 ff 3c c2 eb 66 bd 67 e3 18 3c 40 c9 0f bd
       0.03113805 -0.05637718 0.009331561 -0.035104036
000250 00 95 85 be 8a ad 2f 3f 98 59 aa bd cf 9f 88 bb
       -0.2609024 0.68624175 -0.0831787 -0.0041694413
000260 f6 e8 bd bc d2 ac d4 be 6f 64 b8 be 5e a9 e4 bd
       -0.023182373 -0.415381 -0.36014125 -0.11165117
000270 34 9e 66 be f2 e3 90 bd 23 ee 83 bd cd 2b ba bc
       -0.22521287 -0.07074727 -0.06441905 -0.022725964
000280 b2 71 c0 bc cf c8 ac 3b f6 32 69 be d0 77 79 bd
       -0.023491714 0.0052729617 -0.22773346 -0.060905278
000290 2d 0d 38 be a5 6a 68 bd 8d 36 d7 bd 53 6b 85 bd
       -0.17973776 -0.05674233 -0.105084516 -0.06514611
0002a0 90 5d e8 bd be ae 86 bd ae 42 ca bd 3e ab 3e be
       -0.11345971 -0.06576298 -0.098759994 -0.18620011
0002b0 a9 16 2b bf a9 71 e6 bd c6 1d 81 be 98 3a d1 bd
       -0.6683145 -0.11252148 -0.25218028 -0.10216254
0002c0 c7 78 73 bd 8f d1 c4 3e 85 2b 8f bd 89 0d cf be
       -0.059441354 0.3844113 -0.069907226 -0.40440014
0002d0 e6 a3 c3 be 42 9f 22 3c dd b1 e1 bd fc 2b 3a bd
       -0.38210982 0.009925665 -0.11020253 -0.045452103
0002e0 70 06 a2 bd 93 c4 4d be 43 aa 66 be fc ce c3 be
       -0.07911384 -0.20094518 -0.22525887 -0.38243854
0002f0 47 aa 29 bd 47 fc 9d bb 25 9b 9c bd 68 36 bc 3f
       -0.041422155 -0.0048213336 -0.07646779 1.4704103
000300 01 2e 0a 3b f7 41 56 bb a4 f0 0b bd eb 76 04 bd
       0.002108455 -0.0032693127 -0.03416504 -0.03233997
000310 89 1b c5 bd 9b 76 93 bd 39 91 51 be 2e eb f1 bf
       -0.096243925 -0.072003566 -0.20465554 -1.8899896
000320 8f 40 87 bd bc a5 86 bd 6e c9 37 3f 0e 46 15 40
       -0.066041104 -0.0657458 0.7179173 2.3324008
000330 8a 1c 26 bd 86 a4 43 3d 87 86 26 be de 17 cf bd
       -0.04055456 0.047764324 -0.16262256 -0.10111974
000340 9e c0 71 3c 66 dc a9 be 1e 98 a6 be db 5f f1 bd
       0.014755396 -0.33175963 -0.3253793 -0.11785861
000350 5c 48 03 bf 4e a9 06 bd 1d f6 37 be 9d e0 0f 3f
       -0.51282287 -0.032876305 -0.17964979 0.5620211
000360 78 24 d0 bc 19 0d c1 be 00 79 72 bd 97 9e 1b be
       -0.025408015 -0.37705305 -0.059197426 -0.15197216
000370 5d 66 89 bd ec e1 cd 3e 16 6c 17 be e2 fb a7 bd
       -0.06708977 0.40211427 -0.14787325 -0.0820234
000380 08 f3 b0 bd d9 8a 0b be 5a 84 dc bd fd 96 87 be
       -0.086401045 -0.13627185 -0.107674316 -0.26482382
000390 6b 56 da 3d 2d b1 8d bf fc 5c f1 bd 08 fa 87 bd
       0.10661014 -1.1069695 -0.117853135 -0.066394866
0003a0 d8 9b cf be 59 75 87 bd d0 54 6f be 9d a2 0e be
       -0.40548587 -0.06614179 -0.23372197 -0.1392922
0003b0 8a 39 3d bd c5 fe a4 bd 91 af b0 3f 8d 75 63 3f
       -0.04619745 -0.08056406 1.3803579 0.88851243
0003c0 28 47 ea 3e b3 59 14 bd 35 af 1f bd a8 45 b6 bd
       0.45757413 -0.036218356 -0.03898545 -0.089000046
0003d0 33 61 17 be 59 4b 6e be 27 7f 45 be 8c 43 a3 be
       -0.14783172 -0.2327093 -0.19286786 -0.31887472
0003e0 65 29 62 bd ea ca fd bd 3f 59 96 bd c6 a8 ad bd
       -0.05521526 -0.123922184 -0.07341241 -0.084794566
0003f0 6d 1b 96 bd 70 dc 46 be a0 c1 c5 bd f6 93 5f 3d
       -0.0732945 -0.19420028 -0.09656072 0.054584466

l3.weight f4 [2, 300]
000000 56 4f 46 3e dd 18 de bc a3 87 17 bf cf 37 72 3c
       0.19366202 -0.027111465 -0.5919134 0.014783814
000010 bc 15 67 3c 9b 2b ed 3c 59 14 4a bc 00 68 09 bc
       0.014104303 0.028951457 -0.012333953 -0.008386612
000020 a8 a4 21 3c f6 62 fb 3e 2a 2b a4 3c 93 e4 5d 3d
       0.009865917 0.4909894 0.020040113 0.054173063
000030 cf eb a0 3e 58 6e c0 b9 23 f2 34 bf fa 6e c0 bd
       0.31429908 -0.00036703306 -0.7068197 -0.09396167
000040 cf 46 8c bc da 2e dc 3a ea 8a 06 bd 1d fe 99 3f
       -0.017123608 0.0016798631 -0.032847323 1.2030674
000050 f7 e9 2a bc 07 78 b7 bc 74 4e d3 bb 99 5d b0 40
       -0.010431758 -0.0223961 -0.0064485613 5.5114255
000060 a4 2d 87 3c 86 e6 64 3c 98 28 a5 bc 00 a2 83 bc
       0.016501255 0.013970977 -0.020160958 -0.016068459
000070 fd 59 d2 3f 8b af 5a bc bc 00 63 bc 56 ae 08 bc
       1.6433712 -0.013347517 -0.013855156 -0.008342346
000080 6e 5a b5 3e c9 1c 4e bd 37 c4 f2 3d 7c 95 91 3b
       0.35420555 -0.05032042 0.11853831 0.0044428688
000090 90 a3 4e 3f 42 a7 20 3f 86 f9 10 3b 0d cb fe bb
       0.80718327 0.62755215 0.0022121384 -0.0077756704
0000a0 6c 99 63 3a 9d 38 0d c0 81 bf db 3e 39 b6 6c 3d
       0.00086822244 -2.2065804 0.42919543 0.05779097
0000b0 1f 0e 47 3d b8 1d 37 bd f8 21 fa bc e7 1d 21 bc
       0.04859745 -0.044706076 -0.030533776 -0.009833789
0000c0 2d 0f 58 bc e8 5a b4 3e cf 6a bf 3c d2 fb 9b 3d
       -0.013187212 0.35225606 0.02336636 0.0761639
0000d0 a4 b0 a6 3f 53 54 fa 3c db 2e c6 b9 69 3d 6a 3d
       1.3022656 0.030557787 -0.00037800413 0.05718747
0000e0 a9 ed c0 3c 31 e8 ee bc 77 a8 ee bf cd 4f 93 3f
       0.023550825 -0.029163452 -1.8645161 1.1508728
0000f0 78 4a 33 40 71 58 89 3a a3 56 09 3c da 72 19 bc
       2.8014202 0.0010478628 0.008382472 -0.009365762
000100 50 6f 9d 3c bb e2 45 be 33 15 ad bc 16 b7 fd bc
       0.019218117 -0.19324772 -0.021128273 -0.030971091
000110 c5 07 b8 bc 88 6c 2f 3f f0 58 f0 3c c4 de 72 3f
       -0.022464642 0.6852498 0.029339284 0.94871163
000120 32 92 11 bd ae 06 2b 3c 4c da 19 bd 3c 18 f7 3e
       -0.035539813 0.010438604 -0.0375617 0.48260677
000130 db d6 1e 3c ce 91 a8 be c9 1a d3 3f 14 49 5d bd
       0.00969478 -0.3292374 1.6492549 -0.05402477
000140 9d 9c b3 3c bd 12 44 bd 6d 29 12 bd 68 8c ee 3b
       0.021925265 -0.047869433 -0.035684038 0.0072799213
000150 f8 85 b7 bc 33 a1 aa bc f4 b9 14 ba c0 a9 01 3e
       -0.022402748 -0.020828819 -0.0005673461 0.1266241
000160 e0 13 dd 3f a7 47 51 bc 0c 38 3e be 44 54 b2 3b
       1.727169 -0.012773431 -0.18576068 0.005442174
000170 8b 3c d4 bf ba 2d 9f bd 9f 39 8e 3f 98 ea 86 3e
       -1.6580976 -0.077723935 1.1111335 0.26350856
000180 52 2c 0f bf 68 04 83 3f 22 9c 4e bc 49 d7 89 3c
       -0.55927 1.023572 -0.012610467 0.016826289
000190 61 9a 98 3f 0f 2c 06 3d 3b af 18 3d cb 98 5e bc
       1.1922113 0.03275686 0.037276488 -0.013586233
0001a0 4c 9d b2 bd eb 26 91 bf 1a 32 e7 3d 1d 79 70 bd
       -0.08721408 -1.1340002 0.11288853 -0.058709253
0001b0 26 46 8c 3c 8a 5d 89 3d ce 12 c3 3b c7 c5 fe 3c
       0.017123293 0.06707294 0.0059531694 0.031100167
0001c0 8e 1d b5 3b 82 b9 06 3e 4a d9 1a be 7f 8f bf bc
       0.005527205 0.13156703 -0.15121952 -0.023383854
0001d0 5a 3b 7d bc 58 8f 33 3d 44 55 c4 ba 9c 50 7e 3c
       -0.015456045 0.043837875 -0.0014979024 0.015522148
0001e0 fa 42 d7 ba 0e 7f a5 3c ce 1e 8f 3b 02 0a 1d 3e
       -0.0016423159 0.020202186 0.004367686 0.15335849
0001f0 8b ea 33 3f 1d c8 db bb f9 b9 87 bb ad d6 35 3e
       0.7027976 -0.006707205 -0.0041420427 0.17757674
000200 45 70 7e bd 9a 49 c0 3b d1 99 47 bc 4d 56 f3 3c
       -0.062118787 0.005868149 -0.012182669 0.029704237
000210 fa 15 d7 3e 46 c9 85 bc 48 d8 eb bc 5d 1e 2b 40
       0.42008954 -0.016331326 -0.028789654 2.6737282
000220 a8 92 21 3c 24 11 52 3c 59 25 c9 3d f0 84 7f 3c
       0.009861626 0.012821469 0.098215766 0.01559566
000230 fb e4 03 3e 89 88 09 3d 9b 87 e6 ba f0 10 0a bc
       0.12880318 0.033577476 -0.0017588021 -0.00842689
000240 5e c8 d0 3f 72 83 10 bd 30 c6 21 bd 53 04 8e 3c
       1.6311147 -0.035281606 -0.039495647 0.017336046
000250 25 60 0b 3f 2e 8a 98 3f ab 30 f0 3c bc 93 72 3c
       0.5444358 1.1917169 0.029320082 0.01480573
000260 36 92 8e bc 9d 52 e0 3d a2 69 45 bc 10 9b c3 bd
       -0.017403703 0.10953257 -0.012049111 -0.0955106
000270 19 9a 72 bd c2 f1 eb 3d 83 8a f1 bb c5 71 b3 bc
       -0.05922899 0.11520721 -0.007371248 -0.021904835
000280 e1 72 9a 3c 02 8b c4 bc d2 af 76 be 83 75 19 bc
       0.018853607 -0.023992065 -0.24090508 -0.009366396
000290 4e 86 fd 3e cc d7 9a 3b f5 5c b8 3e 9b ea 9e bc
       0.4951653 0.004725432 0.3600842 -0.019398978
0002a0 b7 a8 d2 3b f6 54 3a 3d cc 2e 85 3e cf f6 26 be
       0.006428804 0.04549118 0.26012266 -0.16305088
0002b0 55 e3 9b 3f a3 e9 05 3d 35 0d a1 3d e8 4e c0 3c
       1.2178751 0.032693516 0.07863847 0.023475125
0002c0 5e 9c 16 bd 5e eb 50 40 a1 3f f9 3c 0a e1 8a 3e
       -0.036770217 3.2643657 0.030425848 0.27124816
0002d0 6f f1 53 3e 6a 2e 9f 3b 98 7a 21 3c b2 ef 30 3f
       0.20697568 0.004857828 0.009855889 0.69115746
0002e0 9b 54 dd bd bb 62 e9 3f 20 da 4b bd 65 5b 40 bf
       -0.10807153 1.8233255 -0.049768567 -0.75139457
0002f0 25 1b 3b 3c b2 ad 6c bb c5 2f c5 bc b3 55 50 c0
       0.011420046 -0.0036114273 -0.02407063 -3.2552307
000300 8d 41 b2 bc 92 70 a9 3a 10 7f a2 bb 8b bc 03 bd
       -0.021759773 0.0012927225 -0.0049589947 -0.03216223
000310 16 e8 f9 bc cc 09 11 3c 8d 1e 85 3c 16 3d a3 bf
       -0.030506175 0.008852433 0.01624992 -1.2753017
000320 9c 66 88 bb a5 2c a0 bc 04 cd a3 bf c4 8e 68 c0
       -0.0041626226 -0.019552538 -1.2796941 -3.6337137
000330 31 ce ff 3c 0e 44 b6 3d a7 d2 d1 3c d3 91 41 3c
       0.03122625 0.08899699 0.025613142 0.011814552
000340 ff 92 c8 bc c2 64 2d 3d fd 02 48 be b1 a9 d1 3e
       -0.024484156 0.04233242 -0.1953239 0.40949777
000350 c2 78 c3 bf ff c4 37 bd 39 85 29 3d e4 ba 41 3f
       -1.5271227 -0.044865604 0.041386817 0.756758
000360 e0 2e 91 3b 0b 80 20 be fc e2 76 3c 80 58 1a 3d
       0.0044306368 -0.15673845 0.015068766 0.037682056
000370 1c ad a5 bc 3e 79 2d 40 e0 db d2 bd 4b a7 ac 3b
       -0.020224147 2.710525 -0.10295844 0.0052689663
000380 ca dd 31 be 79 a6 34 be b3 c7 63 3c 5a 0f 86 3f
       -0.17369762 -0.1764163 0.0139025925 1.0473435
000390 3a 29 e9 3e 4e 8a 91 40 cf 32 fa 3b 16 49 cf 3b
       0.45539266 4.548133 0.0076354514 0.006325851
0003a0 91 d3 23 3f 25 f3 f3 3c 99 3d e8 3e 29 f9 c7 3e
       0.639947 0.029779026 0.45359495 0.39057282
0003b0 ff 4f ef bc 6b ad e5 bc 5a 51 b6 ba 21 97 a9 be
       -0.02921295 -0.028036794 -0.0013909743 -0.33123115
0003c0 0c 7d 84 40 65 9e 37 3b 45 81 b6 3b 14 13 f8 3a
       4.1402645 0.0028017994 0.0055696093 0.0018926584
0003d0 c9 5c a6 bc e8 86 eb 3d ce fb ea 3f f0 e6 e5 bd
       -0.020307915 0.11500341 1.8358095 -0.112256885
0003e0 11 62 4f 3c b2 85 5d bd 86 de 5e 3d 96 d7 7e 3e
       0.012657658 -0.05408258 0.054411434 0.24886927
0003f0 2f 63 6b 3d 6c 97 f8 3e 24 82 8b 3d 53 e6 07 3f
       0.057467636 0.48553026 0.06811932 0.5308582

l3.bias f4 [2]
000000 1f 35 88 bf 9c f3 65 bf
       -1.0641211 -0.89824843
